log_reg/best_model.pth (torch, 374626 bytes, 25 tensors)

network.0.weight f4 [256, 179]
000000 c0 5b 1b 3d 02 8d 05 bc 37 b1 1d 3d 0d 21 fb bc
       0.037929296 -0.008151295 0.038499083 -0.030655408
000010 5f 37 6f 3d 89 38 2b 3d 89 55 da bc 6d 0f 92 3b
       0.058402415 0.041801963 -0.026652114 0.0044574053
000020 5a 5d 3f bd a2 cd 0d bd 33 9a 37 bd 7f 52 07 3c
       -0.046719886 -0.034619935 -0.04482479 0.008259415
000030 94 54 f9 3c 53 8d 65 3d 40 d3 00 3d 7c 71 87 bd
       0.030435838 0.05604298 0.031451464 -0.06613442
000040 ab ea 8c b8 36 87 2d 3d 80 20 4f 3d f6 e7 86 b8
       -6.7194305e-05 0.042365275 0.050568104 -6.432824e-05
000050 52 00 2a 3d c5 50 b8 3c 53 71 85 3b 42 f8 d4 3b
       0.04150421 0.022499451 0.004072347 0.006499321
000060 67 cf f3 3c f9 05 cf 3a f5 85 85 bb ba a8 90 3d
       0.029761983 0.0015794627 -0.004074807 0.07063432
000070 10 36 e6 b8 45 c1 14 bd b3 54 92 bc 63 e8 33 bd
       -0.000109773246 -0.03631713 -0.017862653 -0.043922793
000080 2b 59 87 bc 69 5d 48 3d 18 93 89 b8 4b 9d 7d 3d
       -0.01652201 0.048917208 -6.5600674e-05 0.061917584
000090 7d 94 52 3d d3 da ac bd 25 d3 0e 3d fb 47 7c bd
       0.05141114 -0.08440175 0.034869332 -0.061592083
0000a0 0f 74 7d bd 31 12 2a 3d e9 af 8c 3d 33 32 82 bd
       -0.06187826 0.041521255 0.0686949 -0.06357231
0000b0 a9 b9 b8 bc 9e 9c 27 3d f6 90 9a 3d 6e 5b 8e 3d
       -0.022549467 0.040920846 0.0754718 0.069510326
0000c0 ae c0 48 37 b9 36 44 bc b6 82 9e 3c ea a8 96 3d
       1.1965791e-05 -0.0119759375 0.019349437 0.073564366
0000d0 7e 88 1a bd 61 97 81 3c 66 28 fc bc fb 63 e1 bc
       -0.037727825 0.015819253 -0.030780982 -0.027513495
0000e0 35 a8 e0 3c 7d 0d d5 3c d6 fc a8 3d 23 d7 12 3d
       0.027423957 0.026007408 0.0825135 0.0358497
0000f0 66 da 4e 3d 38 0c 42 b6 a8 8c d7 bc e0 db 5c bd
       0.05050125 -2.8915365e-06 -0.026312187 -0.053920627
000100 3c b4 a7 b9 9a f5 2f bb 03 7b 49 bd 5f 50 a0 bd
       -0.00031987007 -0.002684927 -0.04918958 -0.078278296
000110 25 28 16 3d 10 ce 34 bd 4c 5d 0c bd 8d 4b 94 bc
       0.03665938 -0.04414183 -0.034268662 -0.018102432
000120 57 46 92 bb 6a eb 80 3d e4 47 e3 3c d0 e4 6d bd
       -0.0044639516 0.06294902 0.027744241 -0.05807954
000130 b6 5e 98 3d cf 2f 84 3a 6c 1b 79 3c 3d 34 9a bd
       0.0743994 0.0010085049 0.015204292 -0.07529495
000140 e2 d9 51 3d e0 f4 9f 3c 04 2e 68 3d e7 96 3b bd
       0.05123318 0.019525945 0.05668451 -0.04579821
000150 0b f6 0e 3d 7c a5 43 3d 10 ef 6c 3b af 78 81 bd
       0.034902614 0.04776524 0.0036153235 -0.06321847
000160 27 93 9e 3c 09 6e 2c bc ac d5 a7 bc 2c 47 81 3c
       0.019357277 -0.010524281 -0.020487629 0.015781008
000170 fb d0 c5 bb d9 72 12 bd 5f 0f 42 3d ab 60 0e ba
       -0.0060368753 -0.03575406 0.04737794 -0.0005431275
000180 a6 70 42 3d 3a e3 a9 bc 87 d1 70 bd 17 41 94 3b
       0.04747071 -0.020738233 -0.05879357 0.004524361
000190 55 56 16 3d aa 52 54 3d 49 39 81 bd d3 54 13 bd
       0.036703426 0.051836647 -0.063097544 -0.035969567
0001a0 33 5a b4 3c a8 1a 6f 3b 4a 11 74 bd 12 9a 94 bd
       0.022015667 0.0036484394 -0.0595868 -0.07255949
0001b0 01 69 86 3c 79 e4 b7 3c ee 2e 33 bd f2 77 44 3d
       0.016407492 0.022447811 -0.043745928 0.04796595
0001c0 b9 4f 49 3d 61 e7 94 3c e5 3c 32 b8 6a 16 4d bd
       0.049148295 0.018176736 -4.249522e-05 -0.050070204
0001d0 ca 70 b8 3c 49 f2 e3 bc e0 41 14 3c cf 8f 22 3d
       0.02251472 -0.027825492 0.009048909 0.039687928
0001e0 de 70 b6 bc a4 ba 8e bd b9 3b 8d 3a 38 1d 5f 3d
       -0.022270616 -0.069691926 0.0010775245 0.054471225
0001f0 eb bb 68 bd d6 95 73 bc 8a 17 89 bc eb 0e 23 3d
       -0.056819838 -0.014867267 -0.016734857 0.03980915
000200 01 0a ad bc 9d d2 e3 3c 0b b1 3f bd 9d c1 7c 3d
       -0.021122934 0.02781039 -0.0467997 0.06170808
000210 65 db a0 bb 68 10 ea bb a7 ea 9c bd c4 a9 8c b9
       -0.0049089664 -0.007143069 -0.07661944 -0.00026829366
000220 a1 f7 29 bd 41 de 1a 38 dc cf 80 38 99 22 2f bc
       -0.041495923 3.692345e-05 6.1422325e-05 -0.010689401
000230 2e e4 38 bd 4b f2 5b bc 6a 66 97 ba a9 29 0c 3d
       -0.045139484 -0.013424466 -0.0011550908 0.034219418
000240 c7 36 91 3d 54 7b b8 bc 96 5d 90 3d e5 cd 5c 3d
       0.07090526 -0.022519745 0.070491 0.053907294
000250 5c fc 5c bd 2b 9d a8 3c f1 ff fb bc 27 7f 82 bd
       -0.053951606 0.020582756 -0.03076169 -0.06371909
000260 43 d7 d2 bc 1f 31 6e 3c 48 48 54 3d 5b d6 56 bd
       -0.02573741 0.014538079 0.051826745 -0.05245052
000270 a5 13 a5 3d 0c 1f 11 bd 59 7f 81 bd cb e0 47 3c
       0.080603875 -0.03543 -0.06323118 0.012199591
000280 45 68 42 3c ed 16 e6 bb 34 bd 00 bd a1 cd 7c 3b
       0.01186568 -0.007021776 -0.03143044 0.0038574713
000290 f0 99 87 3c df 39 f4 bc 7e 18 6d 39 c0 7a 8e 3c
       0.016552895 -0.029812751 0.00022611205 0.017392516
0002a0 1d 71 11 3d c2 b4 80 bd 77 c7 5e 3d d0 94 24 3d
       0.035508264 -0.06284477 0.054389443 0.04018098
0002b0 fb fd 26 bd 3a da 23 bd 78 c4 f7 3a fe db 09 3d
       -0.04076956 -0.04000304 0.0018903157 0.033657067
0002c0 69 9c 8c bc 95 c6 1d 3d be 14 82 3d dc 45 f1 3b
       -0.017164426 0.03851946 0.063516125 0.007363064
0002d0 d9 bf c2 3c a3 b3 71 3c 9d 73 2d 3d a4 76 6a bc
       0.02377312 0.014752301 0.042346586 -0.014310513
0002e0 c2 51 89 bb 9c 47 f6 3c c2 80 6f 3c e6 cd 2e 3d
       -0.0041906545 0.030063443 0.014618101 0.04267683
0002f0 72 ed ca 3b 6a 4f 7e 3d 0c 92 af bc c1 e4 a9 3c
       0.0061928565 0.062087454 -0.021431945 0.020738961
000300 1b 08 25 bd f8 4d ed 3c b6 df 3a 3d dc 7a 50 39
       -0.040290933 0.028967842 0.045623504 0.00019882194
000310 f4 78 6e bd dc ad 00 bd 5c 0b ba 37 77 bd b8 bb
       -0.05822082 -0.031415805 2.2178217e-05 -0.0056378203
000320 10 c0 51 bd e4 6d 1e 39 c0 2a 30 bc 8c c9 8d bd
       -0.051208556 0.00015108992 -0.01075238 -0.06923208
000330 53 ed 65 bc 6d a0 85 bd 5f 04 20 bd 4a fc 2d 38
       -0.014033633 -0.065247394 -0.03906667 4.1481377e-05
000340 de 84 5f 3d 5f 8a 31 bd 5c 01 ec bc 3c 9c 88 bc
       0.05457007 -0.04334485 -0.028809242 -0.01667606
000350 ae d8 28 bd c2 57 d3 bc 23 48 61 3b 7e 9e bb bd
       -0.041222267 -0.025798682 0.0034375272 -0.09161089
000360 f5 21 96 bd 86 31 4e bd ae 57 cd 3c fd f9 ee 3c
       -0.073306955 -0.050340198 0.025066223 0.029171938
000370 38 af c2 bc 55 5e 8d 3d 8c 7d 12 bd a4 96 70 bd
       -0.023765191 0.06902758 -0.035764262 -0.058737412
000380 1c 29 f2 3c 92 09 df bc 3d 7c 5d bb ff 82 81 b9
       0.029560618 -0.027226243 -0.0033795976 -0.00024702397
000390 ec a0 40 bd cd 65 78 bb 98 06 0e bd d3 c5 90 3d
       -0.047028467 -0.0037902475 -0.034674257 0.07068982
0003a0 31 fc e2 3c 5d 63 26 bd 62 13 76 3c 98 c2 8c 3d
       0.027708145 -0.040622104 0.01501927 0.06873053
0003b0 38 e4 07 ba 3c 70 1c 3d 01 05 b3 3c a3 7d ab b9
       -0.00051838486 0.038192973 0.021852972 -0.00032709268
0003c0 7c 59 83 b8 a5 0e 0a b9 80 39 40 3d ae f8 35 b7
       -6.2632345e-05 -0.00013166161 0.046929836 -1.0846341e-05
0003d0 69 db ac bc 3e 48 76 bd 85 b3 cb bc 3b db 29 bb
       -0.021100717 -0.06012749 -0.024865875 -0.0025918025
0003e0 ef 14 56 bd b4 c7 e8 3c 28 d9 97 3d f8 dd 82 3c
       -0.052266058 0.028415538 0.07414466 0.015974984
0003f0 57 77 30 3c 2f ba b7 bc fa 3b a8 3c 2e b9 cf bc
       0.01077064 -0.022427646 0.020536412 -0.025356855

network.0.bias f4 [256]
000000 4a f8 39 37 f8 44 ef b8 2a 9d 81 38 35 c7 95 b7
       1.1084669e-05 -0.000114092545 6.1804734e-05 -1.7854947e-05
000010 50 b4 fd b8 ce c0 3d b8 5e 23 29 ba b1 12 0d bb
       -0.00012097566 -4.5240675e-05 -0.00064521085 -0.0021526034
000020 59 71 3e b6 6c d1 0c b8 f3 fe 6a b8 f0 7d c7 38
       -2.8378183e-06 -3.357364e-05 -5.6027387e-05 9.512517e-05
000030 19 b6 d7 b8 c3 18 af 39 b9 fc 08 3b 1a e2 82 39
       -0.00010285917 0.0003339705 0.0020902588 0.0002496399
000040 fe ed 5f bb f6 82 fa ba cb 8a 35 b8 d2 29 9a b9
       -0.0034168954 -0.0019112516 -4.3283024e-05 -0.00029404328
000050 ec b9 56 3b db 0b 58 39 8c c7 05 ba 56 b1 55 39
       0.0032764627 0.00020603782 -0.0005103282 0.00020379326
000060 45 3d aa 39 4c 18 f6 b9 52 f0 f7 37 44 d6 0e b7
       0.00032470576 -0.0004693888 2.9556602e-05 -8.513747e-06
000070 7d 35 85 b9 16 ef b7 37 56 16 9d 39 80 18 14 38
       -0.0002540759 2.1926633e-05 0.00029962015 3.5308767e-05
000080 74 c8 66 b9 13 bd df 36 0c ba 95 38 cc dc d0 38
       -0.00022009184 6.667929e-06 7.1395276e-05 9.9593395e-05
000090 98 12 8b bb 0c 5d 74 b7 d2 37 d9 38 96 a0 12 b9
       -0.00424416 -1.45651975e-05 0.00010357764 -0.00013983468
0000a0 56 f0 a7 b9 c2 e7 3b b7 63 ee 5b b8 5b da 96 3b
       -0.00032031786 -1.1200029e-05 -5.2435684e-05 0.0046036667
0000b0 57 c3 7d 38 db 83 51 39 54 4d ac 39 12 4a 68 3b
       6.0501825e-05 0.00019980913 0.0003286401 0.003544454
0000c0 fa 48 37 38 93 19 31 38 95 cb 0c 39 96 a2 02 b9
       4.3698565e-05 4.2223906e-05 0.0001342728 -0.00012458334
0000d0 18 2d 94 ba fb e5 65 b9 18 6d 6b b6 41 83 78 38
       -0.0011304943 -0.00021924816 -3.508123e-06 5.9250047e-05
0000e0 28 8b cd b7 d7 3d f7 39 67 a4 ca 3a 47 33 1e 37
       -2.4502704e-05 0.00047157586 0.0015460373 9.429473e-06
0000f0 c3 32 a3 3a 51 89 aa 39 2e b7 10 b9 4e 04 c7 b6
       0.0012451041 0.00032527235 -0.0001380115 -5.9311633e-06
000100 5e bb 95 bb 38 98 00 3b 34 f6 1a ba a3 e7 e5 37
       -0.004569455 0.001962198 -0.0005911321 2.7406792e-05
000110 7d bb 03 b9 df a6 53 38 b6 24 04 38 39 c7 87 38
       -0.00012562978 5.046173e-05 3.1505442e-05 6.47441e-05
000120 34 0a a4 b9 4f 97 84 39 3d 6f 80 37 52 83 c5 ba
       -0.0003128812 0.00025289736 1.5310588e-05 -0.0015069044
000130 ac 15 80 bb a8 b5 5c bb 9a cc 58 37 f4 e7 17 39
       -0.0039088335 -0.0033677612 1.2922241e-05 0.00014486891
000140 7c 14 63 b9 15 ac 92 b7 d9 19 bf 36 c5 c2 00 b9
       -0.00021656038 -1.7484688e-05 5.6952526e-06 -0.00012279589
000150 8f 02 36 ba 0c 7d d4 38 6c 2a b1 b9 07 f5 4c b9
       -0.000694313 0.000101322395 -0.00033791678 -0.00019546236
000160 c8 95 1f b8 42 36 70 b7 c7 c7 8c 39 7a 88 44 38
       -3.804805e-05 -1.4317748e-05 0.00026851727 4.6857145e-05
000170 28 a4 64 bb 01 61 77 3b ea 03 2d 37 5e f4 a2 b7
       -0.0034887884 0.0037747028 1.0312515e-05 -1.9425697e-05
000180 63 e5 88 38 5f 16 a9 b8 e0 c9 26 b7 0d 64 ae 39
       6.527712e-05 -8.062715e-05 -9.941374e-06 0.0003326241
000190 89 fa b0 36 c6 4d c2 38 3b e5 94 b9 02 a2 be 37
       5.274375e-06 9.265127e-05 -0.0002839955 2.2725206e-05
0001a0 51 04 9a 38 95 6b fc ba ff 1d b6 3a 61 40 0e 38
       7.344096e-05 -0.0019258136 0.0013894438 3.3915396e-05
0001b0 5a c0 84 37 ca 12 29 b6 fe ef 56 39 9e aa 81 3b
       1.5825197e-05 -2.51939e-06 0.00020498034 0.0039571067
0001c0 fe 94 6f 38 50 d8 9a 3b 61 33 a5 39 16 c9 07 ba
       5.71208e-05 0.0047254935 0.00031509533 -0.00051798054
0001d0 e3 37 ab b9 58 88 b8 37 f7 c7 08 b9 6c fe b5 39
       -0.000326573 2.1998e-05 -0.00013044463 0.0003471257
0001e0 a3 98 b7 38 34 2a d9 ba e0 5b 13 b8 b5 d6 ee 38
       8.754551e-05 -0.0016568364 -3.5133096e-05 0.00011388717
0001f0 df 40 2b 38 81 73 c8 36 c7 4d da 3a a7 cb 03 3b
       4.0829993e-05 5.973911e-06 0.001665526 0.00201104
000200 fa 6e a8 b9 13 56 ed 38 84 bd 73 b7 75 51 a0 3b
       -0.0003212614 0.00011317073 -1.4528054e-05 0.004892523
000210 1b df 8d 38 4e 6f ac b9 7f 31 8c 39 49 bf a4 b9
       6.7649606e-05 -0.00032889325 0.00026739758 -0.00031423036
000220 23 20 ad b9 d5 65 65 39 dc e3 81 b7 ea 3e 85 b8
       -0.00033021075 0.00021877077 -1.5484104e-05 -6.353653e-05
000230 3d 11 cb 3a 82 52 59 38 6c 83 88 39 59 49 21 39
       0.0015492808 5.1813673e-05 0.00026037858 0.0001538148
000240 94 96 7b 39 00 44 ee b8 68 6d 08 b7 d2 e4 1c 38
       0.0002399332 -0.0001136139 -8.131705e-06 3.7406404e-05
000250 52 35 54 37 2e 6a a7 39 de ae 63 b8 6a 55 7d b9
       1.2648599e-05 0.00031931832 -5.4283875e-05 -0.0002415978
000260 e4 ad 28 ba 7e 2f 0f 39 a5 69 cb b7 af 9c e3 38
       -0.0006434603 0.00013655235 -2.424868e-05 0.00010853388
000270 10 1b 71 3b 2f 8b 95 bb 12 11 4a b8 5e 00 ad b9
       0.0036789812 -0.004563711 -4.817645e-05 -0.00032997405
000280 aa 40 ad b9 6f 05 69 b8 b2 9c fb 36 de 2f f3 b6
       -0.0003304531 -5.555659e-05 7.4986247e-06 -7.247537e-06
000290 5b e6 86 ba 99 b7 0d bb ae 38 b3 37 8a 08 94 3b
       -0.001029204 -0.0021624325 2.1364856e-05 0.0045176195
0002a0 ff 37 8e 37 1e ba 0c 3b 29 bd 1c 38 66 d9 0a 39
       1.6953794e-05 0.002147324 3.7369467e-05 0.00013241693
0002b0 7c 4b af b7 76 5d c1 ba 5b be b6 b7 62 1c f5 36
       -2.0896776e-05 -0.0014752585 -2.1784732e-05 7.304873e-06
0002c0 c4 46 42 38 fb f5 23 bb 19 8c ac 39 1c 8c 61 3b
       4.631911e-05 -0.0025018442 0.00032910777 0.0034415787
0002d0 6e b0 3a 3a 0f 49 1a bb 5b 23 7f 3b 9f db 1f b9
       0.0007121627 -0.0023542081 0.0038930986 -0.00015245237
0002e0 58 6f 3a b8 67 64 8d 38 19 81 82 b9 e2 6c 03 39
       -4.4449553e-05 6.742105e-05 -0.00024891717 0.00012533696
0002f0 f2 aa fd 38 d7 0c 07 b8 2f 87 bb b7 de b9 86 38
       0.00012095821 -3.2198466e-05 -2.2355087e-05 6.4242384e-05
000300 bf 62 f2 ba 1b 4b d4 b8 64 fb 13 37 91 3a 50 39
       -0.0018492563 -0.00010122937 8.820414e-06 0.00019858243
000310 df ba 4d 38 c0 43 21 b9 9d b8 7d 36 08 80 94 b8
       4.9049846e-05 -0.00015379395 3.7807397e-06 -7.0810376e-05
000320 e1 9a 85 b8 fc 0c 88 b6 de 8a 64 38 ac 63 a3 3a
       -6.370783e-05 -4.0546274e-06 5.4488766e-05 0.0012465618
000330 71 c5 34 b8 e9 60 06 39 16 89 28 b8 5e 26 2e b6
       -4.3099226e-05 0.00012815338 -4.0181993e-05 -2.5950353e-06
000340 cb a7 46 b8 5a 47 3e b9 89 af 1d b8 b1 c9 80 b7
       -4.7363148e-05 -0.00018146393 -3.7595197e-05 -1.5352709e-05
000350 1c 9e 20 b6 c2 e8 6a 37 60 10 0c 3b 02 aa c2 36
       -2.393389e-06 1.400168e-05 0.0021372065 5.801442e-06
000360 05 d9 f6 b7 d4 de 67 ba 4d a4 ee 38 e6 55 34 b8
       -2.9426543e-05 -0.00088451547 0.00011379328 -4.2995343e-05
000370 5a 50 b0 b9 b2 6e f4 b7 3f 75 8c 39 26 d6 89 3b
       -0.00033629203 -2.9138613e-05 0.00026790236 0.0042064367
000380 c9 b8 8a bb 80 2e 92 39 06 f5 ab ba dd 7a 3d 3b
       -0.004233454 0.00027881935 -0.0013119287 0.0028912344
000390 63 7c b3 37 4f c9 8b b7 45 f4 99 ba 16 ac 8a b8
       2.1396385e-05 -1.6663833e-05 -0.0011745772 -6.612406e-05
0003a0 91 07 41 3b 60 50 aa b8 7d 82 99 38 28 07 a7 39
       0.0029453973 -8.121203e-05 7.319914e-05 0.00031858054
0003b0 da 6c 22 39 32 79 23 38 fe 34 0f ba 4d 94 48 37
       0.00015490074 3.89751e-05 -0.00054629135 1.1955458e-05
0003c0 be c3 68 3a 92 fd 1f 39 a8 d2 43 b9 0a 3f 8d b9
       0.00088792655 0.00015257884 -0.00018675125 -0.00026940583
0003d0 88 fb 10 b6 1a 60 a5 39 87 c8 31 37 d9 28 a5 ba
       -2.1604083e-06 0.00031542854 1.0596711e-05 -0.0012600675
0003e0 4c e0 96 b8 b9 7e dd b7 5c 24 fa 36 d7 a9 9b 39
       -7.194336e-05 -2.6404263e-05 7.4548134e-06 0.00029690444
0003f0 b0 5d a3 39 6f 08 a2 37 1a 05 1f b9 a8 0d 3e 38
       0.00031159585 1.9315832e-05 -0.00015165322 4.531225e-05

network.1.weight f4 [256]
000000 2d 63 7c 3f 84 70 7d 3f b7 8e 7f 3f f6 9b 76 3f
       0.9858883 0.9899981 0.9982714 0.9633173
000010 de 42 7a 3f f3 f5 80 3f df b7 7d 3f d7 9f 7c 3f
       0.9775828 1.0075058 0.9910869 0.98681396
000020 4c 4f 7d 3f cc 67 83 3f bd a0 80 3f bd 06 7d 3f
       0.9894912 1.0266051 1.0049053 0.98838407
000030 d2 6b 80 3f df cd 7f 3f c0 5e 7f 3f 41 30 82 3f
       1.0032904 0.9992351 0.9975395 1.0170976
000040 04 25 7f 3f b1 b0 83 3f 66 c7 7b 3f b1 47 81 3f
       0.99665856 1.0288297 0.9835113 1.0100003
000050 18 b2 80 3f 0c 5f 7b 3f a4 b2 7c 3f f0 19 7d 3f
       1.005435 0.98191905 0.98710084 0.988677
000060 59 5b 80 3f 5c 3f 81 3f 8f a0 7c 3f 59 f1 7e 3f
       1.0027877 1.0097461 0.9868249 0.9958702
000070 1d 85 81 3f e4 ac 82 3f a5 49 81 3f a4 9e 82 3f
       1.0118748 1.0209012 1.01006 1.0204663
000080 e8 bc 7d 3f 13 43 81 3f fa cd 7d 3f 45 47 80 3f
       0.99116373 1.0098594 0.9914242 1.002175
000090 d6 db 7b 3f 03 22 7e 3f 8b 63 80 3f c6 eb 85 3f
       0.9838232 0.9927065 1.0030378 1.0462577
0000a0 c0 6d 79 3f 4b 2e 7d 3f 74 74 82 3f 42 7e 7b 3f
       0.9743309 0.9889876 1.0191789 0.9823953
0000b0 3f 88 7b 3f 5f b2 7f 3f 4a 09 7f 3f a0 b4 7b 3f
       0.9825477 0.9988155 0.9962355 0.98322487
0000c0 aa aa 81 3f c6 58 7b 3f cb bc 80 3f 15 c0 7e 3f
       1.0130208 0.9818233 1.0057615 0.99511844
0000d0 cd db 80 3f 94 60 7e 3f 35 98 81 3f bc ea 7f 3f
       1.0067078 0.99366117 1.0124575 0.9996755
0000e0 9e eb 81 3f 48 bf 7e 3f 7a 4e 7f 3f 49 6e 7e 3f
       1.015003 0.9951062 0.9972912 0.9938703
0000f0 f6 76 7f 3f 9f 0e 84 3f cf 07 80 3f b0 97 7c 3f
       0.99790895 1.0316962 1.0002383 0.98668957
000100 bf 91 81 3f 6b 55 7c 3f 78 18 7f 3f 36 f0 7f 3f
       1.0122603 0.9856784 0.9964671 0.9997591
000110 17 4d 7e 3f 83 e5 80 3f 26 0f 7d 3f 91 3c 7d 3f
       0.9933638 1.0070041 0.9885124 0.9892054
000120 f4 55 7e 3f e6 51 82 3f f1 43 7c 3f 8b 53 82 3f
       0.99349904 1.0181243 0.9854117 1.0181745
000130 cd 7b 7e 3f 4f f8 80 3f 16 e6 81 3f 80 a0 81 3f
       0.99407655 1.0075778 1.0148342 1.0127106
000140 be d3 78 3f e4 e1 7c 3f e6 72 83 3f 1a 43 80 3f
       0.9719809 0.9878218 1.0269439 1.0020478
000150 69 4a 7c 3f 53 5a 7b 3f 57 57 80 3f 5c 13 82 3f
       0.9855104 0.981847 1.0026654 1.0162158
000160 2f ea 7b 3f 67 64 7c 3f 4e f3 7d 3f c9 17 7c 3f
       0.9840421 0.985907 0.9919938 0.98473793
000170 04 20 80 3f 79 4d 80 3f 91 17 7a 3f 75 6b 80 3f
       1.000977 1.0023643 0.9769221 1.0032793
000180 94 a2 7a 3f ca 0a 7f 3f b8 ce 80 3f e2 67 80 3f
       0.97904325 0.9962584 1.0063086 1.0031703
000190 7d 40 81 3f 66 2c 80 3f 29 d8 79 3f 6c 4d 81 3f
       1.0097805 1.0013549 0.9759546 1.0101752
0001a0 75 81 81 3f 58 97 7b 3f 05 14 7c 3f f7 a1 7d 3f
       1.0117632 0.9827781 0.9846805 0.99075264
0001b0 60 51 7a 3f e4 2b 81 3f 14 58 80 3f e4 60 82 3f
       0.9778042 1.0091519 1.0026879 1.0185819
0001c0 a4 8d 80 3f 09 18 81 3f a5 d2 7f 3f b5 16 81 3f
       1.0043225 1.008546 0.99930793 1.0085055
0001d0 e8 8e 81 3f be 37 7f 3f 4b bd 7b 3f 56 31 81 3f
       1.0121737 0.9969443 0.98335713 1.0093181
0001e0 74 6b 7e 3f 04 fe 81 3f 8b 2d 7d 3f 28 59 80 3f
       0.9938271 1.0155644 0.9889762 1.0027208
0001f0 ba f4 80 3f 56 90 7c 3f bd 35 7d 3f 3e e2 85 3f
       1.0074685 0.9865774 0.98910123 1.0459669
000200 17 34 7f 3f e9 70 80 3f d1 7c 7e 3f 9a 12 83 3f
       0.9968886 1.0034457 0.99409205 1.0240052
000210 8f 99 80 3f fa ac 7f 3f 94 2e 81 3f 2d ca 7f 3f
       1.0046862 0.99873316 1.009234 0.9991787
000220 53 5a 7e 3f 6c 44 7d 3f 69 22 7d 3f f5 ab 82 3f
       0.99356574 0.9893253 0.9888063 1.0208727
000230 ec 03 81 3f 39 99 7c 3f 5b 6d 80 3f ad c5 80 3f
       1.0079322 0.986713 1.0033373 1.0060326
000240 85 96 7b 3f 2a 04 81 3f 7b 52 7d 3f bc 24 7c 3f
       0.9827655 1.0079396 0.9895398 0.9849355
000250 0a 50 7d 3f 5c be 80 3f c2 4a 75 3f e7 4d 81 3f
       0.98950255 1.0058093 0.95817196 1.0101899
000260 2c 59 7a 3f c9 b0 7d 3f b9 84 7c 3f 1e 1b 7c 3f
       0.97792315 0.9909788 0.9864002 0.9847888
000270 0e 8c 7a 3f 74 d7 82 3f fd 7d 7f 3f 6f eb 80 3f
       0.97869956 1.0222001 0.9980162 1.0071849
000280 84 cd 7d 3f 61 a6 80 3f 11 26 81 3f 0a ff 7f 3f
       0.99141717 1.0050775 1.0089742 0.99998534
000290 fd 30 80 3f 67 4d 80 3f 6d 1b 78 3f 64 9f 7c 3f
       1.001495 1.0023621 0.9691685 0.9868071
0002a0 a6 7c 7d 3f a4 9e 7c 3f ac 0b 7d 3f 29 22 81 3f
       0.99018323 0.98679566 0.98845935 1.008855
0002b0 fe 28 7d 3f 8a 29 7e 3f f3 8a 85 3f ae e4 81 3f
       0.98890674 0.99282134 1.0433029 1.0147913
0002c0 ad b4 7d 3f c1 91 7c 3f 51 73 83 3f 91 95 80 3f
       0.99103814 0.986599 1.0269567 1.0045644
0002d0 17 80 81 3f f7 08 7f 3f 48 40 7e 3f 61 77 7e 3f
       1.0117215 0.99623054 0.99316835 0.9940091
0002e0 67 90 7a 3f 2d c0 7d 3f b0 85 7a 3f 00 b9 7f 3f
       0.9787659 0.9912136 0.9786024 0.9989166
0002f0 ce c9 7a 3f 8e 53 80 3f b5 28 7e 3f 80 cf 81 3f
       0.9796418 1.0025499 0.99280864 1.0141449
000300 3c 31 80 3f c9 3e 80 3f c5 67 80 3f c6 00 84 3f
       1.0015025 1.001916 1.0031668 1.0312736
000310 5c 00 7f 3f d7 af 82 3f 9d 86 7f 3f ea 45 7b 3f
       0.99609923 1.0209912 0.9981478 0.98153555
000320 62 21 7d 3f 3e ef 7f 3f 65 eb 7c 3f e0 4f 7d 3f
       0.98879063 0.9997443 0.98796684 0.98950005
000330 26 37 80 3f ce ff 7e 3f ca 4f 80 3f 82 37 83 3f
       1.001683 0.99609077 1.002435 1.0251315
000340 ff 6e 7a 3f 22 a7 7b 3f af 0e 83 3f a3 88 7f 3f
       0.97825617 0.983019 1.0238856 0.99817866
000350 9c 85 7e 3f f8 31 7a 3f 34 8f 80 3f ad 71 83 3f
       0.9942262 0.97732496 1.0043702 1.0269066
000360 80 60 80 3f 46 8c 81 3f c1 1a 80 3f af b9 7c 3f
       1.002945 1.0120933 1.0008165 0.9872083
000370 e6 37 82 3f 04 56 7e 3f 22 83 7b 3f ab 2d 82 3f
       1.0173309 0.9935 0.9824697 1.0170187
000380 7e 28 7e 3f cb e6 7d 3f e5 8e 7d 3f 8b 54 7d 3f
       0.99280536 0.9918029 0.99046165 0.9895713
000390 ae fb 7b 3f cd 92 7d 3f 53 f1 80 3f 9b f2 80 3f
       0.9843091 0.99052125 1.0073646 1.0074037
0003a0 c7 a1 80 3f c0 eb 82 3f 7f f6 79 3f f0 2a 81 3f
       1.004937 1.0228195 0.9764175 1.0091228
0003b0 29 e9 7e 3f 57 d8 7e 3f 0a af 80 3f 12 84 80 3f
       0.99574524 0.9954886 1.0053418 1.0040305
0003c0 f4 f8 7b 3f 8c bd 80 3f 2c 5a 7a 3f dd b3 7d 3f
       0.9842675 1.0057845 0.9779384 0.99102575
0003d0 88 19 7b 3f 74 58 7d 3f 81 3b 7e 3f c9 b6 80 3f
       0.9808583 0.98963094 0.99309546 1.0055782
0003e0 a7 7c 82 3f 26 c8 81 3f 03 d3 7e 3f 4d c4 7d 3f
       1.0194291 1.0139205 0.9954073 0.99127656
0003f0 31 ed 81 3f 3f 2e 7f 3f 91 76 82 3f a8 c6 7d 3f
       1.015051 0.9967994 1.0192434 0.9913125

network.1.bias f4 [256]
000000 0e 4c 1d bc 0d 95 18 bb 4e e3 d0 bb 10 51 f9 bc
       -0.009600652 -0.00232822 -0.006374753 -0.030434161
000010 71 a9 c4 bb 37 ce 32 3b 4c 0f da bb 06 1e 0a 3c
       -0.0060016443 0.0027283558 -0.0066546556 0.00843001
000020 b2 88 b0 bb e6 61 9c 3c f0 bd 2f 3c ad a1 96 bc
       -0.005387389 0.01908965 0.010726437 -0.01838764
000030 b0 5c 87 3b f2 41 b9 3b 7d 2c e0 3b fa 7d f6 3b
       0.0041309223 0.0056536132 0.006841241 0.007522342
000040 e6 91 cc bb 8c e2 b3 3c 41 c1 36 bc 70 2b 32 3c
       -0.0062429784 0.021958612 -0.011154474 0.010874614
000050 fd 15 fc 3b fd 76 85 bc 57 5f 98 bc bb aa 64 3c
       0.007693051 -0.01629209 -0.01860015 0.013956721
000060 7c f0 ce 3a 8f e9 3d 3c 68 5b 92 bc 9f 78 0c 3b
       0.0015788223 0.011591329 -0.017865852 0.00214342
000070 a4 cc 84 3b 89 5f 02 3c eb d2 4c 3b b4 bc 83 3c
       0.0040527154 0.007957348 0.0031253647 0.016081192
000080 ec f9 aa bb a5 be 66 3c 93 4e a0 bc 32 be 9d 3b
       -0.0052177813 0.014083539 -0.019568717 0.004813933
000090 e7 b8 3d bc 4d 6d 7b 3c 69 31 5e bb fc f3 e4 3c
       -0.011579729 0.015345884 -0.0033903962 0.027948372
0000a0 c8 83 ce bc 35 b9 85 bc ec ee 19 3c 0b 50 f7 bc
       -0.025209323 -0.016323665 0.009395342 -0.030189535
0000b0 65 3e 67 bc 07 44 bf 3a 98 f6 72 bb 4f ed 40 bc
       -0.014113997 0.0014592417 -0.003707325 -0.011775329
0000c0 4b d4 38 3c 39 62 5e bc 4a b2 e0 3b e6 11 f0 bb
       0.011281083 -0.013573223 0.006857191 -0.0073263524
0000d0 ed bb 05 bc ac f9 bc bb 33 f7 6a bb 6e 26 2a bc
       -0.008162481 -0.005767068 -0.0035852909 -0.010385139
0000e0 3f aa 84 3c 69 bb a4 bb b1 99 72 bc af 01 98 bb
       0.01619446 -0.005027224 -0.014807151 -0.0046388726
0000f0 94 48 17 3c 85 0d 2e 3d 50 bd 8d ba 1a 64 69 bb
       0.009233613 0.042493362 -0.0010813866 -0.0035612644
000100 fa 1b e4 3c fc 41 3d bc 28 7d 9e bc e3 2e 22 bb
       0.027845372 -0.011551376 -0.019346789 -0.0024747185
000110 c6 30 12 3b 90 04 1c 37 52 7e 8e ba d7 72 f8 ba
       0.0022306903 9.299387e-06 -0.0010871387 -0.0018955123
000120 32 7e d3 3a 37 66 d0 3b 77 5c b2 bc 64 7b 82 3c
       0.0016135632 0.006359841 -0.021772606 0.015927978
000130 6d 79 e8 3a c2 da c3 3a 11 b5 08 3c 89 ad 1d 3c
       0.0017736383 0.0014942514 0.008343951 0.009623894
000140 66 a5 ce bc 7b 14 27 bc d6 a1 94 3c 71 3e 81 bb
       -0.025225352 -0.010197754 0.018143576 -0.003944211
000150 97 bb 8f bb a5 1d 7d bc 77 92 47 ba 04 c3 86 3c
       -0.004386376 -0.015448962 -0.00076130725 0.016450413
000160 c8 7e 37 bc 6c 77 bb bb c0 92 3b bb 79 33 6d bc
       -0.011199661 -0.0057210233 -0.0028621405 -0.014477604
000170 01 30 11 3c 5f 41 7b bc 65 58 93 bc 91 fb a1 bb
       0.008861543 -0.01533541 -0.017986486 -0.004943319
000180 6f 27 b2 bb 1d ab 96 bb 4c 1f cc 3b c2 ba 44 3c
       -0.0054368298 -0.004598035 0.006229317 0.012007417
000190 dc d3 ee 3a 61 ec 03 3c 7e 71 6c bc 44 14 f1 bb
       0.0018221098 0.008051963 -0.0144313555 -0.007357152
0001a0 1c 50 90 bb 45 5e 34 3c ea 2d cd 3a 50 18 7e bb
       -0.004404081 0.011008804 0.0015653942 -0.0038771816
0001b0 a0 34 b8 37 f6 f0 9f 3c 7a 53 24 bc dd 72 39 3c
       2.1959015e-05 0.019524079 -0.010029668 0.011318889
0001c0 d5 9b 1b 3c 51 50 5c 3c 70 6c 7d 3c 34 31 e8 3b
       0.0094976025 0.013446883 0.015467748 0.0070859436
0001d0 7e c4 e2 3c 8a da d5 3b 0b 9e 8c bc a4 90 ec 3b
       0.027681585 0.006526296 -0.017165205 0.007219391
0001e0 64 52 3b bc ac a2 00 3c 8c c2 fe bb 78 c2 81 3c
       -0.011433218 0.007851284 -0.0077746566 0.0158398
0001f0 f9 cf 5b 3c fe e0 4d bc ce 23 94 bc 7d 71 15 3d
       0.013416284 -0.012565849 -0.01808348 0.036485184
000200 69 a4 db bb 42 8e 2a 3b 65 0a 61 bc 9c c7 b6 3c
       -0.006702949 0.0026024734 -0.013735388 0.022311978
000210 05 f9 97 3c 10 4a 79 bc 23 f3 1d 3c f6 0f 8f ba
       0.018551359 -0.015215412 0.009640488 -0.0010914791
000220 0b 12 c3 bb ba 2b a9 b9 40 a4 be bb bf 97 80 3c
       -0.0059530786 -0.0003226677 -0.00581792 0.015697358
000230 6e 5d 14 ba fa 8a f4 bb 22 33 52 bb b2 2f ea 3b
       -0.0005659674 -0.0074628564 -0.0032073935 0.007146799
000240 d6 96 2a bc db b1 59 bb 65 85 81 bc e5 ac 99 bc
       -0.010411939 -0.0033217582 -0.015810678 -0.0187592
000250 2b 1c 85 3b a3 60 de 3b e1 42 cd bc e2 d3 91 3c
       0.004062196 0.0067864223 -0.025056304 0.017801229
000260 c1 fc bd bc c3 10 0c 3b 41 95 69 bc 9c 1e 17 bc
       -0.023191812 0.0021372295 -0.014256776 -0.009223606
000270 51 56 d6 b9 63 4e 8d 3c 90 11 a0 bc e1 ad 9e 3c
       -0.00040881571 0.017249292 -0.019539624 0.019370021
000280 9e ed cd 3b 01 b9 3e 3c 2b d2 13 ba 1a e3 8b bb
       0.0062844297 0.011640788 -0.00056389224 -0.004269016
000290 29 7b a7 bb 81 0f 27 3c 63 67 94 bc 9a 1b 53 bb
       -0.0051111174 0.0101965675 -0.018115705 -0.0032212497
0002a0 2a 8a ca bb 8a aa 3f bc b9 66 99 bb ce f6 cd 3b
       -0.006181021 -0.0116983745 -0.004681435 0.006285525
0002b0 08 54 34 bc b9 73 f4 bb f3 fe f0 3c e9 b8 99 3c
       -0.011006363 -0.0074600843 0.029418444 0.01876493
0002c0 8e a6 87 bc c2 9e 06 bc 5e a9 49 3c 13 42 1f bb
       -0.016558912 -0.008216562 0.012308447 -0.0024300858
0002d0 7a c2 78 3c 6d 97 84 3b c0 69 b3 bb ce 94 14 bb
       0.015183086 0.0040463717 -0.005475253 -0.0022671702
0002e0 27 cb 8e bc 49 b4 ab bc 81 80 ac bc a0 59 08 39
       -0.017430855 -0.02095999 -0.02105737 0.00013003359
0002f0 94 18 51 bc 02 7b 4e bc e8 6c be bb 42 94 69 3b
       -0.012762208 -0.01260257 -0.0058113225 0.0035641347
000300 b8 f1 87 3c cf f4 08 3b 2f a5 1e bc 2f 21 13 3d
       0.016594753 0.002089787 -0.0096829375 0.03592032
000310 f0 b0 11 bc f9 0a 82 3b 22 45 ce 3b 34 3d 85 bc
       -0.008892283 0.003968593 0.0062948624 -0.016264535
000320 e3 d1 86 bb e9 c6 0e 3a d0 68 54 ba 5f f9 84 bc
       -0.004114376 0.000544651 -0.00081027765 -0.01623219
000330 c9 b0 6d bb 14 07 87 bc c1 1f 41 3c b8 f5 f6 3c
       -0.0036268702 -0.016482867 0.011787356 0.030146465
000340 b9 eb 6e bc 85 eb 3a bc 5c cd 07 3c c3 3f d8 3a
       -0.014582568 -0.011408691 0.008288708 0.0016498495
000350 21 99 21 bc a9 0f b4 bc 53 b6 85 3b 9f ad a0 3c
       -0.009863169 -0.021980124 0.0040805726 0.019614039
000360 33 4b e8 3b f7 88 64 3a 14 0c 8d bb 17 37 09 bc
       0.0070890426 0.0008717919 -0.0043044183 -0.008374951
000370 45 e9 28 3d 6c 8d ea 3b 74 bf 84 bc d2 ba f5 39
       0.04123809 0.007157972 -0.016204573 0.00046869233
000380 4b ee fd bb 72 d0 e6 ba 75 58 33 bc d8 eb 2b bc
       -0.007749354 -0.0017609729 -0.010946383 -0.010493241
000390 6d 34 95 bc e8 80 02 bd 50 c5 51 3b 73 fb 9d 3c
       -0.018213475 -0.031861216 0.0032008477 0.01928494
0003a0 6c 50 06 3c f0 55 32 3c b0 18 b4 bc 4e 7d fb bb
       0.008197885 0.010884747 -0.021984428 -0.0076748496
0003b0 2f 14 ef 3b f7 90 84 3a d2 95 81 bc cb df 85 3b
       0.0072961072 0.0010114004 -0.01581851 0.004085516
0003c0 0d 24 b7 bb ba 92 0e 3b 85 a3 be bc d5 d9 07 bc
       -0.0055890144 0.0021754936 -0.023271332 -0.008291681
0003d0 27 41 b6 bc 50 9f 57 bc ec be f0 bb d5 8a 98 3b
       -0.022247864 -0.013160542 -0.0073469784 0.004655222
0003e0 96 94 c4 3c be dc 88 3c 58 37 f6 bb e6 d3 9b 3a
       0.023996633 0.01670682 -0.0075139217 0.0011888712
0003f0 63 05 d7 3b b7 d6 02 3c a8 c7 ba 3c 5c b1 95 bc
       0.0065619214 0.007985762 0.022800282 -0.018273048

network.1.running_mean f4 [256]
000000 5f f4 8e bb aa bb e0 39 86 67 37 bb 94 59 f1 3a
       -0.0043626274 0.0004286443 -0.0027985289 0.0018413537
000010 14 01 04 bb b0 2a 17 3c a4 ab 02 3b 83 1f 74 3b
       -0.0020142244 0.009226486 0.0019938732 0.0037250228
000020 bc fe 57 3c 12 04 d1 bb 3d 00 29 bc 6d 9c e8 bb
       0.013183292 -0.006378659 -0.010314998 -0.0070987255
000030 8c 75 8c 3a f3 bb 86 bc ce 18 00 bc d2 c5 2e bc
       0.0010716184 -0.016447043 -0.007818414 -0.010667281
000040 b8 ba 8d ba bc 61 6f bb e2 a2 12 3b c5 7e 3e ba
       -0.0010813093 -0.003652676 0.0022374918 -0.0007266815
000050 86 5b 6e 3c 89 97 6f 3c 85 a2 0e 3b d3 01 f8 3b
       0.014548188 0.014623531 0.002176435 0.007568577
000060 3e 59 78 3c fd 57 03 bc d5 d4 13 3c d2 ea 0e bb
       0.015157996 -0.0080165835 0.009022911 -0.0021807444
000070 9c f3 5a 3c 2b 24 9d bb 11 7d 02 3b 5d 80 32 bb
       0.013363745 -0.0047955713 0.0019910971 -0.0027237155
000080 8d a0 8a 3b df 06 7b 3c 82 fb ff ba d6 b1 3d 3c
       0.004230565 0.015321462 -0.0019529911 0.011578044
000090 d6 60 d8 bb 8f 7d 82 ba c2 90 9f 3b c2 af 01 bc
       -0.0066033406 -0.0009955632 0.0048695514 -0.007915439
0000a0 80 3a 5b bc a5 a1 0b bc 97 12 36 3a 06 3f 6a 3c
       -0.013380647 -0.008522426 0.0006945519 0.0142972525
0000b0 c1 23 72 3c b2 13 bb 3c 38 28 0f 3c 90 43 6f bc
       0.014779032 0.02283654 0.008737616 -0.0146035105
0000c0 3c b5 72 bc a7 33 8f bc 10 41 8e ba e0 cd 22 3b
       -0.014813717 -0.017480684 -0.001085313 0.002484195
0000d0 b3 0d 35 bc 72 19 00 3a 9b da 9f bb aa b7 09 3c
       -0.011050629 0.0004886604 -0.0048783547 0.008405605
0000e0 f3 3d a9 b9 c4 ac b9 3b 46 ac 10 3c a9 7b 68 3b
       -0.00032280348 0.005666347 0.008830136 0.0035474098
0000f0 a5 1e cd bb ff 1e 0b 3a 59 6c 5a bc 24 8c 46 3a
       -0.0062597566 0.0005307048 -0.013331496 0.0007573983
000100 29 fa 32 bc fb dd 87 3c e3 f2 70 bc 27 37 61 bb
       -0.010923901 0.01658534 -0.014706346 -0.0034365149
000110 55 88 fd ba 0a ed fb 39 65 4f b6 3a 4a 9a 42 38
       -0.0019342998 0.0004805106 0.001390916 4.6396897e-05
000120 4b 8f bc 3a 57 cc d3 38 ed 2e 1b 3c c2 a8 20 3b
       0.0014385966 0.00010099325 0.009471637 0.002451465
000130 8e d1 e2 bb 88 d6 96 bb 46 2a 40 bc 4c e8 e2 b9
       -0.0069219535 -0.004603211 -0.011728829 -0.00043279154
000140 80 5a 4f bc d6 b4 28 bc c1 2a f0 3b 13 1b 3d 3b
       -0.012655854 -0.010297021 0.0073293154 0.0028855249
000150 70 10 65 bc 09 0a 10 3c c9 36 ed 3b 9b 1f cc bb
       -0.01398097 0.008791455 0.007239197 -0.0062293536
000160 54 af f4 3b 45 27 d7 39 d4 95 dd bb 86 c2 3f 3c
       0.00746719 0.00041037254 -0.0067622457 0.011704093
000170 cb 7a b0 bb b5 69 00 3c a5 93 96 bb 4f bb 8a 3a
       -0.005385732 0.0078377025 -0.0045952373 0.0010584387
000180 e0 a9 e1 bb c4 84 6f bc 6f 3e a7 ba c2 d1 d7 3a
       -0.0068867058 -0.014619056 -0.0012759696 0.0016465711
000190 5a 1f e7 3b 9c be a8 38 a5 4c d0 3b 76 6a 69 bc
       0.007053298 8.046368e-05 0.006356793 -0.014246574
0001a0 63 7a b7 3b 01 e0 2f 3b 9a 02 62 ba dc 25 ba bb
       0.0055993064 0.0026836398 -0.00086216035 -0.0056807827
0001b0 cf f7 f2 3a 94 67 e5 bb 26 8a 2c b7 be 23 98 bb
       0.0018536987 -0.007000873 -1.0284164e-05 -0.0046429327
0001c0 70 7d 60 bc c8 61 3e bb 9c 1b 8d bc 47 97 ed bb
       -0.013701782 -0.0029049981 -0.01722508 -0.0072506997
0001d0 4b 2d 96 bb e8 ac b4 3b df e8 93 3a bd b5 ca 3a
       -0.004583036 0.005513776 0.0011284611 0.0015465539
0001e0 7a 02 07 3c 92 f7 11 bb 33 3c 27 3b 98 2b 17 3b
       0.008240337 -0.0022272808 0.002551806 0.0023066755
0001f0 03 20 8a 3b 7a 0c 8c bb c7 5c 71 ba fa 4e 31 bc
       0.004215242 -0.0042739483 -0.00092072453 -0.010822052
000200 d1 92 c4 bb 91 f8 2c 3b c5 30 68 bc 02 93 b1 ba
       -0.005998947 0.0026393274 -0.014171784 -0.001354784
000210 b9 6c cf 3a 41 31 0b 3c a1 e6 39 3b 5a 13 3f 3b
       0.0015825249 0.00849563 0.0028366225 0.0029155822
000220 7f 55 7a bc 02 64 9b 3a bd 2f 1e bb 6c af 72 3b
       -0.015279173 0.0011855366 -0.002413734 0.003703083
000230 9b ce 1d 3a 74 4f f2 3b e8 c4 44 3b 58 3d be 3c
       0.00060198613 0.0073947255 0.0030024592 0.02322261
000240 c7 ec 1a 3c d7 fc 9b bb e5 5a 39 bc ec 6b 2b 3b
       0.009455866 -0.0047603655 -0.011313175 0.0026156856
000250 7c bd b5 3a 12 e5 57 b8 27 68 9d 3b 9d 52 8d 3b
       0.0013865675 -5.1473333e-05 0.0048036757 0.004312827
000260 bc 94 5a b9 df 41 9e bb 69 44 69 3c ca 6d 01 3c
       -0.00020845508 -0.00482963 0.014237502 0.007899711
000270 db 64 83 3c 64 fe 57 3b e4 a1 6c b9 42 80 72 3b
       0.016039303 0.0032958025 -0.00022567023 0.0037002717
000280 d5 50 e2 b9 fb a0 99 3c a8 5d 32 3c 3d c2 2a 3c
       -0.00043166304 0.01875352 0.010886587 0.010422287
000290 69 05 1d bc f6 43 58 3b 0a e6 2c bb a4 cc e0 3b
       -0.009583809 0.0032999492 -0.002638223 0.0068603326
0002a0 1e 83 ee 3b c7 49 80 bc 36 ec 09 bc 62 cf 24 3c
       0.007278814 -0.01566018 -0.0084181335 0.01005921
0002b0 91 09 8d b7 ba 9c ed 39 9e f3 0c 38 40 5b e1 3a
       -1.6812965e-05 0.00045320933 3.3605487e-05 0.0017193332
0002c0 a7 90 1d 3c f0 47 40 3b 8e 35 26 bb 55 30 12 bc
       0.009617007 0.0029339753 -0.002536151 -0.008922656
0002d0 cb f9 c5 3a 26 81 b1 bb 69 68 be 3b 16 56 94 bb
       0.0015104351 -0.005417007 0.0058107865 -0.004526864
0002e0 6f 1f 91 bb 43 e8 21 bc 61 57 b0 3b 11 be 99 39
       -0.004428796 -0.009882036 0.00538151 0.00029324045
0002f0 82 ea 8a 3b ec 29 96 ba 40 7c 29 bb c2 50 84 ba
       0.0042393813 -0.0011456585 -0.0025861412 -0.0010094868
000300 a0 20 2b 3c 83 53 c4 3b 04 5a 71 bb a3 4c 9d bb
       0.01044479 0.0059914007 -0.0036827335 -0.0048003956
000310 63 09 a0 bb ad 14 d6 bb c2 60 ba 3b 7a b9 18 bc
       -0.0048839315 -0.0065332265 0.005687804 -0.009321565
000320 c2 1d b0 3a 26 17 93 3c 0c 0d 94 bc 63 44 be bb
       0.0013436603 0.017955374 -0.018072627 -0.005806492
000330 af c9 77 bb dd 4a dd 38 6b 52 45 bc e2 e0 f0 3b
       -0.0037809422 0.000105520456 -0.012043576 0.007351027
000340 11 fa 22 bb fc 75 da 3b af 87 3c 3c fc 42 35 bb
       -0.002486829 0.006666897 0.011506959 -0.0027658334
000350 2e 4e 4b 3c e2 a3 1c 3c 2b 34 ae 3b 3f dc 96 3b
       0.012408776 0.009560557 0.0053162775 0.004603892
000360 4a 17 f0 bb 20 6b b1 3b 47 72 78 3c 97 75 3b bb
       -0.007326995 0.0054143816 0.015163965 -0.0028604025
000370 7b e2 bc bb 20 cf 0e bb 64 02 18 3c 62 fb de ba
       -0.0057643033 -0.0021790937 0.009277914 -0.0017012174
000380 af 42 ae bc b4 ee d5 3a c1 1e 15 bb 7f 84 0d 3c
       -0.021272032 0.001632175 -0.0022753926 0.008637547
000390 6d 2e f7 3b 58 a9 b8 3a 4c 5d 6b bc eb 36 dc bb
       0.007543376 0.0014088554 -0.014365505 -0.006720414
0003a0 b5 e1 28 3c 9f 8b b9 bb f6 6b a7 ba aa 6c 47 3a
       0.010307719 -0.005662396 -0.0012773264 0.000760744
0003b0 9e 4d 19 3c 98 88 85 3b 34 ca eb 3b d7 9d da bb
       0.009356884 0.004075121 0.0071957354 -0.006671648
0003c0 8b 85 3d 3c 87 9c e8 3b f9 5a 0c bb 6f 1f a9 3c
       0.011567484 0.0070987376 -0.0021416529 0.020644872
0003d0 c1 91 f5 bb 49 91 4c bb 01 bc d8 ba 14 c0 2c 3c
       -0.007494182 -0.0031214526 -0.0016535522 0.010543842
0003e0 e6 da fe 3b bd d7 ef bb b6 f2 16 bb 85 ce 09 3c
       0.0077775596 -0.007319419 -0.002303285 0.0084110545
0003f0 03 f6 a7 3b f4 28 7c bc 8e 74 6e 3b bf 90 3b 3a
       0.0051257624 -0.015390623 0.003638539 0.0007155053

network.1.running_var f4 [256]
000000 e9 57 92 3e ea 94 6c 3e 8c eb 8d 3e 77 07 c7 3e
       0.28582695 0.23103681 0.2771877 0.38872883
000010 28 1a d4 3e ee 58 8d 3e 22 4a 8f 3e c8 89 99 3e
       0.41426206 0.2760691 0.27986246 0.2998793
000020 55 ea b5 3e 0e ec af 3e b9 d8 b6 3e 18 74 7e 3e
       0.35530344 0.34359783 0.3571222 0.24848974
000030 dd 2c ac 3e ef 66 ad 3e b5 a2 ba 3e fe 4e 9a 3e
       0.33627978 0.33867595 0.3645226 0.3013839
000040 46 28 9a 3e a8 7f c1 3e af 11 8d 3e c9 28 80 3e
       0.3010885 0.37792706 0.27552554 0.25031117
000050 3b 5d 83 3e 43 8a 92 3e 55 8f a9 3e 70 da ec 3e
       0.25657067 0.2862111 0.33117166 0.46260405
000060 51 d5 a7 3e 10 50 a0 3e cb 27 c2 3e eb cc cd 3e
       0.32779935 0.31311083 0.37920985 0.40195403
000070 27 9e e8 3e 38 59 9e 3e 02 d9 91 3e 9c 9e a1 3e
       0.4543316 0.30927444 0.28485876 0.31566322
000080 45 51 b6 3e e3 10 b5 3e 53 f3 95 3e 51 b8 98 3e
       0.3560888 0.35364446 0.29287204 0.29828122
000090 05 d5 c9 3e 74 80 94 3e 24 79 b4 3e c1 71 ac 3e
       0.39420334 0.29004252 0.35248673 0.33680537
0000a0 95 9a 8e 3e 2e 43 a4 3e 8b f8 a5 3e ce f8 c0 3e
       0.27852312 0.32082504 0.32416186 0.37689823
0000b0 60 34 ae 3e b0 be a8 3e 2c 7f d8 3e 78 c8 c8 3e
       0.34024334 0.32957983 0.42284524 0.39215446
0000c0 35 2a d5 3e 59 be 90 3e 1b 86 99 3e ea c5 a7 3e
       0.41633764 0.28270224 0.29985127 0.32768184
0000d0 4e bf 9e 3e 0e b9 ac 3e 56 6f 82 3e 80 0c b6 3e
       0.3100533 0.33734936 0.25475568 0.35556412
0000e0 69 1e ec 3e 46 4c ab 3e b2 cc 7e 3e f1 0b d2 3e
       0.4611695 0.3345663 0.24882773 0.41024736
0000f0 ce de a5 3e 4d c7 c8 3e 95 0c 9d 3e 29 71 80 3e
       0.3239655 0.39214554 0.30673662 0.25086334
000100 30 c1 de 3e fd fc d9 3e 6d 29 96 3e 0a 84 a6 3e
       0.43506765 0.42575827 0.2932848 0.32522613
000110 15 be c5 3e 19 6f 82 3e 69 73 a8 3e fb 13 94 3e
       0.38621584 0.25475386 0.3290055 0.28921494
000120 05 c7 98 3e 96 eb b1 3e df 16 b7 3e 32 ca c3 3e
       0.2983934 0.3475005 0.35759637 0.382402
000130 5f 94 a7 3e d9 89 93 3e 77 bb bc 3e a1 b9 d0 3e
       0.32730386 0.28816107 0.36861774 0.40766624
000140 2d da 98 3e 6e 81 a2 3e 2a f3 9d 3e dd 6f 9c 3e
       0.29853955 0.31739372 0.30849582 0.30554095
000150 77 55 9e 3e 14 d1 a3 3e a6 42 db 3e 0d 07 91 3e
       0.3092458 0.3199545 0.42824286 0.28325692
000160 e4 11 9a 3e cc d9 ab 3e 42 c7 b7 3e 16 93 ec 3e
       0.30091774 0.33564603 0.3589421 0.46205968
000170 69 bc 98 3e 8b a5 b4 3e a9 0f b3 3e f2 eb a4 3e
       0.29831246 0.3528255 0.34972885 0.32211262
000180 e2 db d8 3e 45 69 d7 3e 60 4b 97 3e 32 3f ac 3e
       0.42355257 0.42072502 0.29549694 0.33641964
000190 5f ff 7c 3e 12 0c c5 3e 82 57 90 3e 72 64 a3 3e
       0.24706791 0.3848577 0.28191763 0.3191257
0001a0 30 34 b2 3e 65 21 b0 3e 58 3a af 3e c9 11 cb 3e
       0.3480544 0.34400478 0.342242 0.39662006
0001b0 65 26 d3 3e 73 fe 8f 3e 2a a4 b0 3e f5 4b 9d 3e
       0.4124023 0.28123817 0.34500247 0.30722013
0001c0 c5 69 d9 3e 99 96 bc 3e 3b a7 93 3e 24 2a cf 3e
       0.42463508 0.36833647 0.28838524 0.40461838
0001d0 76 08 90 3e 5b 26 8c 3e 41 a1 72 3e 52 b1 db 3e
       0.28131455 0.27373013 0.23694326 0.42908722
0001e0 a1 31 7d 3e 65 dd a2 3e 94 84 a6 3e bb 2c c2 3e
       0.24725963 0.31809536 0.32523024 0.37924752
0001f0 13 ca 83 3e 88 76 9e 3e 6d 85 77 3e 15 28 c2 3e
       0.25740108 0.30949807 0.24171992 0.37921205
000200 e6 1b bb 3e cc 16 94 3e b9 93 e6 3e 96 ce 9d 3e
       0.36544722 0.28923643 0.45034578 0.30821675
000210 c2 c4 a9 3e 47 c0 85 3e 29 f6 93 3e 6c 11 b1 3e
       0.33157927 0.26123258 0.28898743 0.34583604
000220 5d 73 d1 3e f4 13 aa 3e 56 f3 e1 3e 41 d7 c3 3e
       0.40908328 0.33218348 0.44130963 0.38250163
000230 dc 80 87 3e b0 1c 9d 3e 44 ee a5 3e c0 02 a7 3e
       0.264655 0.3068595 0.32408345 0.32619286
000240 b4 93 b9 3e 86 9e 95 3e 65 23 a8 3e 4c 36 c7 3e
       0.362455 0.29222506 0.32839504 0.38908613
000250 77 51 ab 3e c0 9e 82 3e a2 9d b3 3e 1a cc d0 3e
       0.3346059 0.25511742 0.35081202 0.40780717
000260 e4 f8 b2 3e 6a 33 96 3e ad 9b e6 3e a7 3b ce 3e
       0.34955513 0.293361 0.45040646 0.40279886
000270 11 71 f4 3e da fc 8f 3e 76 aa 95 3e ff 26 c0 3e
       0.47742513 0.28122598 0.29231614 0.37529752
000280 d5 8d c9 3e 71 2a cb 3e 28 16 e1 3e be 43 96 3e
       0.39366022 0.39680818 0.43962216 0.29348558
000290 db 6d be 3e ea 65 85 3e a4 41 a9 3e 64 83 dc 3e
       0.37193188 0.26054317 0.33057892 0.43068993
0002a0 42 a6 90 3e 83 aa b8 3e 1f 64 85 3e ce 66 8a 3e
       0.28251845 0.3606759 0.2605295 0.2703156
0002b0 f1 5f c3 3e e1 ad b2 3e 9d cf ae 3e 72 d6 98 3e
       0.38159135 0.34898284 0.3414277 0.2985111
0002c0 b9 67 b1 3e 84 99 af 3e ed 34 bb 3e 5d 0c 6f 3e
       0.34649447 0.3429681 0.36563817 0.2334456
0002d0 ed 9a 98 3e 21 fa 99 3e c9 c9 a0 3e 48 96 c2 3e
       0.298057 0.30073646 0.3140395 0.3800528
0002e0 fd df 92 3e dc 07 d1 3e 1f e5 7b 3e 09 96 ac 3e
       0.28686514 0.4082631 0.24599122 0.33708218
0002f0 da 98 c4 3e bb 56 c4 3e 5b e0 92 3e cd a6 8e 3e
       0.38397866 0.3834742 0.28686795 0.27861634
000300 75 31 9c 3e 3c fa ad 3e 2e c4 a4 3e 22 bd f4 3e
       0.30506483 0.33979976 0.32180923 0.47800547
000310 0c 20 bb 3e 72 65 b0 3e cc d1 95 3e 92 4b 97 3e
       0.36547887 0.34452397 0.29261625 0.29549843
000320 21 01 a7 3e 37 85 bd 3e 00 2e aa 3e 47 72 b3 3e
       0.3261805 0.37015697 0.3323822 0.35048124
000330 79 a9 a6 3e e6 88 a9 3e e2 a8 b4 3e b1 1b af 3e
       0.32551172 0.33112258 0.35285097 0.34200814
000340 de 32 ba 3e 08 42 b7 3e e1 d1 a5 3e f1 e9 a4 3e
       0.36366934 0.35792565 0.32386687 0.32209733
000350 9d 3b d8 3e aa 46 b3 3e 11 b3 93 3e 9a a6 dc 3e
       0.4223298 0.3501485 0.28847554 0.43095857
000360 a0 76 a7 3e d7 4f ac 3e 3b 09 c8 3e 67 bb 94 3e
       0.3270769 0.33654663 0.39069542 0.29049227
000370 05 c8 dc 3e 54 64 b9 3e 52 43 84 3e 57 78 9a 3e
       0.43121353 0.36209357 0.2583261 0.30169937
000380 9a 57 d2 3e 91 08 a2 3e 0d a0 b9 3e 75 c6 ca 3e
       0.4108246 0.3164716 0.36254922 0.39604536
000390 52 66 b4 3e 49 3c e1 3e 20 eb bb 3e da b0 bd 3e
       0.35234314 0.43991306 0.36702824 0.3704899
0003a0 a3 01 aa 3e 2d f4 9b 3e 9d 60 af 3e 3f 1e 9c 3e
       0.33204374 0.3045973 0.34253398 0.30491826
0003b0 da b0 ca 3e a7 f4 9d 3e 4d e3 8c 3e 90 85 b8 3e
       0.39588052 0.30850717 0.27517167 0.360394
0003c0 33 c8 b1 3e c7 91 8e 3e 31 7b 97 3e 0f 62 dc 3e
       0.34723052 0.27845594 0.29586175 0.43043563
0003d0 8f 51 af 3e 6a 53 a6 3e b9 50 96 3e 18 88 c7 3e
       0.34241912 0.32485515 0.29358461 0.3897102
0003e0 0a 9c c2 3e 17 b9 c1 3e ad 19 84 3e a7 b6 ac 3e
       0.38009673 0.37836525 0.2580084 0.33733103
0003f0 c4 f6 c1 3e 54 1f 98 3e a2 00 99 3e 15 df be 3e
       0.3788358 0.297114 0.29883295 0.37279573

network.4.weight f4 [128, 256]
000000 f1 10 8d 3c 6a d2 59 3d 8b 6e 2b bc 83 22 09 3d
       0.017219992 0.053179182 -0.010463367 0.03348018
000010 65 18 d6 bc 00 54 8a bc 14 58 2c bd f0 ad e6 bc
       -0.02613468 -0.016885757 -0.042076185 -0.028159112
000020 33 82 15 3d f4 be 94 3b 06 55 a0 3c f7 4f 5d bd
       0.03650112 0.004539365 0.019571792 -0.05403134
000030 09 fc 5e bd 31 39 8b bd 5e 58 5e bd 30 e4 54 3d
       -0.05443958 -0.06798018 -0.054283492 0.05197543
000040 42 b3 c2 3c c6 74 82 3d af ed 05 bc 77 a2 26 3d
       0.023767117 0.06369929 -0.008174344 0.040682282
000050 4c 42 b7 3c 7c 3e c1 3c 70 a8 0d 3d 94 c4 8a 3c
       0.02237048 0.023589365 0.034584463 0.016939439
000060 7e 03 09 3d 28 e8 11 3d 17 cf b8 bc c3 08 c0 bc
       0.033450596 0.035621792 -0.022559686 -0.023441678
000070 24 e3 b4 bc 44 f3 5d bc 47 1d 45 bd ea 0b 4a 3d
       -0.022080965 -0.013546769 -0.048123624 0.04932777
000080 5b f7 46 3d 7c 40 5e bd 37 a3 02 3c 7c 24 76 bb
       0.04857574 -0.054260716 0.007973484 -0.0037558367
000090 3b 8c 56 bd 5c 98 d5 bc 3b cf 69 bd f9 d7 3f bd
       -0.052379828 -0.026073627 -0.057082396 -0.046836827
0000a0 57 57 71 3d 6a 89 df 3c 89 b7 97 3c 5f 62 53 3d
       0.058921184 0.027287204 0.018520134 0.051607486
0000b0 76 8d b4 3c 7a 21 97 3d 60 67 0f 3c 75 c0 68 3b
       0.02204011 0.07379432 0.008752674 0.0035515104
0000c0 36 b3 7f bd a7 6b 0f 3d cf b7 88 3d 9d 87 41 3d
       -0.06242677 0.035014775 0.06675684 0.04724847
0000d0 89 b8 49 bd c4 eb 42 bd af 96 03 3c 86 fe 1a bd
       -0.049248252 -0.047588125 0.008031531 -0.03784039
0000e0 ea c6 c7 3c 39 53 48 3d e4 aa 1b 3d 25 5b 04 3d
       0.024386842 0.048907492 0.03800477 0.032313485
0000f0 da 34 22 3d bb 78 42 bd 18 16 5d 3d 74 fd e1 3c
       0.039601184 -0.04747842 0.05397615 0.027586676
000100 2d 20 35 3d d5 5b ab bc db e6 65 3d a5 7d 4e 3d
       0.04422014 -0.020917812 0.056128364 0.050412793
000110 d0 aa b6 bc b0 03 e6 3c 2b 73 dc bc d4 83 a1 bc
       -0.022298247 0.02807793 -0.026910385 -0.01971618
000120 96 62 91 3c 96 0a 3b bd 3a bb 5e 3c 0a e0 1e 3c
       0.017747205 -0.045664392 0.013594443 0.00969697
000130 de 36 8d bc e2 8f 13 bd 0a c3 91 bd 7f f6 1f bd
       -0.017238077 -0.03602589 -0.07117279 -0.039053436
000140 0a 03 f0 bc c3 c3 89 bc 7c 60 6e bd 52 7d 1a bd
       -0.029298324 -0.01681698 -0.058197483 -0.03771717
000150 39 ab 53 bd 07 02 74 3d d0 d8 70 3d 23 43 a1 3c
       -0.051676963 0.059572246 0.05880052 0.019685334
000160 37 db 1b 3c 31 7f cb bc 9c 7e 09 3d 24 5e d7 bc
       0.009512714 -0.024840923 0.03356801 -0.026290007
000170 18 6d b4 3c 35 32 5e bd d2 a3 4b 3d f0 a1 7a ba
       0.022024676 -0.0542471 0.049716778 -0.0009560874
000180 7d 78 4d bd 85 5d 17 3d 46 16 36 3d 13 71 ca bc
       -0.050163735 0.03695442 0.044454835 -0.024712121
000190 ab 2f a2 bb 95 65 39 bd 79 62 51 bd a1 a8 3f 3d
       -0.00494953 -0.04526289 -0.0511193 0.046791676
0001a0 23 f2 53 bb 68 c4 ed 3c c5 76 f0 bc 7b a1 b9 3c
       -0.003234037 0.029024318 -0.029353509 0.022660008
0001b0 dc 11 d0 3c ea b6 17 bd 47 39 f8 3b bd a0 8c bd
       0.025399141 -0.037039675 0.0075751874 -0.06866596
0001c0 0f 07 ec bc 83 8d 44 3d 5a 96 04 3d 21 a2 ba bb
       -0.02881196 0.04798652 0.03236995 -0.005695597
0001d0 7f 21 55 bd b4 6b a9 3c 8c 28 50 3d 5e af 23 bd
       -0.052033897 0.02068124 0.05081992 -0.039962165
0001e0 c7 06 88 3d e0 13 77 3d 45 5b 21 bd 67 9b 23 bd
       0.06641918 0.06032169 -0.039393682 -0.039943125
0001f0 e2 51 20 3d 1b 88 ae bc 4a 05 01 bc 6f ab 6e bd
       0.03914059 -0.021305135 -0.007874796 -0.05826896
000200 33 ce 9e 3c bd 8e 91 3d 2e 47 f8 bc 4b d8 81 bd
       0.019385433 0.07107303 -0.030307379 -0.06340083
000210 04 30 b3 bb 22 d7 1c bd f4 97 95 bc 1b c9 3c bd
       -0.0054683704 -0.038291104 -0.018260933 -0.046090227
000220 6c 54 11 bd f8 e6 4a 3a 27 6f 4c 3d e8 f5 f8 bc
       -0.0354809 0.00077401055 0.04991069 -0.030390695
000230 d2 01 95 3b de 9b 77 bd e5 66 08 bd 33 bf b4 3b
       0.004547336 -0.06045138 -0.033301253 0.005515957
000240 30 36 39 bd 84 6d 79 bc 43 89 58 3d c2 08 0a bc
       -0.045217693 -0.0152238645 0.052865278 -0.00842494
000250 2c fa e2 3c 5f 94 c7 3b 09 65 ca bb b2 dd 82 3c
       0.027707182 0.0060906853 -0.006176595 0.015974853
000260 7f 5e 0c 3d 0a f5 63 3d 61 ec 2b 3d fa 27 a8 bc
       0.034269806 0.05565361 0.041973475 -0.020526875
000270 5f 60 02 bd 9f ea 51 3d a6 4e 6d bd cf e4 d1 bb
       -0.031830188 0.051249143 -0.057936333 -0.00640545
000280 8a 03 5f 3d f8 a0 1c bc 85 8c 57 bd b3 3e 9d bb
       0.054446734 -0.009559862 -0.052624244 -0.004798734
000290 c8 4f ac bc 26 ab 21 3c 18 8f 03 bd ca 10 56 bd
       -0.021034136 0.009867465 -0.032118887 -0.052262105
0002a0 bb 2b 05 3d 3e f8 d3 3c 8b 3f 55 3d 50 20 03 bd
       0.032512408 0.025875207 0.052062552 -0.032013237
0002b0 b5 e5 89 3d b2 d0 91 3c a0 21 40 bc c7 26 42 3d
       0.06733266 0.017799709 -0.011726767 0.047400262
0002c0 e3 9e 3c 3d b6 4d 86 bc 11 44 ea bc c6 9e 15 bc
       0.046049964 -0.016394477 -0.02859691 -0.009132093
0002d0 26 1f 0c bd dc ee 8c bc 9d 01 d1 3c a8 4a 4a bb
       -0.034209393 -0.01720374 0.025513465 -0.0030867252
0002e0 68 76 26 3d f2 2e 11 bc c5 b1 1a 3d 00 01 dc bc
       0.040640265 -0.00886129 0.03776719 -0.026855946
0002f0 90 f7 20 3c bb 36 2c 3d 53 63 cc 3c 3b 32 6f 3d
       0.0098246485 0.042044383 0.024949705 0.058397513
000300 ef 3f d5 3c 23 44 45 bd 41 62 33 3d 9b f4 25 bd
       0.026031462 -0.048160683 0.043794874 -0.040516477
000310 b9 a5 a9 bc 35 72 55 bd 8a af 3b 3c a5 2c 1c 3d
       -0.020708906 -0.05211087 0.011455426 0.038128514
000320 b4 02 80 bc 5a 2f 9d bb 5b 28 bf 3c da 95 50 3d
       -0.015626289 -0.0047969045 0.023334673 0.05092416
000330 03 80 95 bd 7c 85 57 3c 00 a4 18 3b e6 38 8d bb
       -0.07299807 0.013154384 0.002329111 -0.0043097613
000340 a4 e6 81 3c 3a 42 2f 3d ff 43 25 bd 77 73 68 bd
       0.015857048 0.042787768 -0.04034805 -0.05675074
000350 cd 33 b1 3c af dc 4b bd 53 81 d3 bc fd c7 36 3d
       0.021631146 -0.049771007 -0.025818503 0.044624317
000360 21 22 64 bd 91 53 2a 3c ee 46 00 bc 31 b9 1b 3c
       -0.05569661 0.0103959 -0.007829411 0.009504602
000370 84 36 86 3c d1 0e 1a 3d c9 9f 1f bc fa 2b da bc
       0.016383417 0.037611786 -0.009742686 -0.026632298
000380 4f 96 5a 3d 40 cb 3c 3d de d7 98 3d 94 b7 de 3b
       0.053366 0.04609227 0.074630484 0.0067967866
000390 74 7b 17 bd 22 33 28 bd 4d 79 aa 3c 1f 99 33 bd
       -0.03698297 -0.04106439 0.020809794 -0.0438472
0003a0 6a 34 8c 3d 33 6d 59 bd c9 b8 bc bc c5 0f b9 ba
       0.06845935 -0.053082656 -0.023037331 -0.001411908
0003b0 04 d1 0b bc d6 2e 38 bd d4 82 b3 3c 46 c5 32 bd
       -0.00853372 -0.04496654 0.02191297 -0.043645166
0003c0 0e 57 12 bd a3 a6 5a 3d f0 6d 03 bd b6 e6 e7 3c
       -0.035727553 0.053381573 -0.032087266 0.028308254
0003d0 10 8c 30 bc 9b 17 5b 3b 80 6d 5d 3d 63 06 8e bd
       -0.010775581 0.0033430818 0.054059505 -0.06934812
0003e0 d2 90 0c 3c 50 2b 34 bc e1 f5 09 3d 59 31 5a bd
       0.00857945 -0.010996655 0.033681754 -0.053269718
0003f0 8c 0c f5 3c eb 67 ef bb 1e 97 0e 3d d7 db 23 bd
       0.02991321 -0.007306089 0.034812085 -0.040004577
