log_reg/models/tree_stem_failure_best.pth (torch, 385914 bytes, 25 tensors)

network.0.weight f4 [256, 176]
0	0xbd0f4a52	-0.034982987
1	0x3cba8220	0.022767127
2	0xbdd74efc	-0.10513112
3	0x3b3defed	0.0028982118
4	0x3d702c27	0.058635857
5	0x3d522c6c	0.051311895
6	0x3d8b2c74	0.06795588
7	0x3da47e27	0.08031874
8	0xbd501cad	-0.050808597
9	0x3883a3bf	6.277067e-05
10	0x3d81a99c	0.063311785
11	0xbd230c59	-0.039806698
12	0x3cf15dc3	0.029463654
13	0xbd965c6e	-0.07341848
14	0xbc4587d4	-0.01205631
15	0x3d91b7e8	0.071151555
16	0x3cdaf9f1	0.02673051
17	0x3d2eec25	0.042705674
18	0x3d6a5a88	0.057215244
19	0x3d36d089	0.04463247
20	0xbd590328	-0.052981526
21	0xbd59bf8e	-0.053161196
22	0xba53ef3a	-0.0008084659
23	0xbd9363cd	-0.0719677
24	0x3d15f2f4	0.03660865
25	0x3d4bc3e6	0.04974737
26	0xbc3f95ea	-0.011693457
27	0xbd00da47	-0.031458165
28	0x3d249e30	0.04018992
29	0xb7cf85ee	-2.4738689e-05
30	0xbc895068	-0.016761974
31	0xbd835f2d	-0.06414638
32	0x3c15b69b	0.009137775
33	0xbc8a8cae	-0.016912784
34	0xbd282475	-0.041050393
35	0x3d3acbdf	0.045604583
36	0x3d10b1bd	0.035325754
37	0x38dbca25	0.00010480386
38	0x3c5d0ee0	0.013492316
39	0xbd5a21e4	-0.053254977
40	0x383163d3	4.2293057e-05
41	0xbd8b9108	-0.06814772
42	0xbcddf362	-0.027093593
43	0x3cb68b87	0.022283329
44	0xbcc7b1b0	-0.02437672
45	0xb90d94d8	-0.00013502256
46	0xbcef5288	-0.029214159
47	0xbd326814	-0.043556288
48	0x3d88c6e6	0.06678562
49	0x3cea2680	0.028582811
50	0xbd0cb46c	-0.03435175
51	0x3d0201d1	0.031740014
52	0xbcdf3095	-0.027244845
53	0xba96ca55	-0.0011504391
54	0xbd803f5d	-0.062620856
55	0xbd82e91e	-0.0639212
56	0xbd4d46b2	-0.05011625
57	0xbca0343e	-0.019556161
58	0xbc804d67	-0.015661908
59	0xbda168e6	-0.07881336
60	0xbca4c782	-0.020114664
61	0xbcf861f1	-0.03032014
62	0xbd00ea13	-0.03147323
63	0xbc76cbed	-0.015063268
64	0x3d9652b0	0.0733999
65	0xbb0ca528	-0.0021460745
66	0x3c00ba9d	0.007856992
67	0xbceb6807	-0.028736128
68	0x3b88d7ab	0.0041761003
69	0xbd84d6c7	-0.06486278
70	0xbd67ad3a	-0.056561686
71	0x3b24d8b3	0.0025153577
72	0x3d2d4c88	0.042309314
73	0xbd5d4220	-0.05401814
74	0xbd1c65bc	-0.03818296
75	0xbc783c41	-0.015151084
76	0x381bafca	3.7118596e-05
77	0xbbed052b	-0.007233282
78	0xbd888552	-0.06666054
79	0x3ca23e83	0.019805199
80	0xbceddb6a	-0.029035289
81	0x3d000070	0.031250417
82	0x3d3f7057	0.046737995
83	0xbd12d25c	-0.035845146
84	0xbcfa7dfb	-0.03057765
85	0x3d6828de	0.0566796
86	0x3ca5aa99	0.020222949
87	0xbd316491	-0.0433088
88	0xbd137bb3	-0.03600664
89	0x3a8905be	0.0010453982
90	0xbc7d51db	-0.01546141
91	0x3cfa76d9	0.03057425
92	0xbba7c16f	-0.0051194946
93	0xbd4eb481	-0.05046511
94	0xbc770467	-0.015076733
95	0x3d4d18e1	0.050072554
96	0x3ba2dc67	0.0049701217
97	0xbc4e5a4b	-0.01259477
98	0x3d7c660a	0.06162075
99	0xbcc3e4e5	-0.023912856
100	0x3be54bc6	0.0069975583
101	0xbda6b210	-0.081394315
102	0xbd22618f	-0.03964382
103	0x3d1aef53	0.037825894
104	0x3d4208dd	0.047371734
105	0xbb5d9f0b	-0.003381672
106	0xbd6946e9	-0.05695239
107	0x3d9ac47d	0.075570084
108	0x3d11b43b	0.03557227
109	0x3c4042eb	0.0117347045
110	0x378594d4	1.5924139e-05
111	0xbd98a7b2	-0.0745386
112	0x3ca27e40	0.019835591
113	0xbcb2bfd0	-0.021819979
114	0xbd482a00	-0.04886818
115	0xbd63e862	-0.05564154
116	0xbd6ef8ee	-0.058342867
117	0xbd9da57d	-0.0769758
118	0xbd71cfaf	-0.059035953
119	0x3d6655aa	0.05623404
120	0xbd919b9e	-0.0710976
121	0xbd15ee66	-0.036604308
122	0xbd534243	-0.051576864
123	0x3d4afde8	0.04955855
124	0x3cd22a5f	0.02565497
125	0x3c79b5ac	0.015241068
126	0x3d5c6f6d	0.0538172
127	0xbc202672	-0.009774791
128	0x3cc31769	0.023814874
129	0x3b4959b2	0.0030723629
130	0xbd0d9e65	-0.034574885
131	0x3daa2f15	0.083097614
132	0xbb126863	-0.0022340051
133	0x3d564c58	0.0523189
134	0x3d4f5ba8	0.05062452
135	0xbcd85c46	-0.026411187
136	0xb8c9c5e6	-9.621288e-05
137	0x3d0538dd	0.032524932
138	0xbc9f3b3d	-0.019437427
139	0x379d8c81	1.8781286e-05
140	0x3d556908	0.05210212
141	0x3aaff90e	0.0013425665
142	0xbd1bfe35	-0.038084228
143	0xbd8b1dd2	-0.06792797
144	0x3d4f38a2	0.05059112
145	0x36b3ea6d	5.3619065e-06
146	0xbc67f10d	-0.014156592
147	0xbc3728a8	-0.011179127
148	0xb9a5d3a1	-0.00031628928
149	0xbc8929c6	-0.016743552
150	0xbb51ce0e	-0.0032013687
151	0xbd90858a	-0.070567206
152	0x3c86adeb	0.016440352
153	0x3d32f0be	0.04368662
154	0x3c97ed8c	0.018545888
155	0x3c7efe15	0.015563508
156	0xbd496357	-0.049167003
157	0xbcec9bb3	-0.028882837
158	0x3d60cc52	0.054882355
159	0xbda16e03	-0.07882311
160	0x3d50664d	0.05087881
161	0x3d14986b	0.03627817
162	0xba9557b5	-0.0011393937
163	0xbca20ff4	-0.019782998
164	0xbbc6d40f	-0.00606776
165	0x3d4aed48	0.049542695
166	0xb88032f0	-6.1130035e-05
167	0x3d4a1135	0.049332816
168	0xbcd946a3	-0.02652294
169	0x3d1f62cf	0.03891259
170	0x3c6f77e3	0.014615986
171	0x3bf88f4c	0.0075854417
172	0xbda1b6e1	-0.078962095
173	0x3d3b1712	0.0456763
174	0x3cbb3c2f	0.022855846
175	0x3c5123ab	0.012764852
176	0x3c9e0da3	0.019293612
177	0x3d72d5c8	0.05928591
178	0x3cefc928	0.029270723
179	0x3cf90104	0.030395992
180	0xbd431616	-0.047628485
181	0x3c6ef089	0.014583715
182	0x3d014e73	0.031568956
183	0x3bda561e	0.006663098
184	0xbd6244cb	-0.055241387
185	0xb99d9d30	-0.00030062487
186	0xbcf4bb12	-0.029874358
187	0xbcbe1307	-0.023202432
188	0x3cd6b154	0.026207604
189	0xbabbb5fa	-0.0014321201
190	0x3da42682	0.08015157
191	0x3d746a9f	0.059671994
192	0x3d4cabbe	0.049968474
193	0x3b3d4389	0.0028879365
194	0x3d698b89	0.057017837
195	0xbd019568	-0.031636626
196	0x3d85630d	0.06513033
197	0x3beef03f	0.007291823
198	0xbd6a93f7	-0.057270017
199	0x3ca106df	0.019656597
200	0x3d7e54e7	0.062092688
201	0x3cc321eb	0.023819884
202	0xbd826433	-0.06366768
203	0xbd79f17d	-0.061021317
204	0x3d673c28	0.056453854
205	0xb799761a	-1.8294017e-05
206	0xbc747b4b	-0.014921973
207	0x3cbac49a	0.022798825
208	0xba7f72a4	-0.0009744561
209	0x3d184ed9	0.03718457
210	0xbd94a36e	-0.07257734
211	0x3bdd6ef6	0.0067576123
212	0xbd49cf86	-0.049270175
213	0x38af3ed3	8.356352e-05
214	0x3bcfcd67	0.0063416245
215	0x3d09caa4	0.03364052
216	0x37d1f592	2.5029094e-05
217	0xbc107674	-0.008817304
218	0x3b9bf873	0.004759842
219	0xbd1acdc4	-0.03779389
220	0xbcfa3692	-0.0305436
221	0xbbecf1dd	-0.007230981
222	0x3da4c47b	0.08045288
223	0x3cdf9b51	0.02729574
224	0x3c282f56	0.010265192
225	0xbc91a3bb	-0.017778268
226	0x3d9131fb	0.07089611
227	0x3d0e7ccc	0.034786984
228	0x3bfd8d6e	0.007737807
229	0xbb2554be	-0.0025227512
230	0x3da3729f	0.079808466
231	0x3a0697c2	0.0005134308
232	0xbd455c21	-0.048183564
233	0xbd420435	-0.047367293
234	0x3af8318e	0.0018935667
235	0x3d3ece26	0.046583317
236	0x3adc30ac	0.0016799173
237	0xbc19e383	-0.009392622
238	0x3ad98eb6	0.0016598317
239	0xbbebc675	-0.007195289
240	0xbcfd9128	-0.030953005
241	0x3bbed491	0.0058236797
242	0xba0c4802	-0.0005351306
243	0x3cb5a2bc	0.022172324
244	0xb942bb31	-0.00018571016
245	0x3db0857f	0.08619212
246	0x3cf3bb09	0.029752271
247	0xbb6b12fd	-0.0035869472
248	0x3ca4e82b	0.020130238
249	0xbb566ced	-0.0032718733
250	0x3d344b0f	0.044016894
251	0xbdacef15	-0.08444039
252	0xb83354bd	-4.2755844e-05
253	0x3cd1cd50	0.025610596
254	0x3c3ed574	0.011647571
255	0xbda61bfa	-0.08110805

network.0.bias f4 [256]
0	0xb8d70f6b	-0.00010254871
1	0x367e8170	3.7924292e-06
2	0x39afae3c	0.00033508416
3	0x39745653	0.00023301812
4	0xb9f0b3fd	-0.0004591047
5	0xb9d2b628	-0.00040190038
6	0xb78df691	-1.6923326e-05
7	0xb9ec1353	-0.00045027825
8	0xb82a58c1	-4.0613817e-05
9	0x37febf73	3.036831e-05
10	0x39e1999e	0.00043029798
11	0x393e0348	0.00018121034
12	0xbbd87c3b	-0.0066066063
13	0xb9845406	-0.00025239604
14	0xb9f4e5d3	-0.0004671054
15	0x37ba1cb9	2.2186303e-05
16	0x39b35712	0.00034206413
17	0xb917648d	-0.0001443794
18	0xb9818603	-0.00024704644
19	0xb85cb149	-5.2617197e-05
20	0x3771b51c	1.4406887e-05
21	0xba51ba7b	-0.0008000505
22	0xbb951291	-0.0045493324
23	0xb8bb37d8	-8.9272566e-05
24	0xb9ca4be2	-0.0003858498
25	0xb90de8f4	-0.0001353359
26	0x3bb27215	0.0054457285
27	0xb930eb06	-0.00016872221
28	0xb79e52da	-1.8873649e-05
29	0x39516116	0.0001996796
30	0xb79cda20	-1.8698222e-05
31	0xb9fa3260	-0.00047721248
32	0x39c293c7	0.00037112666
33	0x39805429	0.00024476767
34	0x3861a19d	5.3794694e-05
35	0x39e148b7	0.0004296952
36	0x373a0efe	1.1089955e-05
37	0xba068e1d	-0.0005132871
38	0x399b210a	0.0002958852
39	0x3b9fb082	0.0048733363
40	0xb5b5aac0	-1.3535246e-06
41	0xb9313800	-0.00016900897
42	0x39c69b04	0.00037881
43	0xbacea56d	-0.0015765853
44	0x39fa2e84	0.00047718373
45	0xb9c6b1d3	-0.00037897992
46	0xb8af48e9	-8.358231e-05
47	0x382e765d	4.1595067e-05
48	0xbbbe4bbd	-0.0058073686
49	0xbb6acaf0	-0.0035826527
50	0xb84fd6ab	-4.955257e-05
51	0xbba5d2eb	-0.005060544
52	0xba8f2047	-0.0010919654
53	0x39cccb07	0.0003906118
54	0x379108bb	1.7289412e-05
55	0xb9bc0773	-0.00035863704
56	0xb833ef1b	-4.289961e-05
57	0xb9f16b38	-0.00046046986
58	0x394c337e	0.00019474138
59	0xb7843f3a	-1.5765068e-05
60	0xb873323a	-5.7982492e-05
61	0xb6977e8a	-4.5148818e-06
62	0x397f1958	0.00024328136
63	0xb9f5c3bb	-0.00046875872
64	0xbad4a7ae	-0.0016224289
65	0xb94b40d8	-0.00019383745
66	0xb9038133	-0.00012541264
67	0xbb057016	-0.0020360998
68	0x378f2edb	1.7068747e-05
69	0x376eb880	1.4228863e-05
70	0xbb875ee8	-0.0041311868
71	0x38de8123	0.000106098385
72	0xb862dda3	-5.4089014e-05
73	0x399b3447	0.00029602853
74	0x39f41a84	0.00046559062
75	0x3a8dcb7c	0.0010818089
76	0x3bf7c4c8	0.0075613
77	0xb8b26b50	-8.50769e-05
78	0x3ad17c2c	0.0015982441
79	0x3b8f4bda	0.004373056
80	0xb8386325	-4.3961354e-05
81	0xb9c7031a	-0.0003795855
82	0xbbd09a2e	-0.006366036
83	0xba1d2408	-0.0005994444
84	0xb73c18ae	-1.1211419e-05
85	0xb9f841e3	-0.00047351336
86	0x3777f96c	1.478042e-05
87	0xbbac78af	-0.00526341
88	0xb4904ba8	-2.6877137e-07
89	0x3855dee8	5.0990755e-05
90	0xba67dbca	-0.0008844702
91	0xb792d388	-1.7503058e-05
92	0xbbe43c80	-0.00696522
93	0xb98ff436	-0.00027457037
94	0x3bc0ef76	0.005887921
95	0x39f245a7	0.00046209732
96	0xb831ebbc	-4.2419633e-05
97	0x37b2a84b	2.1297621e-05
98	0xb863cc0b	-5.4311047e-05
99	0x38ad93b0	8.276792e-05
100	0xb9342fc4	-0.00017183932
101	0xb87b5758	-5.992441e-05
102	0xb873087c	-5.7943616e-05
103	0x399f7122	0.00030411134
104	0xb98f4d27	-0.00027332568
105	0xb82545a0	-3.940391e-05
106	0xb96b19ac	-0.0002242091
107	0xb5831b44	-9.768196e-07
108	0x384c2e6f	4.8680635e-05
109	0xb93918e0	-0.00017652242
110	0xb778cf94	-1.4830282e-05
111	0x398bd157	0.00026668116
112	0xb8cee31c	-9.865148e-05
113	0x3755c8f2	1.2742576e-05
114	0x3899dc64	7.3366595e-05
115	0xb9347ca7	-0.00017212574
116	0x371b754e	9.266032e-06
117	0xb86ee804	-5.6959703e-05
118	0x39bc78cb	0.00035948152
119	0xb7a0689c	-1.9122199e-05
120	0x3a66a6da	0.00087986665
121	0xb9301b2e	-0.00016794793
122	0x3969bbc1	0.00022290555
123	0x39eba162	0.00044942932
124	0xb97f4e4b	-0.00024347861
125	0x39d9206a	0.00041413616
126	0xb947a025	-0.00019037777
127	0x384b6bb2	4.849927e-05
128	0x3941127a	0.00018412797
129	0xb95e2e7b	-0.00021188885
130	0x38c53ab1	9.404624e-05
131	0x3710e70f	8.636866e-06
132	0xb903bab9	-0.00012562693
133	0x3bb32f1c	0.0054682624
134	0x3be2e38e	0.0069240993
135	0xb9412db8	-0.00018422946
136	0x3bb535df	0.0055301036
137	0x3a6e0d0c	0.00090809236
138	0xb797d958	-1.8101811e-05
139	0xb8247073	-3.9205373e-05
140	0x39e08dc2	0.00042830227
141	0xb822b3c8	-3.8791244e-05
142	0xbb8fd12f	-0.0043889503
143	0x3987e00a	0.0002591613
144	0x39ead0f7	0.0004478765
145	0xbb3308fe	-0.0027318592
146	0x3b9da9b3	0.0048114895
147	0xbabe9bfe	-0.0014542339
148	0x3a0e837d	0.00054364634
149	0xb9eeebef	-0.00045570682
150	0x3bf79120	0.007555142
151	0x390420e9	0.00012600761
152	0x3862fbb1	5.4117005e-05
153	0xb7676e2e	-1.3794326e-05
154	0xb9255953	-0.00015768902
155	0x39e99e6a	0.0004455925
156	0xba1dc710	-0.00060187373
157	0x395937b4	0.00020715484
158	0xb970504c	-0.00022918097
159	0xb83ff112	-4.5762463e-05
160	0xbbd62a98	-0.0065358393
161	0xb9ba5f49	-0.00035547678
162	0xb9f304a3	-0.00046352026
163	0x3932e544	0.00017060811
164	0x39f6acb4	0.0004704945
165	0xb90fd711	-0.00013717661
166	0xba44bdbc	-0.0007505079
167	0x3930e91d	0.0001687151
168	0x3b08c932	0.0020871875
169	0xb8be9453	-9.0875335e-05
170	0xb7952b1d	-1.778226e-05
171	0x3bd1bb8b	0.0064005307
172	0x39c79316	0.00038065825
173	0xb7d56392	-2.5437945e-05
174	0xb91160ab	-0.00013864289
175	0xb9ec4b69	-0.00045069613
176	0x38342390	4.2948464e-05
177	0x38a022ca	7.6358745e-05
178	0x36a85448	5.016602e-06
179	0xbb9efa2b	-0.0048515997
180	0xb8b856fa	-8.790004e-05
181	0xbaabb2d7	-0.0013099563
182	0xb976a36a	-0.00023521265
183	0xb978aa5f	-0.00023714591
184	0x38a90e26	8.061183e-05
185	0x39f161d6	0.00046039996
186	0xb92b2557	-0.00016321741
187	0x3bcffd5f	0.006347343
188	0x392a6eeb	0.00016253784
189	0xb71e909a	-9.451202e-06
190	0xbb26e194	-0.0025464045
191	0x3931aa63	0.0001694351
192	0xb9f28523	-0.00046257031
193	0x37b9cd7e	2.2149408e-05
194	0x3a94d450	0.0011354778
195	0xb9861535	-0.00025574272
196	0xbac47a8c	-0.0014990135
197	0x39e4872c	0.0004358826
198	0x3a552dac	0.0008132111
199	0xb8bca2e4	-8.994879e-05
200	0x39c91706	0.0003835486
201	0xbb9db280	-0.0048125386
202	0x3b63a839	0.003473772
203	0xb98fcb29	-0.00027426452
204	0x3928b6a8	0.00016089773
205	0xb86be9bc	-5.624605e-05
206	0x3547b03e	7.4389743e-07
207	0x37d6e72d	2.5618438e-05
208	0x3898800e	7.271777e-05
209	0x3b80d9b2	0.0039322013
210	0x374f6b44	1.2363136e-05
211	0xb640b54a	-2.8715754e-06
212	0x3b9b5e7e	0.004741489
213	0x3b654360	0.0034982786
214	0x38dc1026	0.00010493425
215	0xbb7ffea3	-0.0039061687
216	0xb7918995	-1.7349414e-05
217	0x3985f72e	0.000255519
218	0xbbf19357	-0.0073723006
219	0x38385187	4.3944947e-05
220	0xbb96d48c	-0.0046029743
221	0x3b37d18b	0.0028048481
222	0x3b7e9100	0.003884375
223	0x3b071cf1	0.0020616616
224	0xb78db6e4	-1.6893675e-05
225	0x39986c2c	0.00029072294
226	0x39271315	0.0001593347
227	0x361dff46	2.3543412e-06
228	0xb8185569	-3.631917e-05
229	0xb89334f7	-7.019372e-05
230	0xb9287c82	-0.00016068111
231	0x39f74050	0.00047159428
232	0xb939607f	-0.00017678922
233	0x388ed6fb	6.811131e-05
234	0xb8a7f245	-8.008307e-05
235	0xbbca7a24	-0.006179111
236	0x38c845e5	9.549762e-05
237	0xb6bcb3ee	-5.623783e-06
238	0xb8b9a473	-8.8521185e-05
239	0xbbee24d4	-0.007267574
240	0xb9ee9ca3	-0.000455116
241	0xb9041c79	-0.00012599108
242	0xb8062d04	-3.1990014e-05
243	0x3743fe2e	1.1682087e-05
244	0x39ed4282	0.00045253715
245	0x3bdc0f7a	0.006715712
246	0x39e38f4b	0.00043403576
247	0x38915b1f	6.9311114e-05
248	0xb68dcdb0	-4.2260726e-06
249	0x37a17ce1	1.9250847e-05
250	0x3a75799f	0.0009364131
251	0xb80e8084	-3.3975128e-05
252	0xb9592d68	-0.00020711648
253	0xb7f66bc6	-2.9375671e-05
254	0xbb00af92	-0.0019635898
255	0xb899e288	-7.337803e-05

network.1.weight f4 [256]
0	0x3f7fd2c0	0.99930954
1	0x3f7db87d	0.9910963
2	0x3f79f993	0.97646445
3	0x3f818a4e	1.0120332
4	0x3f7ee842	0.9957315
5	0x3f810026	1.007817
6	0x3f7f63f2	0.9976188
7	0x3f81d604	1.0143437
8	0x3f805ed1	1.0028936
9	0x3f7990d2	0.97486603
10	0x3f7a5a6f	0.9779424
11	0x3f811e0d	1.0087296
12	0x3f7eabe6	0.99481046
13	0x3f7c8180	0.986351
14	0x3f816cae	1.0111291
15	0x3f7f7928	0.99794245
16	0x3f7faa14	0.99868894
17	0x3f803f67	1.0019349
18	0x3f7c0d95	0.98458225
19	0x3f80c58b	1.0060285
20	0x3f80fa09	1.0076305
21	0x3f7bdf62	0.9838773
22	0x3f7a381e	0.9774188
23	0x3f7b7366	0.9822296
24	0x3f805544	1.0026021
25	0x3f812bad	1.0091454
26	0x3f80a8a7	1.0051469
27	0x3f8007a6	1.0002334
28	0x3f7b8ccd	0.9826172
29	0x3f8253bd	1.0181805
30	0x3f803083	1.0014805
31	0x3f7cb8e3	0.98719615
32	0x3f7bfef5	0.9843591
33	0x3f8063a1	1.0030404
34	0x3f819f13	1.0126671
35	0x3f7fbc42	0.99896634
36	0x3f7eb619	0.9949661
37	0x3f819413	1.0123314
38	0x3f7e96ca	0.99448836
39	0x3f7e405c	0.99316955
40	0x3f7b3511	0.9812785
41	0x3f80551c	1.0025973
42	0x3f81bd81	1.0135957
43	0x3f7f478a	0.99718535
44	0x3f81b69e	1.0133855
45	0x3f7ce977	0.9879374
46	0x3f7ee3a5	0.9956611
47	0x3f813eac	1.0097251
48	0x3f80e036	1.0068424
49	0x3f7de6d5	0.99180347
50	0x3f8159a0	1.0105476
51	0x3f826b0c	1.0188918
52	0x3f7f3e1d	0.9970415
53	0x3f831ef4	1.0243821
54	0x3f8100b3	1.0078338
55	0x3f7c4462	0.98541844
56	0x3f80dc99	1.0067321
57	0x3f7ed91f	0.9955005
58	0x3f7c783b	0.9862096
59	0x3f8020bc	1.000999
60	0x3f7fa508	0.9986119
61	0x3f80e6e9	1.0070468
62	0x3f803c82	1.0018466
63	0x3f7e5108	0.99342394
64	0x3f812271	1.0088636
65	0x3f80fc55	1.0077006
66	0x3f7fe929	0.9996515
67	0x3f7f05f0	0.99618435
68	0x3f7cf5d5	0.9881261
69	0x3f805d25	1.0028425
70	0x3f80afd5	1.005366
71	0x3f7cdcd4	0.98774457
72	0x3f82ac96	1.0208919
73	0x3f801347	1.0005883
74	0x3f80919b	1.0044435
75	0x3f7b839f	0.9824771
76	0x3f7bc330	0.9834471
77	0x3f8098cc	1.004663
78	0x3f81788e	1.0114915
79	0x3f7e42af	0.993205
80	0x3f8139e3	1.0095791
81	0x3f7d9d7c	0.9906843
82	0x3f7eab6d	0.99480325
83	0x3f801232	1.0005553
84	0x3f7bd284	0.98368096
85	0x3f7f619d	0.9975832
86	0x3f7b02fa	0.98051417
87	0x3f7deede	0.9919261
88	0x3f7ecc53	0.99530524
89	0x3f8092fc	1.0044856
90	0x3f7fa177	0.9985575
91	0x3f7db111	0.99098307
92	0x3f80aa48	1.0051966
93	0x3f81ae82	1.013138
94	0x3f81d5b5	1.0143343
95	0x3f7dcd61	0.9914151
96	0x3f7a61ac	0.97805285
97	0x3f7fd739	0.9993778
98	0x3f7d835d	0.9902857
99	0x3f7df53a	0.9920231
100	0x3f7fdcbb	0.9994618
101	0x3f8003d3	1.0001167
102	0x3f7dd8be	0.9915885
103	0x3f80012f	1.0000361
104	0x3f7ee596	0.9956907
105	0x3f82b400	1.0211182
106	0x3f805fa2	1.0029185
107	0x3f7d50d2	0.98951447
108	0x3f7e8f31	0.9943724
109	0x3f8025c1	1.0011522
110	0x3f7c7dfa	0.98629725
111	0x3f7d8fda	0.99047625
112	0x3f7e0bcc	0.9923675
113	0x3f806ac1	1.0032579
114	0x3f7fb7bc	0.9988973
115	0x3f83f2fd	1.0308529
116	0x3f7dc991	0.9913569
117	0x3f812eae	1.009237
118	0x3f7ea695	0.99472934
119	0x3f7f8b2c	0.99821734
120	0x3f7fbfa1	0.9990178
121	0x3f80e7f4	1.0070786
122	0x3f813762	1.0095026
123	0x3f7eb3ce	0.9949311
124	0x3f7c6e59	0.9860588
125	0x3f81262b	1.0089773
126	0x3f7f7541	0.9978829
127	0x3f818113	1.0117515
128	0x3f7c7833	0.9862091
129	0x3f7a2741	0.97716147
130	0x3f7c7685	0.98618346
131	0x3f7d9c40	0.99066544
132	0x3f818bab	1.0120748
133	0x3f80f35e	1.007427
134	0x3f80f400	1.0074463
135	0x3f7fb7d2	0.9988986
136	0x3f802fc9	1.0014583
137	0x3f7e7b5a	0.9940697
138	0x3f808f57	1.0043744
139	0x3f818212	1.0117819
140	0x3f7bcba5	0.9835761
141	0x3f804ca3	1.0023388
142	0x3f7abb9e	0.9794253
143	0x3f7d8351	0.990285
144	0x3f7e0fbb	0.9924275
145	0x3f7dbbf8	0.9911494
146	0x3f8003d6	1.0001171
147	0x3f809b81	1.0047456
148	0x3f7f0ad6	0.9962591
149	0x3f8268e3	1.0188259
150	0x3f7d6c91	0.98993784
151	0x3f804dc7	1.0023736
152	0x3f820c20	1.015995
153	0x3f80e85a	1.0070908
154	0x3f8052a2	1.0025218
155	0x3f7cf83e	0.9881629
156	0x3f80ac26	1.0052536
157	0x3f80585d	1.0026966
158	0x3f806d1c	1.0033298
159	0x3f80048b	1.0001386
160	0x3f7e6876	0.99378145
161	0x3f80dc7e	1.0067289
162	0x3f7aeff6	0.980224
163	0x3f809c35	1.0047671
164	0x3f7e8544	0.994221
165	0x3f81b3e9	1.0133029
166	0x3f7a8f3a	0.97874796
167	0x3f7b3cbd	0.98139554
168	0x3f7f0a01	0.9962464
169	0x3f7f5a71	0.9974738
170	0x3f7cfbce	0.98821723
171	0x3f7b1003	0.98071307
172	0x3f825fe6	1.0185516
173	0x3f7ef411	0.99591166
174	0x3f80ccc7	1.0062493
175	0x3f81ec3f	1.0150222
176	0x3f7fed24	0.9997122
177	0x3f7d57a9	0.98961884
178	0x3f8388c9	1.0276119
179	0x3f7e2f2c	0.9929073
180	0x3f8030ab	1.0014852
181	0x3f7f3788	0.9969411
182	0x3f80ae08	1.005311
183	0x3f81654b	1.0109037
184	0x3f7afe19	0.9804397
185	0x3f7e4873	0.993293
186	0x3f7fbbf3	0.9989616
187	0x3f7f6757	0.9976706
188	0x3f7e52c0	0.99345016
189	0x3f7b56c3	0.9817926
190	0x3f7d1a86	0.98868597
191	0x3f82f07a	1.0229638
192	0x3f80dff1	1.0068341
193	0x3f7f1356	0.9963888
194	0x3f7d4900	0.98939514
195	0x3f815a1c	1.0105624
196	0x3f7a3afb	0.9774625
197	0x3f7c718b	0.9861075
198	0x3f809aa7	1.0047196
199	0x3f80e807	1.0070809
200	0x3f7dd31a	0.9915024
201	0x3f7f1981	0.9964829
202	0x3f808794	1.0041375
203	0x3f834b1a	1.0257294
204	0x3f7b9f1f	0.98289675
205	0x3f7bc012	0.9833995
206	0x3f7dd270	0.9914923
207	0x3f7ec0bd	0.99512845
208	0x3f7e460d	0.9932564
209	0x3f80b6d8	1.00558
210	0x3f82c762	1.0217097
211	0x3f7e9b2e	0.99455535
212	0x3f822f51	1.017069
213	0x3f822715	1.0168177
214	0x3f803248	1.0015345
215	0x3f80ce24	1.0062909
216	0x3f7913eb	0.9729602
217	0x3f80a9fa	1.0051873
218	0x3f80b30f	1.0054644
219	0x3f80a98c	1.0051742
220	0x3f7f1ff8	0.99658155
221	0x3f7a1342	0.97685635
222	0x3f803456	1.0015972
223	0x3f806cae	1.0033166
224	0x3f807e5a	1.003856
225	0x3f7fcccc	0.9992187
226	0x3f7f7025	0.99780494
227	0x3f81a06b	1.0127081
228	0x3f7b6cd4	0.98212934
229	0x3f7e9f1e	0.99461544
230	0x3f7f3713	0.9969341
231	0x3f81bfb9	1.0136634
232	0x3f8073f5	1.0035387
233	0x3f7bc568	0.98348093
234	0x3f804c47	1.0023278
235	0x3f7a5ffa	0.978027
236	0x3f7f7c9d	0.9979952
237	0x3f7f611d	0.9975756
238	0x3f812c34	1.0091615
239	0x3f7d91f6	0.99050844
240	0x3f807b19	1.0037566
241	0x3f811a28	1.0086107
242	0x3f7cb88c	0.98719096
243	0x3f8233a9	1.0172015
244	0x3f8038b0	1.00173
245	0x3f7d7f03	0.9902193
246	0x3f805660	1.002636
247	0x3f7f29e7	0.9967331
248	0x3f80934a	1.0044949
249	0x3f8096f1	1.0046064
250	0x3f7ba46f	0.9829778
251	0x3f7d6c91	0.98993784
252	0x3f7e7b90	0.9940729
253	0x3f81a5a4	1.0128675
254	0x3f80fb23	1.0076641
255	0x3f7ed4a2	0.995432

network.1.bias f4 [256]
0	0x3c35c78c	0.011094939
1	0xbba1dc7d	-0.0049396143
2	0xbbcf082e	-0.0063181138
3	0x3bdcdb41	0.0067400043
4	0xbbf96fa6	-0.0076121865
5	0x3c14fa36	0.009092858
6	0x3c392df3	0.011302459
7	0x3c81c84b	0.015842577
8	0x3a6f450f	0.0009127417
9	0xbc538627	-0.012910402
10	0xbc22d3ec	-0.009938221
11	0x3c9c04f5	0.019045332
12	0x3bf1cdeb	0.0073792837
13	0x3c827627	0.01592548
14	0x3bdcb7f1	0.0067357947
15	0xbc0e0cf2	-0.008670079
16	0x3c18d6a3	0.009328517
17	0x3b63a0be	0.003473326
18	0xbcebcd5d	-0.028784448
19	0xb9247066	-0.0001568213
20	0xbc8dda74	-0.01731608
21	0xbc3718b0	-0.01117532
22	0xbbc38f02	-0.0059679756
23	0xbc8ee1e4	-0.017441697
24	0xbbe046c2	-0.0068443725
25	0x3ac24f23	0.001482461
26	0x3c331511	0.010930316
27	0x3c30b7a0	0.010785967
28	0xbbc3dfc8	-0.0059776045
29	0x3cf74a5b	0.030186823
30	0xbbfd3bb9	-0.0077280668
31	0xbc20d176	-0.009815564
32	0xbb80d1a5	-0.0039312416
33	0x3c3ed4ac	0.011647385
34	0x3c9fa710	0.019488841
35	0x3bb2453f	0.0054403837
36	0x3c30b899	0.010786199
37	0x3c0e0b6f	0.008669718
38	0x3c50cd6f	0.012744292
39	0x3be67325	0.0070327693
40	0xbc1d5825	-0.009603535
41	0x3bfeeae8	0.007779468
42	0x3cbb7835	0.022884468
43	0x3c3cf471	0.011532889
44	0x3bfada81	0.007655442
45	0x3bad2868	0.005284358
46	0x3cca0e11	0.02466491
47	0x3c49c605	0.012315278
48	0x3c96cf08	0.018409267
49	0xbb2bdfeb	-0.0026225995
50	0x3b9b470b	0.0047386936
51	0x3c8151a8	0.015786007
52	0xbc432a10	-0.011911884
53	0x3c82f51a	0.015986014
54	0x3bf0e75a	0.007351798
55	0x3bbec9a6	0.005822378
56	0x3b5e8caf	0.0033958366
57	0x3c84af50	0.016196877
58	0xbc255ddc	-0.010093179
59	0x3c13852e	0.0090039205
60	0x3bfe9c41	0.0077700918
61	0x3bbab426	0.005697745
62	0x3c188021	0.009307892
63	0xbab4d8d7	-0.0013797533
64	0xbaa2e558	-0.0012427969
65	0x3c020a64	0.007937048
66	0x3c2ae1e4	0.010429833
67	0xbbb465f5	-0.0055053183
68	0xbc0463be	-0.008080421
69	0x3cd9c46f	0.026582925
70	0x3c33ce79	0.01097452
71	0x3a993cb2	0.0011691062
72	0x3cffd00e	0.031227138
73	0xbba28a1f	-0.004960313
74	0x3b1ae1da	0.0023633153
75	0xbce1dd52	-0.027571354
76	0xbc844235	-0.016144851
77	0xba60e5c9	-0.00085791625
78	0x3b2ddc04	0.0026528845
79	0x3c14d125	0.009083067
80	0xba3cfbef	-0.0007209172
81	0xbaa07106	-0.0012240715
82	0xbc4568a4	-0.012048874
83	0xba82a5da	-0.000996764
84	0xbc233350	-0.009960964
85	0x3c07ba26	0.008284127
86	0xbc512246	-0.012764519
87	0xba8441f2	-0.0010090454
88	0x3bfca354	0.0077099
89	0xbb0f2c41	-0.0021846446
90	0x3b5084b1	0.0031817371
91	0xbc7e7ca6	-0.015532648
92	0x3b8c5265	0.004282283
93	0x3b42d026	0.0029726117
94	0x3c43f3e5	0.011960004
95	0xbc92ac69	-0.017904477
96	0xbc5ca627	-0.013467348
97	0x3b1f0e01	0.0024269822
98	0xbc5b4f78	-0.013385646
99	0xbc83e44f	-0.016100077
100	0xba5f1fe1	-0.0008511525
101	0x3b7c4f46	0.00384994
102	0xbaa164ea	-0.00123134
103	0x3b542254	0.0032369094
104	0xbc679e8d	-0.014136923
105	0x3c2ed8cb	0.010671805
106	0x3c0d3e02	0.008620741
107	0xbc755607	-0.014974124
108	0xbc7d4358	-0.0154579505
109	0xbc35a388	-0.011086352
110	0xbbb8c48a	-0.0056386637
111	0xba951268	-0.0011373283
112	0xbcef1398	-0.029184148
113	0xbab356c8	-0.0013682479
114	0xbc75b33d	-0.014996347
115	0x3cc5ac48	0.024130002
116	0xbaf4c344	-0.0018673916
117	0x3c11bfab	0.008895795
118	0xbb14baed	-0.0022694424
119	0x390fe7a8	0.00013723841
120	0x3b816a7b	0.003949461
121	0x3c4ffd57	0.012694678
122	0x3c51c01a	0.012802148
123	0xbc241bca	-0.010016391
124	0xbc8f115d	-0.017464334
125	0x3c3bbda8	0.011458792
126	0x3b9a0522	0.004700319
127	0x3bdd27a4	0.0067491103
128	0xbc041d14	-0.008063573
129	0xbcb75d92	-0.022383485
130	0xbc93170c	-0.017955326
131	0xbcb6fe8b	-0.022338172
132	0xbbb8714f	-0.005628742
133	0x3c461613	0.012090224
134	0x3c2d5fca	0.01058192
135	0xbb7c5f9a	-0.0038509131
136	0xb9d373d4	-0.00040331355
137	0xbac631e1	-0.0015121066
138	0x3b1f8a2e	0.0024343836
139	0x3bb0aa67	0.0053914073
140	0xbc03d651	-0.0080467025
141	0xbbeb5102	-0.0071812877
142	0xbc92c6f4	-0.017917134
143	0xbbc6f5d4	-0.0060717855
144	0xbb777b1f	-0.0037762595
145	0xbb551317	-0.00325126
146	0x3c67c927	0.01414708
147	0x3c4913b7	0.012272767
148	0xbb805700	-0.003916621
149	0x3cf939e7	0.030423118
150	0x3b96380a	0.004584317
151	0x3c110218	0.008850597
152	0x3c902432	0.017595384
153	0xbb18cf0e	-0.0023316774
154	0xb889a664	-6.563662e-05
155	0xbb8489f7	-0.004044767
156	0x3c750ba2	0.014956387
157	0x3bf03b70	0.0073313043
158	0xbb7992dd	-0.0038081922
159	0x3c375618	0.01118996
160	0xbbbcdf85	-0.0057639503
161	0xba33f3af	-0.000686462
162	0xbb384060	-0.0028114542
163	0x3ba0f7cf	0.0049123536
164	0x3b9c276b	0.004765441
165	0x3c1b505d	0.009479609
166	0xbcadf628	-0.02123554
167	0x3bf3f6c7	0.0074451896
168	0xbc28b932	-0.01029806
169	0x3ba5eb7e	0.0050634732
170	0x3b096c38	0.0020969044
171	0xbc829303	-0.015939241
172	0x3c7a61f8	0.015282147
173	0x3c7f9bbe	0.015601097
174	0x3ca7c03e	0.02047741
175	0xba9cce49	-0.0011963333
176	0xbbb7bce6	-0.0056072352
177	0xbc157d03	-0.009124043
178	0x3cab95be	0.020945426
179	0xbc1283a9	-0.008942523
180	0xbc2ea014	-0.010658283
181	0x3b8ea384	0.0043529887
182	0xbbcb0a8d	-0.006196326
183	0x3c92b56d	0.017908776
184	0xbc192ffb	-0.009349818
185	0xbc1871b2	-0.009304451
186	0x3c1a8c2d	0.009432835
187	0x3c2047d3	0.009782749
188	0xbb414146	-0.002948837
189	0xbb80ceb9	-0.0039308933
190	0xbc264a64	-0.010149572
191	0x3bebe36d	0.007198742
192	0x3c941ebd	0.018081063
193	0x39a958f4	0.00032300467
194	0xbb0f909a	-0.0021906258
195	0x3c0f4188	0.008743651
196	0xbc6d272e	-0.014474673
197	0xbc04139e	-0.008061318
198	0x3c961631	0.018321129
199	0x3c939294	0.01801423
200	0xbb637303	-0.0034706003
201	0xbc07ae9c	-0.008281376
202	0x3be2c536	0.006920482
203	0x3c641bb8	0.013922624
204	0xbc08016d	-0.008301121
205	0x3b956031	0.004558586
206	0x39965c9c	0.0002867923
207	0xbb9bb141	-0.004751355
208	0x3bfff101	0.0078107123
209	0x3c0bbd67	0.008529044
210	0x3cb32b17	0.021871133
211	0x3b53a37a	0.0032293485
212	0x3c07e795	0.00829496
213	0x3bf65424	0.0075173546
214	0xbbe8da0d	-0.007106072
215	0xbb44f51a	-0.0030053318
216	0xbb04cadf	-0.0020262522
217	0x3c27de85	0.010245924
218	0x39bc36a5	0.00035898868
219	0x3bd9a8c4	0.006642433
220	0xbc63ab2e	-0.013895793
221	0xbc3cb2ed	-0.011517269
222	0x3ad72b6a	0.0016416137
223	0xbaf078c7	-0.0018346541
224	0x3a6a6698	0.0008941679
225	0x3b9440d0	0.004524328
226	0x3c0ca7f5	0.008584966
227	0x3c82113d	0.01587736
228	0x3b98e22f	0.004665635
229	0xbc0fd1c6	-0.008778041
230	0xbb50a98c	-0.003183934
231	0x3cbb69ca	0.022877593
232	0x3bd2e0f1	0.0064355065
233	0xbbea2775	-0.007145817
234	0x3b752ba4	0.0037410045
235	0xbca0f58d	-0.019648338
236	0xbc58af5a	-0.013225401
237	0xbbbec2f3	-0.0058215796
238	0x3c4413b9	0.011967593
239	0xbc5c3e1f	-0.013442545
240	0xbc1eb525	-0.009686743
241	0x3bfdd35f	0.0077461447
242	0xbba56c4c	-0.0050483104
243	0x3c8a5091	0.01688412
244	0x3c2c5e8b	0.010520588
245	0x3b8e94ff	0.004351258
246	0x3c470271	0.012146578
247	0xbb8e7652	-0.004347601
248	0xbb69c7c6	-0.0035672053
249	0xbb5e2593	-0.0033896908
250	0xbc92497f	-0.017857311
251	0xbbd2d388	-0.006433908
252	0xbbf9a995	-0.0076190927
253	0xbbccd298	-0.0062506907
254	0x3ca94f6a	0.02066775
255	0x3c3f52f4	0.011677492

network.1.running_mean f4 [256]
0	0xb8a016c0	-7.633632e-05
1	0xbcb69536	-0.022287946
2	0xb815f100	-3.5748817e-05
3	0x3a5ed460	0.0008500274
4	0xbc47d77d	-0.0121973725
5	0xb9a737b0	-0.00031894213
6	0xbc3d3cdb	-0.011550154
7	0xbbf08322	-0.007339851
8	0x3c1d7842	0.009611191
9	0xbc706468	-0.014672376
10	0x3a8f1e9e	0.0010919159
11	0xbc8061cd	-0.015671635
12	0xbc437eb8	-0.011932068
13	0x3b4424ae	0.002992909
14	0xbb95f97b	-0.0045768595
15	0xbc2514b8	-0.0100757405
16	0xbb8d9903	-0.004321219
17	0x3bb496ee	0.0055111563
18	0x3c781f26	0.015144145
19	0xbb5e75b4	-0.0033944668
20	0x3bc32388	0.0059551634
21	0x3ad11f44	0.0015954752
22	0xbc2b9fb3	-0.010475087
23	0x3bfadc23	0.007655637
24	0x3bee07ea	0.007264127
25	0xbc17bc50	-0.009261206
26	0x3aa83070	0.0012831818
27	0xbc8b262a	-0.016985971
28	0x3c780308	0.015137441
29	0xbb19b12c	-0.002345155
30	0x3c03b5cd	0.00803895
31	0xbc4b5a14	-0.012411613
32	0x3c38159a	0.011235619
33	0xbb815391	-0.0039467295
34	0xbbfe53a8	-0.0077614374
35	0xbbb1093a	-0.005402711
36	0xbc3a5500	-0.011372805
37	0x3baca12a	0.0052682357
38	0xbb571774	-0.0032820376
39	0xbba695ce	-0.005083776
40	0x3bc9e151	0.006160893
41	0x3c5ba639	0.01340633
42	0x3c34b928	0.011030473
43	0xbc83478b	-0.016025325
44	0x3b2bf987	0.002624126
45	0x3b4788dc	0.0030446565
46	0x3b97f8ec	0.004637828
47	0x3c9eb251	0.019372137
48	0xbbeca216	-0.0072214706
49	0x3a1c5060	0.00059629045
50	0x3c0aa2b5	0.008461644
51	0xbbee5919	-0.007273805
52	0x3ba8a28a	0.0051463293
53	0xbbd8a357	-0.0066112685
54	0x3b8b8d3e	0.0042587807
55	0xbb82a7e1	-0.003987298
56	0xbb85b7bc	-0.0040807407
57	0xbbe25b62	-0.0069078663
58	0xbbbd9fec	-0.0057868864
59	0xbbf62758	-0.0075120144
60	0xbc587e91	-0.0132137695
61	0x3c0acc25	0.008471523
62	0xbc131fa7	-0.0089797145
63	0x3c818e2e	0.015814867
64	0xbc52d6f8	-0.012868635
65	0xbc0b1371	-0.008488522
66	0xbc53bc56	-0.012923321
67	0xba23a550	-0.000624259
68	0xbc42122f	-0.011845156
69	0xbc09c85f	-0.008409589
70	0xbc825f0e	-0.015914466
71	0xbbbd2742	-0.005772502
72	0x3c0bdfc4	0.008537237
73	0xbc88fb6c	-0.01672145
74	0x3b1603b6	0.0022890395
75	0x3c02e7de	0.007989852
76	0x3c07aa1a	0.0082803015
77	0xbb940be8	-0.004518021
78	0x3bf5b466	0.007498312
79	0x3c06ec76	0.008235088
80	0x3c08958a	0.008336434
81	0xbc85fbe2	-0.016355459
82	0x39baf568	0.00035659526
83	0x3b87be74	0.004142577
84	0xbc094d0f	-0.008380189
85	0xbab6f414	-0.0013958239
86	0xb8ca6020	-9.650015e-05
87	0xbca2c7a4	-0.019870587
88	0xbbbc03fc	-0.0057377797
89	0xbb6e9119	-0.0036402403
90	0x3b833223	0.0040037795
91	0x3b1405be	0.002258643
92	0xbc6981c8	-0.014252134
93	0xbbfae0b3	-0.0076561808
94	0x3c11ad22	0.008891376
95	0x3aaeb127	0.0013327942
96	0x3bd8abb5	0.006612266
97	0x3a749720	0.00093303807
98	0xb9d64fd0	-0.00040876726
99	0x3b665c5a	0.003515026
100	0xba959fcc	-0.0011415421
101	0xbc4b959a	-0.0124258045
102	0x3a2e4570	0.000664792
103	0xbc3c1b2d	-0.011481089
104	0xbc0e7b50	-0.008696392
105	0x3c31c8b6	0.010851076
106	0x3bb6910d	0.0055714906
107	0xbc982f36	-0.0185772
108	0xbc729260	-0.014805406
109	0xbb957c25	-0.0045619183
110	0xbbc2730f	-0.005934126
111	0xbc80c884	-0.015720613
112	0xbc3ec908	-0.011644609
113	0x3ba1d51c	0.0049387347
114	0xbba63ea4	-0.0050733853
115	0x3bc4a1dc	0.0060007405
116	0x3a0c72f0	0.0005357703
117	0x3bd35cb8	0.006450262
118	0xb9b6d450	-0.0003487193
119	0x3c1901ba	0.009338791
120	0x3bce5af8	0.0062974654
121	0x3c2c5778	0.010518901
122	0xbbb3fd0a	-0.005492811
123	0x3bb54a0c	0.0055325087
124	0xbaa41e90	-0.0012521315
125	0xbad3bdc4	-0.0016154577
126	0xbc106f26	-0.008815562
127	0xbcafd4a3	-0.021463698
128	0x3bc8a863	0.006123589
129	0xbc51fa08	-0.01281596
130	0xbba099b8	-0.004901137
131	0xbba4c70e	-0.005028612
132	0xbab3e6e4	-0.0013725427
133	0x3bf4424e	0.007454193
134	0x3c116fcc	0.008876752
135	0x3690b800	4.312955e-06
136	0x3c74aa88	0.014933236
137	0xbbcddb7e	-0.006282269
138	0xbbbd2bfc	-0.0057730656
139	0xbab2d0b1	-0.0013642517
140	0x3b1407c5	0.0022587639
141	0xba19b460	-0.0005863365
142	0xbcb6a746	-0.022296559
143	0x3c66a96c	0.014078479
144	0xbb01edbe	-0.0019825543
145	0xb83fe800	-4.5754015e-05
146	0x3a141600	0.000564903
147	0xbb69aa5c	-0.003565452
148	0x3b854645	0.0040672147
149	0x3aee31f8	0.0018172851
150	0x3c7a3b4f	0.015272929
151	0xbbe0d0e2	-0.0068608383
152	0xbad5755c	-0.0016285586
153	0xbc2838bc	-0.010267433
154	0x3bc3f910	0.0059806183
155	0xbb2cf024	-0.0026388252
156	0x3b89167e	0.0041835895
157	0xbb072943	-0.002062396
158	0xb9967de8	-0.00028704037
159	0x3c262910	0.010141626
160	0xbb27908a	-0.002556833
161	0x3bce0eb6	0.006288375
162	0x3c1f878c	0.009736907
163	0x3beb96fc	0.0071896296
164	0xbbef5a80	-0.0073044896
165	0xba616ed6	-0.00085995847
166	0xbad764c4	-0.0016433229
167	0xbc4a6646	-0.012353485
168	0x3c20e3c4	0.009819929
169	0x3bb01816	0.005373965
170	0xbc195c18	-0.009360336
171	0x3c3a2125	0.011360441
172	0x3ac7ead8	0.0015252484
173	0xbb7caeb0	-0.003855627
174	0x3cb85c0f	0.022504834
175	0x3c996fae	0.01873001
176	0xbc47284e	-0.0121556055
177	0xbb072d0c	-0.0020626215
178	0xbc11aca0	-0.008891255
179	0xbc496a41	-0.012293399
180	0xbbaffdd3	-0.0053708344
181	0xbb3483eb	-0.002754445
182	0xbc1a87de	-0.009431807
183	0xbb57ca34	-0.003292692
184	0xbb93544a	-0.004496132
185	0xbc141aa1	-0.009039552
186	0xbb8d98ec	-0.004321208
187	0x3bf68018	0.007522594
188	0xbb3a859d	-0.0028460987
189	0xbb1c734f	-0.002387244
190	0x3bf9b6b0	0.007620655
191	0xba5a84c0	-0.00083358213
192	0xbb4c12ca	-0.003113913
193	0xbadb6cc0	-0.0016740784
194	0x3bfbcf18	0.0076845996
195	0x3a06ea4a	0.0005146606
196	0x3b5193c1	0.0031978937
197	0x3c0dbe41	0.008651317
198	0x3c12dc3d	0.008963642
199	0x3bd0df3a	0.006374267
200	0xbc4a93a0	-0.012364298
201	0xbc695392	-0.014241116
202	0xbb6427d5	-0.003481378
203	0xbab9b2d8	-0.001416768
204	0x3c44305e	0.011974422
205	0x3c96f35f	0.018426595
206	0xbac270c8	-0.0014834637
207	0xbb965b56	-0.004588525
208	0x3c09c07f	0.008407711
209	0x3bd539b5	0.0065071234
210	0x3bd97770	0.0066365525
211	0xbc55fecb	-0.013061236
212	0x3c916460	0.017748058
213	0x3c9f859e	0.019472893
214	0x3c813941	0.015774371
215	0xbc64633a	-0.013939673
216	0xbc1c8b55	-0.009554704
217	0x3ad51460	0.0016256683
218	0xbc39edac	-0.011348169
219	0x3c818063	0.01580829
220	0xbc9992d7	-0.018746777
221	0x3ca6a256	0.02034108
222	0xbacf782a	-0.0015828658
223	0x3bff4578	0.0077902637
224	0xbb9857b4	-0.004649127
225	0x3c4e0222	0.012573751
226	0xbac16691	-0.0014755299
227	0xbb2c1a33	-0.0026260733
228	0x3b903410	0.0044007376
229	0xbb2cd68f	-0.0026373004
230	0x3b21feb6	0.002471847
231	0xbc354520	-0.011063844
232	0xbb2a72e2	-0.0026008417
233	0x3bedf215	0.0072615244
234	0xbc66427d	-0.014053938
235	0xbb826caa	-0.003980239
236	0x3c4b58cf	0.01241131
237	0xbb1b258a	-0.0023673498
238	0x3bd14c22	0.0063872496
239	0xbbddf7a9	-0.006773908
240	0xbb55bb52	-0.0032612872
241	0x3bb40069	0.005493213
242	0xbc1454d0	-0.009053424
243	0xbbfc778c	-0.007704681
244	0xba2a8998	-0.00065054884
245	0x3c87dae9	0.016583877
246	0x3c4a55ba	0.01234954
247	0x3c4adfa4	0.012382422
248	0xbbc9f357	-0.0061630416
249	0xbbb00860	-0.005372092
250	0xbbc6c5f1	-0.006066077
251	0xbc2baf75	-0.010478844
252	0xbc123f56	-0.008926233
253	0xbbf2e957	-0.00741307
254	0xbb850dff	-0.0040605064
255	0xbb354b08	-0.002766313

network.1.running_var f4 [256]
0	0x3eb4a350	0.35280848
1	0x3e814932	0.25251156
2	0x3ead236e	0.33816093
3	0x3e9707fa	0.29498273
4	0x3eb743a0	0.3579378
5	0x3e5e376a	0.21700826
6	0x3eb47332	0.35244137
7	0x3e7c221a	0.24622384
8	0x3e9ccdea	0.3062585
9	0x3ebb0f9a	0.3653534
10	0x3eb8666c	0.36015642
11	0x3e9a07ba	0.3008402
12	0x3eb8a5f3	0.3606411
13	0x3e7c3e5a	0.2463316
14	0x3eb0eba2	0.34554774
15	0x3e5e86e6	0.21731147
16	0x3e887f98	0.26659846
17	0x3ecfad51	0.40561917
18	0x3e93b4a7	0.28848764
19	0x3eab0ffb	0.3341063
20	0x3e97aa54	0.29622138
21	0x3ec5070a	0.38481933
22	0x3ea328bd	0.31867018
23	0x3eb06637	0.34452984
24	0x3e9ae10d	0.30249825
25	0x3e9db14b	0.30799326
26	0x3e8e2820	0.27764988
27	0x3e9dd720	0.3082819
28	0x3ec10cbc	0.37705028
29	0x3eac2b73	0.336269
30	0x3ea3b061	0.31970504
31	0x3ea37dc9	0.31931904
32	0x3ea9a437	0.33133098
33	0x3ea685a9	0.3252385
34	0x3eba865f	0.36430642
35	0x3eb71fcc	0.35766447
36	0x3ea7ee88	0.32799172
37	0x3e93595a	0.28779107
38	0x3ee368fe	0.4441604
39	0x3ec1ab0a	0.37825805
40	0x3e9d2e15	0.3069922
41	0x3eb06dc0	0.34458733
42	0x3e9b1054	0.30285895
43	0x3e9b7f14	0.3037039
44	0x3ea6ea4a	0.32600623
45	0x3eb18c8f	0.3467755
46	0x3e8c3980	0.2738762
47	0x3e8f84ff	0.28031155
48	0x3e50983f	0.20370577
49	0x3ec394b6	0.38199395
50	0x3edc4561	0.43021682
51	0x3e9337bd	0.28753462
52	0x3e8e1a9d	0.2775468
53	0x3ebc6d4c	0.36802137
54	0x3e896446	0.26834315
55	0x3ea4c75e	0.32183355
56	0x3e8ffa23	0.28120527
57	0x3ebea119	0.37232283
58	0x3ead40b2	0.3383842
59	0x3e9c88a8	0.3057301
60	0x3e9a95c8	0.301924
61	0x3e9493c6	0.29018992
62	0x3ead405a	0.3383816
63	0x3e921f4a	0.28539497
64	0x3e6e1c72	0.23253039
65	0x3ebbb071	0.36658052
66	0x3e9d1dda	0.30686837
67	0x3ecc7a4f	0.39937064
68	0x3e621c78	0.22081172
69	0x3eda9349	0.42690495
70	0x3e8c307d	0.27380744
71	0x3ed94834	0.424379
72	0x3eb69d36	0.35666817
73	0x3eb83d38	0.35984206
74	0x3e8d2f48	0.27575135
75	0x3ea20fe4	0.3165275
76	0x3ea03686	0.31291598
77	0x3e9ba6aa	0.30400592
78	0x3e9e6fea	0.3094476
79	0x3eb40570	0.35160398
80	0x3e54f847	0.20797835
81	0x3eaded7b	0.33970246
82	0x3e987ddd	0.29783526
83	0x3e85276c	0.2600664
84	0x3ea342db	0.31886944
85	0x3ebcc2e1	0.3686743
86	0x3eb70cb6	0.35751885
87	0x3e951b6c	0.29122484
88	0x3ea030e8	0.31287313
89	0x3e8a4b2c	0.27010477
90	0x3e9fee85	0.31236663
91	0x3ea0b40c	0.31387365
92	0x3e83730d	0.25673714
93	0x3e98adf9	0.2982023
94	0x3e80d99d	0.25166026
95	0x3e84d03a	0.25940114
96	0x3e8a1965	0.269725
97	0x3ea3bc14	0.3197943
98	0x3ea3964f	0.31950614
99	0x3ead2028	0.33813596
100	0x3e9bab0e	0.30403942
101	0x3e8a407e	0.2700233
102	0x3ea72581	0.326458
103	0x3e99685e	0.29962438
104	0x3e8617a8	0.26189923
105	0x3e6c2a10	0.2306292
106	0x3eb1aa75	0.3470036
107	0x3e93d0f9	0.2887037
108	0x3e9653aa	0.29360706
109	0x3ebafd45	0.36521354
110	0x3ea70d86	0.32627505
111	0x3eb58444	0.35452473
112	0x3e94bf20	0.29052067
113	0x3e80c973	0.25153694
114	0x3e8613b8	0.2618692
115	0x3e8aa0b1	0.27075723
116	0x3eb9e370	0.36306334
117	0x3e90793e	0.282175
118	0x3ebb8df0	0.36631727
119	0x3ebddc32	0.37082058
120	0x3e844d80	0.25840378
121	0x3e891e9e	0.26781172
122	0x3ea0c57b	0.31400666
123	0x3e9769e2	0.2957297
124	0x3eb5fbbe	0.35543627
125	0x3eb2b87c	0.34906375
126	0x3e9119e8	0.28340077
127	0x3ea13e61	0.31492904
128	0x3e7c65c5	0.24648197
129	0x3eb5208b	0.3537639
130	0x3e8c1c1c	0.27365196
131	0x3e9a90f9	0.3018873
132	0x3e9fd8f1	0.312202
133	0x3e956918	0.29181743
134	0x3eac72a5	0.33681217
135	0x3e7e95e0	0.2486186
136	0x3e97bfb8	0.29638457
137	0x3e97ff05	0.29686752
138	0x3e7b6c29	0.24552979
139	0x3eb6e139	0.35718706
140	0x3e9786f2	0.29595143
141	0x3eb04e9d	0.34434977
142	0x3ebe532d	0.37172833
143	0x3ea98ddc	0.33116043
144	0x3e6ccfc7	0.23126136
145	0x3ea7818a	0.32716018
146	0x3ed47cc4	0.4150144
147	0x3eb7cb63	0.3589736
148	0x3e9608ce	0.29303592
149	0x3e9f2c45	0.31088462
150	0x3eae792a	0.34076816
151	0x3ea22c09	0.3167422
152	0x3ed3934d	0.4132332
153	0x3eb627e7	0.35577318
154	0x3ea1487e	0.3150062
155	0x3e91fe39	0.2851427
156	0x3e6c56b5	0.23079951
157	0x3e7648d5	0.2405122
158	0x3e804e08	0.25059533
159	0x3eaef78e	0.34173244
160	0x3e8b9eb6	0.27269524
161	0x3ea639ca	0.32465965
162	0x3edb60a3	0.42847165
163	0x3eb9a2cc	0.36257017
164	0x3e999c9b	0.30002293
165	0x3e7e6334	0.2484253
166	0x3e887d7e	0.26658243
167	0x3ee3a9a2	0.44465357
168	0x3e919a83	0.28438196
169	0x3ef04609	0.46928433
170	0x3e8f77fd	0.2802123
171	0x3ea2ea65	0.31819454
172	0x3eb6d4bd	0.3570918
173	0x3ec572f4	0.38564265
174	0x3ebe48ef	0.3716502
175	0x3eba31c9	0.36366108
176	0x3e966d7a	0.293804
177	0x3ea3808a	0.31934005
178	0x3e90fe28	0.28318906
179	0x3e7a11ef	0.24420904
180	0x3ea7aea9	0.32750443
181	0x3eb69765	0.3566238
182	0x3e88bbb2	0.267057
183	0x3ecdcfc5	0.40197578
184	0x3e7d53b4	0.24738961
185	0x3ebbddf2	0.36692768
186	0x3e92377b	0.28557953
187	0x3ecf0c53	0.4043909
188	0x3eb34d1e	0.35019773
189	0x3eab1aeb	0.33418974
190	0x3e8e01e2	0.2773581
191	0x3ea281a7	0.31739542
192	0x3edf62f7	0.43630192
193	0x3ea327a8	0.31866193
194	0x3e8e7b78	0.27828574
195	0x3e995247	0.29945585
196	0x3e920444	0.2851888
197	0x3e8ce9ee	0.27522224
198	0x3ec8de9f	0.39232346
199	0x3e9f4338	0.3110597
200	0x3ea19831	0.31561425
201	0x3e9653d6	0.29360837
202	0x3ea2173f	0.3165836
203	0x3e8d6039	0.27612475
204	0x3e9434e0	0.2894659
205	0x3eaf7eda	0.34276468
206	0x3e999f7b	0.30004486
207	0x3e999ba0	0.30001545
208	0x3e9aeaab	0.30257162
209	0x3e865072	0.2623325
210	0x3e9f71e5	0.31141582
211	0x3e9ce030	0.3063979
212	0x3e868882	0.26276022
213	0x3ec079ac	0.37592828
214	0x3e8fe5d9	0.28105047
215	0x3eabd988	0.335644
216	0x3ebdb30a	0.37050658
217	0x3eae060c	0.33988988
218	0x3e9d6cb1	0.30746987
219	0x3e9d4c55	0.307223
220	0x3e745343	0.23859887
221	0x3ea8d837	0.3297746
222	0x3e87378f	0.26409575
223	0x3e79131d	0.24323697
224	0x3e9d394b	0.30707774
225	0x3e91e1ab	0.28492483
226	0x3ebd275b	0.36944088
227	0x3e887e19	0.26658705
228	0x3eba4ed2	0.3638826
229	0x3e808618	0.25102305
230	0x3e919afa	0.2843855
231	0x3e9a02ad	0.30080166
232	0x3eb98d8f	0.36240813
233	0x3ea4f2a7	0.3221638
234	0x3e9fff77	0.31249592
235	0x3e870abb	0.26375374
236	0x3e934157	0.28760788
237	0x3ebf2ffb	0.37341294
238	0x3e8a6bc3	0.2703534
239	0x3ea619fd	0.32441702
240	0x3ebe048a	0.37112838
241	0x3e99dd61	0.3005171
242	0x3e863d25	0.26218525
243	0x3eb0074e	0.34380573
244	0x3e9ceb25	0.3064815
245	0x3e90d449	0.2828696
246	0x3ea1744b	0.31534037
247	0x3e87f546	0.26554316
248	0x3ea1e3c0	0.31619072
249	0x3ea1c74a	0.31597358
250	0x3e95d469	0.2926362
251	0x3e9ed17b	0.31019196
252	0x3e941ed4	0.2892977
253	0x3e9e6299	0.309346
254	0x3e8fbc56	0.28073376
255	0x3eb7787e	0.35834116

network.4.weight f4 [128, 256]
0	0xbd7d98db	-0.061913352
1	0x3b7738aa	0.0037722983
2	0xbd00b8ea	-0.031426348
3	0xbc512425	-0.012764965
4	0xbd0dfaee	-0.034663133
5	0x3d474fcc	0.048660085
6	0x3cef5afe	0.029218193
7	0xbd96b350	-0.0735842
8	0x3c198f6f	0.009372576
9	0xbd12f0d2	-0.035874195
10	0xbd2500a8	-0.04028383
11	0xbc473e24	-0.012160812
12	0xbd76c02c	-0.060241863
13	0x3cb9f5d0	0.02270022
14	0x3d02b15d	0.031907428
15	0x3d772101	0.06033421
16	0x3d24384c	0.04009275
17	0xba85563c	-0.0010172795
18	0x3d06a5be	0.032872908
19	0x3d0ae248	0.033907205
20	0xbda350b3	-0.079743765
21	0xbd649d39	-0.055814
22	0x3cdb3abe	0.026761409
23	0x3cc1b513	0.023645913
24	0xbc8b80eb	-0.017029246
25	0x3b8c76aa	0.004286607
26	0x3cf4afd3	0.029868996
27	0x3d5120ea	0.05105678
28	0xbd3194b5	-0.04335471
29	0x3d5c649c	0.053806886
30	0x3c9043af	0.017610399
31	0xbbcbb00f	-0.006216056
32	0xbce66292	-0.028123174
33	0x3bd1c909	0.006402139
34	0x3b64bf5c	0.0034904098
35	0x3c3aa655	0.011392196
36	0x3cde356d	0.027125085
37	0xbcceb157	-0.025231047
38	0xbdae8f9b	-0.08523484
39	0xbcc52d05	-0.024069319
40	0x3c76a97d	0.015055058
41	0xbb9e00b2	-0.00482186
42	0x3cdbdaff	0.026837824
43	0x3d354431	0.044254486
44	0xbb42a3d8	-0.002969971
45	0x3c966ec9	0.018363373
46	0x3ceb6b94	0.02873782
47	0xbd8cda68	-0.06877595
48	0xbd2bf172	-0.041978307
49	0x3d45340a	0.04814533
50	0xbd359c93	-0.044338774
51	0xbc95c387	-0.018281711
52	0xbd44db9c	-0.048061
53	0x3d68b29c	0.05681096
54	0x3c193628	0.009351291
55	0x3d0e50ed	0.034745146
56	0xbbb2857b	-0.005448041
57	0xbb5d9ecf	-0.003381658
58	0x3d48232e	0.048861675
59	0x3d32ff9f	0.04370081
60	0xbbcef7ae	-0.006316147
61	0x3cbf1aa7	0.023328139
62	0x3cc39cac	0.023878418
63	0x3cd39e3d	0.02583229
64	0xbd4dbf98	-0.050231546
65	0x3d6060cf	0.054779824
66	0x3d15083b	0.036384802
67	0xbce8db3c	-0.028424852
68	0xbd41dea5	-0.04733147
69	0xb7ce58e0	-2.45985e-05
70	0xbba8edf7	-0.0051553207
71	0x3c16539c	0.0091752075
72	0xbd58d1ca	-0.052934445
73	0x3cf628b0	0.030048698
74	0xbd76aa3d	-0.060220946
75	0xbccbc0a2	-0.024872128
76	0xbd38cae7	-0.045115378
77	0xbd5a3cc5	-0.05328061
78	0xbc4b35b3	-0.01240294
79	0x3d48393d	0.04888271
80	0xbc4528a4	-0.012033615
81	0xbd022e8c	-0.03178267
82	0xbd8fc7d9	-0.0702054
83	0xbd03e5dc	-0.032201633
84	0x3d76f329	0.06029049
85	0x3a1590c7	0.00057054724
86	0x3c482c21	0.012217552
87	0xbd10d386	-0.035357974
88	0x3d7abaf0	0.061213434
89	0xbd99c067	-0.07507401
90	0x3d5de5bc	0.05417417
91	0x3d772a35	0.060342986
92	0xbda02303	-0.07819178
93	0x3d66a59d	0.056310285
94	0xbcc27265	-0.023736188
95	0xbbde2eb5	-0.0067804703
96	0xbbb7b4d2	-0.0056062723
97	0x3cea9b2a	0.028638441
98	0x3b442224	0.0029927576
99	0xbd66916d	-0.056291033
100	0xbd8410ef	-0.06448542
101	0x3cb7233a	0.022355665
102	0x3b89fb50	0.004210867
103	0xbcf374c8	-0.029718772
104	0x3cbe883b	0.02325832
105	0x3c768059	0.015045249
106	0xbcfde915	-0.030994931
107	0xb504e200	-4.9502705e-07
108	0xbd2d213e	-0.04226803
109	0xbd04ceb0	-0.032423675
110	0x3d21f1a1	0.039537076
111	0xbd0eef28	-0.034896046
112	0xbd61ad62	-0.05509699
113	0x3cdb1dd0	0.026747614
114	0xbc6bf29a	-0.014401102
115	0x3d94b51f	0.072611086
116	0xbd00dd95	-0.031461317
117	0xbd6fb5f5	-0.058523137
118	0x3cee8630	0.02911672
119	0x3d0c628b	0.034273665
120	0x3d62b9a9	0.05535284
121	0xbabbe84f	-0.0014336201
122	0x3b5efa72	0.0034023789
123	0x3d808958	0.06276196
124	0x3d3794cc	0.044819638
125	0xbd0bbb19	-0.034113977
126	0x3b83eaa3	0.0040257736
127	0x3d0af34e	0.03392344
128	0xbd9a8e4e	-0.07546674
129	0xbd58bf46	-0.052916788
130	0x3d0f3d0d	0.034970332
131	0x3c03c8e9	0.008043506
132	0xbd07b545	-0.033131856
133	0xbd03c288	-0.03216794
134	0xbd1af284	-0.037828937
135	0x3d22cd6c	0.039746687
136	0xbc39a7b1	-0.011331485
137	0xbcaf08d8	-0.021366522
138	0xbc28fa9b	-0.010313655
139	0x3d210f1a	0.039321043
140	0xbd6067c1	-0.054786447
141	0x3c803673	0.015650963
142	0xb94475e7	-0.00018735939
143	0xbd175686	-0.03694775
144	0x3d6cb496	0.057789408
145	0xbd480ffc	-0.04884337
146	0xbd1dd20a	-0.038530387
147	0xbd0973c2	-0.03355766
148	0x3d5f1643	0.05446459
149	0xbd35be22	-0.044370778
150	0xbd90385b	-0.07041999
151	0x3d77fd59	0.060544346
152	0xbc66527c	-0.014057752
153	0x3d041838	0.03224966
154	0xbd93c87f	-0.07215976
155	0x3d2057b2	0.039146133
156	0x3ce5c7d2	0.028049383
157	0xbc549307	-0.012974507
158	0x3d78e63f	0.060766455
159	0xbd81c2d4	-0.06335989
160	0x3bed1e96	0.007236312
161	0xbd93bee0	-0.07214141
162	0xbbdd3397	-0.0067505348
163	0xbd29dbea	-0.041469492
164	0xbc628a4f	-0.013826921
165	0x3d416161	0.04721201
166	0x3d0739b9	0.033014033
167	0xbd0b6f5c	-0.034041747
168	0x3d618541	0.05505872
169	0xbd8d9f5c	-0.06915161
170	0x3d5145b9	0.051091883
171	0xbc2279f0	-0.0099167675
172	0xbd256302	-0.040377624
173	0xbbbdcd7d	-0.0057923184
174	0xbb650de5	-0.0034950909
175	0xbd146110	-0.03622538
176	0x3d1d70be	0.038437597
177	0xbd33cb54	-0.04389508
178	0x3d238a21	0.039926652
179	0x3d8e95ab	0.06962141
180	0xbc0c1f81	-0.008552433
181	0x3d07cffb	0.03315733
182	0x3c64d8b5	0.013967683
183	0x3d94110b	0.07229813
184	0xbbfc0b2e	-0.0076917624
185	0xbd077b0f	-0.033076342
186	0xbd37c1df	-0.044862624
187	0xbd014397	-0.0315586
188	0x3c83759f	0.016047297
189	0xbd20d053	-0.039261173
190	0xbccd5327	-0.025064064
191	0xbc59b0bd	-0.013286767
192	0x3d398bac	0.045299217
193	0x3d1f5730	0.038901508
194	0xbb0329fb	-0.0020014036
195	0xbc2c0996	-0.010500332
196	0x3d0a705d	0.033798564
197	0xbd47cf0f	-0.04878145
198	0xbd9e93a5	-0.07743005
199	0xbd0d6a55	-0.034525234
200	0xbc461790	-0.012090579
201	0x38d0772d	9.940411e-05
202	0xbd4194bf	-0.047260996
203	0xbcb3b9ad	-0.021939123
204	0xbd5c91e5	-0.053850073
205	0x3d14e3b8	0.036349982
206	0x3d45c22f	0.04828089
207	0xbd829726	-0.063764855
208	0xbc5c6658	-0.013452135
209	0xbd12192c	-0.035668537
210	0xbcfd7718	-0.030940577
211	0x3c3e165b	0.01160201
212	0x3cf9788a	0.030452985
213	0x3cf1dec6	0.029525172
214	0xbcb4ee3d	-0.022086257
215	0x3d2f6b38	0.04282686
216	0xbc05325e	-0.008129684
217	0xbd831f7e	-0.06402491
218	0x3d160667	0.0366272
219	0x3ccf9156	0.025337856
220	0xbd3ca328	-0.046054035
221	0xbd1ce274	-0.0383019
222	0xbd2b240a	-0.041782416
223	0xbd07c1ce	-0.03314381
224	0xbac993c3	-0.001537912
225	0xbd360f8e	-0.044448428
226	0xbd5800ae	-0.052735023
227	0x3ce9570f	0.028483896
228	0x3cee7f5c	0.029113464
229	0x3d0afa83	0.033930313
230	0x3bf5a6e9	0.007496704
231	0x3d2f3db9	0.042783473
232	0x3cc96f37	0.024589164
233	0xbd714825	-0.058906693
234	0xbaac1aa9	-0.0013130504
235	0xbd030d8d	-0.031995345
236	0x3c00cce3	0.007861349
237	0xbc802ca2	-0.015646283
238	0x3c8430ec	0.016136609
239	0x3c9faed5	0.019492546
240	0xbc9ac7f6	-0.018894177
241	0xbd81a7cb	-0.06330832
242	0xbd026659	-0.031835888
243	0x3d22a775	0.03971048
244	0xbd47a792	-0.048743792
245	0x3c255b3e	0.010092555
246	0xbce97316	-0.02849726
247	0x3ccb70ee	0.024834123
248	0xbb1ff9ec	-0.002441044
249	0xbd8fc41d	-0.070198275
250	0x3cbb3a4a	0.022854943
251	0xbd73e2b0	-0.059542358
252	0x3cdd2dd5	0.026999393
253	0x3b2a3bc0	0.0025975555
254	0xbd1bec2a	-0.03806702
255	0x3d472d55	0.048627216
