log_reg/models/tree_root_failure_simple_best.pth (torch, 396702 bytes, 13 tensors)

network.0.weight f4 [64, 176]
000000 0f e1 83 3d 68 a1 30 bc ec d2 e4 3c 61 d3 82 3d
       0.06439411 -0.01078067 0.027932607 0.063879736
000010 1a fd 71 3c c3 d9 95 bc 4d ad 57 35 38 ab 6f bd
       0.014769817 -0.018292313 8.034593e-07 -0.058512896
000020 44 ef 37 bd 29 70 3f bd cf be 12 3d 14 83 60 3c
       -0.044905916 -0.046737824 0.0358265 0.013703126
000030 7e e0 df bc 4d 94 ca 3d 2b bd 07 3d d1 ae 9a 3d
       -0.027328726 0.098915674 0.03313939 0.07552875
000040 81 f2 04 3c c6 9e b1 3c d6 b1 b9 bc 91 b1 65 3d
       0.008114458 0.021682154 -0.022667807 0.056077544
000050 92 16 84 bc 82 29 89 3b e6 26 f1 3b df 82 80 bd
       -0.016124044 0.0041858563 0.0073593734 -0.06274962
000060 0f 56 1b bd 0d 15 89 bd 89 ac fd bc b3 0f f6 b3
       -0.03792387 -0.06693468 -0.03096606 -1.1458123e-07
000070 2a 1d ac 3c 0c a2 78 3c 52 9d 3b 3c 40 13 df bc
       0.02101 0.015175354 0.011451082 -0.027230859
000080 3d ba 21 bc a9 a1 75 3d 20 da 56 bd c9 2a b3 3c
       -0.009871063 0.059968624 -0.052454114 0.021870987
000090 0e 03 ff 3a b9 84 ef 3c d8 62 9f 3b 91 4b 17 3d
       0.0019455866 0.029238092 0.004864078 0.0369373
0000a0 3d ce 19 bd 32 0d 81 bc bd 19 65 bd aa 83 a0 3d
       -0.0375502 -0.015753362 -0.05593275 0.07837613
0000b0 7d f5 f8 bc 1f b5 63 bc 24 d6 1a 35 f0 9b 63 b6
       -0.030390495 -0.013898163 5.7681086e-07 -3.3916403e-06
0000c0 63 d9 a3 3d df 99 40 bc de 98 b6 bc ff 10 a2 37
       0.080004476 -0.011755436 -0.02228969 1.931982e-05
0000d0 40 5e fd bc a7 37 25 3d 1b 8a 88 3d ba e5 6f bd
       -0.030928731 0.040336277 0.066669665 -0.058568694
0000e0 96 1f 5a 3c f9 55 87 bb 0d 59 48 bd 41 63 95 3d
       0.013313195 -0.004130122 -0.04891305 0.07294322
0000f0 7c 40 51 bc ca 99 71 3d e6 36 87 ba 12 ca 74 3d
       -0.012771722 0.058984555 -0.0010316044 0.05976302
000100 18 4b 3c 3c 9e 67 62 bd c1 69 13 bb 4a d3 66 bd
       0.011492513 -0.0552746 -0.0022493454 -0.056353845
000110 59 87 b2 37 91 16 81 3b 5b 26 88 3c 4b 40 0f bc
       2.128228e-05 0.0039394577 0.016619852 -0.008743356
000120 f2 41 a6 3c 08 0f 2c bd b2 e2 14 bc 48 aa 0f 3d
       0.020295117 -0.042006522 -0.0090872515 0.035074502
000130 ac 21 d3 34 f1 8e 7b bd 11 9a 2b bc 99 00 8c 3d
       3.9326312e-07 -0.061415616 -0.010473744 0.068360515
000140 8c 2d 70 bc 00 b5 d5 3c e6 83 05 3d ae a3 a3 bc
       -0.014659297 0.026087284 0.03259649 -0.01997551
000150 82 9c ad bc 47 04 85 bd 35 ca 73 bd 5e 9b b6 bc
       -0.021192793 -0.064949565 -0.05951901 -0.022290882
000160 d8 b5 b7 bc 80 fd d9 bc 11 63 0e 3d 55 08 3a 3d
       -0.022425577 -0.026610136 0.034762446 0.045418102
000170 8d 00 59 3c 61 10 8e 3d 78 be 28 bc 28 c1 f0 bc
       0.01324476 0.06936718 -0.010299318 -0.02938898
000180 bd 8b 91 3d 07 eb 17 bd 0c f8 cf 3c 66 b1 dc 3b
       0.07106731 -0.037089374 0.025386833 0.0067350147
000190 15 b5 67 bd 7a 79 03 bd 0b 59 09 bc 4d fb a2 bd
       -0.056569178 -0.03209827 -0.008383046 -0.07958088
0001a0 41 ab 8c bd d6 ef 8d bc 55 6b 1c bd b1 4b 34 3c
       -0.068686016 -0.017326277 -0.038188297 0.011004374
0001b0 7b 59 36 bc 08 79 9e 36 f3 33 4d bd 95 79 c4 3c
       -0.011129732 4.722857e-06 -0.05009837 0.023983756
0001c0 29 61 c0 bd 20 aa 40 3c c5 3a 73 bd 44 e3 48 3c
       -0.09393532 0.011759311 -0.05938222 0.012261216
0001d0 84 3e f5 3c 01 3b 58 3d de e4 58 bd c7 83 41 bc
       0.029937036 0.052790646 -0.05295264 -0.011811203
0001e0 6f 6b 49 3d 19 7c fb 3c 29 7c 1e bc 0e 50 4c 3d
       0.049174722 0.030698823 -0.009673157 0.049881034
0001f0 b3 1e 35 bd b5 8c 09 3d cc 3c 07 bc 49 45 b7 3d
       -0.04421873 0.033581454 -0.008254241 0.08948762
000200 5f 41 ec bc 06 0d c7 3c da b1 29 3d 65 5d 8a 35
       -0.028839765 0.024298202 0.041429378 1.0308983e-06
000210 68 2e 8f bd 54 83 bb 3c 48 eb 4e bd 7e 20 88 3d
       -0.06991273 0.02288977 -0.05051735 0.066468224
000220 7c 0b 7e bd a8 b3 cb b5 6c 5d 06 bc 11 c9 1a 3c
       -0.06202267 -1.5176965e-06 -0.008200984 0.009447352
000230 89 4c ec 3c f6 5c d3 3c b0 10 c7 bc d9 96 fd bc
       0.028845089 0.025801163 -0.02429995 -0.030955719
000240 e0 ab 2f 3c 10 05 04 bd 30 ea 26 bb 6f f4 0e b7
       0.010722131 -0.03223139 -0.0025469176 -8.520771e-06
000250 2c cb 4c bc e7 89 a5 35 bf 45 66 3d bd 59 5f 3d
       -0.012499612 1.2333593e-06 0.05621886 0.05452894
000260 ea 09 b4 bc 34 71 73 bc c2 26 50 bc 3a df aa bb
       -0.021977384 -0.014858533 -0.012704553 -0.005214599
000270 04 db 5a 3d 62 a8 73 bb 17 fd 73 bc 39 cd fd bb
       0.053431526 -0.0037179221 -0.014891884 -0.0077454117
000280 e0 14 25 3d bd b5 04 bd 67 ba 81 3d 48 cb a6 bc
       0.04030311 -0.03239988 0.063343816 -0.020360604
000290 0f ef 7d 3d f4 1a af bd 60 27 23 36 f9 6f fe bc
       0.061995562 -0.08550063 2.4311812e-06 -0.031059252
0002a0 29 61 ee bc 8b 1c 9d 3d 4f 33 14 3c c7 81 c9 3c
       -0.029099064 0.0767146 0.009045436 0.024598015
0002b0 32 81 ab bd a7 25 15 bd 66 bb 82 3d 83 39 89 3d
       -0.083742514 -0.03641286 0.063834 0.067004226
0002c0 d7 91 26 ba 63 0e 92 bd 9e b3 45 3d 0c 43 27 3c
       -0.00063541293 -0.0713165 0.048267 0.010208856
0002d0 23 ef db bc d9 72 73 3d ea 06 44 38 e0 1e 93 bc
       -0.026847428 0.0594357 4.673648e-05 -0.017959058
0002e0 f1 6d 58 bd 20 91 2e 3b 8c 1b 23 bc 74 64 38 bd
       -0.052839223 0.0026636794 -0.009955298 -0.045017675
0002f0 59 9a 9b bd 6c fb 95 bd 3e df cd 3a 6d d3 24 3d
       -0.07597799 -0.073233455 0.001570679 0.040240694
000300 a2 42 3d 3c 0b 7e f9 3c a4 05 43 3d 1a 22 a2 3c
       0.011551531 0.03045561 0.0476128 0.019791652
000310 5b ae 00 3d 72 85 42 ba 13 cd f7 3c 01 c3 9b 3d
       0.03141628 -0.00074203976 0.030249154 0.076055534
000320 fb dd df 3c ed 79 ef 3c 00 08 b4 bc 15 4c b2 35
       0.027327528 0.029232943 -0.021976471 1.3284176e-06
000330 79 55 f0 3c 83 8e 7d 3c 0a 0b 0d 3d 43 62 f5 bc
       0.029337632 0.015475872 0.034434356 -0.029954081
000340 a8 74 e4 bd a6 e3 80 3d bb 6e 45 3d 24 6e 85 3d
       -0.11155063 0.062934205 0.048201304 0.06515148
000350 33 e7 27 bd c8 c6 e6 3b 18 a8 a0 3c d1 10 b9 3b
       -0.040991973 0.0070427395 0.019611403 0.0056477566
000360 4e a8 05 bc dd 27 23 3d 00 13 a7 bc 8e 47 88 3d
       -0.008157803 0.03983294 -0.020394802 0.06654273
000370 72 19 c7 bd 22 80 76 3c ba 3e 16 35 45 e9 e4 b7
       -0.0972165 0.015045198 5.5970634e-07 -2.7288343e-05
000380 0b 8c 2c bd 77 ae c6 bd c8 a9 ab bd e1 c0 c6 b4
       -0.042125743 -0.09701245 -0.083819926 -3.7020712e-07
000390 1b 23 a8 3d f3 37 30 3d 29 99 97 bd 63 b8 07 3d
       0.08209821 0.043022107 -0.0740226 0.03313483
0003a0 7f f5 a8 3c f7 ec 1d bd 41 cd 4c 3c 6a 56 00 3c
       0.020624874 -0.038556065 0.012500108 0.007833103
0003b0 c1 db 8c bd 4d 96 60 3d 3e 83 f6 bb 99 00 9d 3c
       -0.06877852 0.054830838 -0.0075229695 0.019165324
0003c0 6a 04 42 3b 39 56 2f bd 20 8d 29 bd bd 4e ac 3c
       0.0029604682 -0.042806838 -0.041394353 0.02103364
0003d0 09 80 88 b6 68 77 c3 ba 54 8b e8 3b e9 62 51 3c
       -4.068021e-06 -0.0014912905 0.0070966873 0.01277993
0003e0 08 3d 85 bd b8 fa 1c 3d 21 af b8 bc 85 2c 8b bd
       -0.065057814 0.03832504 -0.022544445 -0.06795601
0003f0 80 38 00 b5 78 58 d0 bd 5f c5 5c bc 6c 1f 3e 3d
       -4.7765934e-07 -0.10173124 -0.013474791 0.046416685

network.0.bias f4 [64]
000000 10 00 1b b8 9d 1b 9c 37 94 a2 0d 38 00 e6 eb b7
       -3.6954938e-05 1.8609508e-05 3.3768432e-05 -2.8121285e-05
000010 d8 b1 7a 38 02 73 78 36 1e 22 88 38 a3 e1 ce 37
       5.9770275e-05 3.7021823e-06 6.49134e-05 2.4662184e-05
000020 e1 a8 13 38 79 23 21 b7 5f 97 41 37 37 b7 20 38
       3.5204812e-05 -9.604607e-06 1.153894e-05 3.8317605e-05
000030 41 db 38 b8 fd da 2e 38 f8 86 8a b7 b8 6e ba b7
       -4.4073215e-05 4.168878e-05 -1.6513732e-05 -2.2224485e-05
000040 b2 e0 90 b7 77 03 cd 36 54 3b ac 38 d2 25 1b 38
       -1.727077e-05 6.1098795e-06 8.21265e-05 3.6990103e-05
000050 27 3d c4 36 5d d7 86 b7 ad e8 70 38 a4 44 14 36
       5.8483743e-06 -1.6074331e-05 5.7437155e-05 2.2093673e-06
000060 1b 42 3e b7 5e 7b 1e b6 e0 c1 98 37 77 9e 03 37
       -1.1340274e-05 -2.3615644e-06 1.8210092e-05 7.845104e-06
000070 c4 cf d4 b7 7e 12 57 37 7b b0 79 37 1c cc 68 37
       -2.5369118e-05 1.2819304e-05 1.4882647e-05 1.38758005e-05
000080 13 f8 01 b8 2a 9e e3 35 2d f2 e6 37 1d 8c 9c b6
       -3.0987034e-05 1.695885e-06 2.7530908e-05 -4.6654736e-06
000090 68 d2 16 b8 cc 05 b4 b7 87 fd ed 37 fe 43 f3 b4
       -3.5958743e-05 -2.1460371e-05 2.837066e-05 -4.5311748e-07
0000a0 42 72 94 36 71 ad 4b 36 e6 aa 0b b5 ae 81 0b b6
       4.424045e-06 3.0350313e-06 -5.2030225e-07 -2.0788098e-06
0000b0 dc 92 c0 b7 f2 1d 3a 37 ce 87 cf 37 99 1f 27 b7
       -2.295657e-05 1.1093436e-05 2.4739562e-05 -9.961333e-06
0000c0 60 bc b3 35 4e b5 72 b8 34 8a 65 37 8c a2 8b 37
       1.3391364e-06 -5.786615e-05 1.3681642e-05 1.6645783e-05
0000d0 5c 00 73 36 c9 e7 2d 38 d3 44 67 b7 91 fe 44 b7
       3.621003e-06 4.146228e-05 -1.3784697e-05 -1.1741781e-05
0000e0 e1 1c ba b7 c4 dd 16 38 2d dc d2 b7 fb 55 2e 38
       -2.2186376e-05 3.5969322e-05 -2.5136478e-05 4.156491e-05
0000f0 b4 0d c3 36 25 57 c8 37 36 62 87 b7 0c f9 2c b7
       5.813048e-06 2.3882438e-05 -1.6138987e-05 -1.0309985e-05

network.1.weight f4 [64]
000000 f2 71 7f 3f 11 b0 78 3f a1 83 7f 3f 23 85 7b 3f
       0.9978324 0.97143656 0.99810225 0.98250026
000010 c1 9b 86 3f 43 0a 80 3f 17 6e 83 3f 18 73 7c 3f
       1.0516282 1.0003132 1.0267972 0.9861312
000020 b7 c9 81 3f 5e c9 79 3f 87 c4 82 3f 48 fa 7f 3f
       1.0139683 0.97572887 1.0216225 0.99991274
000030 12 48 88 3f e4 1c 83 3f 1e 0b 77 3f 1b c9 76 3f
       1.0646994 1.0243192 0.9650134 0.9640061
000040 f4 ce 76 3f d2 21 74 3f a7 be 82 3f 8f 03 74 3f
       0.96409535 0.95364106 1.0214432 0.9531793
000050 89 84 7e 3f 32 cd 8a 3f 03 de 7d 3f a2 3d 79 3f
       0.9942098 1.0843871 0.9916689 0.9735967
000060 a1 e6 76 3f 28 e2 72 3f e2 7d 83 3f 5b 35 74 3f
       0.9644566 0.9487634 1.0272791 0.95393914
000070 71 bb 7d 3f 37 b9 80 3f 43 c1 75 3f dd af 83 3f
       0.9911414 1.0056523 0.9599802 1.0288044
000080 02 35 84 3f 07 ba 75 3f 9f 9c 74 3f 2d cd 76 3f
       1.0328677 0.9598698 0.95551485 0.96406823
000090 c6 d2 76 3f 49 39 78 3f 3b 34 7a 3f b0 63 79 3f
       0.96415365 0.9696241 0.9773595 0.97417736
0000a0 db 0c 72 3f 02 38 79 3f b0 c6 83 3f a9 ae 7d 3f
       0.94550866 0.97351086 1.029501 0.99094635
0000b0 51 b7 7c 3f 55 e2 7b 3f 1a e1 75 3f af a7 77 3f
       0.9871722 0.9839223 0.960466 0.9674024
0000c0 27 b4 78 3f 26 75 82 3f 32 57 81 3f 80 6c 7f 3f
       0.9714989 1.0192001 1.0104735 0.9977493
0000d0 d4 e7 7e 3f 92 ef 8a 3f 84 48 81 3f 65 48 84 3f
       0.9957249 1.0854361 1.0100255 1.0334593
0000e0 1e e7 81 3f 0b 50 86 3f a5 86 89 3f 77 09 87 3f
       1.0148656 1.0493177 1.0744215 1.0549763
0000f0 ad d4 71 3f 94 fe 78 3f 5b 2c 79 3f b6 b6 83 3f
       0.9446514 0.97263455 0.97333306 1.0290134

network.1.bias f4 [64]
000000 aa 9b 23 bc 10 1f 85 bc af c3 b2 3b 21 08 a0 bc
       -0.009985844 -0.016250163 0.005455456 -0.019535126
000010 dd 79 8a 3c 6e b5 91 3c 99 02 88 bc 49 e4 56 bc
       0.016903812 0.017786708 -0.016602801 -0.013115951
000020 f5 00 d9 3c 85 15 98 bc 7f 2a 56 3c 87 1a 77 3c
       0.026489714 -0.018564949 0.013071655 0.015082008
000030 19 1d 52 3c ee b6 73 bc d7 57 ec bc fd 10 d4 bc
       0.01282432 -0.014875157 -0.028850479 -0.025887007
000040 86 d9 03 bd f0 51 0e bd ac 30 2a 3b 7a f4 c4 bc
       -0.03218987 -0.03474611 0.0025968952 -0.024042357
000050 1f 22 6a bc ba 85 ba 3c 00 08 66 35 97 e9 1c bd
       -0.014290362 0.022768844 8.569332e-07 -0.038308706
000060 77 41 d3 bc 31 23 66 bd 65 86 37 3c 96 c7 32 bd
       -0.025788052 -0.056185905 0.011201476 -0.04364737
000070 1d 0c 63 bc 72 17 00 bc 84 12 09 bd 21 e9 01 3c
       -0.0138578685 -0.00781809 -0.033464924 0.007929117
000080 48 1a dc 3b 10 0d 14 bd 17 36 23 bd fd a7 56 bc
       0.006717 -0.03614527 -0.039846506 -0.013101575
000090 c5 47 a8 bc 83 22 e3 bc 9f b2 d9 3b 3a 2e a4 ba
       -0.020542035 -0.027726417 0.0066436077 -0.0012525984
0000a0 21 5e d3 bc 9f 86 5e bc 36 fc 9f 3c 36 19 c1 bc
       -0.02580172 -0.013581901 0.019529443 -0.023571592
0000b0 60 7e b5 bb 9f a5 ae 3b 48 3b 75 bc 28 36 cd bc
       -0.0055387467 0.005329802 -0.014967747 -0.025050238
0000c0 23 4a c6 bc 67 c7 57 3c 0a 97 b3 3c 60 cf 42 bc
       -0.024205273 0.0131701 0.021922607 -0.011890262
0000d0 a9 ec a6 bc 1b 8e 14 3d 0a 72 c0 3c 28 c7 23 3d
       -0.02037652 0.036268335 0.023491878 0.039984852
0000e0 50 61 8c 3c 14 66 a7 3c a1 45 fe 3c dc 2a 7a 3d
       0.017136246 0.020434417 0.031039061 0.06107603
0000f0 92 6f cc bc f5 3c 38 bc d9 4c 06 bc 3c 27 22 3d
       -0.024955545 -0.011245002 -0.008197033 0.039588198

network.1.running_mean f4 [64]
000000 8b b1 35 b9 9a 43 78 bc 70 90 51 bc 9d 35 98 3a
       -0.00017327645 -0.015152836 -0.012790784 0.0011612658
000010 74 80 30 bc 39 c6 08 bc c9 36 6c 39 23 3f 46 bc
       -0.010772813 -0.008348041 0.00022527123 -0.012100014
000020 ae fe 92 bc da 42 1d 3b 9d 47 f4 bb f0 1a da 3b
       -0.017943706 0.0023996145 -0.007454826 0.006656043
000030 f2 80 57 bc 89 51 6c 3b 99 a1 fc 3b 3d 4d 29 bc
       -0.013153302 0.003605934 0.0077096936 -0.010333356
000040 9f 1c 2c 3b ca 30 e0 bb 66 e6 03 3c b6 0b bb ba
       0.0026262177 -0.0068417536 0.008050537 -0.0014270458
000050 10 82 4c 3c 33 4f 31 bc 73 62 27 3b 90 2c d2 3b
       0.012482181 -0.010822105 0.0025540858 0.0064140037
000060 c9 d0 ac 3a 0c 17 f8 bb 56 37 a5 37 65 9e 43 3c
       0.0013184781 -0.007571107 1.96953e-05 0.01193962
000070 1e d4 b7 bb 7a fe aa bb 78 7b c0 b9 40 e6 fa bb
       -0.005610003 -0.0052183243 -0.00036713085 -0.0076568425
000080 ca 5c b1 bb 98 07 1c 3c b3 38 b8 ba db 6d 46 3c
       -0.0054126726 0.009523295 -0.0014054984 0.0121111525
000090 74 ab 23 3c 3d 47 3e 3c ae d1 8c bb a0 ec de 3b
       0.009989608 0.011613664 -0.0042974567 0.0068031102
0000a0 2a 23 0c bb 75 2d f1 bb 12 7f 04 3b 72 c0 24 bc
       -0.0021383264 -0.007360155 0.0020217341 -0.010055648
0000b0 06 03 1e bc 8e 57 04 3c fe 3e e5 bb a1 76 17 3c
       -0.0096442755 0.008077515 -0.0069960346 0.009244592
0000c0 a5 e6 d1 ba 65 46 39 3c ed da be 3b 24 38 6e 3b
       -0.0016014172 0.011308287 0.005824438 0.003634938
0000d0 1e 33 dd ba ad 02 ee ba e6 41 33 3c 45 d1 df 3b
       -0.0016876196 -0.0018158756 0.010941004 0.006830367
0000e0 81 ac 99 bb 0a 1c 7b bb ad 34 66 bc 93 de 87 3b
       -0.0046897535 -0.0038316273 -0.014050645 0.004146406
0000f0 37 d9 97 b9 9f dc c4 bb 1c 62 89 3c be 26 22 bb
       -0.00028962802 -0.0060077454 0.016770415 -0.002474233

network.1.running_var f4 [64]
000000 a9 01 af 3e c7 38 d8 3e f3 1a cf 3e 98 1d 96 3e
       0.34180954 0.42230818 0.40450248 0.29319453
000010 f8 eb 82 3e b0 ac fa 3e 5e 7f 77 3e 04 dc c4 3e
       0.25570655 0.48959875 0.2416968 0.3844911
000020 5b 99 ec 3e ec 01 bb 3e 39 23 ab 3e 3e 57 a2 3e
       0.4621075 0.36524904 0.3342531 0.31707186
000030 37 7c b3 3e ab 9e b7 3e a7 1c f0 3e c1 ce b9 3e
       0.35055706 0.35863242 0.4689686 0.36290553
000040 40 f3 c0 3e 11 3e bf 3e 36 1b dc 3e 49 26 cc 3e
       0.37685585 0.3735204 0.4298951 0.3987296
000050 34 ec da 3e 0a 31 8c 3e 17 06 77 3e c1 27 b6 3e
       0.42758334 0.27381164 0.24123417 0.35577205
000060 d4 a5 ab 3e 0d 1c b9 3e 83 6f c1 3e e0 7c c8 3e
       0.33524954 0.36154214 0.3778039 0.39157772
000070 3e 77 d5 3e 6d fa b9 3e 8f 20 ad 3e 3a 56 a6 3e
       0.41692537 0.36323872 0.33813903 0.3248766
000080 4b 47 b0 3e 28 9a 94 3e 04 52 b1 3e cc 2a c0 3e
       0.34429392 0.29023862 0.34632885 0.3753265
000090 bf f0 aa 3e bb 70 b0 3e 90 6d dd 3e e5 c3 94 3e
       0.333868 0.34461007 0.43247652 0.29055706
0000a0 13 df c1 3e cc f5 bb 3e a6 41 95 3e ec 96 bd 3e
       0.37865505 0.36710966 0.29151648 0.37029207
0000b0 4b 91 aa 3e 38 a2 8f 3e 62 7e e7 3e 39 be 94 3e
       0.33313975 0.2805345 0.4521361 0.29051378
0000c0 09 2b 95 3e 48 35 a4 3e ff 8c ba 3e e4 a6 f1 3e
       0.29134396 0.320719 0.36435696 0.4719764
0000d0 a4 fa a8 3e d9 3f 54 3e 03 c2 b7 3e 3f b4 79 3e
       0.33003724 0.20727481 0.35890207 0.24385165
0000e0 7a ce 95 3e da 1c 98 3e e5 38 b2 3e ce 29 e6 3e
       0.29259092 0.29709512 0.34809032 0.4495377
0000f0 d8 c5 b2 3e 62 4a eb 3e 2d cf af 3e af 12 87 3e
       0.34916568 0.45955187 0.3433775 0.26381442

network.4.weight f4 [32, 64]
000000 62 bf 51 bc de 55 96 bd 6f 19 56 bc 21 53 3d bd
       -0.012801977 -0.073405966 -0.013067587 -0.046221856
000010 00 43 c4 bc cb ab 87 bd 16 4f 3c 3d 3b c3 fd 3c
       -0.02395773 -0.06624564 0.04597386 0.030976882
000020 7f 1d a7 bd b4 ff e7 bc ed e6 3a bd 89 1d 29 bd
       -0.08159923 -0.028320171 -0.045630384 -0.041287933
000030 8e 6b 3b bd b8 dd fe 3b 6e 06 b7 3d 7b c2 9a bd
       -0.04575687 0.007777896 0.08936773 -0.075566255
000040 8d da aa bd 5c d6 d6 3d 88 76 a1 3c 5b c4 ac 3d
       -0.083424665 0.104901046 0.01970984 0.08435889
000050 89 81 06 3e 13 b8 00 be 8c e3 3f 3d 2c 2b 0e bd
       0.13135351 -0.12570219 0.046847865 -0.03470914
000060 45 80 44 bd 7f 07 de 3b 3b 00 da 3b 87 69 1e 3d
       -0.04797389 0.006775796 0.0066528595 0.038674857
000070 59 f5 2a be d9 e4 a7 bd d8 b8 01 3d ee f7 ca bd
       -0.16695155 -0.08197946 0.03167042 -0.0991057
000080 48 64 a4 bd 61 b4 b1 3d d9 4a a0 bd f6 ea 21 3d
       -0.0802694 0.08676983 -0.07826776 0.039530717
000090 06 b7 b7 3c 04 a3 2c bd 91 23 c9 bb ec 3e 91 3d
       0.02242614 -0.04214765 -0.006138273 0.070920795
0000a0 b9 61 7e bd 4d 7f 29 bc ea e6 b1 3b b8 83 a0 bb
       -0.062104914 -0.010345292 0.0054291384 -0.0048985146
0000b0 9f 86 15 bd 49 1e 48 3d ac d2 c9 3d 8f 99 26 bb
       -0.036505338 0.048857007 0.098546356 -0.0025421118
0000c0 c1 ee c9 bb b5 cc 2d bc 2b 4a 4d 3e 43 0b bd 3c
       -0.006162495 -0.010607888 0.20047824 0.023076659
0000d0 d8 6f c9 bd ea 20 89 bd cc d0 b3 3c fe 2c 53 bd
       -0.098357856 -0.06695731 0.021950148 -0.05155658
0000e0 b3 f2 98 bd bb 1d 4e bc 72 0d fc bd be d9 b3 3d
       -0.07468166 -0.0125803305 -0.12307252 0.087817654
0000f0 b3 8d 42 bc 5d b8 d3 3c 00 d4 a5 3c 17 7a 3d 3e
       -0.011874604 0.025844747 0.020242691 0.18503605
000100 45 36 58 3d 4a db 8e bc 34 bb 8b 3c 08 19 f2 bc
       0.05278613 -0.01743855 0.017057039 -0.029552951
000110 cb 83 42 3d ca a5 9c bd e4 fd c6 3d 82 76 ee 39
       0.04748897 -0.07648809 0.097163945 0.00045483193
000120 26 d7 d2 bb 1d 00 52 3d 6c 80 86 3d b7 87 aa bd
       -0.006434339 0.05126964 0.06567463 -0.08326667
000130 c6 40 99 3b 96 5b 85 3d d0 93 6f 3d 37 46 50 bd
       0.004676911 0.06511609 0.058490574 -0.050848212
000140 a0 47 9a bd 38 e6 5a bb 08 a2 e8 bd 76 0f 01 3e
       -0.07533193 -0.0033401381 -0.1135903 0.12603554
000150 e9 90 b7 bd 7b 84 13 3e 74 3e 9d 3d 5a 8b 65 3d
       -0.08963186 0.14406006 0.076779276 0.0560411
000160 8d a9 a8 3d 25 15 f6 bb b3 58 a8 bd 41 6b cb 3d
       0.08235464 -0.007509845 -0.08220043 0.099325664
000170 62 46 1f 3b b5 66 53 bd 40 53 9d bd e6 a1 81 3d
       0.0024303426 -0.05161162 -0.07681894 0.06329708
000180 2c 54 16 3e 55 1a 98 3c 6f f2 92 bd dd c1 a5 bc
       0.14680547 0.018567244 -0.07175147 -0.020234043
000190 e8 f9 68 bd c4 54 39 3d 1f 73 08 bd f2 d4 fb 3c
       -0.056878954 0.045246854 -0.033312913 0.030741189
0001a0 15 89 b8 bd b7 13 32 3d 3e 77 12 3c bd c8 12 bd
       -0.09010521 0.043475833 0.008939562 -0.03583597
0001b0 45 0c ae 3d 81 5a 08 3d a1 e5 d1 bd 24 6b c8 bd
       0.08498434 0.033289436 -0.10248876 -0.097860605
0001c0 4f 38 af 3d 43 e2 fc bc 60 db 0d 3d 04 12 91 bd
       0.08555662 -0.030869609 0.03463304 -0.07083514
0001d0 83 11 5b bd e1 67 50 3d 06 ba 61 bd 9c dc 28 bd
       -0.053483497 0.050880317 -0.055109046 -0.041226014
0001e0 6d 30 14 3d ab 73 1e 3e db 54 5f 3d 5a 30 02 be
       0.036178995 0.15473811 0.054524284 -0.12713757
0001f0 8a b4 70 bd 2c 5d b9 3d dd 73 3e bd 1b 30 d9 bd
       -0.058765925 0.09050974 -0.046497215 -0.106048785
000200 f0 6e 27 bd 37 f6 6a bd f7 9b 73 bd 6b 89 a6 3d
       -0.040877283 -0.057363715 -0.05947491 0.08131679
000210 f2 1c 7e 3d 09 dc e4 bd 1b 53 f6 bb dd 40 44 bc
       0.062039323 -0.11174781 -0.007517231 -0.011978355
000220 a1 c4 f4 3d 6b fb c9 bd 8b 37 12 3e 13 46 0b be
       0.119515665 -0.09862407 0.14279 -0.1360095
000230 37 ea 74 3d ca 53 07 3e 0c 14 9a bd 35 d9 92 bd
       0.059793677 0.13215557 -0.07523355 -0.07170335
000240 dd 12 92 3d 42 65 7a bd 4a e8 a5 bb 84 1e 94 bd
       0.07132504 -0.061131723 -0.0050630914 -0.07232383
000250 d6 f1 c8 bd db 3f ac bb 41 72 da 3a 91 c8 a5 bd
       -0.098117515 -0.0052566356 0.001666613 -0.08094896
000260 ff 51 8f 3d 21 e6 3f 3d 31 5c 13 be a6 bc f1 bd
       0.069980614 0.046850327 -0.14390637 -0.1180356
000270 df 01 14 3e 4b 3a 2a bd 79 de e1 3b 34 c8 8e 3d
       0.14453839 -0.0415595 0.006892976 0.069717795
000280 e2 01 87 3d 68 d8 c7 3b 2c 85 1e 3d 48 fc 12 ba
       0.06592156 0.0060987957 0.03870122 -0.0005607051
000290 b6 03 b5 bb 6c e2 b2 3d d4 fd b2 bd 87 e6 af bd
       -0.005524124 0.08734593 -0.0873982 -0.085888915
0002a0 df 9c a6 3d e3 82 11 bc 72 7e ab b9 cc 83 3f bc
       0.081353895 -0.0088813035 -0.0003270987 -0.011689138
0002b0 a0 cc e9 3c 28 96 ac 3d dd 51 c6 bc 66 8f 7b bb
       0.028539956 0.084270775 -0.024208957 -0.0038385033
0002c0 70 03 95 3d 87 d4 f0 bd 9a b4 bd 3b 4a f1 ab 3c
       0.07276046 -0.117592864 0.0057893516 0.020989079
0002d0 54 98 bf bd 72 75 29 3d b6 dd 91 bd 68 f4 1b be
       -0.09355226 0.04137177 -0.07122366 -0.15229952
0002e0 e7 64 1a bd 8b be 48 3d fb d7 c5 3c 85 02 e9 bd
       -0.037693884 0.04900984 0.02415084 -0.11377434
0002f0 7f 9a a7 3d 96 31 86 bd a0 20 95 bd cf 36 0d 3d
       0.08183765 -0.065524265 -0.07281613 0.034476098
000300 f7 eb 05 3e e6 ac 6d 3d 54 50 60 3d e2 80 2d 3d
       0.13078295 0.058026217 0.054764107 0.04235924
000310 e6 90 a8 bd 05 4c 78 3c b2 8f fb 3c 69 31 1d 3c
       -0.08230762 0.015154843 0.030708168 0.0095943
000320 0a 2d b3 3d 4d d5 f6 bd 09 eb 51 3d bd ad d4 3d
       0.08748825 -0.12052403 0.051249538 0.103847004
000330 43 60 aa bd 76 b7 7c 3d eb 78 e8 bd a2 fb 01 bd
       -0.08319142 0.0616984 -0.11351188 -0.031734116
000340 6b ee a2 3d d9 d8 3f 3d cd 63 22 3e d0 8b 65 3d
       0.07955631 0.04683766 0.15858383 0.05604154
000350 3e aa e2 bb 2e 2c f9 bd 5e ba 2f bb 5f d9 9e bd
       -0.006917267 -0.1216663 -0.0026813964 -0.07756304
000360 08 37 04 be 50 f4 69 bd 70 a1 b9 bd 63 a3 dc bd
       -0.12911618 -0.05711776 -0.09063995 -0.10773351
000370 1f 9d d7 3c 8e fc 3b 3c 96 1d 0a 3d 63 92 b9 bd
       0.026320038 0.011473788 0.03371962 -0.09061124
000380 bc 99 67 3b 63 37 9e 3c ca 64 a6 3d b8 92 8a bd
       0.0035339436 0.01931352 0.08124693 -0.06766266
000390 53 1c a4 bc 76 d3 5f 3d b4 1f 04 3e 5f d6 04 3e
       -0.020033037 0.054645024 0.12902719 0.12972401
0003a0 7e 4a 9a 3d a1 05 b3 bc 1e 6d d2 bd 15 02 ec bd
       0.075337395 -0.02185327 -0.10274719 -0.115238346
0003b0 37 13 09 be a7 a3 b0 bd d9 bb 71 3d 96 f3 a9 3d
       -0.13386236 -0.08624964 0.059017036 0.082984135
0003c0 c7 b3 c5 3c 16 81 e0 bc 3e 0c 0a 3d 3e 8b 1e 3d
       0.024133576 -0.027405303 0.03370308 0.03870701
0003d0 a5 64 b9 bb a6 59 f7 bd 10 8f a1 3d 4a d3 a2 3d
       -0.0056577497 -0.12077646 0.07888615 0.079504564
0003e0 50 25 00 3c f9 94 da bd 34 ef e1 bc 6f 89 91 bd
       0.007821396 -0.106729455 -0.027579881 -0.071062915
0003f0 a6 94 f8 3b d4 4c 68 3d 0d 86 06 3d 76 a7 15 3e
       0.0075860796 0.056713894 0.032842685 0.14614663

network.4.bias f4 [32]
000000 bd 86 29 b8 b9 ed 05 38 76 ef 82 35 1f b8 e5 3b
       -4.0418225e-05 3.1931067e-05 9.755447e-07 0.0070104743
000010 80 ec 69 b3 de 85 cc 37 74 70 7e 37 aa fa 96 b7
       -5.4464635e-08 2.4381032e-05 1.5165762e-05 -1.7998118e-05
000020 3a 66 cd 3b 25 6b a2 37 b2 44 a6 b6 a1 77 f1 3b
       0.00626829 1.9361798e-05 -4.9551827e-06 0.007368997
000030 13 44 6b 3b bd 6b af ba e7 da 8c 3b a1 44 13 3c
       0.003589873 -0.0013383549 0.004298556 0.00898853
000040 fa f0 00 b9 e6 c1 95 36 4b fb e0 36 eb 00 8d 37
       -0.00012296802 4.463119e-06 6.7049746e-06 1.6808937e-05
000050 8e 4f bb 36 db 02 aa 3b e7 32 c7 b7 a7 5a 8e b8
       5.5822957e-06 0.0051883287 -2.3746352e-05 -6.787973e-05
000060 3c 2c 4e 38 bb b1 56 b7 6a b4 c4 37 94 6b 1e bc
       4.9155424e-05 -1.2796775e-05 2.3449033e-05 -0.009669203
000070 32 66 f4 37 45 e7 03 bc 4e ce a6 37 2c be 7f 36
       2.9134655e-05 -0.008050744 1.988481e-05 3.8108656e-06

network.5.weight f4 [32]
000000 ca 25 8e 3f fd ba 88 3f 32 c8 7e 3f e0 5f 8e 3f
       1.1105282 1.0682064 0.99524224 1.1123009
000010 ea 0e 86 3f 62 70 90 3f 43 3d 91 3f 31 0d 90 3f
       1.0473301 1.1284297 1.134682 1.1254026
000020 fc 4e 80 3f 11 cf 94 3f 64 9f 94 3f 5f b0 8e 3f
       1.0024104 1.1625692 1.1611142 1.1147574
000030 90 a1 93 3f 89 38 8c 3f c3 97 90 3f 72 7c 92 3f
       1.153368 1.0954753 1.1296314 1.1444228
000040 f6 c0 8f 3f 7b 04 81 3f 08 5a 89 3f 72 62 8c 3f
       1.1230762 1.0079492 1.07306 1.0967543
000050 14 09 8d 3f 77 ca 90 3f 04 0c 91 3f 5c bb 91 3f
       1.1018395 1.1311787 1.1331792 1.1385303
000060 37 36 8f 3f 1d 57 90 3f e6 de 80 3f cd c2 84 3f
       1.118842 1.1276585 1.0068023 1.0371948
000070 be 0c 79 3f 6b 9f 82 3f 5f e9 92 3f a3 18 96 3f
       0.9728507 1.02049 1.1477469 1.1726269

network.5.bias f4 [32]
000000 94 09 da 3d ab 53 a9 bc 5b f0 1f bd 18 21 06 3e
       0.10646358 -0.020669779 -0.03904758 0.13098562
000010 62 62 6e bc 74 e9 0a 3e 5f 88 09 3e a9 fa 10 3e
       -0.0145498235 0.13565618 0.13430928 0.1415812
000020 c4 27 43 bd 1b 14 24 3e be ec 17 3e 32 e1 0b 3e
       -0.047645345 0.16023295 0.14836404 0.13660124
000030 1c 73 0f 3e a8 53 c2 3d 05 74 0b 3e f7 85 18 3e
       0.14008754 0.094886124 0.13618477 0.14894854
000040 64 51 0c 3e c1 d2 f3 bc 38 ad cc 3d af 9b af 3d
       0.13702923 -0.029763581 0.09993976 0.08574616
000050 e0 d2 01 3e 04 d4 ca 3d 00 bc 01 3e f0 72 02 3e
       0.12678099 0.0990372 0.12669373 0.12739158
000060 90 4b 05 3e aa 47 01 3e 12 1e 2f bd 7d ec 23 bd
       0.13017106 0.12624994 -0.042753287 -0.040020455
000070 05 e3 70 bd 4f 8c 0e bd d9 82 1c 3e 97 94 3a 3e
       -0.058810253 -0.034801777 0.1528429 0.18220745

network.5.running_mean f4 [32]
000000 bb 2e 18 be 05 e8 6d 3d 1e ba 48 be 49 17 48 3d
       -0.14861576 0.0580826 -0.19602248 0.04885033
000010 57 e8 7c 3e 60 b4 02 bf 76 e0 43 3c 41 eb 89 be
       0.24698006 -0.5105648 0.011955371 -0.26937297
000020 96 c3 bf 3e 56 47 95 be 8c 49 27 be 36 a8 e3 3e
       0.37453908 -0.29155988 -0.1633665 0.44464272
000030 f6 8b cb be 58 82 52 be b4 6e 90 be 1a 2e 70 be
       -0.3975522 -0.20557535 -0.2820946 -0.23455086
000040 ef 3a fb bd af a0 a4 3d e5 1b bd 3d db 5c 18 be
       -0.122671 0.080384605 0.09233836 -0.14879172
000050 bd fb 2e be 7e 20 5b be 92 2b 63 be d9 78 a1 be
       -0.17088218 -0.21399114 -0.2218459 -0.31537512
000060 cb 6b 4e bd 08 a1 1c be bd 93 92 bd c8 9c ca 3e
       -0.050395768 -0.15295804 -0.07157085 0.3957274
000070 04 bc 73 3e ad 48 6b 3d 62 b2 07 be 42 21 07 be
       0.23802191 0.057442356 -0.13251641 -0.1319628

network.5.running_var f4 [32]
000000 b9 cf 04 3f 7d 68 2c 3f 61 ef 1e 3f 9e 0b 06 3f
       0.5187946 0.67346936 0.62084013 0.52361476
000010 e0 48 31 3f a5 89 e4 3e 31 fc 0e 3f 2c f2 1c 3f
       0.69251823 0.44636264 0.55853564 0.61307025
000020 54 6f 0f 3f 09 49 24 3f e6 ed fa 3e 8c 49 10 3f
       0.5602925 0.6417394 0.49009627 0.56362224
000030 20 41 32 3f 97 16 eb 3e 4f b2 1f 3f 34 d2 fa 3e
       0.6963062 0.45915672 0.6238145 0.48988497
000040 be b9 ec 3e d9 c2 18 3f 8c 60 c4 3e b3 3c a6 3e
       0.4623546 0.59672314 0.3835491 0.32468185
000050 30 1b 06 3f 75 97 06 3f b9 16 1b 3f a5 db f2 3e
       0.52385235 0.52574855 0.6058155 0.474332
000060 ab 75 fb 3e ef 14 0c 3f e7 01 d8 3e 31 a9 33 3f
       0.4911321 0.5471944 0.4218895 0.7018004
000070 7e fa 9c 3e 76 7b 15 3f 98 f3 0a 3f ca 14 0e 3f
       0.3065986 0.5839151 0.54277945 0.5550047

network.8.weight f4 [1, 32]
000000 86 1c 9a bd 2a b1 5d 3e 1b 71 2c 3e 0f d8 12 be
       -0.07524972 0.21649614 0.16840021 -0.14340232
000010 97 2f 2a 3e 4c 23 2b be 9d f0 5d be b2 bd 49 be
       0.16619717 -0.16712683 -0.21673818 -0.1970127
000020 8c a2 a4 3d 54 94 2c be 13 a3 1e be 6c d9 e4 bd
       0.08038816 -0.16853458 -0.15491895 -0.111742824
000030 14 86 81 be 3d 48 84 bd c5 c6 8a be d3 af f0 bd
       -0.25297606 -0.06459091 -0.27104774 -0.11752286
000040 ec c6 6e be 08 fd 21 3e a8 c8 70 be 1e 5c b0 bd
       -0.2331807 0.1581918 -0.23514044 -0.0861132
000050 39 47 8b be 99 c6 b0 bd bd 0d bd bd b3 b6 8c be
       -0.27202776 -0.086316295 -0.09231136 -0.27483138
000060 cc 8a 89 be c8 88 80 be 1d 38 90 3d 11 13 4b 3e
       -0.26863706 -0.25104356 0.07041953 0.19831492
000070 17 3f 79 3d ca 18 c6 3d ad 08 05 be e5 23 f2 bd
       0.060851183 0.09672697 -0.12991591 -0.118232526
