log_reg/models/tree_root_failure_best.pth (torch, 389114 bytes, 25 tensors)

network.0.weight f4 [256, 179]
0	0xbcc70373	-0.024293637
1	0xbd81f864	-0.06346205
2	0x3d010bf2	0.031505533
3	0xbca16b6b	-0.019704541
4	0xbb875904	-0.0041304845
5	0x3d177402	0.036975868
6	0x3d0645be	0.032781355
7	0x3ce8d12d	0.028420055
8	0xbcf642c6	-0.030061137
9	0x3bbc9fbc	0.0057563465
10	0x3d4a5783	0.049399864
11	0xbd4eee5c	-0.050520286
12	0xbda2b707	-0.07945066
13	0x3d0f1598	0.034932703
14	0xbd777aa6	-0.0604197
15	0xbcef0b15	-0.029180089
16	0x3c965010	0.018348724
17	0xbd2bd61b	-0.041952234
18	0x3d06830f	0.03283983
19	0x3c7d148e	0.015446795
20	0xbd0faf01	-0.035079006
21	0xbd665ab7	-0.056238856
22	0x3d921899	0.07133598
23	0x3cf13537	0.02944432
24	0xbda55121	-0.08072115
25	0x3c855226	0.016274523
26	0x3c0dc917	0.008653901
27	0xbd0b1281	-0.033953194
28	0xbca45289	-0.020058887
29	0xbc07150d	-0.008244765
30	0xbb7c0170	-0.0038453005
31	0x3d19c9dc	0.037546024
32	0x3d83cd28	0.06435615
33	0x3d9fb032	0.077972785
34	0x3cb49b72	0.022046778
35	0x3d00d189	0.03144983
36	0x3d286578	0.041112393
37	0x38ba38d2	8.879755e-05
38	0xbc555bc0	-0.013022363
39	0xbd121141	-0.035660986
40	0x398d86d9	0.00026994085
41	0x3c42bccc	0.011885833
42	0xbd60c1fc	-0.054872498
43	0xbd931123	-0.07181003
44	0xb910fbe3	-0.00013826745
45	0x3c109893	0.008825439
46	0xbd96b50e	-0.07358752
47	0x3d2b5e3b	0.041837912
48	0x3d883037	0.06649821
49	0xbb1feab7	-0.0024401376
50	0xbc64a2cd	-0.01395483
51	0x3d17ced4	0.03706248
52	0xbc4c4912	-0.012468593
53	0xbcbc2386	-0.022966158
54	0xbd64ccf8	-0.055859536
55	0xbd6b307a	-0.057419278
56	0x3d33ecf6	0.043927155
57	0xbb83f64c	-0.0040271636
58	0x3c6a4990	0.014299765
59	0x3d94c23e	0.07263611
60	0xbccbb9bb	-0.024868837
61	0xbd81b213	-0.06332793
62	0x3d55facb	0.052241128
63	0x3d06b53e	0.03288769
64	0xbc542768	-0.012948848
65	0x3b86a85c	0.0041094255
66	0xbd3ab099	-0.045578573
67	0xbd88bfd8	-0.06677216
68	0xb81dc110	-3.761152e-05
69	0x3c988137	0.018616302
70	0x3cec6b6a	0.028859813
71	0xbd035ad0	-0.032069027
72	0x3c82c9f3	0.015965438
73	0xbd3e9d24	-0.04653658
74	0xbb6490bb	-0.0034876305
75	0x3d819ab4	0.063283354
76	0xb6004e5e	-1.9119102e-06
77	0xbcbbe96c	-0.022938453
78	0x3d472ff6	0.048629723
79	0xbcb2d429	-0.021829681
80	0xbd436653	-0.047705006
81	0xbc5eebb6	-0.013606003
82	0x3d214f85	0.039382476
83	0xbd7b43a4	-0.061343804
84	0xbd0bcd03	-0.03413106
85	0x3cbe0e4a	0.023200173
86	0x3d04a9f9	0.03238866
87	0xb9d56571	-0.00040702106
88	0xb968f944	-0.00022218103
89	0xbd7eb683	-0.062185775
90	0x3d3e3afd	0.046442974
91	0xbc93d241	-0.018044593
92	0x3db504be	0.08838795
93	0x3d670523	0.056401383
94	0x3d11d486	0.03560307
95	0x3a9de00a	0.0012044918
96	0xbd0af552	-0.033925362
97	0x3c7cecf5	0.015437354
98	0x3d4bc478	0.049747914
99	0xbab4e9b1	-0.0013802556
100	0xbd35e537	-0.04440805
101	0x3d333091	0.04374749
102	0xbd1638c9	-0.03667525
103	0xbb610c44	-0.0034339586
104	0xbd4afa5f	-0.04955518
105	0x3d24b045	0.040207166
106	0xbc2aeaf4	-0.010431994
107	0x3d03d6f8	0.032187432
108	0xbcba2a8b	-0.022725364
109	0x3bb59556	0.005541484
110	0xba0df99c	-0.0005415918
111	0xbd4f8677	-0.050665345
112	0x3d1bbb0c	0.03802018
113	0xbd4cb8b8	-0.04998085
114	0x3afff7f9	0.0019528858
115	0xbcca96a5	-0.024730036
116	0xbbd7e59a	-0.00658865
117	0x3c35c6ab	0.011094729
118	0xbc85e7e2	-0.016345922
119	0x3d4448d6	0.047921024
120	0xbd372f34	-0.04472275
121	0xbcde2a98	-0.02711992
122	0xbd89b809	-0.06724555
123	0xbd16c78d	-0.0368114
124	0x3c7711dd	0.0150799425
125	0xbce33f71	-0.027740212
126	0x3d232700	0.039832115
127	0x3aecab3f	0.0018056406
128	0xbd5e96bc	-0.05434297
129	0xbd92725f	-0.07150721
130	0xbbee25b1	-0.0072676768
131	0xbcb9df3a	-0.02268945
132	0xbd1349e5	-0.035959143
133	0xbdae2ab8	-0.08504242
134	0xbd4f34f5	-0.050587613
135	0xbcc5e854	-0.024158634
136	0x3d8bed1e	0.06832336
137	0xbccb0421	-0.024782242
138	0x39e653c5	0.00043931432
139	0xbc48951f	-0.0122425845
140	0x3d126fb5	0.035751063
141	0x38d6e8c6	0.000102476726
142	0xbc9776bb	-0.018489232
143	0x3a24e62e	0.0006290403
144	0x3c96bebd	0.018401498
145	0x3b5276f3	0.0032114356
146	0xbc3cd76c	-0.01152597
147	0xba0750be	-0.0005161873
148	0x3ca70788	0.020389333
149	0x3d87d6ef	0.06632792
150	0xbcfabb87	-0.030606998
151	0x3c4777cf	0.012174561
152	0xbd456ae9	-0.04819766
153	0xbcb98dcf	-0.022650627
154	0x3da351cc	0.07974586
155	0x3d63c1a0	0.055604577
156	0xbc4f11a1	-0.01263848
157	0x3d3b35f0	0.045705736
158	0x3a40ba2f	0.0007351962
159	0x3b8cc31b	0.0042957193
160	0x3d45a8d0	0.048256695
161	0xbd305c41	-0.04305673
162	0xbd8b5641	-0.06803561
163	0xbcefaa7f	-0.029256104
164	0x3d865452	0.065590516
165	0xbd8fa452	-0.070137635
166	0xbcb18f97	-0.021674914
167	0xbc5b7ea4	-0.013396893
168	0xbd3560e1	-0.044281844
169	0x386b7c77	5.6144283e-05
170	0xbd330c05	-0.043712635
171	0xbba79847	-0.0051145884
172	0x3d7bcc8f	0.06147438
173	0x3d6ae3bf	0.0573461
174	0x3a9ad970	0.0011814069
175	0x3d2c15fb	0.04201315
176	0x3d8dd656	0.06925647
177	0x3d365695	0.044516165
178	0xbcc8bbc6	-0.0245036
179	0x3ce1ae04	0.027548797
180	0x3d585525	0.052815575
181	0x3d08544a	0.03328351
182	0xbd1fd591	-0.039022032
183	0xbb98c0e1	-0.004661665
184	0xbccf5044	-0.025306828
185	0x3d660d6b	0.05616514
186	0x3da4bbb9	0.08043618
187	0x3d5bc1b2	0.05365152
188	0x371a7734	9.206869e-06
189	0x3c551f1b	0.013007904
190	0x3bb88428	0.0056309886
191	0xbd8173eb	-0.06320938
192	0xbd9655c7	-0.073405795
193	0x3d10ce20	0.035352826
194	0xbd1ce1d9	-0.038301323
195	0xbd29a2dc	-0.04141508
196	0x3ce40d1e	0.027838286
197	0x3d4211c7	0.047380235
198	0x3cea25eb	0.028582534
199	0xbd6ffd00	-0.05859089
200	0xbcbe1a37	-0.02320586
201	0x3c2db4bf	0.010602175
202	0x3d36743b	0.04454444
203	0xbd390feb	-0.045181196
204	0xbc8aa3e5	-0.016923854
205	0xbd178926	-0.03699603
206	0x3d4f4a06	0.050607704
207	0x3ce9ae26	0.028525423
208	0xbc09d86f	-0.008413418
209	0xbc9d0aec	-0.019170247
210	0xbd4cfdc3	-0.050046694
211	0xbd0393a9	-0.03212324
212	0x3bba4a40	0.005685121
213	0x3c519c1f	0.01279357
214	0x3d35befd	0.044371594
215	0x3ce474fd	0.027887816
216	0x39879b92	0.00025865115
217	0x3cf6c7f8	0.03012465
218	0x3d113b9d	0.035457242
219	0x3c2a1bbd	0.01038259
220	0x3d4a429b	0.049379926
221	0xbcfab786	-0.030605089
222	0x3d8b56c5	0.06803659
223	0xbccc7ceb	-0.02496191
224	0xb94a2dce	-0.00019281285
225	0xbb539ecc	-0.0032290695
226	0xbd95a735	-0.07307283
227	0x3d3c8f58	0.04603514
228	0x3d15e4ee	0.036595277
229	0xbcc546c5	-0.024081597
230	0x3c91fa0a	0.017819423
231	0x3c51a94a	0.012796709
232	0xbcdf44e4	-0.02725453
233	0x3d8d1bac	0.068900436
234	0xbd0f69d7	-0.035013046
235	0x3b9fb6f8	0.0048741065
236	0xbd181416	-0.03712853
237	0xbd0ac404	-0.03387834
238	0x3d4b2720	0.04959786
239	0xbca5c0d8	-0.020233557
240	0xbd6c8acf	-0.057749566
241	0x3d647163	0.055772197
242	0x3d9d5589	0.0768233
243	0x3ba9da1f	0.0051834728
244	0xbb7e3a1a	-0.0038791955
245	0xbd15c5cc	-0.036565587
246	0x3d66d139	0.056351874
247	0xb9094d60	-0.00013094163
248	0x3b32d8b9	0.0027289821
249	0x3bb0c5df	0.005394682
250	0xbce9f5e3	-0.02855963
251	0x3c874b63	0.01651544
252	0xbd594762	-0.05304659
253	0xbc0a741a	-0.008450532
254	0x3d7d4557	0.061833706
255	0x3bc473a4	0.0059952307

network.0.bias f4 [256]
0	0x398d4494	0.0002694471
1	0xbb0dbfa4	-0.002162912
2	0xbc240726	-0.01001147
3	0xb9825e15	-0.0002486563
4	0xb91083c7	-0.00013782001
5	0x3ba532f1	0.005041473
6	0xb9b9edda	-0.00035463163
7	0x398bedbd	0.00026689275
8	0x3b6da13a	0.0036259429
9	0x37846b6b	1.5785647e-05
10	0xb7f3ac56	-2.9048108e-05
11	0xb9934d9c	-0.00028095848
12	0xb963b30c	-0.00021715107
13	0x39ea75ec	0.00044719817
14	0xb8f61720	-0.000117345015
15	0x3c1c5547	0.009541816
16	0xbbaca3cc	-0.0052685495
17	0x390b23d1	0.00013269416
18	0xb82b5c77	-4.085569e-05
19	0xba1eb8c0	-0.00060547516
20	0x3bd53681	0.0065067415
21	0xb874aa4f	-5.8332746e-05
22	0xba019cb0	-0.0004944308
23	0xbb8db3c5	-0.0043244087
24	0x3a248be2	0.00062769477
25	0x39099324	0.00013120152
26	0xba25f975	-0.00063314225
27	0xb8c2dfd2	-9.292331e-05
28	0xba2ea79e	-0.000666255
29	0x389ba73f	7.422128e-05
30	0xb75dc33c	-1.3218083e-05
31	0x3853b7a8	5.0477363e-05
32	0x3a877b58	0.0010336442
33	0xb9c61ea4	-0.00037788332
34	0x396d6fa3	0.00022643669
35	0xb8a61de4	-7.9210644e-05
36	0x3818ef6e	3.646261e-05
37	0x387a94fc	5.9743397e-05
38	0x3a1f60de	0.0006079803
39	0xb80565ab	-3.1804357e-05
40	0x3900c322	0.00012279724
41	0xb9e8eae4	-0.00044425495
42	0x38ae1e00	8.3025545e-05
43	0xb9f24bc4	-0.00046214287
44	0x39e9b349	0.000445748
45	0xb7f25927	-2.8890163e-05
46	0xba1ace6a	-0.0005905392
47	0xb7bfcdf4	-2.2864879e-05
48	0xb9c72da1	-0.00037990234
49	0x39335fff	0.00017106532
50	0x3b5ab137	0.0033369788
51	0xb8c077b4	-9.17757e-05
52	0x39febf8a	0.00048589363
53	0xba0d7249	-0.0005395753
54	0xbb58a1f2	-0.0033055511
55	0xbc042a24	-0.008066688
56	0xbbf2efb2	-0.007413828
57	0xbc2e57f6	-0.010641089
58	0xb9a183a8	-0.00030806405
59	0x38a49939	7.848669e-05
60	0xb92b1b24	-0.00016317941
61	0xbb955e26	-0.0045583425
62	0xbbe30bfc	-0.006928919
63	0x392c7b60	0.00016449159
64	0xb82e165d	-4.150566e-05
65	0x382732f5	3.986336e-05
66	0x3902ea52	0.00012485057
67	0x39102f21	0.00013750467
68	0xba0b5fc8	-0.0005316702
69	0xba2b95b7	-0.00065454416
70	0xb833eed1	-4.289934e-05
71	0xba02cc45	-0.0004989545
72	0xbb5dc4ae	-0.0033839154
73	0x38bfa5bf	9.138462e-05
74	0x397a344a	0.00023861337
75	0xbb941484	-0.004519047
76	0xbb04ac82	-0.0020244424
77	0x3896fc0c	7.199505e-05
78	0xb7d3550f	-2.5192769e-05
79	0xbb8f676e	-0.0043763435
80	0xba24dd45	-0.0006289075
81	0x39688969	0.00022176433
82	0xb7c15646	-2.3047567e-05
83	0x391d4cfc	0.00015001366
84	0x39664a8a	0.00021962277
85	0x3b82f36c	0.0039963033
86	0xbbccf322	-0.0062545696
87	0xb91581b9	-0.00014258073
88	0x3c167389	0.009182819
89	0xbc299a68	-0.010351755
90	0xbc0b4681	-0.008500696
91	0x3a10e272	0.0005526907
92	0xba17e87e	-0.0005794837
93	0xb7b2d3fc	-2.1317966e-05
94	0xbbbd5596	-0.005778025
95	0xb9269818	-0.00015887653
96	0xbbabdb50	-0.00524465
97	0x3a1b261c	0.00059184595
98	0x3b4909f8	0.0030676108
99	0x36a18898	4.8140755e-06
100	0x3bb50b6a	0.0055250423
101	0xb71eb0de	-9.458714e-06
102	0x39aae740	0.0003259722
103	0x38bc21de	8.970847e-05
104	0xbba8a139	-0.0051461724
105	0x39b2ea4e	0.00034125376
106	0xb74876a4	-1.1948552e-05
107	0x384249ff	4.632212e-05
108	0x3bdee610	0.006802328
109	0xba2b3465	-0.000653094
110	0x3c320f3f	0.010867893
111	0xbb4f1d5c	-0.0031603193
112	0xba28156f	-0.0006411885
113	0x39206a3a	0.00015298362
114	0xba9d82b5	-0.0012017103
115	0x3b5b4f5c	0.003346405
116	0x398d2078	0.00026917807
117	0x39dd8787	0.0004225338
118	0x3b7723d9	0.0037710576
119	0xba28f244	-0.0006444792
120	0x3a0b2cf5	0.00053091283
121	0xba1dfd5e	-0.00060268294
122	0x38183a8b	3.6294146e-05
123	0xb92317ca	-0.00015553753
124	0x382bde60	4.097668e-05
125	0xb89280a8	-6.9857866e-05
126	0x3894f0e4	7.102059e-05
127	0x3a121d25	0.0005573801
128	0x3894986c	7.085581e-05
129	0xb78de454	-1.6914833e-05
130	0xb9b18362	-0.0003385796
131	0xba2ad2fe	-0.00065164256
132	0xba2a2fd0	-0.000649211
133	0xbb4e54c3	-0.0031483627
134	0xbc145cba	-0.009055311
135	0xb87baf48	-6.0006307e-05
136	0x39862d0f	0.00025592043
137	0x388ac902	6.6177934e-05
138	0xb9165305	-0.00014336042
139	0xbb67b010	-0.0035352744
140	0x38a0fdce	7.676669e-05
141	0x3b9dcec4	0.004815908
142	0xb697ffa3	-4.5299107e-06
143	0x3c023766	0.007947778
144	0xbb33a63b	-0.0027412314
145	0xb8024d5e	-3.106647e-05
146	0xb88f4b92	-6.8328474e-05
147	0xb8ff61a2	-0.00012177533
148	0xb905f142	-0.00012773744
149	0x37906da7	1.7217199e-05
150	0x37dca731	2.6303898e-05
151	0xb987e46e	-0.000259194
152	0xba95a9aa	-0.0011418362
153	0xb7ef0e41	-2.8497658e-05
154	0xbb1d7a32	-0.0024029133
155	0xb729f682	-1.01305795e-05
156	0xb7330504	-1.0670399e-05
157	0xba14f72e	-0.00056825846
158	0x394f4a88	0.00019768823
159	0xbc252251	-0.010078982
160	0x3baa10ab	0.0051899753
161	0x3c2497bd	0.010045943
162	0xb9da6876	-0.0004165803
163	0xb8ac2ca0	-8.209911e-05
164	0x3b9e04d5	0.0048223534
165	0xbc2cfcd1	-0.010558323
166	0xb914e43c	-0.00014199404
167	0xbbdda137	-0.006763603
168	0xbabb8915	-0.0014307821
169	0x3a2a6bbd	0.00065010396
170	0x373c9d38	1.1242279e-05
171	0xbb477a4e	-0.003043789
172	0x3a1d766a	0.000600672
173	0xbb8e59c8	-0.004344199
174	0x3910b9b1	0.00013802086
175	0x3973f4a5	0.00023265423
176	0x39244227	0.00015664902
177	0x3c10b1f0	0.008831486
178	0xb97bf0e4	-0.00024026964
179	0xb992ccd4	-0.000279999
180	0x398630d0	0.0002559484
181	0x3a2936fc	0.00064550317
182	0xbc2a94b8	-0.010411434
183	0xbb85e983	-0.0040866747
184	0x3960e84e	0.00021448845
185	0x38cd1905	9.779822e-05
186	0xb9e0ce64	-0.00042878382
187	0x38399906	4.424995e-05
188	0x3ab38eec	0.001369921
189	0x384b6648	4.849423e-05
190	0xb8ed3a88	-0.00011311943
191	0x398b76dd	0.00026600706
192	0x3892d5c2	7.001638e-05
193	0xba1bbe03	-0.0005941095
194	0xba2ce8ec	-0.00065959874
195	0x3998cc6a	0.00029144
196	0x3b210992	0.0024572355
197	0xb9595c38	-0.00020729087
198	0xbc05308c	-0.00812925
199	0x38d38ebe	0.00010087852
200	0x3910ff5d	0.0001382804
201	0x3c0d7d5f	0.008635848
202	0x3871218a	5.7490113e-05
203	0x37049cf8	7.90436e-06
204	0xb7a1bf0a	-1.9281655e-05
205	0x3b1653da	0.0022938163
206	0xb88b3711	-6.6382934e-05
207	0xb8020744	-3.1001182e-05
208	0xb8deb6ac	-0.0001061981
209	0x37a506a0	1.9672618e-05
210	0x3b4ecf6c	0.0031556739
211	0xb76e334c	-1.4197849e-05
212	0xb886d706	-6.429669e-05
213	0x395fc6d9	0.00021341014
214	0xba2e4710	-0.00066481624
215	0xb99e13bc	-0.00030150812
216	0xb77e0917	-1.5141696e-05
217	0x38914b33	6.928146e-05
218	0xb7de3ba8	-2.6492242e-05
219	0xba263467	-0.0006340206
220	0xbc075569	-0.008260109
221	0x3c16e02d	0.009208721
222	0x39c40d85	0.00037394106
223	0x37bc9b52	2.2483673e-05
224	0xba26e9ff	-0.00063672656
225	0x3aa23dd7	0.0012378049
226	0xba0610f7	-0.00051142223
227	0xb9fa90f3	-0.0004779171
228	0xba2a605a	-0.0006499343
229	0x398dbc46	0.0002703389
230	0x3b6a406c	0.0035743965
231	0x37c16a88	2.3057e-05
232	0xbb21a7ac	-0.002466659
233	0x38550bb9	5.0794075e-05
234	0x3b870b4f	0.004121221
235	0x39d8b1e5	0.00041331272
236	0xb8f34d5f	-0.000116015544
237	0xb798167f	-1.8130288e-05
238	0xb9352486	-0.00017275111
239	0xb687fe34	-4.0529067e-06
240	0xbbf5a8af	-0.0074969153
241	0x3a2a0139	0.00064851675
242	0x379a1998	1.8370149e-05
243	0x388648ac	6.403154e-05
244	0x398c66b5	0.00026779404
245	0xb9294f22	-0.00016146575
246	0xba2604e5	-0.0006333127
247	0x3834501c	4.2989952e-05
248	0xb9c43d9b	-0.00037429933
249	0xb8866315	-6.4080734e-05
250	0xb89eef46	-7.578595e-05
251	0x37c40dde	2.3371478e-05
252	0x3892dcdb	7.00296e-05
253	0x388625ff	6.396695e-05
254	0xb972654e	-0.00023116657
255	0x3654f060	3.1730378e-06

network.1.weight f4 [256]
0	0x3f792f09	0.97337395
1	0x3f8023ae	1.0010889
2	0x3f7db799	0.9910827
3	0x3f7ff704	0.9998629
4	0x3f7fd9ab	0.9994151
5	0x3f7e192d	0.99257165
6	0x3f7cb61a	0.98715365
7	0x3f7e0f06	0.99241674
8	0x3f80a42c	1.0050101
9	0x3f7dc413	0.9912731
10	0x3f8020ae	1.0009973
11	0x3f807855	1.0036722
12	0x3f808bbd	1.0042645
13	0x3f7c0540	0.9844551
14	0x3f816ba6	1.0110977
15	0x3f80803c	1.0039134
16	0x3f80b149	1.0054103
17	0x3f7b890f	0.9825601
18	0x3f81ab53	1.0130409
19	0x3f7fbed4	0.99900556
20	0x3f8183c5	1.0118338
21	0x3f7eb635	0.99496776
22	0x3f828d16	1.0199306
23	0x3f817a27	1.0115403
24	0x3f7c7ef3	0.9863121
25	0x3f801cc9	1.0008785
26	0x3f7f2def	0.99679464
27	0x3f8026c5	1.0011832
28	0x3f817651	1.0114232
29	0x3f7d88aa	0.9903666
30	0x3f821ff9	1.0166007
31	0x3f7daeb4	0.990947
32	0x3f7e177f	0.992546
33	0x3f803e55	1.0019022
34	0x3f8234f3	1.0172409
35	0x3f7e172a	0.99254096
36	0x3f7b2d59	0.9811607
37	0x3f809aea	1.0047276
38	0x3f8021a6	1.0010269
39	0x3f7a65b9	0.97811466
40	0x3f82dc01	1.022339
41	0x3f7aaff5	0.9792474
42	0x3f802529	1.001134
43	0x3f8095ac	1.0045676
44	0x3f7fc111	0.9990397
45	0x3f801e7b	1.0009302
46	0x3f7e7ae1	0.9940625
47	0x3f806dcf	1.0033511
48	0x3f7f35c0	0.9969139
49	0x3f7d470c	0.98936534
50	0x3f812896	1.0090511
51	0x3f7c06c3	0.9844782
52	0x3f7a9321	0.9788075
53	0x3f7f9476	0.9983591
54	0x3f7f79a6	0.99794996
55	0x3f815fe5	1.010739
56	0x3f810fea	1.0082982
57	0x3f81104c	1.0083098
58	0x3f81ae04	1.013123
59	0x3f7a77ed	0.9783924
60	0x3f7c6501	0.9859162
61	0x3f7dd89e	0.99158657
62	0x3f7e3fec	0.9931629
63	0x3f806323	1.0030254
64	0x3f7df22b	0.99197644
65	0x3f80b5bc	1.0055461
66	0x3f7f3c02	0.9970094
67	0x3f817d3d	1.0116345
68	0x3f803628	1.0016527
69	0x3f80201b	1.0009798
70	0x3f827809	1.0192882
71	0x3f7e689e	0.99378383
72	0x3f838d0e	1.0277421
73	0x3f80666f	1.003126
74	0x3f7fc27c	0.99906135
75	0x3f7d5701	0.9896088
76	0x3f80f602	1.0075076
77	0x3f7eee75	0.99582607
78	0x3f7bc33d	0.98344785
79	0x3f8136aa	1.0094807
80	0x3f80872c	1.0041251
81	0x3f7fc836	0.9991487
82	0x3f803cb5	1.0018526
83	0x3f80b710	1.0055866
84	0x3f7db4d3	0.9910404
85	0x3f7d40ec	0.9892719
86	0x3f7eefb0	0.99584484
87	0x3f8315c7	1.0241021
88	0x3f7a8434	0.97857976
89	0x3f83acee	1.0287149
90	0x3f7f89f1	0.99819857
91	0x3f7e63d5	0.9937108
92	0x3f7ce3fa	0.98785365
93	0x3f8294d0	1.0201664
94	0x3f7e74ca	0.99396956
95	0x3f8147d8	1.010005
96	0x3f7e2d2b	0.9928767
97	0x3f7de63a	0.9917942
98	0x3f800f2f	1.0004634
99	0x3f8014df	1.0006369
100	0x3f8307f5	1.0236803
101	0x3f7aa51f	0.97908205
102	0x3f802bb2	1.0013335
103	0x3f816ee0	1.0111961
104	0x3f7ee3f4	0.9956658
105	0x3f7d53da	0.9895607
106	0x3f7e364c	0.993016
107	0x3f803bd5	1.0018259
108	0x3f7a87a5	0.9786323
109	0x3f7ae488	0.9800496
110	0x3f81d267	1.0142335
111	0x3f7c0452	0.9844409
112	0x3f7f90ca	0.99830306
113	0x3f7ea623	0.99472255
114	0x3f80efec	1.0073218
115	0x3f812742	1.0090106
116	0x3f8001fb	1.0000604
117	0x3f8052ca	1.0025265
118	0x3f7ed6d2	0.9954654
119	0x3f7e4d76	0.99336946
120	0x3f7bee8d	0.98410875
121	0x3f82c295	1.0215632
122	0x3f7a9b91	0.97893625
123	0x3f82094e	1.015909
124	0x3f81ac90	1.0130787
125	0x3f802cb8	1.0013647
126	0x3f81ee5b	1.0150865
127	0x3f80ed5d	1.0072438
128	0x3f7a91c4	0.9787867
129	0x3f7fa6eb	0.9986407
130	0x3f8058ec	1.0027137
131	0x3f7dfa96	0.9921049
132	0x3f80f9e4	1.007626
133	0x3f82414c	1.0176177
134	0x3f8166ba	1.0109475
135	0x3f8172d2	1.0113165
136	0x3f80dc0d	1.0067154
137	0x3f8009ba	1.0002968
138	0x3f7d5943	0.9896433
139	0x3f8043f5	1.0020739
140	0x3f7edbf3	0.99554366
141	0x3f7ff7b4	0.9998734
142	0x3f7efa55	0.99600726
143	0x3f7fd94c	0.99940944
144	0x3f808dc3	1.0043262
145	0x3f7a8db0	0.9787245
146	0x3f807f32	1.0038817
147	0x3f77fe5a	0.96872485
148	0x3f7e84f2	0.9942161
149	0x3f7f1ecf	0.99656385
150	0x3f7f4ab4	0.9972336
151	0x3f7f2dd3	0.996793
152	0x3f7f9f86	0.9985279
153	0x3f82189b	1.0163759
154	0x3f81ef35	1.0151125
155	0x3f812bf0	1.0091534
156	0x3f80eea3	1.0072826
157	0x3f7eedff	0.99581903
158	0x3f7eb832	0.9949981
159	0x3f7c8aa6	0.9864906
160	0x3f7e82f1	0.9941855
161	0x3f808fd5	1.0043894
162	0x3f7b5d8c	0.98189616
163	0x3f81bead	1.0136315
164	0x3f80f3c0	1.0074387
165	0x3f7e6f0b	0.9938819
166	0x3f7d0b7e	0.9884566
167	0x3f802ef6	1.0014331
168	0x3f7af616	0.9803175
169	0x3f7cf12a	0.9880549
170	0x3f8099a2	1.0046885
171	0x3f80771f	1.0036353
172	0x3f80be4c	1.0058074
173	0x3f7dac09	0.9909063
174	0x3f7df5cc	0.9920318
175	0x3f7f4240	0.99710464
176	0x3f804f22	1.002415
177	0x3f7dfcb9	0.9921375
178	0x3f7ebe34	0.99508977
179	0x3f81bc8a	1.0135663
180	0x3f79aa8e	0.9752587
181	0x3f80f6a4	1.0075269
182	0x3f7ecb53	0.99529
183	0x3f80c46e	1.0059946
184	0x3f7d286f	0.9888982
185	0x3f7d9bf7	0.9906611
186	0x3f7c02c4	0.9844172
187	0x3f80faa8	1.0076494
188	0x3f7f105f	0.99634355
189	0x3f8205ad	1.0157982
190	0x3f7eec9e	0.995798
191	0x3f7e02d4	0.99223065
192	0x3f7ca626	0.9869102
193	0x3f7c4484	0.98542047
194	0x3f7d1256	0.98856103
195	0x3f7f299b	0.9967286
196	0x3f7eceb9	0.99534184
197	0x3f819fdb	1.0126909
198	0x3f7bd28d	0.9836815
199	0x3f7dfe77	0.9921641
200	0x3f7fba99	0.998941
201	0x3f7f9b5d	0.9984644
202	0x3f810407	1.0079354
203	0x3f8064ef	1.0030802
204	0x3f7d1181	0.98854834
205	0x3f7c3062	0.98511326
206	0x3f80fe87	1.0077676
207	0x3f7d9965	0.99062186
208	0x3f8068f3	1.0032028
209	0x3f7f5e84	0.99753594
210	0x3f7f3f71	0.9970618
211	0x3f7e91de	0.99441326
212	0x3f7d659b	0.9898316
213	0x3f805a34	1.0027528
214	0x3f7fc94a	0.9991652
215	0x3f802d04	1.0013738
216	0x3f7cadae	0.98702514
217	0x3f815bb0	1.0106106
218	0x3f80b744	1.0055928
219	0x3f7ec04c	0.9951217
220	0x3f7e562f	0.99350256
221	0x3f8037c1	1.0017015
222	0x3f803320	1.0015602
223	0x3f7ecdfc	0.9953306
224	0x3f82df85	1.0224463
225	0x3f7fcd22	0.9992238
226	0x3f8017e3	1.000729
227	0x3f80b333	1.0054687
228	0x3f7c4778	0.9854655
229	0x3f7fd124	0.999285
230	0x3f79f7b2	0.9764358
231	0x3f7fcf82	0.99926007
232	0x3f78ec9b	0.9723603
233	0x3f80dcf2	1.0067427
234	0x3f81a240	1.012764
235	0x3f7db3d9	0.9910255
236	0x3f7e35d3	0.9930088
237	0x3f81207c	1.0088038
238	0x3f819169	1.0122501
239	0x3f7dd4e5	0.99152976
240	0x3f7cb1a1	0.9870854
241	0x3f7f17de	0.99645793
242	0x3f819055	1.0122172
243	0x3f808d62	1.0043147
244	0x3f80cb33	1.0062011
245	0x3f8218a9	1.0163776
246	0x3f7f3827	0.99695057
247	0x3f80d9b3	1.0066437
248	0x3f8328dd	1.0246845
249	0x3f801da5	1.0009047
250	0x3f7d1b35	0.9886964
251	0x3f7cbdbe	0.98727024
252	0x3f7d7d3d	0.99019223
253	0x3f8108d9	1.0080825
254	0x3f7fa7f1	0.99865633
255	0x3f7e69ab	0.99379987

network.1.bias f4 [256]
0	0xbc2830c3	-0.010265532
1	0xbafd081c	-0.0019304785
2	0x3bdb25fc	0.0066878777
3	0x3a42d3e9	0.000743209
4	0xbba8a05b	-0.005146069
5	0xbbf6c7b7	-0.007531132
6	0xbc0b79f5	-0.008512964
7	0xbc7dd487	-0.015492565
8	0xbbcf6eb5	-0.006330336
9	0x3b27fe74	0.0025633844
10	0x3c085d4b	0.008323024
11	0x3c3076aa	0.010770479
12	0x3ca26637	0.01982413
13	0xbc06ffe0	-0.008239716
14	0x3c6011a4	0.013676081
15	0x3b9bbbe9	0.0047526252
16	0x3b4a1f09	0.0030841252
17	0xbc7cea71	-0.015436755
18	0x3cb70674	0.022341944
19	0xbb7153d7	-0.0036823654
20	0x3c5711c0	0.0131267905
21	0xbb4e8e90	-0.003151808
22	0x3c655a88	0.013998635
23	0x3c00c575	0.007859577
24	0xbc1c1dbd	-0.0095285745
25	0xbbd5458a	-0.006508534
26	0x3abe5c02	0.001452327
27	0x3cae1221	0.021248879
28	0x3c1aafce	0.009441329
29	0xbc1c9b48	-0.009558506
30	0x3c15553e	0.009114562
31	0xbb1d216e	-0.0023976224
32	0xb9201e6e	-0.00015270125
33	0x3bb57973	0.0055381595
34	0x3b2ff148	0.0026846696
35	0x3bbd6c3b	0.0057807243
36	0xbc360a56	-0.011110863
37	0x3bbfc8df	0.005852803
38	0xbb73d4e0	-0.003720574
39	0xbc8c99e3	-0.017163223
40	0x3c8c657d	0.017138237
41	0xbc807048	-0.01567854
42	0x3ba3c1ad	0.004997453
43	0xbb474495	-0.0030405868
44	0xb89fea3c	-7.6253404e-05
45	0x3c8a2f7b	0.016868344
46	0x3b0b2806	0.0021233573
47	0x3c94b2ac	0.018151604
48	0x3be57cd8	0.007003408
49	0xbb9d1276	-0.0047934605
50	0xbb9bb115	-0.0047513344
51	0xbc600987	-0.0136741465
52	0xbca9d5e5	-0.020731876
53	0x3b716d8b	0.0036838974
54	0xbc9e94f7	-0.019358141
55	0x3c653fc9	0.013992258
56	0x3c27f933	0.010252285
57	0x3c2e4f6c	0.010639053
58	0x3adf2f47	0.001702764
59	0xbc0d842a	-0.008637467
60	0xbbf48dbc	-0.007463185
61	0xbb1db315	-0.002406304
62	0x3a3c3e0a	0.00071808754
63	0x3aec00ce	0.0018005611
64	0xbc6acfeb	-0.014331798
65	0x3c278fe4	0.010227177
66	0x3bf03ffc	0.0073318463
67	0x3ba43a22	0.005011813
68	0xbb8f8f8a	-0.004381125
69	0x3c84dc6b	0.016218385
70	0x3b6a113a	0.0035715834
71	0x3be0e087	0.0068627032
72	0x3c77978c	0.015111815
73	0x3c42511b	0.011860157
74	0xba186384	-0.0005813169
75	0xbbee8a7a	-0.0072796913
76	0xbc4cdecc	-0.012504291
77	0x3b454d38	0.003010584
78	0xbc9e68b7	-0.019337041
79	0x3cab2cb9	0.020895349
80	0x3c74b357	0.014935336
81	0xbc6186af	-0.013765021
82	0x3c67c897	0.014146945
83	0x3c08a3f5	0.008339872
84	0xbb080256	-0.0020753345
85	0xbc7192d3	-0.014744478
86	0xbb368511	-0.002785031
87	0x3caae123	0.020859307
88	0xbcc3fedb	-0.023925235
89	0x3c3359a8	0.010946669
90	0x3b437804	0.0029826174
91	0x3beb380c	0.007178312
92	0xbb6964ed	-0.0035613135
93	0x3c839ef2	0.016067002
94	0xbb3fc6d4	-0.0029262798
95	0x3c80d340	0.015725732
96	0xbbef5b1e	-0.007304563
97	0xbc0eb1cf	-0.008709385
98	0x3b92c3de	0.0044789156
99	0x3c36be6c	0.011153799
100	0x3c056d6f	0.008143767
101	0xbc3e0d97	-0.01159992
102	0xbbb4b61f	-0.0055148746
103	0x3c922a54	0.01784245
104	0xbc2792fa	-0.010227913
105	0xbc899e71	-0.016799184
106	0xbc41e5d9	-0.011834585
107	0xbba410e1	-0.005006895
108	0xbca948c5	-0.020664582
109	0xb81bc8e0	-3.714196e-05
110	0x3c5c86c2	0.013459863
111	0xbc302667	-0.010751343
112	0x3bd24424	0.0064168144
113	0xbc3ffe77	-0.011718384
114	0xbb8fb2dd	-0.004385336
115	0x3ac9a61c	0.0015384587
116	0x3bf57dcc	0.007491803
117	0x3c64dafa	0.013968224
118	0xbbb54719	-0.005532157
119	0xbbf3d5c1	-0.007441253
120	0xbc817a4c	-0.015805386
121	0x3c32e5c9	0.010919043
122	0xbbde432b	-0.0067829094
123	0xba9adc73	-0.0011814967
124	0x3cf318b2	0.029674862
125	0xb9c3b623	-0.00037329
126	0x3cb847a9	0.022495108
127	0x3c314195	0.010818859
128	0x3bbbff9a	0.005737257
129	0xbc4c00e2	-0.012451382
130	0x3c2cef6f	0.010555132
131	0x3ba4df52	0.0050315047
132	0x3ca61c9d	0.020277316
133	0x3b5e9a66	0.003396654
134	0x3c8e5143	0.017372733
135	0xbc32cbac	-0.010912817
136	0x3c96b209	0.01839544
137	0x3bc9759e	0.0061480543
138	0x391a7d78	0.00014733325
139	0x3bd0e39b	0.006374789
140	0x3ba26feb	0.0049571893
141	0x3bb370f6	0.0054761125
142	0xbb80621f	-0.003917947
143	0x3bf1173a	0.007357505
144	0x3b467a2a	0.0030285218
145	0xbc363f3b	-0.011123474
146	0x3c997f2e	0.018737402
147	0xbcadebfe	-0.021230694
148	0xbc0a5430	-0.008442923
149	0xbc0c9dcf	-0.008582546
150	0x3bcba931	0.0062152375
151	0x3ab78221	0.0014000573
152	0x3bd6394c	0.006537592
153	0x3c10e064	0.008842561
154	0x3bb35bae	0.0054735756
155	0xbb44f94e	-0.0030055824
156	0x39f4a36d	0.00046661068
157	0x3b0f7178	0.00218877
158	0xbc1636ea	-0.009168366
159	0xbc23e39e	-0.010002999
160	0xbc37905c	-0.011203852
161	0xbb602df3	-0.0034207075
162	0xbcc46270	-0.02397272
163	0x3c4ae648	0.012384005
164	0xbc35681c	-0.011072185
165	0x3be4feef	0.0069883983
166	0xbcaf7794	-0.021419324
167	0xbbc7846c	-0.006088784
168	0xbc2bc1ca	-0.010483215
169	0xbcc96c35	-0.02458773
170	0x3c8636d6	0.01638357
171	0x3c8e6010	0.01737979
172	0x3b82d69e	0.0039928695
173	0xbbd2dd66	-0.006435084
174	0xbc55a931	-0.013040827
175	0xbc1a9050	-0.009433821
176	0xbaccbef7	-0.0015620877
177	0xbc6b16e6	-0.014348721
178	0x3bcd88c0	0.0062724054
179	0x3bc5838a	0.0060276436
180	0xbc894714	-0.016757526
181	0x3c232e72	0.009959804
182	0xba098380	-0.000524573
183	0x3bb235f1	0.005438559
184	0x3aadfa29	0.0013273406
185	0x3ba551a6	0.0050451336
186	0xbc78bc64	-0.015181635
187	0x3c598ccf	0.0132782
188	0xbb97ab96	-0.004628609
189	0xbb1d3710	-0.0023989119
190	0xbc0ce967	-0.008600569
191	0xbc033ea3	-0.008010539
192	0x3cca656c	0.024706565
193	0xbc6b2e88	-0.014354356
194	0xbc6db848	-0.014509268
195	0x3af3e836	0.0018608633
196	0xbc184d83	-0.009295824
197	0xb8a56174	-7.885965e-05
198	0xbc6a7b7a	-0.014311666
199	0xbbb14590	-0.005409904
200	0x3ca9d46d	0.020731175
201	0x3bf6faba	0.007537213
202	0x3bc1870f	0.005905993
203	0x3c4217ab	0.011846463
204	0x3c8a42b8	0.016877517
205	0x3b404fa2	0.002934434
206	0x3c258ecf	0.010104849
207	0xbc6e022f	-0.014526888
208	0x3c6b7adc	0.014372554
209	0x3ac7adb1	0.0015234259
210	0x3c66ee0a	0.014094839
211	0xbb5cffae	-0.0033721733
212	0xbc8cba96	-0.017178815
213	0x3aa73ad4	0.0012758621
214	0xbc3d4bf7	-0.011553756
215	0x3a0f7458	0.00054723537
216	0x3ad105a1	0.0015947112
217	0x3c22bb05	0.009932284
218	0x3c8c971e	0.017161902
219	0xbb0532e7	-0.002032453
220	0xbc584601	-0.013200284
221	0x3c95ac03	0.018270498
222	0xbb2c5903	-0.0026298172
223	0x3b5522b0	0.0032521896
224	0x3c477d65	0.0121758925
225	0x3c0fe95c	0.008783665
226	0x3ae9b2fa	0.0017829828
227	0x3b5a8758	0.0033344831
228	0xbc9ed410	-0.019388229
229	0xbbe74e2f	-0.0070588808
230	0xbc51df02	-0.012809517
231	0xbb988ba1	-0.004655317
232	0xbc3c3848	-0.011488028
233	0xbc0fc75b	-0.008775557
234	0x3cb98d6b	0.022650441
235	0xbba74113	-0.005104193
236	0x3b969423	0.004595296
237	0x3907b788	0.00012942974
238	0x3c856fff	0.016288755
239	0xbc836f26	-0.01604421
240	0x3a7783f9	0.00094419677
241	0xba95dede	-0.0011434217
242	0x3b85bbf9	0.004081246
243	0x3c1e12fa	0.009648079
244	0xbb81002c	-0.003936788
245	0x3c8a6b78	0.016896948
246	0x3bd2c861	0.0064325784
247	0xba4f0886	-0.00078976934
248	0x3c9f5dff	0.019454
249	0xbbccf8ea	-0.006255259
250	0xbc1547bb	-0.00911134
251	0xbb312a57	-0.0027033293
252	0xbca8bcbb	-0.020597806
253	0x3c825090	0.015907556
254	0xbcb2f27b	-0.02184414
255	0x3b808737	0.003922369

network.1.running_mean f4 [256]
0	0x3c705fe2	0.014671298
1	0xbc75519c	-0.0149730705
2	0xbbf939a4	-0.0076057483
3	0xbbe5b144	-0.007009657
4	0x3c0575a0	0.00814572
5	0xbba06d36	-0.0048958315
6	0x3c0061dc	0.0078358315
7	0xbc8b0077	-0.016967995
8	0x3c51c14b	0.012802432
9	0xbc3d0bfa	-0.0115385
10	0xbbd3312d	-0.006445071
11	0x3b6ef8ae	0.0036464143
12	0x3c141a69	0.0090395
13	0x3c4e022e	0.012573762
14	0x3c21cc37	0.009875349
15	0x3c2eb6ba	0.010663683
16	0xbcefa712	-0.02925447
17	0xbb84f8af	-0.0040579657
18	0x3a1740f0	0.00057698693
19	0xbb08bcbc	-0.0020864448
20	0x381b67c0	3.7051504e-05
21	0xbc7ae367	-0.015313006
22	0xbbe9e0d2	-0.0071373964
23	0x3a4e31b0	0.00078656804
24	0x3bc1924c	0.0059073325
25	0x3b6e509a	0.003636396
26	0xbb8cb3e6	-0.0042939065
27	0xba52eaf8	-0.00080458773
28	0x3c06deff	0.008231877
29	0xba9f393e	-0.0012147797
30	0xbbed1ffa	-0.007236478
31	0x378e6e00	1.6978942e-05
32	0xbaacfc20	-0.0013197698
33	0x3ba90348	0.005157862
34	0x3a5d6bb0	0.00084465276
35	0xba942c98	-0.0011304794
36	0x3c090ee1	0.008365364
37	0x3bf3d46c	0.007441094
38	0xbc0d7568	-0.008633949
39	0x3b8c885f	0.0042887176
40	0xbc02e37c	-0.007988807
41	0xbabfcd24	-0.001463328
42	0xbab952ec	-0.0014139093
43	0x3c643c32	0.013930367
44	0xba9e077c	-0.0012056674
45	0xb97a84b0	-0.00023891288
46	0xbb667e79	-0.0035170598
47	0xbb8bf1f3	-0.004270786
48	0xbc5cb6bb	-0.013471301
49	0xba4a7650	-0.00077233184
50	0x3c83a91a	0.016071845
51	0xbada471b	-0.0016653271
52	0xba0d2bbc	-0.000538524
53	0x3bbd0639	0.005768564
54	0xbbabcc0e	-0.005242831
55	0x3aba751c	0.0014225575
56	0xbc2aae1a	-0.010417486
57	0xbcb2af6f	-0.021812169
58	0xbc26a063	-0.010170075
59	0xbaa64480	-0.001268521
60	0xbc37be1a	-0.011214757
61	0xbc8ac92e	-0.016941633
62	0xbafb3228	-0.0019164728
63	0xbb956d2f	-0.004560135
64	0xb9a90d40	-0.00032244064
65	0xbb86c412	-0.004112729
66	0x3ca511b8	0.02015005
67	0x3c7044d0	0.014664844
68	0x3ac124a0	0.0014735647
69	0xba7c057c	-0.00096138543
70	0xbbb741be	-0.005592554
71	0xbc292a03	-0.010324958
72	0xbbe21664	-0.006899642
73	0xbbb90752	-0.0056466246
74	0xbbfb6742	-0.0076722214
75	0xbc897192	-0.016777787
76	0xbbafad4e	-0.0053612357
77	0x3c3ae301	0.011406661
78	0xbbb63c58	-0.0055613928
79	0xbc747760	-0.014921039
80	0xbba4a6cc	-0.0050247665
81	0x3bbafea4	0.005706625
82	0xb90cfe80	-0.00013446249
83	0x3bb4c1f0	0.005516283
84	0x3c0fa2f6	0.00876688
85	0x3b8b7bbd	0.004256694
86	0xbc958922	-0.018253867
87	0x3a377140	0.00069977716
88	0x3b8b478a	0.0042504715
89	0xbb80f693	-0.003935644
90	0xbbad09f6	-0.0052807285
91	0xbc2d29a6	-0.010569012
92	0x3c4647d4	0.012102086
93	0x3c90b1bc	0.017662875
94	0xbc347eb6	-0.011016538
95	0x38d8ba80	0.00010334421
96	0xbc8c5ccd	-0.017134095
97	0x3bca991a	0.006182802
98	0x3c8c02bf	0.017091153
99	0xbba005b5	-0.004883493
100	0x3bbf5792	0.0058392966
101	0xbc32d09e	-0.010913996
102	0xbbf844dd	-0.0075765685
103	0x3b576a28	0.003286967
104	0xbcaf49fb	-0.021397581
105	0x3a181e04	0.00058028125
106	0xbc4554a6	-0.012044108
107	0x3aa02682	0.0012218507
108	0x3c24dc7e	0.010062335
109	0xbaec5a74	-0.0018032328
110	0x3c16cd17	0.009204171
111	0xbac8ddea	-0.0015324925
112	0xbbc14e99	-0.005899262
113	0x3b8d1ee6	0.004306662
114	0x3be4f2d5	0.0069869556
115	0x3a7b4a18	0.0009585931
116	0x3a185790	0.00058113877
117	0x3baa83d2	0.0052037025
118	0x36773000	3.6833808e-06
119	0xbbed61e6	-0.0072443364
120	0x3b6bad98	0.0035961624
121	0x3c11aeca	0.008891771
122	0xbbc2a4eb	-0.00594007
123	0xbba07b18	-0.0048974864
124	0x3b57385e	0.0032839994
125	0xbb879e9f	-0.004138782
126	0xbc499cfb	-0.0123054935
127	0xbc11257f	-0.008859037
128	0x3c502ad7	0.012705526
129	0x3b2da6d8	0.0026497152
130	0xbb563280	-0.003268391
131	0x3c39bc92	0.011336463
132	0xbbaf7746	-0.0053547947
133	0x3ba8a638	0.005146768
134	0xbc8ef5cb	-0.017451188
135	0x3b9ea2fb	0.004841206
136	0x3c6846eb	0.014177064
137	0xbbfeeaca	-0.007779454
138	0x3b8b91a0	0.004259303
139	0x3a52c0de	0.00080396037
140	0x3aa24b00	0.0012381971
141	0x3cb69037	0.022285564
142	0x3c0b571e	0.008504657
143	0x3d02030d	0.03174119
144	0xbc86a04a	-0.016433854
145	0x3b0c191d	0.0021377273
146	0xbb12450f	-0.0022318994
147	0xbacfbf88	-0.0015849927
148	0x3c235e32	0.009971188
149	0xbc1a9ead	-0.009437245
150	0x3baf2c2a	0.005345841
151	0xbb9064f4	-0.004406566
152	0xba7cfd8e	-0.00096508197
153	0x3c2ce8a6	0.010553515
154	0xbbf28cdb	-0.007402045
155	0xbb709b82	-0.0036713784
156	0x3a2aba2c	0.0006512727
157	0xb8234e80	-3.8935337e-05
158	0xbc06888a	-0.008211264
159	0xbc0dbb5c	-0.008650627
160	0x3ca7fc0a	0.020505924
161	0x3c5fde6f	0.013663872
162	0x3afa17e4	0.0019080606
163	0xbc2421e6	-0.010017848
164	0x3b991e6b	0.0046728156
165	0xbb1316f8	-0.002244411
166	0xbbbcb266	-0.0057585714
167	0xbc5aa1aa	-0.013344208
168	0x388c11a0	6.679003e-05
169	0x3bdd0f19	0.0067461845
170	0xbc91d8a5	-0.0178035
171	0xbbd95d66	-0.0066334484
172	0x3c2fa09b	0.010719444
173	0xbc13073c	-0.008973893
174	0xba5b2674	-0.0008359917
175	0x3c00e537	0.007867149
176	0xbba45364	-0.0050148237
177	0x3c76471b	0.015031601
178	0xbb4fe02b	-0.0031719308
179	0x3bcf052c	0.006317755
180	0x3c23f8da	0.010008061
181	0x3c3f89cf	0.011690571
182	0xbc6acc0a	-0.014330873
183	0xbad4b3c3	-0.001622789
184	0xba8f4608	-0.0010930905
185	0x3c23d2e0	0.009999007
186	0xbb548c66	-0.0032432317
187	0xbbcb282a	-0.0061998563
188	0xb9cc9500	-0.00039020926
189	0xbb7fda08	-0.003903987
190	0x3b34e66c	0.0027603162
191	0xbbce2570	-0.006291084
192	0x3b9118ff	0.0044280286
193	0x3b3d2ce0	0.002886586
194	0xbbce517a	-0.006296334
195	0x3a42bcc8	0.00074286433
196	0x3c0f73ce	0.008755637
197	0xbb6fffbb	-0.0036620933
198	0xba39cf70	-0.00070881005
199	0xbc07a610	-0.0082793385
200	0x3c1edf33	0.0096967695
201	0x3c25cb88	0.010119326
202	0x3c3262e2	0.010887833
203	0xbbbfa3f2	-0.005848401
204	0xbbd2b5f8	-0.006430384
205	0x3c7ac8e0	0.015306681
206	0xbc3b2bc6	-0.011424011
207	0xbb5dff6a	-0.0033874162
208	0x3b6fb4ca	0.0036576265
209	0xbc438e2c	-0.011935752
210	0xbaa595dc	-0.0012633163
211	0x3a418c50	0.0007383274
212	0x3bf6f168	0.007536102
213	0x3c22446c	0.009904008
214	0xbb9af218	-0.004728567
215	0xbabdd760	-0.0014483742
216	0x3c0a16a6	0.008428251
217	0x3c701247	0.014652795
218	0x3c0c3637	0.008557848
219	0xbc0daf25	-0.008647715
220	0xbc1606b1	-0.009156869
221	0x3c980872	0.018558715
222	0xbb7b4d29	-0.0038345552
223	0xb900f500	-0.00012298301
224	0x3c0e6cf4	0.008692969
225	0xbabceb08	-0.0014413306
226	0xbb6be704	-0.003599585
227	0x3c60a2ec	0.013710719
228	0x3b867b88	0.0041040815
229	0x3bacbc28	0.0052714534
230	0x38fe6800	0.00012131035
231	0x3a367070	0.00069595035
232	0x3b413424	0.002948054
233	0x3b560a7e	0.0032660062
234	0x3af3c0a8	0.0018596845
235	0x3c1157ba	0.008871013
236	0x3ba07771	0.004897051
237	0xbb1a2346	-0.002351956
238	0x3bdec4e5	0.006798374
239	0xbab0f488	-0.001350061
240	0xbaba9402	-0.0014234784
241	0xbaef6efa	-0.0018267327
242	0xbb83ac20	-0.0040183216
243	0xbb438eb4	-0.0029839696
244	0xbc1edf95	-0.009696861
245	0x3c3b2113	0.01142146
246	0xbc1c7373	-0.00954901
247	0x3b505bee	0.0031793076
248	0x3b4ac4bc	0.0030940017
249	0x3b1d7744	0.0024027387
250	0xbc68e977	-0.014215819
251	0xbbe1afc5	-0.0068874084
252	0x3bc0b57a	0.0058810087
253	0xba986278	-0.0011626026
254	0xbbe7142e	-0.007051966
255	0xbbace400	-0.005276203

network.1.running_var f4 [256]
0	0x3e94a42e	0.2903151
1	0x3e8be7ff	0.27325436
2	0x3e93f1f1	0.28895524
3	0x3ec397c1	0.38201717
4	0x3ebded2e	0.37095016
5	0x3e8d6097	0.27612755
6	0x3ea7d568	0.32780004
7	0x3ebd3435	0.36953893
8	0x3e8aacf7	0.27085087
9	0x3e907006	0.28210467
10	0x3eccd0c8	0.40003037
11	0x3eb4c601	0.35307315
12	0x3ebdb9c3	0.37055787
13	0x3eafd995	0.3434569
14	0x3e829e6b	0.25511488
15	0x3e886b8e	0.26644558
16	0x3eab988f	0.3351483
17	0x3eaa5791	0.33269933
18	0x3ee6a3ea	0.45046932
19	0x3eaa8480	0.33304214
20	0x3ea893d1	0.32925275
21	0x3ebc6711	0.36797383
22	0x3ec3842a	0.3818677
23	0x3e97d29d	0.29652873
24	0x3ea7c6ab	0.3276876
25	0x3e8696d5	0.2628695
26	0x3e6c99a1	0.2310548
27	0x3e8d9891	0.2765546
28	0x3e8b15c3	0.2716504
29	0x3ea2befd	0.31786337
30	0x3e90f874	0.28314555
31	0x3eaeb1b8	0.34119964
32	0x3eaf0f7a	0.34191495
33	0x3e9e4278	0.30910087
34	0x3eb161a9	0.3464482
35	0x3e9da70e	0.30791515
36	0x3e9ab141	0.3021336
37	0x3ec8d2c2	0.39223295
38	0x3e83c9a1	0.25739768
39	0x3e9a47b7	0.3013284
40	0x3e78c04f	0.2429211
41	0x3ebef7b2	0.37298352
42	0x3ea8487f	0.3286781
43	0x3e9b3d35	0.30320135
44	0x3e8e6807	0.27813742
45	0x3e90d585	0.28287902
46	0x3e847593	0.25870952
47	0x3eae08b9	0.3399103
48	0x3ec10eeb	0.37706694
49	0x3e7f57aa	0.24935785
50	0x3ea15b2d	0.31514874
51	0x3ed35353	0.4127451
52	0x3e96ab85	0.29427734
53	0x3e83ac80	0.25717545
54	0x3eb667bb	0.35626015
55	0x3ea4275c	0.3206128
56	0x3e97c4b7	0.2964227
57	0x3e9a7351	0.30166104
58	0x3eaa65d9	0.3328083
59	0x3e8dbd93	0.27683696
60	0x3e6626fc	0.22475809
61	0x3ebcc571	0.36869386
62	0x3ed02fd8	0.40661502
63	0x3ebc096a	0.36725932
64	0x3ea11516	0.314614
65	0x3ebb5769	0.36590126
66	0x3ec53f93	0.38525066
67	0x3ea37fbf	0.319334
68	0x3eae4e6e	0.34044212
69	0x3ea1ca8c	0.31599844
70	0x3eabbe7e	0.33543772
71	0x3ebcf022	0.36901957
72	0x3ea556a5	0.32292667
73	0x3ea872e2	0.3290015
74	0x3e8b7a95	0.2724196
75	0x3ee552c5	0.4478971
76	0x3e98d3eb	0.2984918
77	0x3ebcbada	0.36861306
78	0x3ecbb2fc	0.39784992
79	0x3ea18cf9	0.31552866
80	0x3eba63ce	0.3640427
81	0x3e947037	0.28991863
82	0x3eaefd58	0.3417766
83	0x3e83aada	0.25716287
84	0x3e91d6e5	0.28484264
85	0x3eac308e	0.33630794
86	0x3e94878e	0.2900967
87	0x3e98b82c	0.29828012
88	0x3ea9ce17	0.33165047
89	0x3ead24e5	0.3381721
90	0x3ec0125b	0.37514004
91	0x3ed54594	0.41654646
92	0x3eac695b	0.3367413
93	0x3eae82de	0.3408422
94	0x3e9d6342	0.3073979
95	0x3ec35e03	0.38157663
96	0x3e87ccf3	0.2652355
97	0x3ec2d33d	0.38051787
98	0x3eb41566	0.35172576
99	0x3ec4cef5	0.38439146
100	0x3e8b7147	0.2723486
101	0x3eb9e03f	0.363039
102	0x3e990651	0.29887632
103	0x3e8fb567	0.28068087
104	0x3ec03d86	0.3754694
105	0x3e827f00	0.25487518
106	0x3eb21d90	0.3478818
107	0x3e791a1f	0.2432637
108	0x3e83d3c7	0.2574751
109	0x3ed2a426	0.4114086
110	0x3e99722d	0.29969922
111	0x3ea66505	0.32498947
112	0x3eaa1acd	0.33223572
113	0x3e8462b6	0.2585656
114	0x3e74cbb3	0.2390583
115	0x3e718a36	0.2358788
116	0x3ebb49c6	0.36579722
117	0x3eb4d14e	0.35315937
118	0x3e8d0d60	0.27549267
119	0x3ed83c02	0.42233282
120	0x3e5bbae6	0.21458015
121	0x3ec2f929	0.3808072
122	0x3eadbfe7	0.33935472
123	0x3ea69ff2	0.32543904
124	0x3e90e206	0.28297442
125	0x3e91e891	0.28497747
126	0x3ec34055	0.3813502
127	0x3ec6c301	0.3882065
128	0x3ec78c1f	0.3897409
129	0x3eb32bb0	0.34994268
130	0x3eb9528c	0.3619579
131	0x3ea66a0b	0.3250278
132	0x3e9b342a	0.30313236
133	0x3ea2c95d	0.31794253
134	0x3e99fddb	0.3007649
135	0x3e9ad98c	0.302441
136	0x3ea19665	0.31560054
137	0x3e9128f8	0.2835157
138	0x3eb10cff	0.34580228
139	0x3eaa13ef	0.33218333
140	0x3e8fca24	0.2808391
141	0x3ebb1549	0.36539677
142	0x3ea80bc2	0.3282147
143	0x3ec3dbe0	0.3825369
144	0x3eba286b	0.3635896
145	0x3eac58da	0.33661538
146	0x3eac0ade	0.3360204
147	0x3ea8ab3c	0.3294314
148	0x3edcefc3	0.43151674
149	0x3ee85e72	0.45384556
150	0x3e97f61a	0.29679948
151	0x3ea3cc64	0.31991875
152	0x3e84b77a	0.25921232
153	0x3eaf4d51	0.34238675
154	0x3ec97779	0.39348963
155	0x3ea96f7c	0.33092868
156	0x3ea7f70d	0.32805672
157	0x3e71b4fe	0.236042
158	0x3ea19903	0.3156205
159	0x3eb18906	0.34674853
160	0x3ea18766	0.31548613
161	0x3e8a45e2	0.2700644
162	0x3e91fee2	0.28514773
163	0x3ed4a792	0.41534096
164	0x3e9941a8	0.29932904
165	0x3e9d73c4	0.30752385
166	0x3e8dfafa	0.27730542
167	0x3eaaf417	0.3338935
168	0x3ea4c24e	0.32179493
169	0x3e9976f2	0.2997356
170	0x3ec01b83	0.3752099
171	0x3ecc586d	0.39911214
172	0x3ebca1e5	0.36842266
173	0x3e8fa94b	0.28058848
174	0x3e8b1dc3	0.27171144
175	0x3e8ce3da	0.27517587
176	0x3e954f6b	0.29162154
177	0x3e72613f	0.23669909
178	0x3ecc03d5	0.39846674
179	0x3ea7f841	0.3280659
180	0x3ec7b634	0.39006197
181	0x3ec289c7	0.3799574
182	0x3ebec9a1	0.37263206
183	0x3e941526	0.28922385
184	0x3eb92ba2	0.36166102
185	0x3ec14a19	0.37751845
186	0x3e8fa0a3	0.28052244
187	0x3ead021f	0.3379068
188	0x3eae5607	0.3405001
189	0x3e8598fb	0.26093277
190	0x3eb05e27	0.34446833
191	0x3e97ac49	0.2962363
192	0x3eca5137	0.39515087
193	0x3ea67a95	0.32515398
194	0x3e9903c5	0.29885688
195	0x3e934d7e	0.2877006
196	0x3ea1db87	0.316128
197	0x3e6432c3	0.22284989
198	0x3e9f7638	0.3114488
199	0x3ee74b5e	0.45174688
200	0x3ecbf386	0.3983423
201	0x3e991f58	0.29906726
202	0x3ed7a39d	0.42117015
203	0x3eab892f	0.335031
204	0x3ec9a635	0.39384618
205	0x3eb28921	0.34870246
206	0x3ec828c1	0.39093593
207	0x3ebd9dbd	0.37034407
208	0x3ebe1abd	0.37129775
209	0x3ea9b499	0.33145598
210	0x3ea4daf3	0.32198295
211	0x3e877fcf	0.26464698
212	0x3e9df8d9	0.30853918
213	0x3ea93f3c	0.33056056
214	0x3e9924e8	0.2991097
215	0x3eba29c7	0.3636
216	0x3ea5fac8	0.32417893
217	0x3ea00519	0.3125389
218	0x3ea99ebb	0.33128914
219	0x3eaaa317	0.33327553
220	0x3eb59bea	0.35470515
221	0x3e90eddf	0.2830648
222	0x3e840f20	0.2579279
223	0x3e89e32b	0.26931128
224	0x3ec46afe	0.3836288
225	0x3eb7404a	0.35791236
226	0x3eaebce7	0.34128496
227	0x3e94e965	0.29084316
228	0x3ea44611	0.32084706
229	0x3e9495eb	0.29020628
230	0x3e7f8a21	0.24955036
231	0x3ead6b74	0.33871043
232	0x3e99e923	0.30060682
233	0x3ead91d0	0.3390031
234	0x3eb5cfcd	0.35510102
235	0x3ea94b09	0.3306506
236	0x3e914c5d	0.28378573
237	0x3ea5e97f	0.32404706
238	0x3e807fad	0.2509741
239	0x3e956479	0.29178217
240	0x3ed4c0f4	0.41553462
241	0x3e94d853	0.29071292
242	0x3e97b21b	0.2962807
243	0x3e9afe3b	0.30272087
244	0x3e817cf8	0.25290656
245	0x3eae514b	0.34046397
246	0x3e876c48	0.264498
247	0x3ec75b7c	0.38936985
248	0x3e9814c6	0.2970335
249	0x3ea17aef	0.31539103
250	0x3e8f536c	0.27993333
251	0x3eadad87	0.33921453
252	0x3e83c63e	0.25737184
253	0x3ec09cc6	0.3761961
254	0x3e8b0b57	0.2715709
255	0x3e9dde25	0.30833545

network.4.weight f4 [128, 256]
0	0xbcbdbc40	-0.023161054
1	0x3d543673	0.05180974
2	0xbcebdeee	-0.028792825
3	0x3cdffca9	0.027342157
4	0xbd4e9614	-0.050436094
5	0xbc761057	-0.015018544
6	0xbd0c8e92	-0.034315653
7	0x3cccfc12	0.02502254
8	0xbd2e5637	-0.04256269
9	0xbd515c0d	-0.051113177
10	0xbb7ecfba	-0.003888114
11	0xbd3c62a7	-0.04599252
12	0xbb21e89d	-0.0024705299
13	0xbb997868	-0.004683543
14	0xbc7e6041	-0.015525878
15	0xbc5b683e	-0.0133915525
16	0x3c8e2fbd	0.017356748
17	0x3d3907a3	0.0451733
18	0x3c1f7411	0.009732262
19	0x3d58016b	0.052735727
20	0xbd6ddd57	-0.058072414
21	0x3c5609b0	0.013063833
22	0x3d69c312	0.0570708
23	0x3d031997	0.032006826
24	0xbd3aea99	-0.045633886
25	0x3d4c0af6	0.04981514
26	0xbd046f83	-0.03233291
27	0x3d678c20	0.056530118
28	0xbca4f17a	-0.020134676
29	0xbceb36a4	-0.028712578
30	0x3d3522f6	0.044222794
31	0xbcc9ca9d	-0.024632746
32	0xbcfff91d	-0.031246716
33	0xbd0d0fae	-0.03443878
34	0x3c62a160	0.01383242
35	0x3b685d2f	0.0035455932
36	0x3c8f8c37	0.017522914
37	0x3d49db79	0.04928157
38	0x3bf12aaf	0.0073598246
39	0x3d447264	0.047960654
40	0xbc6be185	-0.01439703
41	0x3d30eba3	0.04319347
42	0x3cf5be2b	0.029997906
43	0xbd13b9a0	-0.036065698
44	0x3cf84486	0.030306112
45	0x3bea2f92	0.007146784
46	0x3caa0dc7	0.020758523
47	0x3d18ed69	0.037335787
48	0xbc8bf327	-0.017083718
49	0x3cea8fff	0.028633116
50	0xbd191fa0	-0.037383676
51	0xbb2204aa	-0.0024722018
52	0xbb81816b	-0.0039521954
53	0xbd562562	-0.052281745
54	0xbd845566	-0.06461601
55	0x3cc487bd	0.023990506
56	0x3d20a350	0.039218247
57	0x3c7d812c	0.0154726915
58	0x3d003d86	0.031308673
59	0xbd02cdfa	-0.031934716
60	0x3a9f00aa	0.0012130935
61	0x3c8e6acc	0.01738491
62	0xbd817b2f	-0.063223235
63	0xbd96a64e	-0.07355939
64	0x3d280b3c	0.04102634
65	0x3d40a877	0.04703566
66	0xbce3261f	-0.027728138
67	0x3c5fb6e3	0.013654443
68	0xbd36e4a3	-0.04465164
69	0x3b9d2b13	0.0047963946
70	0xbcc7d98f	-0.024395732
71	0xbd972765	-0.07380561
72	0x3c66dfce	0.014091445
73	0xbc1bf4e6	-0.009518838
74	0xbcd84df0	-0.026404351
75	0xbb1e3725	-0.0024141755
76	0xbd58e8ab	-0.052956264
77	0xbd74bb29	-0.059748802
78	0x3d257867	0.040398028
79	0xbc7f0f5d	-0.015567628
80	0xbcfac51f	-0.030611573
81	0xbd57c071	-0.05267376
82	0xbd39bf75	-0.045348603
83	0xbbda0220	-0.0066530854
84	0xbc24ca90	-0.01005806
85	0x3c3059dd	0.010763613
86	0xbcc2a6e9	-0.02376123
87	0xbd166409	-0.036716495
88	0xbbc54df3	-0.006021255
89	0xbd4b3fa9	-0.049621258
90	0xbd32bf91	-0.043639723
91	0x3d0244f2	0.031804033
92	0xbbf5f7b1	-0.0075063338
93	0xbd005778	-0.031333417
94	0x3d479e95	0.04873522
95	0xbd3aa20e	-0.045564704
96	0x3cfad1ab	0.030617556
97	0x3d414f1b	0.04719458
98	0xbd1e0f7a	-0.03858898
99	0xbd667c79	-0.05627105
100	0x3cb5237b	0.022111645
101	0xbcf840f4	-0.03030441
102	0xbd5e7902	-0.05431462
103	0xbd638b33	-0.055552673
104	0x3bc95af5	0.006144876
105	0x3c537709	0.012906798
106	0xbccfc8fe	-0.025364395
107	0xbd3fdfa6	-0.046844147
108	0x3d828ce1	0.06374527
109	0x3cf790a5	0.03022034
110	0xbcb8fbab	-0.022580942
111	0x3d4ccaed	0.049998213
112	0xbd1f6506	-0.038914703
113	0xbd3e3c40	-0.046444178
114	0x3c7867e6	0.01516149
115	0x3d23a4e7	0.039952185
116	0xbd02588f	-0.031822737
117	0x3cbd2dfc	0.023093216
118	0x3cbb1c90	0.022840768
119	0xbc6078d4	-0.013700683
120	0xbc81daca	-0.015851397
121	0xbd3c9e18	-0.046049207
122	0x3cb687cc	0.02228155
123	0xbd8c7875	-0.06858913
124	0xbcd74626	-0.026278567
125	0x3d7ea0fb	0.06216524
126	0x3b4494c0	0.0029995888
127	0x3d3f8925	0.04676165
128	0xbd5b6415	-0.053562243
129	0xbd79b642	-0.06096483
130	0x3d6fb2c7	0.058520105
131	0xbd2df3bb	-0.042468768
132	0x3cb3bf50	0.02194181
133	0x3cd537e2	0.026027624
134	0xbd572999	-0.052529905
135	0x3d4742ac	0.048647568
136	0xbd260ffa	-0.04054258
137	0x3cc2434a	0.023713727
138	0x3d524646	0.05133655
139	0xbd0b0d39	-0.033948157
140	0xbccbcf2b	-0.024879059
141	0xbcc0b097	-0.023521705
142	0xbd11bb9a	-0.0355793
143	0x3c943039	0.0180894
144	0xbc0bd626	-0.008534944
145	0xbcee3eb9	-0.029082643
146	0x3b9b6ad0	0.0047429577
147	0x3d470e20	0.048597455
148	0xbbd180e5	-0.0063935393
149	0x3d0ca607	0.034338024
150	0xbd39110b	-0.04518227
151	0x3d48b421	0.04899991
152	0x3d199175	0.037492234
153	0xbca01261	-0.019540014
154	0x3d0d2493	0.034458708
155	0xbd408459	-0.047001217
156	0xbd50a3b4	-0.05093737
157	0xbd80031b	-0.06250592
158	0x3d526c58	0.051372856
159	0x3c2ac8e5	0.010423874
160	0x3d728d6c	0.0592169
161	0x3cb22d0a	0.021749992
162	0x39c050b0	0.0003668121
163	0xbc088282	-0.008331897
164	0xbc9beef8	-0.019034848
165	0xbd7e643c	-0.06210731
166	0x3cfd8537	0.03094731
167	0x3d4cb41d	0.049976457
168	0x3ccdab27	0.025106026
169	0xbd2b8d2d	-0.041882683
170	0x3c0888c4	0.008333389
171	0x3d3ce53b	0.04611705
172	0x3cd1d3d3	0.025613701
173	0x3c91bb25	0.017789433
174	0x3cbf5478	0.023355708
175	0xbc9f1757	-0.019420309
176	0x3d37cbae	0.04487198
177	0xbd556c3f	-0.052105185
178	0xbc92aef0	-0.017905682
179	0xbce3db94	-0.027814664
180	0x3c7ed3b7	0.015553406
181	0xbd1ff68e	-0.039053492
182	0x3d180aa4	0.037119523
183	0xbcb427d9	-0.021991657
184	0x3d00319a	0.031297304
185	0xbc792657	-0.015206895
186	0xbd54be93	-0.05193956
187	0x3d9127e3	0.07087686
188	0xbd37202e	-0.044708423
189	0x3d808c37	0.06276744
190	0x3d31b801	0.04338837
191	0x3d50b5ea	0.050954737
192	0xbd5c6dae	-0.053815536
193	0xbcc8ad96	-0.024496835
194	0x3d65d0e7	0.056107428
195	0x3ca0a284	0.019608743
196	0xbd597857	-0.05309328
197	0xbc8519d3	-0.016247666
198	0xbcd84f6e	-0.026405063
199	0x3cdff061	0.027336301
200	0xbc482339	-0.012215429
201	0xbcd798f1	-0.026318045
202	0xbc06a0a4	-0.008217011
203	0x3d2513ef	0.040302213
204	0x3c961607	0.01832105
205	0xbd71275a	-0.05887542
206	0x3d2f57e4	0.04280843
207	0x3cf7df48	0.030257836
208	0xbd3113c9	-0.04323176
209	0x3d72f85a	0.059318878
210	0x3ca23544	0.01980079
211	0xbcebc818	-0.028781936
212	0x3c717978	0.014738433
213	0x3d8c20b4	0.06842175
214	0xbcc0321f	-0.0234614
215	0x3d267e09	0.04064754
216	0xb90d8034	-0.00013494567
217	0x3bf34b58	0.007424753
218	0xbd932713	-0.07185187
219	0x3d1b6016	0.03793343
220	0x3d9c96f8	0.076459825
221	0x3d5835a5	0.052785534
222	0xbd21720b	-0.0394154
223	0xbbbfa083	-0.005847992
224	0xbd7acd40	-0.061230898
225	0x3acd1cde	0.0015648862
226	0x3d0e7d7a	0.034787633
227	0xbb2f0105	-0.0026703489
228	0x3d46b98a	0.048516788
229	0xbd65947e	-0.056049816
230	0x3d15e8d8	0.03659901
231	0xbcaaaa04	-0.020833023
232	0x3d7334af	0.059376415
233	0x3d4eb856	0.050468765
234	0x3b9c19a3	0.0047637983
235	0xbd2e91ed	-0.042619634
236	0xbc2db107	-0.010601289
237	0x3c95a27b	0.018265953
238	0xbc9c1f13	-0.019057786
239	0x3d94b8a2	0.072617784
240	0xbc4efc3a	-0.012633378
241	0x3d0797c1	0.03310371
242	0x3c6d74d4	0.014493186
243	0x3d295316	0.041339003
244	0x3d4ba6cf	0.049719628
245	0x3ce9f532	0.028559301
246	0x3d201930	0.03908652
247	0x3cc55abd	0.024091119
248	0xbce8e8a5	-0.028431246
249	0xbd38ea22	-0.04514516
250	0x3d1b4073	0.03790326
251	0xbd5ec827	-0.0543901
252	0xbcd7a60b	-0.026324293
253	0x3d1d0d4d	0.038342763
254	0x3d038990	0.03211361
255	0xbd542409	-0.05179218
