log_reg/models/tree_stem_failure_final.pth (torch, 716956 bytes, 25 tensors)

network.0.weight f4 [256, 179]
0	0xba941949	-0.001129904
1	0x3cd2943b	0.025705447
2	0x3c3fc692	0.011705058
3	0xbd63c2d0	-0.05560571
4	0x3d231a66	0.039820097
5	0xbd17fd7c	-0.037106976
6	0x3cf4d172	0.029885028
7	0x3d0153d5	0.03157409
8	0xbd82a6e9	-0.06379492
9	0x3d656444	0.056003824
10	0xbd93921b	-0.07205602
11	0xbc8f1955	-0.017468134
12	0x3d98d9c2	0.07463409
13	0x3d5b4260	0.053530097
14	0x3c7d1fdc	0.01544949
15	0xbd47f57c	-0.048818097
16	0x353b38ac	6.9745397e-07
17	0x3d829735	0.06376497
18	0x3d194f48	0.037429124
19	0xb288d63a	-1.5929903e-08
20	0xbc053795	-0.008130928
21	0xbd753a93	-0.059870314
22	0x315bd873	3.1991731e-09
23	0xbc83b4b8	-0.016077384
24	0xbb8109f3	-0.0039379536
25	0x3d234132	0.039857097
26	0x3ce195a3	0.027537173
27	0x3af08048	0.0018348778
28	0x36a650c6	4.956589e-06
29	0xbbb25136	-0.00544181
30	0xbda598b2	-0.08085765
31	0x3c896a21	0.016774239
32	0x3d153964	0.036431685
33	0xbce5b09b	-0.028038314
34	0xbcfa3a33	-0.03054533
35	0x3d0bbbbd	0.034114588
36	0x3d714d53	0.058911633
37	0x3d2a73db	0.041614395
38	0x3d3fcbc2	0.046825178
39	0x3c81efb1	0.015861364
40	0x3d87a6cc	0.06623611
41	0xbb34bf75	-0.0027579938
42	0xbd6f3ae3	-0.058405768
43	0xbd064402	-0.0327797
44	0x3ca948b9	0.02066456
45	0xbd54cf74	-0.051955655
46	0xbd299827	-0.04140487
47	0x3cc2daf7	0.023786051
48	0x331aafd6	3.601584e-08
49	0xbcc45347	-0.023965491
50	0x3cf52acc	0.029927634
51	0xbd43c015	-0.047790606
52	0xbca63c9a	-0.020292569
53	0xbcd06ccc	-0.025442503
54	0xbd59aa36	-0.05314084
55	0xbcd1703e	-0.025566217
56	0xbc825f32	-0.015914533
57	0x3d8b3fce	0.06799279
58	0x3d479afb	0.048731785
59	0xbd6265c1	-0.05527282
60	0x3c2de578	0.010613792
61	0xb6638468	-3.3902706e-06
62	0xbd8267ad	-0.06367431
63	0xbc424cdb	-0.011859144
64	0x3308ce8c	3.185282e-08
65	0x3d0cd73c	0.03438495
66	0x3bbc926f	0.005754761
67	0xbd3f7185	-0.04673912
68	0x3ce60a2a	0.028081018
69	0x3dbfa28b	0.093571745
70	0xbd83c5b2	-0.06434192
71	0xbc2facc8	-0.010722347
72	0x3d8a2dbc	0.067470044
73	0x3d275786	0.040854953
74	0x3d1d087a	0.038338162
75	0x3cabb6da	0.020961214
76	0xbc55f37b	-0.013058539
77	0x3d872a64	0.06599882
78	0xbd027dd6	-0.031858288
79	0x3c710f34	0.014713097
80	0xbc5587ed	-0.0130328955
81	0x3d10c270	0.03534168
82	0xbd1d72cd	-0.03843956
83	0xbc524b87	-0.01283539
84	0x3ced1ce3	0.028944438
85	0x3d1d0af3	0.03834052
86	0xbcc0597b	-0.023480168
87	0xbcfb08e8	-0.030643895
88	0xbb82255d	-0.003971739
89	0xbc8effa2	-0.01745588
90	0xbc273add	-0.010206905
91	0xbd25785d	-0.04039799
92	0x3c5d401e	0.013504056
93	0xbc2764d1	-0.010216908
94	0xbd2736a2	-0.040823586
95	0x3c697192	0.014248269
96	0xbdf073f1	-0.11740864
97	0xbac3f27b	-0.0014949584
98	0x3ddf30da	0.108979896
99	0x3d342a5e	0.043985717
100	0xbd589fae	-0.052886657
101	0x3d43e73b	0.04782794
102	0x3c246898	0.010034703
103	0x3cd2440c	0.025667213
104	0x3cdbc0e1	0.02682537
105	0x3d5531e1	0.05204952
106	0xbc8409e5	-0.016118
107	0x3c95486e	0.018223014
108	0x3a938f7a	0.0011257969
109	0x3cd77ac8	0.026303664
110	0xbb987f4a	-0.004653846
111	0xbccf6276	-0.025315505
112	0x3d6dc2a5	0.058046956
113	0xbba4699d	-0.005017473
114	0x32f6c159	2.8726094e-08
115	0xbcafb40c	-0.021448158
116	0xbd415eb5	-0.04720946
117	0xbba15331	-0.0049232473
118	0xbd7a4b46	-0.061106943
119	0xbd05e3bf	-0.0326879
120	0xbd11b3d7	-0.0355719
121	0x3b9777d5	0.0046224394
122	0x3d0fa8d0	0.0350731
123	0xbcd21bf0	-0.025648087
124	0x3d0639e0	0.032770038
125	0xbd0732a9	-0.033007298
126	0xbd38b75d	-0.045096744
127	0xbdba93cc	-0.09110221
128	0xbc518b7b	-0.012789602
129	0x3db3ba04	0.08775714
130	0x3d372b83	0.04471923
131	0x3d0d9fc9	0.03457621
132	0x3d53ce5e	0.05171048
133	0x3cb4cf1c	0.022071414
134	0x3d0c8a2b	0.034311455
135	0x32fb1055	2.9227673e-08
136	0x3ae33cb6	0.0017336819
137	0x32f9389e	2.9013162e-08
138	0x31143454	2.156658e-09
139	0xbbebdae8	-0.0071977265
140	0x39e511f3	0.00043691657
141	0x3cdae69d	0.026721293
142	0xb3178b4a	-3.528411e-08
143	0xbcd75b63	-0.026288694
144	0x3d2a9511	0.041646067
145	0xbd086e61	-0.03330839
146	0x3c8d8707	0.0172763
147	0x3d5110df	0.05104148
148	0x3c3eeec5	0.011653607
149	0xbd25da24	-0.04049124
150	0x3d0b06cf	0.03394204
151	0x3b49bff8	0.0030784588
152	0xbc02a2a0	-0.007973343
153	0xbd7b5f63	-0.061370265
154	0x3c93480f	0.017978696
155	0xbc5eaaca	-0.013590524
156	0x3c2a6a82	0.01040137
157	0xbd38ffda	-0.045165874
158	0x3b895833	0.0041914224
159	0x3ccfee7c	0.025382273
160	0xb983aba7	-0.00025114158
161	0xbdb659e2	-0.089038625
162	0xbd1f9071	-0.03895611
163	0x3c046a95	0.008082052
164	0x3c95e80f	0.01829913
165	0xb9876222	-0.0002582232
166	0x32c7e450	2.3270474e-08
167	0xbd844b35	-0.06459657
168	0x3d3546ca	0.044256963
169	0xbd7bfcf9	-0.06152055
170	0x3d583b02	0.05279065
171	0xbd823d64	-0.063593656
172	0x3cd2fadd	0.025754387
173	0xbd9a14f1	-0.075235255
174	0xbd2978d1	-0.041374985
175	0x3d5714fe	0.052510254
176	0xbcb867b9	-0.022510396
177	0x3db69845	0.08915762
178	0xbc6148e5	-0.01375029
179	0xbd6314fa	-0.055439927
180	0xbd222b2f	-0.039591964
181	0xb9c586b6	-0.00037675136
182	0x3dc5b3dc	0.09653446
183	0xbcf5f90a	-0.030025978
184	0xbc80397b	-0.015652409
185	0xbb78f1b3	-0.003798586
186	0x3a6eb7d6	0.0009106373
187	0x3d250e6a	0.04029695
188	0xbc0c336c	-0.008557182
189	0xba911dba	-0.0011071481
190	0xbc707cf3	-0.014678228
191	0x3d989cd8	0.074517906
192	0xbb1898ca	-0.0023284429
193	0x3d4f1b3a	0.050563075
194	0xbc1118a4	-0.008855972
195	0x32b29edc	2.0794168e-08
196	0xbd07a6ab	-0.03311793
197	0xbc09da5f	-0.00841388
198	0xb2888a14	-1.5895274e-08
199	0x3d22ea5d	0.039774287
200	0x3d6c6aeb	0.057719152
201	0xb1248863	-2.3942668e-09
202	0x3cbbfdb8	0.022948131
203	0xbd0b9708	-0.03407958
204	0x3ca47d61	0.020079317
205	0xbd0eefcf	-0.034896668
206	0xbcb4766e	-0.022029128
207	0x355238f5	7.831398e-07
208	0x3d77d50d	0.060505915
209	0xbcc26d33	-0.02373371
210	0xbd359013	-0.044326853
211	0x3dd262b4	0.102727324
212	0x3d93e236	0.07220881
213	0x3dd45ad6	0.10368888
214	0x3d837425	0.06418637
215	0xbc6a125e	-0.014286606
216	0xbbe5ce1a	-0.0070130946
217	0x3d7e0196	0.06201323
218	0xbd4babdf	-0.049724456
219	0xbbacea7a	-0.005276975
220	0xbca0615a	-0.01957767
221	0x3c0f40c9	0.008743473
222	0x3d34b1e1	0.04411495
223	0xbc950586	-0.01819111
224	0x3d5985c2	0.053106077
225	0xbb73c433	-0.0037195801
226	0xbca0c090	-0.019623071
227	0x32ef91cb	2.788956e-08
228	0xbc6a7ac2	-0.014311494
229	0xbd0933b2	-0.033496566
230	0xbc9cf3bd	-0.019159192
231	0xbc903b78	-0.017606482
232	0x3c79cb50	0.015246227
233	0x3cf193c3	0.029489404
234	0x3d469517	0.048482027
235	0x3c124ce6	0.008929467
236	0xba873794	-0.0010316246
237	0x3c2ad15e	0.010425894
238	0x3da01142	0.07815792
239	0xbd801206	-0.06253438
240	0xb2f0123a	-2.7947966e-08
241	0x3cd88d70	0.02643463
242	0x3a6a3a55	0.0008935084
243	0x315dfc00	3.2302978e-09
244	0xbbeafbd6	-0.0071711345
245	0xbc8d7512	-0.017267738
246	0xbcf188ad	-0.029484117
247	0xbc8ae5f1	-0.016955348
248	0xbd1ddcbf	-0.038540598
249	0x3d82fb6b	0.063956104
250	0xbd331dea	-0.0437297
251	0xbd4de655	-0.05026849
252	0xbd72caac	-0.059275314
253	0x3b93ca89	0.004510228
254	0xbbb1cfa8	-0.005426366
255	0x3c94d311	0.01816705

network.0.bias f4 [256]
0	0x36c1d13d	5.7762068e-06
1	0x3754c731	1.2682563e-05
2	0x362f6136	2.6133616e-06
3	0x358e1f4e	1.0588935e-06
4	0x36d8b6bd	6.458575e-06
5	0x36c23934	5.78831e-06
6	0x36dca15e	6.5752965e-06
7	0xb5e4e505	-1.7053977e-06
8	0xb761c47d	-1.3456794e-05
9	0xb775c07a	-1.4647952e-05
10	0x36a524fd	4.921689e-06
11	0x3660de4a	3.350799e-06
12	0xb7807e00	-1.5317462e-05
13	0x36234319	2.4327949e-06
14	0xb6202bb7	-2.3867303e-06
15	0xb78b2262	-1.6586102e-05
16	0x37575b1d	1.2836213e-05
17	0xb53effc7	-7.115272e-07
18	0x36ed6a4d	7.0755254e-06
19	0xb402da82	-1.2186686e-07
20	0x3739c2c5	1.1072208e-05
21	0xb62de764	-2.5913696e-06
22	0xb6bf50a9	-5.7016337e-06
23	0x37c04955	2.2922331e-05
24	0xb6e67741	-6.868417e-06
25	0xb6177cfe	-2.2573508e-06
26	0x36609c17	3.3469457e-06
27	0x35a061d2	1.1949398e-06
28	0x3712dedd	8.7541675e-06
29	0x37324a2b	1.0626895e-05
30	0xb6c146d6	-5.7600946e-06
31	0x3607e360	2.0248917e-06
32	0x3742865f	1.1594587e-05
33	0x3857fcee	5.1495554e-05
34	0xb47d9c3e	-2.3619302e-07
35	0x36b05809	5.2554574e-06
36	0x3713f54f	8.818998e-06
37	0x3713a5a9	8.8004535e-06
38	0x3615d070	2.2324057e-06
39	0xb5f0c809	-1.7939611e-06
40	0x372c4827	1.0268798e-05
41	0xb618b41e	-2.2754607e-06
42	0xb345dd7f	-4.6069086e-08
43	0x38861672	6.393799e-05
44	0x3759ae7c	1.2974833e-05
45	0xb7329929	-1.0645287e-05
46	0x36c22c72	5.7868247e-06
47	0x35a686b3	1.2407166e-06
48	0x36c39ae6	5.8294854e-06
49	0x37772544	1.4731024e-05
50	0xb6d0ca46	-6.222431e-06
51	0xb6ec0d1a	-7.0348733e-06
52	0xb51806b1	-5.663415e-07
53	0x378c3af4	1.6716753e-05
54	0xb6dd7608	-6.600054e-06
55	0x340cbe9c	1.310786e-07
56	0x36cf4a31	6.1777178e-06
57	0xb640f6da	-2.8753916e-06
58	0xb722ed73	-9.711238e-06
59	0xb68f8844	-4.2775955e-06
60	0x377867ee	1.480615e-05
61	0x38111387	3.458888e-05
62	0x3130d000	2.5729605e-09
63	0xb76c30b0	-1.4078032e-05
64	0x3641e10c	2.8890236e-06
65	0xb49b7e92	-2.8963092e-07
66	0x35adba05	1.2943643e-06
67	0x371faf6c	9.517982e-06
68	0xb7c80240	-2.3842906e-05
69	0x382f1a6e	4.1747866e-05
70	0x36b6270c	5.4285683e-06
71	0xb6e868c0	-6.9263333e-06
72	0x37978e76	1.8066941e-05
73	0xb4cab304	-3.7755683e-07
74	0x35c51274	1.4683014e-06
75	0xb7478bae	-1.1893846e-05
76	0xb6f554f3	-7.3114584e-06
77	0x370ba675	8.323802e-06
78	0xb4a3380b	-3.0401893e-07
79	0xb673b801	-3.6316926e-06
80	0x360ecdc8	2.127943e-06
81	0xb733e2b3	-1.0722014e-05
82	0xb69bf19b	-4.6474865e-06
83	0xb79e89a1	-1.8899156e-05
84	0x34a0b918	2.9936996e-07
85	0xb7eade23	-2.7998414e-05
86	0x36bb6f76	5.58601e-06
87	0x3704d64a	7.917706e-06
88	0x376ee3dd	1.4238959e-05
89	0xb72e29f0	-1.03809725e-05
90	0xb7869d4c	-1.6047292e-05
91	0xb649e678	-3.0085484e-06
92	0xb841a779	-4.6170757e-05
93	0x35536b3a	7.875966e-07
94	0x3692a3b3	4.370196e-06
95	0x362f981f	2.6165578e-06
96	0x3803fbe7	3.1467436e-05
97	0x370c4f98	8.363182e-06
98	0xb659bdc7	-3.2445985e-06
99	0x34bd11a8	3.521684e-07
100	0x368eda8a	4.257371e-06
101	0xb4252cc8	-1.5383114e-07
102	0x3438a4f6	1.7196348e-07
103	0x3754a2d6	1.2674098e-05
104	0x359062f5	1.0757636e-06
105	0xb5b00e86	-1.3117249e-06
106	0xb73143ab	-1.0565777e-05
107	0x36115f62	2.1662204e-06
108	0xb684ac26	-3.9539473e-06
109	0xb396bb70	-7.019014e-08
110	0xb5b361fc	-1.3365056e-06
111	0xb63451b6	-2.6869652e-06
112	0x37091141	8.169854e-06
113	0x366cad60	3.5267658e-06
114	0xb6728a06	-3.614115e-06
115	0x3681387c	3.8510752e-06
116	0xb6338464	-2.675014e-06
117	0xb700b31d	-7.671098e-06
118	0xb686dcac	-4.019201e-06
119	0xb6c5150d	-5.873508e-06
120	0xb49c6152	-2.9128074e-07
121	0x37e171d2	2.6875092e-05
122	0x3700f971	7.687472e-06
123	0xb79708e9	-1.8004752e-05
124	0xb7165cc6	-8.962297e-06
125	0x381c89bd	3.7321577e-05
126	0x37b0655e	2.1028038e-05
127	0x3697ec8e	4.5276893e-06
128	0x3694eec1	4.4385383e-06
129	0x3812c041	3.4988163e-05
130	0xb5bfc1d8	-1.4287025e-06
131	0xb5d2fac0	-1.5719197e-06
132	0xb685ed12	-3.9913075e-06
133	0x375938e2	1.2947452e-05
134	0x3543d7af	7.295702e-07
135	0x36b2437a	5.3126687e-06
136	0x3619fde7	2.2946567e-06
137	0x373bb067	1.118714e-05
138	0xb6c53bd8	-5.8780242e-06
139	0xb7557c26	-1.2724695e-05
140	0x36e3b9e3	6.7867672e-06
141	0x37401e1d	1.1451103e-05
142	0xb5a7a6d2	-1.2491021e-06
143	0xb5abbc04	-1.2795213e-06
144	0x345cfc98	2.058099e-07
145	0xb6eb56ea	-7.013664e-06
146	0xb72d3462	-1.03238e-05
147	0x3611e168	2.1737887e-06
148	0xb75c2ac7	-1.3122982e-05
149	0xb6dddbc5	-6.611898e-06
150	0xb7aa2ae9	-2.028556e-05
151	0x368a0eb6	4.114433e-06
152	0x36e2ea2e	6.762587e-06
153	0xb62179fa	-2.406187e-06
154	0xb6256fe8	-2.4652054e-06
155	0x36b69593	5.4414354e-06
156	0xb6e9fa42	-6.973075e-06
157	0xb6c356b2	-5.8215455e-06
158	0x36ecd733	7.0584006e-06
159	0xb7048cfc	-7.900639e-06
160	0xb6a22dc6	-4.833305e-06
161	0x38030afd	3.1243067e-05
162	0x361fdbce	2.382079e-06
163	0xb694703e	-4.4238104e-06
164	0x36daf4c2	6.5254e-06
165	0x37babee4	2.2261818e-05
166	0x36d2a35d	6.2775057e-06
167	0x36ebdffb	7.0296205e-06
168	0x37625889	1.3491263e-05
169	0xb8cc6959	-9.7471006e-05
170	0xb60b3f38	-2.0749412e-06
171	0x37521b3c	1.2523316e-05
172	0x3571ca02	9.0073456e-07
173	0x35959cc4	1.114699e-06
174	0xb6a60ae4	-4.9484534e-06
175	0x33948a64	6.91696e-08
176	0xb6dbee35	-6.5544396e-06
177	0x36ccb6ff	6.1009773e-06
178	0x36ecfbb0	7.0626484e-06
179	0xb5b4bb4b	-1.3465555e-06
180	0xb68f3770	-4.268186e-06
181	0xb68bc822	-4.1658213e-06
182	0x34534e3a	1.9679365e-07
183	0xb80b1fb7	-3.316972e-05
184	0xb64c546e	-3.0447513e-06
185	0xb5c0dacc	-1.4368793e-06
186	0x36e79783	6.9019748e-06
187	0x36efabaa	7.1427394e-06
188	0x368ba236	4.1614067e-06
189	0xb81b515e	-3.703066e-05
190	0x3827a846	3.997262e-05
191	0xb66b55d9	-3.5067699e-06
192	0x34cee8dc	3.8539918e-07
193	0x3734bae2	1.0772348e-05
194	0xb74933d2	-1.1992599e-05
195	0xb772d81f	-1.4474644e-05
196	0xb5e8d81c	-1.7348243e-06
197	0xb6fee231	-7.596122e-06
198	0xb739f56f	-1.1084004e-05
199	0x369c9fed	4.66778e-06
200	0x36445ac1	2.9259102e-06
201	0x35d1a4a7	1.5619634e-06
202	0x3636a19e	2.7214187e-06
203	0x3706fa15	8.045249e-06
204	0x3700e9ee	7.6838605e-06
205	0x36626385	3.3734552e-06
206	0x369d5d42	4.6898213e-06
207	0x369623e3	4.474526e-06
208	0xb6844d4e	-3.942906e-06
209	0x36add0a6	5.1800916e-06
210	0xb6f8f02b	-7.418935e-06
211	0x3833e1cc	4.2887215e-05
212	0x373f081a	1.1386373e-05
213	0x35eac60f	1.7492001e-06
214	0xb6aeefd6	-5.2135247e-06
215	0x371f05e8	9.478514e-06
216	0x35ece3ca	1.7649666e-06
217	0x372d0b6b	1.0314262e-05
218	0xb6449184	-2.9290977e-06
219	0x358a3301	1.0296645e-06
220	0x37361596	1.0853071e-05
221	0xb6223646	-2.4171472e-06
222	0x36994708	4.5680245e-06
223	0x378cf438	1.6803024e-05
224	0x31eb4900	6.8476993e-09
225	0xb52ca644	-6.431694e-07
226	0x3615707f	2.2268212e-06
227	0x37c4d10e	2.346237e-05
228	0xb6ea4484	-6.9817197e-06
229	0xb501c33b	-4.834034e-07
230	0xb74d3904	-1.2232227e-05
231	0xb79425f0	-1.766064e-05
232	0xb5b7ae28	-1.3685249e-06
233	0x377ddc27	1.5131233e-05
234	0xb7282780	-1.0022777e-05
235	0x3771a0bb	1.4402142e-05
236	0xb6c0c1f8	-5.744627e-06
237	0x36618e26	3.3610354e-06
238	0xb67f4f29	-3.8044038e-06
239	0xb6053fec	-1.9855752e-06
240	0x36c6e7f5	5.927863e-06
241	0xb6c60080	-5.900918e-06
242	0x36d92681	6.4715864e-06
243	0xb45eacc2	-2.073821e-07
244	0x368df36d	4.230466e-06
245	0xb6268b44	-2.481699e-06
246	0x366e5841	3.5516134e-06
247	0x377c1b52	1.50267315e-05
248	0xb6f3b5f7	-7.263148e-06
249	0x36ac9416	5.143239e-06
250	0xb6be3bb2	-5.6693907e-06
251	0xb6c2fad1	-5.8108494e-06
252	0xb502c5e2	-4.871673e-07
253	0xb59c799b	-1.1658298e-06
254	0xb4dd0ee3	-4.117529e-07
255	0xb836df0b	-4.3599906e-05

network.1.weight f4 [256]
0	0x3f77b347	0.9675793
1	0x3f85d346	1.04551
2	0x3f7ce473	0.98786086
3	0x3f7f19d0	0.9964876
4	0x3f7a90f5	0.97877437
5	0x3f7d5f18	0.98973227
6	0x3f7d6437	0.9898104
7	0x3f79cd76	0.97579134
8	0x3f7fd78b	0.9993827
9	0x3f811cae	1.0086877
10	0x3f807e24	1.0038495
11	0x3f7ad1fd	0.97976667
12	0x3f7b5150	0.9817095
13	0x3f7c7e3a	0.98630106
14	0x3f7a7928	0.9784112
15	0x3f82460a	1.0177624
16	0x3f845b31	1.034033
17	0x3f78769d	0.9705599
18	0x3f8361cb	1.0264219
19	0x3f8263b9	1.0186683
20	0x3f7fd24b	0.99930257
21	0x3f80b587	1.0055398
22	0x3f7ed6c3	0.9954645
23	0x3f80826c	1.0039802
24	0x3f812d89	1.0092021
25	0x3f757bb8	0.95891905
26	0x3f7d4989	0.9894033
27	0x3f800f88	1.000474
28	0x3f7686c9	0.96299416
29	0x3f7e24aa	0.99274695
30	0x3f7f8033	0.9980499
31	0x3f80da6d	1.0066658
32	0x3f7aa184	0.97902703
33	0x3f839afc	1.0281672
34	0x3f7cbfbb	0.9873006
35	0x3f7b8ffa	0.98266566
36	0x3f7e5103	0.99342364
37	0x3f7d2a76	0.98892915
38	0x3f809f8f	1.0048693
39	0x3f824dcf	1.0179995
40	0x3f7e6fa2	0.9938909
41	0x3f7d630a	0.98979247
42	0x3f78fa50	0.97256947
43	0x3f822e9e	1.0170476
44	0x3f8061dd	1.0029866
45	0x3f805434	1.0025697
46	0x3f7b7d2c	0.9823787
47	0x3f7a16f3	0.9769127
48	0x3f81865c	1.0119128
49	0x3f81bb23	1.0135235
50	0x3f778a70	0.96695614
51	0x3f817fcd	1.0117127
52	0x3f7e1be3	0.992613
53	0x3f7e6785	0.9937671
54	0x3f7a8a52	0.9786731
55	0x3f7a68ec	0.9781635
56	0x3f7ae7dc	0.9801004
57	0x3f7f57ba	0.99743235
58	0x3f80a4e0	1.0050316
59	0x3f7a2026	0.97705305
60	0x3f803f49	1.0019313
61	0x3f81495c	1.0100513
62	0x3f7ee53b	0.9956853
63	0x3f81319f	1.0093268
64	0x3f796aab	0.9742839
65	0x3f7f3dac	0.9970348
66	0x3f81af18	1.0131559
67	0x3f7b7736	0.98228776
68	0x3f7e3f4b	0.9931533
69	0x3f814072	1.0097792
70	0x3f7bf959	0.9842735
71	0x3f7bbd81	0.98336035
72	0x3f81b93a	1.0134652
73	0x3f7d24a4	0.98884034
74	0x3f81ea2c	1.0149589
75	0x3f825640	1.0182571
76	0x3f7f317c	0.9968488
77	0x3f78dda5	0.972132
78	0x3f80a609	1.005067
79	0x3f800b29	1.0003406
80	0x3f821edc	1.0165668
81	0x3f81a164	1.0127378
82	0x3f815917	1.0105313
83	0x3f82932e	1.0201166
84	0x3f79a7fc	0.9752195
85	0x3f80d50a	1.0065014
86	0x3f8006be	1.0002058
87	0x3f8049bf	1.0022506
88	0x3f820086	1.015641
89	0x3f83b7a0	1.0290413
90	0x3f7bb90e	0.98329246
91	0x3f7c2d7f	0.9850692
92	0x3f821b8e	1.0164659
93	0x3f83522e	1.0259454
94	0x3f7c1119	0.9846359
95	0x3f7c0009	0.98437554
96	0x3f80c3b9	1.005973
97	0x3f8042a6	1.002034
98	0x3f8293d8	1.0201368
99	0x3f7b26dd	0.98106176
100	0x3f7a1d9e	0.9770144
101	0x3f81fd82	1.015549
102	0x3f782f1b	0.9694688
103	0x3f839488	1.0279703
104	0x3f7701d8	0.9648719
105	0x3f80deed	1.0068032
106	0x3f77a424	0.96734834
107	0x3f7bca09	0.98355156
108	0x3f811741	1.0085222
109	0x3f81ea73	1.0149673
110	0x3f7e29c5	0.99282485
111	0x3f7654e9	0.9622331
112	0x3f80e7b0	1.0070705
113	0x3f793c20	0.9735737
114	0x3f7c74a8	0.98615503
115	0x3f7ce0cf	0.9878053
116	0x3f7970c0	0.9743767
117	0x3f7bd37c	0.98369575
118	0x3f7e37f9	0.9930416
119	0x3f82483e	1.0178297
120	0x3f7b9572	0.9827491
121	0x3f80cc87	1.0062417
122	0x3f79f4c3	0.976391
123	0x3f7e344a	0.99298537
124	0x3f80951f	1.0045508
125	0x3f861bb6	1.0477207
126	0x3f84c286	1.0371864
127	0x3f7bc0d6	0.9834112
128	0x3f82a7b5	1.020743
129	0x3f85c6ed	1.0451332
130	0x3f7f9bde	0.9984721
131	0x3f7546c6	0.95811117
132	0x3f7b8a2b	0.982577
133	0x3f817a6d	1.0115486
134	0x3f7b0600	0.9805603
135	0x3f7fe0cf	0.99952406
136	0x3f7fba57	0.9989371
137	0x3f7fa606	0.99862707
138	0x3f7acf3d	0.9797247
139	0x3f7a0b6c	0.9767368
140	0x3f7b1d76	0.9809183
141	0x3f7cf707	0.98814434
142	0x3f7e43ee	0.993224
143	0x3f7dac3f	0.9909095
144	0x3f7a6d6a	0.978232
145	0x3f7b3f71	0.9814368
146	0x3f809d89	1.0048076
147	0x3f80af04	1.005341
148	0x3f83ac0d	1.0286881
149	0x3f85afc8	1.0444269
150	0x3f80ec07	1.007203
151	0x3f7f02c5	0.996136
152	0x3f82c045	1.0214926
153	0x3f7d9b39	0.99064976
154	0x3f7cb7e5	0.987181
155	0x3f7b8956	0.98256433
156	0x3f7e6636	0.9937471
157	0x3f7f11c6	0.99636495
158	0x3f7ebd3f	0.99507517
159	0x3f80ea71	1.0071546
160	0x3f83def1	1.0302411
161	0x3f831c27	1.0242966
162	0x3f7b3a36	0.981357
163	0x3f85210e	1.0400712
164	0x3f7f4b39	0.99724156
165	0x3f7fd267	0.99930423
166	0x3f79c59f	0.9756717
167	0x3f7ac0d0	0.9795046
168	0x3f81e880	1.0149078
169	0x3f7edc4d	0.995549
170	0x3f7e38c3	0.9930536
171	0x3f7edd14	0.9955609
172	0x3f7bd12e	0.9836606
173	0x3f813f4f	1.0097445
174	0x3f7e49ff	0.9933166
175	0x3f7cd105	0.9875644
176	0x3f7e8718	0.99424887
177	0x3f822630	1.0167904
178	0x3f7d7cce	0.9901856
179	0x3f81ac39	1.0130683
180	0x3f811701	1.0085145
181	0x3f7a2ede	0.97727764
182	0x3f77b90e	0.96766746
183	0x3f8138ea	1.0095494
184	0x3f78fc92	0.9726039
185	0x3f7a3932	0.97743523
186	0x3f7fcc4c	0.9992111
187	0x3f7d9160	0.9904995
188	0x3f79ae03	0.97531146
189	0x3f82b9bc	1.0212932
190	0x3f7b6739	0.9820438
191	0x3f793939	0.9735294
192	0x3f808c01	1.0042726
193	0x3f78d858	0.97205114
194	0x3f809a45	1.0047079
195	0x3f8074e7	1.0035676
196	0x3f7d5aba	0.9896656
197	0x3f81b1f5	1.0132433
198	0x3f7c887a	0.98645747
199	0x3f836ea2	1.0268137
200	0x3f798af1	0.9747763
201	0x3f792fd4	0.97338605
202	0x3f7ac71f	0.97960085
203	0x3f803978	1.0017538
204	0x3f7c6f47	0.98607296
205	0x3f7a278f	0.9771661
206	0x3f83034c	1.0235381
207	0x3f7750e4	0.96607804
208	0x3f7ae3f3	0.9800407
209	0x3f7ac557	0.97957367
210	0x3f809ac1	1.0047227
211	0x3f827efd	1.0195004
212	0x3f8092ff	1.004486
213	0x3f82c0af	1.0215052
214	0x3f811f41	1.0087663
215	0x3f7fc254	0.99905896
216	0x3f7f212c	0.9965999
217	0x3f7ac544	0.97957253
218	0x3f74f9b7	0.95693535
219	0x3f78eb00	0.9723358
220	0x3f80a302	1.0049746
221	0x3f7cb72e	0.9871701
222	0x3f7cbfdd	0.9873026
223	0x3f7d812c	0.99025226
224	0x3f85a78b	1.0441755
225	0x3f7b54aa	0.9817606
226	0x3f76dea0	0.9643345
227	0x3f82a042	1.0205157
228	0x3f7f0faf	0.99633306
229	0x3f80bf61	1.0058404
230	0x3f7c5a7a	0.98575556
231	0x3f800712	1.0002158
232	0x3f806676	1.0031269
233	0x3f7b95af	0.98275274
234	0x3f7e214c	0.99269557
235	0x3f814cca	1.0101559
236	0x3f80ed6b	1.0072454
237	0x3f8001ee	1.0000589
238	0x3f7d3d22	0.98921406
239	0x3f81cc4a	1.0140469
240	0x3f784e97	0.9699492
241	0x3f7f80e3	0.9980604
242	0x3f81a066	1.0127075
243	0x3f7cf8cc	0.98817134
244	0x3f7da8c0	0.9908562
245	0x3f807d8b	1.0038313
246	0x3f805a53	1.0027565
247	0x3f8406f9	1.0314628
248	0x3f8062a2	1.00301
249	0x3f82a5fc	1.0206904
250	0x3f819abd	1.0125347
251	0x3f8099b2	1.0046904
252	0x3f7d2d4e	0.98897254
253	0x3f80d662	1.0065424
254	0x3f7fab4a	0.9987074
255	0x3f83d512	1.0299399

network.1.bias f4 [256]
0	0xbd3049da	-0.04303918
1	0x3bd64101	0.006538511
2	0x3c6fb6ea	0.014631012
3	0xb88c3d6e	-6.6871624e-05
4	0xbce1b703	-0.027553087
5	0xbc60fb6c	-0.013731819
6	0x3a89b5e6	0.001050648
7	0xbd16f185	-0.036851425
8	0xbcec8b88	-0.028875127
9	0xb9e72678	-0.00044088415
10	0x3a85c86c	0.0010206825
11	0xbc22c321	-0.009934218
12	0x3ba10cc9	0.004914854
13	0x3c3477f6	0.011014929
14	0xbd05f357	-0.03270277
15	0x3ccbfe8f	0.024901656
16	0x3b9e041a	0.0048222663
17	0xbc499fe5	-0.012306188
18	0x3cc07a6b	0.023495873
19	0x3bad22a9	0.005283673
20	0x3a125b0b	0.00055830245
21	0x3c398d95	0.01132526
22	0x3c4bd53b	0.012440975
23	0x3cad6d92	0.021170411
24	0x3c95e46f	0.018297402
25	0xbd0f4120	-0.034974217
26	0xbcb1ae9a	-0.021689702
27	0x3babb316	0.0052398546
28	0xbd0013c2	-0.031268843
29	0x3bc8645b	0.006115479
30	0xbb820c71	-0.0039687683
31	0x3c32f4c5	0.010922615
32	0x3bd74fcb	0.0065707914
33	0xbb8f0aaa	-0.004365285
34	0x3c14ab8b	0.009074102
35	0xbc192b34	-0.009348679
36	0xbbbf584a	-0.0058393823
37	0xbc400013	-0.011718768
38	0x3c832a97	0.01601152
39	0x3c915337	0.017739875
40	0xbcba340e	-0.0227299
41	0xbacce1bd	-0.001563124
42	0xbcb4c07a	-0.022064436
43	0x3c158a0d	0.009127152
44	0x3c5c4ba2	0.013445767
45	0xbc163e0a	-0.009170065
46	0xbc5bf6c1	-0.01342553
47	0xbca572b3	-0.020196294
48	0x3d0e4804	0.03473665
49	0x3ab2cdae	0.001364162
50	0xbd128c2a	-0.035778202
51	0x3b4ab271	0.0030929113
52	0x3b52b994	0.003215407
53	0x3b183faf	0.0023231318
54	0xbbe37fa8	-0.006942708
55	0xbc1ef737	-0.009702495
56	0xbcbe114f	-0.023201613
57	0xbc4bec6a	-0.012446502
58	0xba21f951	-0.00061788136
59	0xbc268e63	-0.010165784
60	0xbc6e73c4	-0.014553968
61	0xbb23dd86	-0.0025003864
62	0xbac59ce9	-0.001507667
63	0x3c9a72d7	0.018853588
64	0xbc698ee5	-0.01425526
65	0xbcd9bb04	-0.026578434
66	0x3c3b5048	0.011432715
67	0xbbfdb1ba	-0.007742134
68	0x3a97073a	0.001152254
69	0x3cfb8cdd	0.030706817
70	0xbc8b68e2	-0.017017785
71	0xbc30ea85	-0.010798101
72	0x3cb2197d	0.02174067
73	0x3b16069a	0.0022892118
74	0x3cd0638a	0.025438089
75	0x3bd19402	0.0063958177
76	0xbad20418	-0.0016022949
77	0xbc647a96	-0.013945242
78	0x3b0c6dc9	0.0021427742
79	0xbc987b56	-0.018613499
80	0x3cfce980	0.03087306
81	0xbcb88400	-0.02252388
82	0x3bd253e9	0.0064186943
83	0x3cd56051	0.026046904
84	0xbd0f578b	-0.034995597
85	0xbcbf13f0	-0.023324937
86	0x3abbe18d	0.0014334187
87	0xbc3187f6	-0.010835638
88	0xbbd39169	-0.006456543
89	0x3c72255c	0.014779415
90	0xbcddc8dd	-0.027073318
91	0xbc216a31	-0.009851978
92	0x3bba8044	0.00569156
93	0x3c1b0b18	0.009463094
94	0xbbfa4980	-0.0076381564
95	0xbc78c9ed	-0.015184862
96	0x3bc49b83	0.0059999838
97	0xbba2a089	-0.004962985
98	0x3bd04f22	0.0063570896
99	0xbc9b9861	-0.018993558
100	0xbc3ee11f	-0.011650353
101	0xbb57297f	-0.003283113
102	0xbcb7939b	-0.022409251
103	0x3ca7f57f	0.020502804
104	0xbcf7e1a5	-0.030258963
105	0xbbf40ba9	-0.007447679
106	0xbcffef86	-0.031242143
107	0xbc58fa1a	-0.013243223
108	0xbcaddc1e	-0.021223124
109	0x3cbe151b	0.023203423
110	0xbbd157e3	-0.0063886507
111	0xba71e7ad	-0.0009227943
112	0x3c9ef6e5	0.019404838
113	0xbbcac553	-0.0061880737
114	0x3c2faba3	0.010722074
115	0xbbff3510	-0.007788308
116	0xbc6a9211	-0.0143170515
117	0xbc0ec3a6	-0.008713638
118	0xbc4ccb8a	-0.012499699
119	0x3ceb78ca	0.02874412
120	0xbc530e3d	-0.012881813
121	0xbc0a6de9	-0.008449056
122	0xbc9a6b5e	-0.018850025
123	0xbc27c84f	-0.010240628
124	0xbb447aa6	-0.002998033
125	0x3cf2a084	0.029617555
126	0x3c900b2d	0.017583454
127	0xbb7a58ed	-0.0038199977
128	0x3cbc371e	0.0229755
129	0x3aa15f9c	0.0012311819
130	0x3c87e776	0.016589861
131	0xbcaa83b8	-0.020814762
132	0xbcd3c335	-0.025849918
133	0x3ca0b66c	0.019618236
134	0xbb362a74	-0.00277963
135	0xb9baa0cc	-0.00035596488
136	0x3bba4a80	0.0056851506
137	0xbab3d905	-0.0013721293
138	0xbb0633f5	-0.0020477746
139	0xbc49002b	-0.012268106
140	0xbc42bd0d	-0.0118858935
141	0xbc368ff5	-0.0111427205
142	0xbc226883	-0.009912613
143	0x3beb18c5	0.0071745836
144	0xbccee655	-0.025256315
145	0xbd5aad35	-0.05338784
146	0xbc319ffd	-0.010841367
147	0x3b918900	0.0044413805
148	0x3c294258	0.010330759
149	0x3d049baf	0.032375034
150	0x3b9c2a60	0.0047657937
151	0x3b3fc66f	0.0029262563
152	0x3b168ab3	0.0022970855
153	0xbd07b1b4	-0.033128455
154	0xbc9ebb62	-0.01937646
155	0xbceeac81	-0.02913499
156	0x3bdb0325	0.0066837245
157	0xbbe17595	-0.006880472
158	0x3cb10f07	0.02161361
159	0xb9dcd0a4	-0.0004211712
160	0x3a39ef42	0.0007092842
161	0x3b252582	0.0025199358
162	0x3c327dd8	0.010894261
163	0x3d122cc1	0.035687212
164	0x3bf5aee2	0.0074976543
165	0xba9ec655	-0.0012113551
166	0xbbfc0e1d	-0.007692112
167	0xbc58c5b9	-0.0132307345
168	0x3c8bdadb	0.017072132
169	0xbc6be369	-0.0143974805
170	0x3b128fe6	0.0022363602
171	0x3b3e9ac1	0.002908394
172	0xbcf9d7bd	-0.03049838
173	0xbc4711a4	-0.012150202
174	0x3cec5a7e	0.028851744
175	0xbc6e673c	-0.01455098
176	0x3c3d639a	0.011559391
177	0x3c5ceec8	0.013484664
178	0xbcbbe646	-0.022936951
179	0xbae13376	-0.0017181474
180	0x3bd1bd17	0.006400715
181	0xbce2e734	-0.027698137
182	0xbbaf0866	-0.0053415773
183	0x3a3c29d8	0.0007177866
184	0x3b513cf3	0.0031927198
185	0xbc65f0f1	-0.014034496
186	0xbcd98185	-0.026551018
187	0x3c0d55ad	0.008626384
188	0xbcdf57f4	-0.027263619
189	0x3c3f8dd5	0.01169153
190	0xbc87a437	-0.016557796
191	0xbcb51082	-0.022102598
192	0xbc8ceddd	-0.017203266
193	0xbc5d0f99	-0.013492488
194	0x3b9c08a7	0.0047617736
195	0xbcbec45e	-0.023286995
196	0x3cd45e08	0.025923744
197	0x3b5b2aa1	0.0033442157
198	0xba960d1f	-0.0011448002
199	0x3ce046e2	0.02737755
200	0xbcfdc91d	-0.030979687
201	0xbd0235b0	-0.03178948
202	0xbcb34f45	-0.021888385
203	0x3a0b3311	0.00053100387
204	0xbb7a21ba	-0.0038167075
205	0x37e4b7b0	2.7265254e-05
206	0x3c0cd57d	0.008595821
207	0xbd006959	-0.031350467
208	0xbbdd8615	-0.0067603686
209	0xbbf9217d	-0.007602869
210	0xbcd724b3	-0.026262617
211	0xbc7316df	-0.014836996
212	0xbcab8415	-0.020937005
213	0x3cbd861d	0.02313524
214	0xbb75661e	-0.00374449
215	0x3bce618e	0.0062982505
216	0xbb82f1e5	-0.003996121
217	0x3ba12f38	0.004918959
218	0xbd1e1c2d	-0.03860109
219	0xbcae0ac4	-0.021245368
220	0x3c692569	0.014230111
221	0xbc94703d	-0.018119926
222	0xbc092ce3	-0.008372518
223	0x3c089bfb	0.00833797
224	0x3c2846db	0.0102707995
225	0x3c0d6d79	0.008632057
226	0xbc48d772	-0.012258397
227	0x3b2bc029	0.0026207066
228	0xbc8dd363	-0.017312711
229	0xbca77dea	-0.020445783
230	0xbc7484b3	-0.014924216
231	0xbb38b4db	-0.002818397
232	0x3a90ccc5	0.0011047354
233	0xbc74a017	-0.0149307465
234	0xbbe48c4b	-0.006974732
235	0x3ca1024e	0.01965442
236	0xbbd22347	-0.006412897
237	0x3cab3c8a	0.02090289
238	0x3bf19bd4	0.0073733125
239	0x3b9ef920	0.0048514754
240	0xbc3e1334	-0.011601258
241	0x3c36366a	0.011121372
242	0x3c4149c9	0.011797377
243	0x3b91139f	0.004427388
244	0xbc4a5324	-0.012348924
245	0x3b552738	0.0032524597
246	0x3c754034	0.0149689205
247	0xbbb790a0	-0.0056019574
248	0xbc966516	-0.018358748
249	0xbbb6393f	-0.0055610235
250	0xbc095b55	-0.008383592
251	0x3c934c05	0.017980585
252	0xbc953a8f	-0.0182164
253	0xbc540ca5	-0.012942468
254	0xbc0d0337	-0.0086067235
255	0x3c526bfc	0.012843128

network.1.running_mean f4 [256]
0	0x3a9fd2bb	0.001219354
1	0xbc0fd5e9	-0.0087790275
2	0xbbb164ef	-0.0054136436
3	0x3a9d569a	0.0012003959
4	0xbbfe673c	-0.0077637713
5	0xbc848fac	-0.01618179
6	0xbc3ba5ee	-0.011453135
7	0x3c2ce004	0.010551456
8	0x39f21480	0.0004617311
9	0x3c0216fb	0.007940049
10	0x3b7fd02d	0.0039033995
11	0xbbd12f6a	-0.006383826
12	0x3bb4caed	0.0055173547
13	0x3c9c6740	0.019092202
14	0xbb10b22a	-0.002207885
15	0x3c6deda3	0.014521989
16	0xbb982902	-0.0046435604
17	0xbc112731	-0.008859442
18	0x3a78defe	0.00094936776
19	0x3aee83c5	0.0018197229
20	0xbbaf5e8a	-0.005351846
21	0xbb9f096e	-0.004853419
22	0xbbaa9e9c	-0.005206896
23	0xbbf432b2	-0.0074523324
24	0xbc0d3afa	-0.008620018
25	0x3b3deeb7	0.0028981396
26	0x3b3c9b98	0.0028779265
27	0xba6c3a18	-0.0009011342
28	0x3b317e31	0.0027083273
29	0x3a31f218	0.0006788089
30	0xbb552d9e	-0.003252841
31	0xbb159467	-0.002282405
32	0x3c862b6d	0.016378129
33	0xbc577ec6	-0.013152784
34	0xbb9d6fbb	-0.004804579
35	0x3a91f281	0.0011134894
36	0xba530a39	-0.00080505345
37	0x3b99c94c	0.004693186
38	0xbbcc40d9	-0.0062333164
39	0xbab1eab9	-0.0013573981
40	0xbb80c9d8	-0.0039303117
41	0x3a8b5714	0.001063081
42	0xba341161	-0.0006869045
43	0xbc2cd7b9	-0.010549479
44	0xbc0d44a1	-0.008622319
45	0xbb2426fa	-0.0025047646
46	0x3ac40bd7	0.0014957142
47	0xba844ea5	-0.0010094239
48	0xbc56fb2f	-0.01312141
49	0xb9c4977f	-0.00037496907
50	0x3abe047a	0.0014497184
51	0x3b21d0a0	0.0024691
52	0x3b72a584	0.0037024925
53	0xbacbc740	-0.0015547052
54	0x3bcaee7e	0.0061929813
55	0xbabb7976	-0.0014303166
56	0x3bde197b	0.00677794
57	0x3a14eb2a	0.0005680794
58	0x3c8b1276	0.016976576
59	0xbb1c38ee	-0.0023837644
60	0xbc359b1d	-0.011084345
61	0x3c319c77	0.010840527
62	0x3bee0905	0.007264259
63	0x3bd5a1a2	0.0065195123
64	0xbc084c10	-0.008318916
65	0xbbcf9605	-0.0063350224
66	0x393653a7	0.00017388035
67	0xbb862ca0	-0.004094675
68	0xbc736403	-0.014855388
69	0x3bf67de0	0.0075223297
70	0x3b412924	0.0029473985
71	0xbc5dd63d	-0.013539848
72	0x3c9aa52c	0.018877588
73	0x3b349784	0.002755613
74	0x3b5cd45a	0.0033695907
75	0x3c2127c6	0.009836143
76	0xbc41cb94	-0.011828322
77	0xbbde6b87	-0.0067877206
78	0xbb24c7cc	-0.0025143502
79	0xbc5406a2	-0.0129410345
80	0x3c53e596	0.0129331555
81	0x3c191ad7	0.009344778
82	0xb9a96a5f	-0.00032313445
83	0x3c21399d	0.009840396
84	0x3b51fe68	0.0032042507
85	0x3ac51252	0.0015035367
86	0x3b1b1bcb	0.002366769
87	0xbc20e5fd	-0.0098204585
88	0xbc2bf5d3	-0.010495621
89	0xbbc213cd	-0.0059227706
90	0xbc5644d6	-0.013077935
91	0xbc27203f	-0.010200559
92	0x3b366324	0.0027830089
93	0x3c2bf8c5	0.010496323
94	0xbb853288	-0.0040648617
95	0xbb11e488	-0.002226146
96	0x3c00a741	0.007852376
97	0x3c04ad96	0.008098027
98	0x3b7510c0	0.0037394017
99	0xbbf9dc0e	-0.0076251095
100	0xbc26eaac	-0.010187786
101	0xbc75dd72	-0.01500641
102	0x3b18641b	0.0023253027
103	0xbc914901	-0.017735006
104	0x3bd6fd74	0.0065609757
105	0x3c283f2a	0.010268966
106	0xbcbbd4c8	-0.02292861
107	0x3c453944	0.012037579
108	0xbba2fb87	-0.004973832
109	0xbc9ef609	-0.019404428
110	0x3c354582	0.011063935
111	0xbc02f214	-0.007992286
112	0xbc0d119d	-0.008610156
113	0x3b78735e	0.003791056
114	0x3b85d279	0.004083928
115	0xbb103aeb	-0.0022007774
116	0xbb874b7c	-0.0041288715
117	0x3b3c60f6	0.0028744317
118	0x3c20e1e6	0.009819483
119	0xb8988b17	-7.273832e-05
120	0x3c75b5e9	0.014996984
121	0xbb9d8531	-0.0048071374
122	0x3bb9720c	0.0056593474
123	0xbb069582	-0.002053589
124	0x3c3f1d66	0.011664724
125	0xbbff99a4	-0.007800298
126	0x3bcc603a	0.006237057
127	0x3c3b8f5c	0.011447754
128	0x3ae438cd	0.0017411947
129	0xbac661d5	-0.0015135357
130	0x3b9eff65	0.0048522227
131	0x3c6129e1	0.013742895
132	0xbc15ca7b	-0.009142513
133	0x3b81b217	0.0039579975
134	0xbc2f650e	-0.010705246
135	0x3bd89c30	0.006610416
136	0x39a350fa	0.00031150115
137	0xbbbe5185	-0.0058080577
138	0x3a190199	0.0005836725
139	0xb9c06db5	-0.00036702832
140	0xbc29adb8	-0.010356359
141	0xbc70811b	-0.014679219
142	0x3c6384e6	0.013886666
143	0x3a58828d	0.00082591997
144	0x3c7623d9	0.015023195
145	0xbbbfd58a	-0.0058543133
146	0x3c6840c5	0.0141755985
147	0xbc702896	-0.014658114
148	0x3c3a9543	0.011388126
149	0x3b18bfc8	0.002330767
150	0xbc803b05	-0.015653143
151	0x3bcf9749	0.0063351733
152	0x3a66ce8e	0.0008804583
153	0x3a349313	0.0006888371
154	0x3c6344f0	0.013871416
155	0xba84b612	-0.0010125062
156	0x3b00cbfe	0.0019652839
157	0xbbc9291d	-0.0061389343
158	0xbc23945a	-0.0099841
159	0xbc8579f7	-0.016293509
160	0xbc2d9ac8	-0.010595985
161	0xba4831ab	-0.00076367956
162	0x3ab0814d	0.0013466269
163	0xbc0c8458	-0.008576475
164	0xbb880a0f	-0.0041515897
165	0xb7fbd34b	-3.0019923e-05
166	0x3b5f30d5	0.0034056206
167	0x3b3f79b3	0.0029216825
168	0x3c137903	0.009001019
169	0x3aa926cf	0.0012905243
170	0x3b85768a	0.004072969
171	0x3c47790c	0.012174856
172	0xbc8042b5	-0.015656808
173	0xbc007937	-0.0078414
174	0xbb8c765a	-0.0042865695
175	0x3c0eb34c	0.00870974
176	0xbc02cb42	-0.007983031
177	0x3b048c44	0.0020225206
178	0x3c36a55c	0.011147823
179	0x3c1ef79a	0.0097025875
180	0xbbd2b9d2	-0.006430843
181	0x3c0c0200	0.008545399
182	0xbb626bb8	-0.0034549069
183	0x3c812ee3	0.015769428
184	0x3b2759c6	0.0025535687
185	0x3b447f15	0.0029982973
186	0x3aeb3324	0.0017944318
187	0x3c649cad	0.01395337
188	0xba61c151	-0.0008611875
189	0xbc9e26f0	-0.019305676
190	0xbc17c77f	-0.009263872
191	0x3be33f93	0.006935069
192	0xbc55e120	-0.013054162
193	0xbc16fa77	-0.009214989
194	0x3b34f111	0.0027609507
195	0x3c73e37c	0.0148857795
196	0x3c090af7	0.008364431
197	0xbc34b456	-0.011029324
198	0xbc0d0aea	-0.008608559
199	0xbc842169	-0.016129212
200	0x3b550a6e	0.0032507437
201	0xbac08a30	-0.0014689621
202	0x3b4616ac	0.0030225916
203	0xbbe14f6d	-0.0068759234
204	0xbc39cdc3	-0.011340561
205	0xbb7dcd90	-0.003872726
206	0x3b0693d3	0.0020534887
207	0xbb231fe8	-0.0024890844
208	0xbc1d1bda	-0.00958916
209	0x3c48a177	0.0122455275
210	0xbc1a171b	-0.009404923
211	0x3c21103f	0.0098305335
212	0x3aedb8ac	0.0018136702
213	0x3c1d9bf2	0.0096197
214	0x3b9e677b	0.004834113
215	0x3b983cfc	0.004645942
216	0x3bad9661	0.0052974676
217	0x3b29584b	0.002583998
218	0xbbc9f65a	-0.0061634006
219	0xba92483d	-0.0011160445
220	0x3b01d01d	0.0019807883
221	0x39c1d994	0.00036973937
222	0xbbd110f9	-0.006380197
223	0xbc088660	-0.008332819
224	0xbac3bb40	-0.0014933124
225	0xbc549da8	-0.012977041
226	0x3bb0b5af	0.005392752
227	0x3b27c238	0.002559794
228	0xba591dc7	-0.000828233
229	0x3bf3318f	0.0074216793
230	0xbc38c38a	-0.011277089
231	0x3ba1f810	0.0049429014
232	0xba227472	-0.0006197161
233	0x3bcd24ce	0.006260491
234	0x3b88a266	0.00416975
235	0x3bcf04c9	0.006317709
236	0xbc2517b6	-0.010076454
237	0x3bdf3c96	0.0068126423
238	0xbc3a0a02	-0.011354925
239	0x399019a2	0.00027484918
240	0xbaebbf53	-0.0017986096
241	0x3bc80e16	0.006105195
242	0x3acd1653	0.0015646912
243	0xbc576fe5	-0.013149236
244	0xbc050c35	-0.008120586
245	0x3aaea049	0.0013322915
246	0x3bfb7cfe	0.0076748123
247	0x3bdbe0b5	0.006710137
248	0x3afa4f7c	0.0019097175
249	0xbc4e775d	-0.012601701
250	0xbb3693a9	-0.0027859008
251	0x3b22749f	0.002478875
252	0xbc545705	-0.0129602
253	0x3bd2cf00	0.0064333677
254	0x3aea318b	0.0017867548
255	0xbbe57c7f	-0.0070033665

network.1.running_var f4 [256]
0	0x3eaba92e	0.3352751
1	0x3e8d560f	0.2760472
2	0x3ea7b61e	0.32756132
3	0x3ea34780	0.31890488
4	0x3ed753ac	0.42056024
5	0x3ea2b9cd	0.3178238
6	0x3ea6a13c	0.32544887
7	0x3eb6cf28	0.35704923
8	0x3e8b3b91	0.27193883
9	0x3eba47d7	0.36382934
10	0x3ec19786	0.37810916
11	0x3eb82ee3	0.35973272
12	0x3ef47082	0.47742087
13	0x3ec9dc31	0.39425805
14	0x3ea08dc2	0.31358153
15	0x3ed0d1cd	0.40785065
16	0x3e87d320	0.26528263
17	0x3f020f13	0.5080425
18	0x3e924a06	0.285721
19	0x3ebfceb5	0.37462392
20	0x3eb9f84a	0.36322242
21	0x3ebd6a63	0.3699523
22	0x3ea2f9b6	0.3183114
23	0x3ece3ca7	0.4028065
24	0x3ea1ad50	0.3157754
25	0x3eab514c	0.33460462
26	0x3ee0838a	0.43850356
27	0x3ea855be	0.32877916
28	0x3e868ff8	0.26281714
29	0x3eac489a	0.3364914
30	0x3e98af6b	0.29821333
31	0x3ea80fdb	0.32824597
32	0x3edd18e9	0.43183067
33	0x3e90a774	0.28252757
34	0x3eedccec	0.46445405
35	0x3ea3e46c	0.3201021
36	0x3ec1b1b8	0.378309
37	0x3ea6a75e	0.32549566
38	0x3eaaf6a9	0.33391312
39	0x3ebce7ab	0.368955
40	0x3e96b80e	0.29437298
41	0x3ebb42d1	0.36574414
42	0x3f038387	0.5137257
43	0x3eaf3fb1	0.3422828
44	0x3e9404b8	0.2890985
45	0x3eb8afe1	0.36071685
46	0x3ead702f	0.33874652
47	0x3e8d0130	0.27539968
48	0x3f080e9a	0.5314728
49	0x3e80dc20	0.25167942
50	0x3eb8567f	0.3600349
51	0x3e969185	0.29407898
52	0x3e995ba0	0.29952717
53	0x3ea4e20e	0.32203716
54	0x3eafbd97	0.34324333
55	0x3ec6da65	0.38838497
56	0x3e93e5f3	0.28886375
57	0x3ea69b1e	0.3254022
58	0x3eb61af1	0.3556743
59	0x3eaf2b0e	0.34212536
60	0x3ec4f5b3	0.38468704
61	0x3ecc6c22	0.3992625
62	0x3ea535df	0.32267663
63	0x3ea6f06e	0.32605308
64	0x3e8c1c33	0.27365264
65	0x3ee70013	0.45117244
66	0x3e9b018c	0.30274618
67	0x3ee1563a	0.44011098
68	0x3ebe297b	0.37141022
69	0x3eb7006f	0.35742518
70	0x3ebf89cc	0.37409818
71	0x3e8579c0	0.2606945
72	0x3eb4f3fa	0.3534239
73	0x3e97ebed	0.29672185
74	0x3ed77d4a	0.42087775
75	0x3edffdca	0.43748313
76	0x3f163bfe	0.5868529
77	0x3eade2e3	0.33962163
78	0x3ea0a920	0.31379032
79	0x3ea55e12	0.32298332
80	0x3ec12314	0.37722075
81	0x3eb293d3	0.34878406
82	0x3e87a479	0.2649267
83	0x3ea9807e	0.33105844
84	0x3ecf5021	0.4049082
85	0x3e6fe626	0.23427638
86	0x3ea8c7e1	0.32964996
87	0x3e9b5d43	0.3034459
88	0x3ea5d0e9	0.32385948
89	0x3eae5b6b	0.3405412
90	0x3edb0d2e	0.42783493
91	0x3ebc4672	0.36772496
92	0x3e67e28a	0.22645012
93	0x3ec77f32	0.3896423
94	0x3e978973	0.29597053
95	0x3ec353c4	0.38149846
96	0x3eb0b239	0.34510973
97	0x3ea7ebac	0.3279699
98	0x3e8641c1	0.2622204
99	0x3ee2de2c	0.4431013
100	0x3ebfb4aa	0.37442523
101	0x3e88e389	0.26736096
102	0x3ec97e11	0.39353994
103	0x3ec8b263	0.39198598
104	0x3eda9cdc	0.426978
105	0x3ee2ba34	0.44282687
106	0x3ecc7226	0.39930838
107	0x3ecf7819	0.40521315
108	0x3e91e313	0.28493556
109	0x3ee4729f	0.446187
110	0x3e89defc	0.26927936
111	0x3ea43552	0.3207193
112	0x3eb5953a	0.35465413
113	0x3f01b7c8	0.5067105
114	0x3eb5c11e	0.354989
115	0x3ee9298a	0.45539504
116	0x3ea08864	0.31354058
117	0x3eb43bb3	0.35201797
118	0x3e9de1c6	0.30836314
119	0x3eb191b1	0.34681466
120	0x3ec794c5	0.3898069
121	0x3e9c04da	0.3047245
122	0x3ed316d7	0.41228363
123	0x3eeca9f6	0.4622342
124	0x3e71ebf2	0.23625162
125	0x3e9a9779	0.3019369
126	0x3ec1fa96	0.37886494
127	0x3eb47354	0.35244238
128	0x3e9605fd	0.29301444
129	0x3eadba8e	0.33931392
130	0x3ea1d102	0.31604773
131	0x3ebb6995	0.3660399
132	0x3ebc89d3	0.36823902
133	0x3ec59a53	0.38594303
134	0x3e9996f3	0.29997978
135	0x3ea4fb15	0.3222281
136	0x3e928a08	0.28620934
137	0x3e7c5dfd	0.24645229
138	0x3ebf298a	0.3733638
139	0x3ebcb033	0.3685318
140	0x3e9a5f38	0.3015077
141	0x3e962af3	0.29329643
142	0x3ec345d7	0.3813922
143	0x3ee50625	0.4473125
144	0x3ebc5f86	0.3679163
145	0x3eb30c5e	0.34970373
146	0x3ed2d335	0.41176763
147	0x3ebf8759	0.3740795
148	0x3e8625f9	0.26200846
149	0x3e96189e	0.29315656
150	0x3e930cb9	0.28720644
151	0x3e96b73c	0.29436672
152	0x3e908a7c	0.28230655
153	0x3ebcb911	0.36859944
154	0x3e944688	0.2896006
155	0x3edb6497	0.4285018
156	0x3ead04f2	0.33792835
157	0x3ec2d979	0.38056543
158	0x3e9f7621	0.31144813
159	0x3ec1c114	0.3784262
160	0x3ea0715c	0.31336486
161	0x3ea1af6b	0.31579146
162	0x3ec266e3	0.3796912
163	0x3e8bab50	0.2727914
164	0x3ed9d01b	0.42541584
165	0x3eb822f4	0.35964167
166	0x3ecc94d1	0.39957288
167	0x3ea8a285	0.32936493
168	0x3e828a41	0.25496104
169	0x3ea14d8e	0.31504482
170	0x3e94bb93	0.29049358
171	0x3ec0f907	0.37689993
172	0x3ebd55cc	0.3697952
173	0x3e9c4bdf	0.30526635
174	0x3edd97d0	0.43279886
175	0x3ea6ac6d	0.32553425
176	0x3eaa7c99	0.33298185
177	0x3ea969c9	0.3308852
178	0x3ec2eba7	0.38070413
179	0x3ea3c654	0.3198725
180	0x3ea2f285	0.31825653
181	0x3e87ab82	0.26498038
182	0x3ec0543c	0.37564266
183	0x3ec55a06	0.38545245
184	0x3ed49066	0.41516417
185	0x3eace446	0.3376791
186	0x3e95d033	0.29260406
187	0x3ec8c909	0.39215878
188	0x3ed06caa	0.40707904
189	0x3ece079d	0.40240183
190	0x3eb66888	0.35626626
191	0x3e8da90d	0.27668038
192	0x3ed0a1d8	0.40748477
193	0x3ec704aa	0.38870746
194	0x3eaff344	0.34365284
195	0x3ec7ca12	0.39021355
196	0x3ebde317	0.37087318
197	0x3e8cea1d	0.27522364
198	0x3ec51b18	0.38497233
199	0x3ec0c22b	0.37648138
200	0x3ecf393f	0.40473363
201	0x3ea53113	0.32264003
202	0x3ec9d5ef	0.3942103
203	0x3e8e7fac	0.2783178
204	0x3ed2b3a2	0.41152674
205	0x3ec5a107	0.38599417
206	0x3e9ae59f	0.30253312
207	0x3f01931e	0.5061511
208	0x3eb86b7e	0.3601951
209	0x3ed16bb5	0.40902486
210	0x3e79ef7d	0.24407764
211	0x3e945b32	0.28975827
212	0x3e9d0f0c	0.30675542
213	0x3ea88777	0.3291585
214	0x3ea21bdc	0.3166188
215	0x3eb86637	0.36015484
216	0x3ea913d6	0.33022946
217	0x3e9aaed9	0.30211523
218	0x3eca23f2	0.3948055
219	0x3ea28a7c	0.3174628
220	0x3eaaccc5	0.33359352
221	0x3eb3c36a	0.35110027
222	0x3ecb3994	0.39692366
223	0x3ea8c914	0.3296591
224	0x3e7806cf	0.24221347
225	0x3eb8c22b	0.36085638
226	0x3e90a586	0.28251284
227	0x3e907d18	0.2822044
228	0x3eceb465	0.40372005
229	0x3edbcb0e	0.42928356
230	0x3e930d02	0.28720862
231	0x3ec14597	0.37748405
232	0x3e77bffb	0.24194328
233	0x3eb7c236	0.3589036
234	0x3ec0096d	0.3750719
235	0x3ea52ad1	0.3225923
236	0x3eb2b5e8	0.34904408
237	0x3ec5972b	0.38591895
238	0x3f07dd88	0.53072405
239	0x3ea7acba	0.32748967
240	0x3ebbd5e4	0.36686623
241	0x3ea48cf3	0.32138786
242	0x3e9f59fa	0.31123334
243	0x3eeff74d	0.46868363
244	0x3e9f08ac	0.31061304
245	0x3e8538ea	0.26019984
246	0x3ebdb68e	0.3705334
247	0x3ea54b9e	0.32284254
248	0x3ec4254e	0.3830971
249	0x3e8640bc	0.26221263
250	0x3e8cf7c0	0.27532768
251	0x3eb1f607	0.34758016
252	0x3e8a4524	0.27005875
253	0x3e926fb4	0.28600848
254	0x3ebf717d	0.37391272
255	0x3ec897bc	0.39178264

network.4.weight f4 [128, 256]
0	0x3d0a50a7	0.033768322
1	0xbce615fd	-0.028086657
2	0xbc64f182	-0.013973596
3	0xbd39bd6a	-0.045346655
4	0x3cb221ed	0.021744693
5	0xbd7e1b25	-0.062037606
6	0x3d204af0	0.039133966
7	0x3d0cf34d	0.034411717
8	0xbd15dd5c	-0.036588058
9	0x3a2926dc	0.0006452629
10	0xbd7fa61f	-0.062414285
11	0xbdabc858	-0.08387822
12	0xbbcbbc87	-0.0062175426
13	0xbd26643b	-0.04062293
14	0x3ca91435	0.020639518
15	0x3b24cbb7	0.0025145838
16	0xbd67d57b	-0.056600075
17	0x3d12b7a7	0.035819676
18	0xbc9685c6	-0.018374335
19	0xbcfdda76	-0.03098796
20	0x3cbd259a	0.023089219
21	0x3d47c504	0.048771873
22	0xbd587cdd	-0.052853454
23	0xbd61dd8e	-0.05514293
24	0xbceb6671	-0.028735371
25	0x3d035759	0.032065723
26	0x3cfe174d	0.03101697
27	0x3d0fc033	0.035095405
28	0xbd29bfc4	-0.041442648
29	0xbd64ff45	-0.055907506
30	0x3cbfc24c	0.023408078
31	0x3d41ef0c	0.047347113
32	0x3d93e0a1	0.07220579
33	0xbd3cb93c	-0.04607509
34	0x3bd38073	0.0064545213
35	0xbd602e44	-0.054731622
36	0xb80efeb0	-3.4092634e-05
37	0xbd44a542	-0.048009165
38	0xbda691d2	-0.08133282
39	0x3d5afa14	0.05346115
40	0xbd8e219f	-0.069400065
41	0x3c8d3dcd	0.017241383
42	0xbd248ecd	-0.040175248
43	0x3cd7c0a5	0.026336977
44	0x3c7f4c85	0.0155822085
45	0x3b69987a	0.0035643862
46	0x3ad682d3	0.0016365893
47	0x3ca2290b	0.019794961
48	0x3c2ae263	0.010429951
49	0xbac8d1f2	-0.0015321358
50	0x3bc8ee84	0.006131949
51	0x3be4ef3c	0.006986527
52	0x3d25ca1a	0.040475942
53	0xbb4e282a	-0.0031457045
54	0x3b9cf859	0.0047903475
55	0xbc63642c	-0.013878863
56	0x3d2ec72b	0.04267041
57	0x3c600dad	0.013675136
58	0x3cc19ccd	0.023634339
59	0xbd2082ca	-0.03918723
60	0xbd300d85	-0.042981643
61	0x3d431efe	0.04763698
62	0xbd5bd099	-0.05366573
63	0xbd7ab695	-0.06120928
64	0x3d248933	0.040169906
65	0x3d22c45e	0.03973805
66	0x3c669963	0.014074656
67	0xbcbce68c	-0.023059152
68	0x3c59770f	0.013273015
69	0xbd7c92ea	-0.061663546
70	0x3a91ccf0	0.0011123698
71	0xbc231be3	-0.009955379
72	0x3cd2ca1d	0.02573114
73	0xbd1f0ddc	-0.038831577
74	0xbd698df8	-0.057020158
75	0xbcb60e7f	-0.02222371
76	0xbc58620c	-0.01320697
77	0xbc29a744	-0.010354821
78	0xbad95e89	-0.001658396
79	0x3d8054b2	0.06266154
80	0x3b294234	0.0025826814
81	0x3d253aa0	0.040339112
82	0x3d943799	0.07237167
83	0xbd080229	-0.033205185
84	0xbd8b9f50	-0.06817496
85	0x3c860d58	0.016363785
86	0x3cf5fcfd	0.03002786
87	0x3ba1c9fc	0.0049374085
88	0xbc1623f0	-0.009163842
89	0xbd6cdf63	-0.057830226
90	0x3c08dab0	0.00835292
91	0xbd4a17ba	-0.049339034
92	0xbba9f618	-0.0051868074
93	0xbd3becc5	-0.045880098
94	0xbd977908	-0.07396132
95	0x3ca14369	0.019685464
96	0x3d05caf6	0.03266426
97	0xbce2d294	-0.027688302
98	0xbc92837e	-0.017884966
99	0x3ce4dc22	0.027936999
100	0xbd30ac0c	-0.043132827
101	0xbcc3720b	-0.02385809
102	0x3d185b55	0.037196476
103	0xbd4abbc5	-0.049495477
104	0x3d45a12d	0.048249412
105	0x3d743f04	0.05963041
106	0xbd6a5e5b	-0.05721889
107	0xbd32ba11	-0.043634478
108	0xbd508430	-0.050907314
109	0xbd5dba3f	-0.054132696
110	0x3c8d5596	0.017252725
111	0x3cf556bf	0.02994859
112	0xbc53bd58	-0.012923561
113	0xbc990f9f	-0.018684207
114	0x3d50b339	0.05095217
115	0x3ceeda81	0.029156925
116	0xbd4ef344	-0.050524965
117	0x3c8049a1	0.015660109
118	0xbd5ac121	-0.05340684
119	0x3d498e19	0.04920778
120	0x3c88f6d3	0.016719257
121	0xbb83e6bc	-0.0040253084
122	0xbc44af7e	-0.012004731
123	0x3d836fb5	0.06417791
124	0xbbff99f6	-0.007800336
125	0x3d153bb4	0.03643389
126	0x3d9e5bd8	0.077323616
127	0x3d79ee23	0.06101812
128	0xbcb2808e	-0.021789815
129	0xbd51587a	-0.05110977
130	0xbccf6e3d	-0.02532112
131	0x3d09d3b8	0.033649176
132	0xbd06ef4f	-0.032943066
133	0xbc54a2da	-0.01297828
134	0x3cbf75fb	0.023371687
135	0xbbc64e18	-0.00605179
136	0xbb8d5a91	-0.004313775
137	0xbd494e4d	-0.04914694
138	0xbcae6a99	-0.021291064
139	0x3cf99f56	0.030471485
140	0xbc6e65a7	-0.014550603
141	0xbcce872e	-0.025210943
142	0xbd0d3c24	-0.034481183
143	0x3d295ef5	0.041350324
144	0x3b0344fe	0.0020030136
145	0x3d2850f1	0.041092817
146	0x3d2ab97b	0.041680794
147	0x3d38d82e	0.04512804
148	0x3d43d90e	0.04781442
149	0xbd0c8154	-0.034303024
150	0x3b906e1e	0.0044076582
151	0xbd307740	-0.043082476
152	0xbc384252	-0.011246281
153	0x3d168962	0.036752112
154	0xbc074169	-0.008255341
155	0x3cd0db3e	0.025495168
156	0xbd0c8b4b	-0.034312528
157	0x3cb670c4	0.022270568
158	0xbcc98899	-0.024601268
159	0xbc8e4fa6	-0.017371964
160	0xbc663677	-0.014051071
161	0xbc5274f1	-0.012845264
162	0x3ce162d7	0.02751295
163	0x3d60d54d	0.05489092
164	0xbd104110	-0.0352183
165	0x3ccfc3d7	0.025361938
166	0x3d8bb749	0.06822068
167	0xbbe10e54	-0.006868163
168	0xbd26ce6c	-0.040724203
169	0x3d218025	0.03942885
170	0xbb2ce74b	-0.0026382979
171	0xbd9a559b	-0.07535859
172	0x3d6777d5	0.056510765
173	0xbce3ae41	-0.027793052
174	0x3cc42e07	0.023947729
175	0xbd09765a	-0.033560134
176	0x3d3ca3d7	0.046054687
177	0x3d1dd805	0.03853609
178	0xbd42ae02	-0.047529228
179	0x3d0b8922	0.034066327
180	0xbd86f7eb	-0.06590255
181	0x3c348fa8	0.011020578
182	0xbce3a4b3	-0.027788496
183	0x3d05a14c	0.032624528
184	0xbc121251	-0.0089155
185	0xbd8984e0	-0.06714797
186	0x3ccd267f	0.02504277
187	0x3c9642d3	0.018342411
188	0x3d033679	0.03203437
189	0xbd4a3556	-0.04936727
190	0x3d23b88f	0.03997093
191	0x3d0bacfc	0.034100518
192	0x3d375441	0.044758085
193	0x3d2754a9	0.040852223
194	0x3d59d230	0.053178966
195	0x3d226377	0.03964564
196	0x3d56db91	0.05245549
197	0xbcc0702d	-0.02349099
198	0x3ce799cc	0.028271578
199	0xbd36ab9e	-0.04459726
200	0xbc82396e	-0.015896525
201	0x3d7182c9	0.058962617
202	0xbd84e069	-0.06488115
203	0x3cdc4041	0.026886107
204	0xbcbcdbd1	-0.023054035
205	0xbbf2f650	-0.0074146166
206	0x3d211bd5	0.039333183
207	0x3d92852f	0.07154309
208	0xbd270ee0	-0.04078567
209	0xbd4d02a3	-0.050051343
210	0xbd58a271	-0.05288929
211	0xba97bdae	-0.0011576915
212	0xbda900bb	-0.082520925
213	0xbd33d6ce	-0.043906026
214	0xbb87757d	-0.0041338787
215	0xbc44edbd	-0.012019572
216	0xbca73b38	-0.02041398
217	0xbcc46b6a	-0.023977
218	0xbc572325	-0.013130938
219	0x3b006500	0.001959145
220	0xbd06fe7a	-0.03295753
221	0xbd01330b	-0.03154282
222	0x3d5714b4	0.05250998
223	0xbc29e182	-0.010368707
224	0x3cb34332	0.021882627
225	0xbcb26fda	-0.02178185
226	0x3c5e5a2b	0.013571302
227	0xbcc70b9b	-0.024297526
228	0xbcb89ebc	-0.022536628
229	0x3d6d898b	0.0579925
230	0xbcf6489a	-0.030063916
231	0xbb2f8ed3	-0.002678801
232	0xb9d48a1c	-0.0004053869
233	0xbd3794b5	-0.044819552
234	0xba07564a	-0.00051626994
235	0x3d3396f7	0.043845143
236	0x3cdc45d7	0.026888771
237	0xbc348bb1	-0.011019633
238	0xbd127132	-0.035752483
239	0x3d5b5f88	0.053557903
240	0xbc95926b	-0.018258294
241	0xbc6efcd3	-0.014586645
242	0x3d8293b9	0.06375832
243	0x3cac54fa	0.021036614
244	0x3be0b4f1	0.0068575074
245	0xbcc4aabb	-0.024007192
246	0x3c8c0d78	0.017096266
247	0x3d344c70	0.04401821
248	0xbd5bb24a	-0.053636827
249	0x3c818ec5	0.015815148
250	0x3d3506f9	0.044196103
251	0x3cfb7a47	0.030697955
252	0x3b47d7cd	0.0030493618
253	0x3b79fd89	0.0038145503
254	0xbd25fbb0	-0.04052323
255	0x3cf2b02d	0.029625023
