log_reg/models/tree_root_failure_best.pth (torch, 385850 bytes, 25 tensors)

network.0.weight f4 [256, 176]
0	0x3d6b64e7	0.057469275
1	0x3d5fa3cd	0.054599572
2	0x3da7a83f	0.08186387
3	0xbd032a0c	-0.03202252
4	0xbd7fd9e6	-0.062463664
5	0xbd3fefe1	-0.046859626
6	0x3ca90aee	0.020635094
7	0xbcfe0b7d	-0.031011337
8	0xbcf24779	-0.029575096
9	0xb8abfb16	-8.200684e-05
10	0xbd5993f8	-0.05311963
11	0xbd96eee9	-0.07369787
12	0x3b51c050	0.0032005496
13	0xbbb58777	-0.0055398303
14	0xbd4f8b19	-0.050669763
15	0xbc961bc5	-0.018323788
16	0xbc3df07d	-0.011592981
17	0x3d81939c	0.063269824
18	0xbcca00c6	-0.024658572
19	0xbd67bb50	-0.05657512
20	0x3c8a3b70	0.016874045
21	0xbd1cdb1e	-0.038294904
22	0xbd231f72	-0.03982491
23	0xbd80612d	-0.06268535
24	0xbc584bc6	-0.01320166
25	0xbd1d744f	-0.038441
26	0x3d4c68da	0.04990468
27	0xbb6f7ed9	-0.0036544113
28	0x3c8a188b	0.016857406
29	0x38d1645d	9.984591e-05
30	0x3da6d550	0.08146155
31	0x3d005135	0.031327445
32	0x3b976ae1	0.0046208953
33	0xbca8a5d9	-0.020586895
34	0x3db16e4d	0.08663616
35	0xbd3e2907	-0.046425845
36	0xbd8672fe	-0.06564902
37	0x3aa5ecd7	0.0012659085
38	0x3d186dcd	0.03721409
39	0xbd209bc6	-0.039211057
40	0xb966dc3c	-0.00022016553
41	0xbca4be32	-0.020110223
42	0xbd4fe2c6	-0.050753377
43	0x3d02eb8e	0.031962924
44	0xbc291d9a	-0.010321999
45	0x3805d980	3.1912234e-05
46	0xbd2354ce	-0.039875798
47	0xbd7fb261	-0.062425975
48	0xbda02152	-0.07818855
49	0xbb386ad6	-0.002813985
50	0xbd82e11f	-0.06390595
51	0x3c52ab45	0.012858217
52	0x3d85c0d7	0.06530922
53	0x39f6c4bb	0.00047067352
54	0x3d0b47e9	0.034004126
55	0x3d0cd401	0.03438187
56	0xbd7bc2ce	-0.061465077
57	0x3d04f858	0.0324634
58	0xbaef5fa1	-0.0018262753
59	0x3cdf6432	0.027269457
60	0xbd5b3369	-0.053515825
61	0xbab7d322	-0.0014024714
62	0xbd56312e	-0.052292995
63	0xbd15d567	-0.03658047
64	0xba8ff42e	-0.0010982805
65	0xbd3d4f00	-0.04621792
66	0x3c371d60	0.011176437
67	0x3caa5394	0.020791806
68	0x3a1d7861	0.00060070126
69	0xbc9b902f	-0.01898965
70	0x3d0f66c3	0.03501011
71	0xbbc19cb1	-0.0059085716
72	0x3d5b3410	0.053516448
73	0x3d6553b8	0.055988044
74	0x3d058c40	0.032604456
75	0xbc2c8459	-0.010529601
76	0xba2a806b	-0.0006504121
77	0x3d9ced9e	0.076625094
78	0xbcc4119c	-0.023934178
79	0xbd7d2dd0	-0.06181127
80	0xbd2d08c3	-0.042244684
81	0x3d1414bc	0.036152586
82	0xbad96aff	-0.0016587673
83	0xbc9e63b6	-0.019334655
84	0x3c99bc19	0.01876645
85	0xbd7cac6c	-0.06168787
86	0x3d4e71b9	0.050401423
87	0xbd4b72e2	-0.049670108
88	0xbd376385	-0.044772644
89	0xbc234983	-0.009966257
90	0xbd852f13	-0.06503119
91	0xbd4b7e0e	-0.049680762
92	0x3d21f91e	0.039544217
93	0xbd6e7b26	-0.058222912
94	0x3cdfdccf	0.02732697
95	0xbb4c82d8	-0.0031205919
96	0xbced0c28	-0.02893646
97	0x3d804e9c	0.062649935
98	0xbcce5010	-0.025184661
99	0xbd8694b1	-0.065713294
100	0xbd3e04c2	-0.046391256
101	0xbb9719e3	-0.0046112402
102	0x3d4f78ed	0.050652433
103	0x3dac936d	0.08426557
104	0xbc8e3d9c	-0.017363362
105	0x3d0f2970	0.034951627
106	0xbd8aa168	-0.06769067
107	0xbc8b9487	-0.017038597
108	0x3db80ad5	0.08986441
109	0x3d6e6831	0.058204833
110	0xb91c9ee2	-0.00014936508
111	0xbb290f73	-0.0025796562
112	0xbd705441	-0.0586741
113	0x3c1c1926	0.00952748
114	0x3d86cf7c	0.06582543
115	0xbc87d773	-0.016582226
116	0x3d422118	0.047394842
117	0xbd859705	-0.06522945
118	0x3d27c7ad	0.04096191
119	0xbc6ad83e	-0.014333783
120	0x3c5fb540	0.013654053
121	0xbc19d0d5	-0.009388168
122	0xbc20dd24	-0.009818349
123	0xbc92e58b	-0.01793172
124	0xbd29f982	-0.041497715
125	0xbd6b37d0	-0.057426274
126	0x3b77c403	0.003780604
127	0xbce20f65	-0.027595231
128	0xbd835ff8	-0.06414789
129	0x3d449383	0.04799224
130	0x3d0e10bc	0.034683928
131	0xbd9e20fe	-0.077211365
132	0xbd29c621	-0.041448716
133	0xbd829cab	-0.06377538
134	0x3d035b7a	0.03206966
135	0xbd9d4d16	-0.076807186
136	0xbc0eb52a	-0.008710185
137	0x3bd52485	0.0065045976
138	0x3d5addd7	0.05343422
139	0xb6fed3bc	-7.594439e-06
140	0x3bd0f1ff	0.0063765044
141	0x37b8eb81	2.2044174e-05
142	0xbd444cfb	-0.047924977
143	0xbc760485	-0.015015726
144	0xbd2c91da	-0.042131282
145	0xb70418a0	-7.873547e-06
146	0xbb3776e7	-0.0027994455
147	0x3d54503d	0.051834334
148	0xbceaf135	-0.02867947
149	0x3bf5e860	0.007504508
150	0x3d23374e	0.039847665
151	0x3d7fc922	0.062447675
152	0xbc1acc1c	-0.0094480775
153	0xbb84abbb	-0.004048792
154	0xbd5a0bd8	-0.05323395
155	0xbd609a4b	-0.054834645
156	0x3d6a775c	0.057242736
157	0x3c5da039	0.01352697
158	0xbc81cc77	-0.015844567
159	0xbc7b145c	-0.015324678
160	0xbd456d3b	-0.048199873
161	0x3cbdcea5	0.023169825
162	0x3d05c5da	0.03265939
163	0x3d8aa0ec	0.06768975
164	0xbce99257	-0.028512163
165	0x3d2be42b	0.041965645
166	0xbb273216	-0.0025512031
167	0xbd41b56b	-0.047292154
168	0xbd21ebcd	-0.039531518
169	0x3d5bd5b2	0.053670593
170	0x3c5a10c5	0.013309662
171	0x3ced06c9	0.0289339
172	0xbc2990ec	-0.0103494935
173	0xbd47dcc0	-0.048794508
174	0xbc4bd2bb	-0.012440379
175	0x3ce535fa	0.02797984
176	0xbd70cde3	-0.0587901
177	0x3d1147af	0.035468753
178	0x3c5cd579	0.01347863
179	0xbcc4eed5	-0.024039665
180	0xbd29483f	-0.041328665
181	0xbcf4fa28	-0.02990444
182	0x3cbe3222	0.023217265
183	0x3c82f84c	0.015987538
184	0x3c507897	0.012724063
185	0xbb630ad0	-0.0034643896
186	0xbd7819c3	-0.060571443
187	0xbb63f818	-0.0034785327
188	0xbd36ac70	-0.044598043
189	0x3d7ca088	0.061676532
190	0xbd6d6c43	-0.057964575
191	0xbd56e452	-0.052463837
192	0xbc5e938e	-0.0135849845
193	0xbd05bea9	-0.03265253
194	0xbcdbdedb	-0.026839664
195	0x3d147596	0.03624495
196	0xbcbaf041	-0.02281964
197	0xbd6890fc	-0.056778893
198	0xbc297524	-0.01034287
199	0xbd68b735	-0.056815345
200	0x3adaeb04	0.001670212
201	0x3d4a1f1b	0.04934607
202	0xbd21c77b	-0.03949688
203	0xbc489f97	-0.01224508
204	0xbd6c9b6b	-0.057765406
205	0x381c9151	3.7328635e-05
206	0x3d155479	0.036457513
207	0xbd43e57b	-0.04782627
208	0xbd12e9e3	-0.035867583
209	0x3d3c5a84	0.04598476
210	0xbbbfec0d	-0.005856997
211	0xbc76302b	-0.015026133
212	0xbd3a22ff	-0.04544353
213	0x391296ed	0.00013979869
214	0xbadefca1	-0.0017012545
215	0xbbf50265	-0.007477092
216	0xba04acfb	-0.00050611765
217	0xbc85d4a3	-0.016336745
218	0x3cb13481	0.021631481
219	0x3d209ea6	0.0392138
220	0xbbd2227b	-0.006412802
221	0x3b938e65	0.0045030587
222	0xbd8cee4a	-0.068813875
223	0x3d06c255	0.032900173
224	0xbd31522f	-0.043291267
225	0xbd1bb8c9	-0.03801802
226	0x3d8e56e7	0.06950169
227	0x3d070a0c	0.032968566
228	0xbd5befb4	-0.053695396
229	0x3d108619	0.035284135
230	0x3d8dba0f	0.069202535
231	0x3d85048d	0.064950086
232	0xbcf06e67	-0.029349519
233	0xbbf5cc54	-0.0075011645
234	0xbc11de36	-0.008903077
235	0x3c4f2057	0.012641988
236	0xbd3689f7	-0.044565167
237	0x3be296ef	0.0069149653
238	0xbd353c2a	-0.04424683
239	0x3d1f65dc	0.0389155
240	0xbcb6c572	-0.022310946
241	0x3c283920	0.010267526
242	0x3cb4a7ac	0.022052608
243	0xbd6121eb	-0.054963987
244	0x384397a0	4.6632835e-05
245	0xbd0f1418	-0.034931272
246	0x3cbbe59e	0.022936638
247	0xbd44109b	-0.0478674
248	0x3ab25d7a	0.001360818
249	0xbd1844ea	-0.037175097
250	0x3c81d535	0.015848735
251	0xbb6eaec5	-0.0036420089
252	0xbab6c8ba	-0.0013945319
253	0xbd9b8ec9	-0.075955935
254	0x3d6b3db2	0.057431884
255	0x3ca0b89e	0.019619282

network.0.bias f4 [256]
0	0x3bce70c1	0.0063000624
1	0x3819e02f	3.668683e-05
2	0x3c21a285	0.009865408
3	0x368dc186	4.2246565e-06
4	0xbbf4c111	-0.0074693044
5	0xbbc24326	-0.005928415
6	0xb8d5245e	-0.000101634054
7	0xbb9f82c5	-0.004867884
8	0x39924ac8	0.00027903006
9	0xba2bcb25	-0.0006553403
10	0x3c071143	0.008243862
11	0xbc2f292b	-0.010690968
12	0x38c26243	9.2689435e-05
13	0x3ba2cf63	0.00496857
14	0xba09894b	-0.00052465935
15	0xb9211c39	-0.0001536467
16	0x3b5d5426	0.003377208
17	0x38c5a78b	9.424899e-05
18	0x38cb0327	9.6803815e-05
19	0xb8904284	-6.8788446e-05
20	0xb970d6fe	-0.00022968274
21	0xb904420d	-0.00012613107
22	0xb8c28808	-9.275979e-05
23	0x37c672d4	2.365691e-05
24	0x3794df8a	1.7747068e-05
25	0xb96769ee	-0.00022069339
26	0x3931e0fa	0.00016963846
27	0x3b9d942d	0.0048089237
28	0x39b459fd	0.00034399322
29	0x3a2e02d3	0.0006637994
30	0x3b618351	0.0034410546
31	0xba22b171	-0.00062062504
32	0xb8577b2c	-5.1374707e-05
33	0xbc36c95f	-0.011156409
34	0xb3082600	-3.169953e-08
35	0xb6e903fc	-6.944405e-06
36	0x3a0f144a	0.00054580404
37	0x3c27ee47	0.010249681
38	0x399c5055	0.0002981449
39	0x3a0d554e	0.00053914345
40	0xba2b5504	-0.00065358006
41	0x388dfea6	6.770836e-05
42	0xb88aa61e	-6.6112945e-05
43	0xb9adb790	-0.00033133896
44	0xb9b1984b	-0.00033873538
45	0x3bcb4d5b	0.00620429
46	0x365f6c28	3.3292545e-06
47	0x398e11fb	0.00027097747
48	0xbc31b2b1	-0.010845826
49	0xbb97495a	-0.0046168985
50	0xba2952f4	-0.00064591994
51	0xb8dea618	-0.00010616722
52	0x33d2eea0	9.822293e-08
53	0x3a28c8de	0.0006438623
54	0x3babd2f8	0.0052436553
55	0x374a2edb	1.2051048e-05
56	0xb8016c32	-3.085676e-05
57	0x374c4c66	1.2177135e-05
58	0xb7cd0e1b	-2.4444473e-05
59	0x388efb0e	6.81785e-05
60	0xba18d589	-0.0005830159
61	0xbb6e9a15	-0.0036407758
62	0xb990a532	-0.000275889
63	0xb90640c8	-0.00012803369
64	0xb9801359	-0.00024428478
65	0x395a3d9c	0.00020813051
66	0xbaeece7d	-0.0018219497
67	0x3b73201b	0.0037097994
68	0x37ddc8e0	2.6438793e-05
69	0xb81a69c0	-3.681495e-05
70	0xb98da3cb	-0.0002701565
71	0xba30dc2c	-0.00067466754
72	0x3a280d31	0.0006410657
73	0x38d34512	0.000100741294
74	0x37aa077f	2.026907e-05
75	0x37690042	1.3887942e-05
76	0x3b84bd3d	0.0040508793
77	0x3918ee31	0.00014584583
78	0x388e7741	6.7933004e-05
79	0xbb0e0ace	-0.002167392
80	0x359fc028	1.1902348e-06
81	0xb8b3d511	-8.575072e-05
82	0xb885f8eb	-6.388299e-05
83	0xbbad8ae2	-0.005296097
84	0xb8728e00	-5.7829544e-05
85	0x39cb53c4	0.00038781588
86	0x3c13a951	0.009012536
87	0x38245004	3.9175167e-05
88	0xba1bc997	-0.000594282
89	0xbc2182ef	-0.009857877
90	0xba1a54c4	-0.0005887265
91	0x3c18b398	0.009320162
92	0x3816271a	3.5799203e-05
93	0xb891d5b2	-6.953943e-05
94	0x39cd090b	0.00039107385
95	0x36defb5d	6.645378e-06
96	0xb91562ba	-0.00014246526
97	0xb9cb65fa	-0.00038795156
98	0x3bc8741d	0.0061173574
99	0xb92d6b4f	-0.00016538541
100	0x3a2d8009	0.0006618505
101	0x3a1e0d00	0.0006029159
102	0xbbb09df9	-0.0053899256
103	0x3682ea9f	3.9016154e-06
104	0x3a137533	0.0005625069
105	0xbc056c1c	-0.008143451
106	0xb8c33615	-9.308398e-05
107	0xb8c57937	-9.41627e-05
108	0x39e373ae	0.00043383002
109	0x39750df3	0.00023370217
110	0x3a28b0fc	0.0006435064
111	0xb8b7119a	-8.7293985e-05
112	0xb8b3060c	-8.5365115e-05
113	0xb8c98844	-9.609808e-05
114	0xb8f46936	-0.00011654424
115	0xba2cd860	-0.00065935217
116	0x38cd9c16	9.804235e-05
117	0x387816d6	5.9149075e-05
118	0x39797e79	0.00023793605
119	0xb8e0261f	-0.00010688253
120	0x3b9f4438	0.004860427
121	0xb700dc18	-7.680639e-06
122	0x3b04d8b0	0.0020270757
123	0xb90628f9	-0.000127945
124	0x35de92a0	1.6582962e-06
125	0xb911d021	-0.00013905812
126	0xba222156	-0.0006184777
127	0xb5efb594	-1.7859734e-06
128	0xb9832d02	-0.000250198
129	0x3bcd34b6	0.006262387
130	0xb9b726ab	-0.0003493329
131	0xb6d00c60	-6.2003237e-06
132	0xb9973370	-0.00028839288
133	0xba2a3dfe	-0.0006494223
134	0xbbd40a17	-0.0064709294
135	0x3947811a	0.00019026213
136	0xba1ddf90	-0.0006022388
137	0xbbbf6eed	-0.005842081
138	0x3a01f531	0.0004957496
139	0xb90deee9	-0.00013535809
140	0x3a0523c4	0.0005078877
141	0xb80bc48b	-3.3323227e-05
142	0x378363a6	1.566282e-05
143	0x396a9770	0.00022372394
144	0x3a21830d	0.00061611907
145	0x39898823	0.00026232106
146	0xb8c314fb	-9.3022325e-05
147	0xbb34c8ce	-0.002758551
148	0x3ad60516	0.001632842
149	0x39c6f152	0.000379453
150	0x3bb2589e	0.005442693
151	0xbc27a65c	-0.010232534
152	0x379a7f1d	1.8417422e-05
153	0x36a3c040	4.8801594e-06
154	0xb82ba6a6	-4.092478e-05
155	0xb918f63b	-0.00014587578
156	0x3a0b4c78	0.0005313824
157	0xbb82d01a	-0.003992093
158	0x3960dfc3	0.00021445662
159	0x39ef572d	0.00045650583
160	0xb7c6ed63	-2.3713981e-05
161	0x3761b4cd	1.3453141e-05
162	0xb9915b57	-0.0002772461
163	0xba0aae96	-0.00052902976
164	0x3a5be6e7	0.0008388594
165	0xbc239e2b	-0.009986441
166	0xba2b6bb4	-0.00065391813
167	0x3bc60345	0.00604287
168	0xba238c80	-0.00062388927
169	0x35ed14e8	1.766396e-06
170	0xb8a0abe6	-7.661413e-05
171	0xbc01a350	-0.007912472
172	0x3849b26e	4.808831e-05
173	0x39f1105c	0.0004597929
174	0xbb160b01	-0.0022894742
175	0xb751072c	-1.2459041e-05
176	0x389c0b48	7.440761e-05
177	0x3afefc7f	0.0019453912
178	0xbc33ad96	-0.010966679
179	0x3bb16d53	0.005414644
180	0x3899e00e	7.337342e-05
181	0x3be3a33c	0.0069469493
182	0xb8bd006c	-9.012301e-05
183	0x398679da	0.00025649258
184	0xb9801abc	-0.0002443398
185	0xba05ac5e	-0.0005099232
186	0xb8fd9ae1	-0.000120928285
187	0x382e39b8	4.1538588e-05
188	0x3a0db65a	0.00054058956
189	0xb8235046	-3.893699e-05
190	0x3c28bc9a	0.010298872
191	0x379e3638	1.8860315e-05
192	0xba0c1091	-0.0005343045
193	0xbacfee80	-0.0015863925
194	0x381ea33e	3.7822167e-05
195	0xb986b585	-0.00025693714
196	0xb775c290	-1.4648438e-05
197	0x3bacb85a	0.005271
198	0xb8245e74	-3.9188613e-05
199	0xb9fa3bf5	-0.00047728387
200	0x3af654cd	0.0018793583
201	0xbbc8946f	-0.0061212103
202	0x3bcd446a	0.006264259
203	0x3a7f8081	0.00097466266
204	0xb751150a	-1.2462269e-05
205	0xb862cf7e	-5.407584e-05
206	0x3a288227	0.00064280856
207	0xb872a6a0	-5.7852478e-05
208	0x3ad891ec	0.001652298
209	0x39239c96	0.00015603224
210	0xb986513b	-0.00025618993
211	0x398971bb	0.00026215412
212	0x39861b93	0.00025579016
213	0xba2c4a4e	-0.00065723516
214	0x3a19c647	0.00058660324
215	0x3a15357b	0.0005691868
216	0xb8855ef4	-6.3596206e-05
217	0x395cc3e0	0.00021053804
218	0xb8f3f626	-0.00011632992
219	0x3a1832a3	0.00058058853
220	0xb9c2287a	-0.0003703272
221	0xb9924105	-0.00027895733
222	0xb946b743	-0.00018951022
223	0x3670ef34	3.5902021e-06
224	0x39fe92f2	0.00048556138
225	0xbb9ba986	-0.0047504334
226	0x39352fc3	0.00017279298
227	0xb8892b59	-6.540743e-05
228	0xb8d6ab78	-0.00010236254
229	0x3c117975	0.008879055
230	0x388b9bf2	6.6570836e-05
231	0x39b51c19	0.00034543945
232	0x3a16d69b	0.00057540246
233	0x3a0e4461	0.00054270594
234	0x3bebdc41	0.007197887
235	0xb992e780	-0.0002801977
236	0x39041bb3	0.0001259882
237	0xb821a171	-3.8535745e-05
238	0xb8b206f6	-8.488998e-05
239	0xbc34fe28	-0.011046924
240	0xb98917ea	-0.00026148494
241	0xbbc47378	-0.0059952103
242	0xbba4bbc0	-0.0050272644
243	0xbc24d819	-0.010061287
244	0xb9182aaf	-0.0001451175
245	0xb67825c8	-3.6976871e-06
246	0x3b520ce6	0.0032051145
247	0xb99b0f90	-0.000295755
248	0xbc151055	-0.009098132
249	0x3c27c1f9	0.010239118
250	0x3ab2e37c	0.0013648118
251	0xb8f727e0	-0.00011785305
252	0x38eafad1	0.00011204708
253	0xbc025f73	-0.007957327
254	0xb97a416c	-0.0002386623
255	0x390ec71e	0.00013616352

network.1.weight f4 [256]
0	0x3f821ce4	1.0165067
1	0x3f80ab08	1.0052195
2	0x3f800c8d	1.000383
3	0x3f7fa50b	0.9986121
4	0x3f7f8070	0.99805355
5	0x3f7b0f74	0.98070455
6	0x3f816da3	1.0111583
7	0x3f7dad90	0.9909296
8	0x3f7e323b	0.99295396
9	0x3f7e5f99	0.9936462
10	0x3f81d8be	1.014427
11	0x3f803c0b	1.0018324
12	0x3f7ce040	0.9877968
13	0x3f822abd	1.0169293
14	0x3f82408f	1.0175952
15	0x3f80911b	1.0044283
16	0x3f800520	1.0001564
17	0x3f8174e1	1.0113794
18	0x3f7cb5b8	0.9871478
19	0x3f7c8c53	0.9865162
20	0x3f80dfb3	1.0068268
21	0x3f7e4c5d	0.9933527
22	0x3f7f52f3	0.99735945
23	0x3f816d05	1.0111395
24	0x3f800563	1.0001644
25	0x3f7c8d0f	0.9865274
26	0x3f7f3efe	0.99705493
27	0x3f80431a	1.0020478
28	0x3f82d1cb	1.0220274
29	0x3f7e8c28	0.9943261
30	0x3f802d31	1.0013791
31	0x3f814997	1.0100583
32	0x3f7e876c	0.9942539
33	0x3f7ea577	0.9947123
34	0x3f7c36de	0.9852122
35	0x3f7db9ef	0.9911184
36	0x3f7c2e9c	0.9850862
37	0x3f7dd337	0.99150413
38	0x3f7f6c20	0.9977436
39	0x3f809aee	1.0047281
40	0x3f7e8cde	0.99433696
41	0x3f7f5f1f	0.9975452
42	0x3f812150	1.0088291
43	0x3f7b6b9c	0.98211074
44	0x3f81174d	1.0085236
45	0x3f807de4	1.0038419
46	0x3f81ab4b	1.01304
47	0x3f7f362e	0.99692047
48	0x3f7ee34d	0.99565583
49	0x3f7cfef5	0.98826534
50	0x3f7f8a4c	0.998204
51	0x3f7bf164	0.9841521
52	0x3f7daaf6	0.9908899
53	0x3f7ff3c6	0.99981344
54	0x3f803d81	1.001877
55	0x3f7f8f32	0.99827874
56	0x3f7e51b5	0.99343425
57	0x3f7d1225	0.9885581
58	0x3f7b5af4	0.9818566
59	0x3f7d27ee	0.9888905
60	0x3f7eed4d	0.9958084
61	0x3f81e404	1.014771
62	0x3f7f57e1	0.9974347
63	0x3f7e7f59	0.9941307
64	0x3f807d19	1.0038177
65	0x3f81527d	1.0103298
66	0x3f7dd54c	0.9915359
67	0x3f7c5356	0.9856466
68	0x3f7acc0c	0.979676
69	0x3f7f3080	0.9968338
70	0x3f7ccffc	0.9875486
71	0x3f7a509b	0.97779244
72	0x3f7e4eb1	0.99338824
73	0x3f7d86f5	0.99034053
74	0x3f810a99	1.0081359
75	0x3f7fc96d	0.99916726
76	0x3f8027e9	1.001218
77	0x3f7dd2c6	0.9914974
78	0x3f8280e4	1.0195584
79	0x3f81038e	1.007921
80	0x3f7f59e2	0.99746525
81	0x3f7e1aec	0.9925983
82	0x3f7a98b1	0.9788924
83	0x3f7b90cc	0.9826782
84	0x3f7ff18a	0.99977934
85	0x3f7d5046	0.9895061
86	0x3f7f31c4	0.9968531
87	0x3f7e4ee7	0.99339145
88	0x3f7f4595	0.9971555
89	0x3f7e4891	0.9932948
90	0x3f817ea6	1.0116775
91	0x3f794906	0.9737705
92	0x3f7fdece	0.9994935
93	0x3f80f678	1.0075216
94	0x3f8264e2	1.0187037
95	0x3f81b284	1.0132604
96	0x3f802c52	1.0013525
97	0x3f822c01	1.0169679
98	0x3f7c6645	0.9859355
99	0x3f834145	1.0254294
100	0x3f7f3872	0.99695504
101	0x3f806580	1.0030975
102	0x3f807918	1.0036955
103	0x3f8026d9	1.0011855
104	0x3f7cbb1f	0.98723024
105	0x3f7e8481	0.99420935
106	0x3f806cfa	1.0033257
107	0x3f8251b5	1.0181185
108	0x3f81c1f0	1.013731
109	0x3f834d49	1.025796
110	0x3f816096	1.0107601
111	0x3f7b5fd1	0.9819308
112	0x3f7eb996	0.9950193
113	0x3f80ab97	1.0052365
114	0x3f80086f	1.0002574
115	0x3f7d87f6	0.99035585
116	0x3f7db3a9	0.99102265
117	0x3f7d7c71	0.9901801
118	0x3f7f09e7	0.99624485
119	0x3f7ac4a2	0.9795629
120	0x3f80bad4	1.0057015
121	0x3f833198	1.024951
122	0x3f816b7c	1.0110927
123	0x3f7ebbce	0.9950532
124	0x3f7bf5e6	0.98422086
125	0x3f806b81	1.0032808
126	0x3f824994	1.0178704
127	0x3f80c90e	1.0061357
128	0x3f7bbda3	0.9833624
129	0x3f7c26ee	0.984969
130	0x3f7f0900	0.9962311
131	0x3f7cadda	0.98702776
132	0x3f7f4140	0.9970894
133	0x3f7f4b43	0.99724215
134	0x3f7d981c	0.99060225
135	0x3f826f3d	1.0190197
136	0x3f7ef0dd	0.9958628
137	0x3f809b1e	1.0047338
138	0x3f80b436	1.0054996
139	0x3f7a7a18	0.9784255
140	0x3f822952	1.016886
141	0x3f8057dd	1.0026814
142	0x3f809af0	1.0047283
143	0x3f80ac63	1.0052608
144	0x3f7e5e6b	0.9936282
145	0x3f8122ab	1.0088705
146	0x3f7c4d57	0.9855551
147	0x3f8229a0	1.0168953
148	0x3f7c7013	0.9860851
149	0x3f7faaf8	0.9987025
150	0x3f7fc2ce	0.99906623
151	0x3f7a6515	0.9781049
152	0x3f7e23ea	0.9927355
153	0x3f7fd97b	0.99941224
154	0x3f7f9ef1	0.998519
155	0x3f7d21ea	0.98879874
156	0x3f7e74f2	0.99397194
157	0x3f7e6211	0.9936839
158	0x3f80038b	1.0001081
159	0x3f807d5c	1.0038257
160	0x3f7fb3d7	0.9988379
161	0x3f80d5f5	1.0065295
162	0x3f7ecda4	0.9953253
163	0x3f80d42d	1.0064751
164	0x3f7dadd2	0.99093354
165	0x3f7d616e	0.9897679
166	0x3f7f932c	0.9983394
167	0x3f7f0810	0.9962168
168	0x3f814475	1.0099016
169	0x3f7df505	0.99201995
170	0x3f80a489	1.0050212
171	0x3f81131c	1.0083957
172	0x3f7dd9bb	0.99160355
173	0x3f80042c	1.0001273
174	0x3f7d8d4d	0.9904373
175	0x3f819c46	1.0125816
176	0x3f8174ca	1.0113766
177	0x3f7d79c2	0.9901391
178	0x3f802a3a	1.0012887
179	0x3f7d2986	0.98891485
180	0x3f7efc28	0.9960351
181	0x3f804c85	1.0023352
182	0x3f7ee9d4	0.99575543
183	0x3f7a4f0c	0.97776866
184	0x3f8298ac	1.0202842
185	0x3f833653	1.0250953
186	0x3f802654	1.0011697
187	0x3f7dcb86	0.9913868
188	0x3f7eb061	0.9948788
189	0x3f8061f6	1.0029895
190	0x3f81f2cb	1.015222
191	0x3f7edbbe	0.9955405
192	0x3f7f0877	0.9962229
193	0x3f8148d9	1.0100356
194	0x3f7ec22f	0.9951505
195	0x3f7af67d	0.9803236
196	0x3f8008c3	1.0002674
197	0x3f80fd33	1.007727
198	0x3f7c0539	0.9844547
199	0x3f7ebec0	0.9950981
200	0x3f80a729	1.0051013
201	0x3f7b12f7	0.98075813
202	0x3f7c56ba	0.98569834
203	0x3f803513	1.0016197
204	0x3f80b8d5	1.0056406
205	0x3f7d2b95	0.98894626
206	0x3f80c7d8	1.0060987
207	0x3f7b20e6	0.98097074
208	0x3f826116	1.0185878
209	0x3f7cd849	0.98767525
210	0x3f8007af	1.0002345
211	0x3f7d30a9	0.98902375
212	0x3f7e89c8	0.9942899
213	0x3f80209f	1.0009955
214	0x3f80573d	1.0026623
215	0x3f8056c0	1.0026474
216	0x3f7d96ff	0.99058527
217	0x3f7e5410	0.9934702
218	0x3f809215	1.0044581
219	0x3f7cdaeb	0.9877154
220	0x3f7f775f	0.9979152
221	0x3f7b1258	0.98074865
222	0x3f7f9a96	0.99845254
223	0x3f800796	1.0002315
224	0x3f7fa1cb	0.9985625
225	0x3f80ae77	1.0053242
226	0x3f803382	1.0015719
227	0x3f7f181d	0.9964617
228	0x3f800606	1.0001838
229	0x3f7b7455	0.98224384
230	0x3f802633	1.0011657
231	0x3f7cc267	0.98734134
232	0x3f8106e3	1.0080227
233	0x3f7f793a	0.9979435
234	0x3f7d496a	0.98940146
235	0x3f8242c6	1.0176628
236	0x3f842a76	1.0325458
237	0x3f813bd7	1.0096387
238	0x3f7e9137	0.9944033
239	0x3f81f1da	1.0151932
240	0x3f7e4f24	0.9933951
241	0x3f806d8b	1.003343
242	0x3f7e8963	0.99428385
243	0x3f81170a	1.0085156
244	0x3f7ec4eb	0.9951922
245	0x3f850dab	1.0394796
246	0x3f7d939c	0.9905336
247	0x3f82f58b	1.0231184
248	0x3f7dcb8f	0.9913873
249	0x3f7f0464	0.99616075
250	0x3f7efd2c	0.9960506
251	0x3f7dd171	0.9914771
252	0x3f7d2a44	0.9889262
253	0x3f7e09bf	0.9923362
254	0x3f7c75e7	0.98617405
255	0x3f7d131d	0.9885729

network.1.bias f4 [256]
0	0x3c8d3d1e	0.017241057
1	0x3c5de377	0.013543001
2	0x3bb4821f	0.0055086757
3	0xbbee7ca4	-0.007278042
4	0xbba04797	-0.0048913467
5	0xbc979ce6	-0.018507432
6	0x3ba47ba5	0.0050196224
7	0x3c0cdaa1	0.008597047
8	0xbc210134	-0.009826947
9	0x3ac27490	0.0014835764
10	0x3c3b8cd0	0.011447147
11	0xbb6c2b83	-0.0036036677
12	0xbc182717	-0.0092866635
13	0x3c5b2eef	0.013377889
14	0x3ccfb33b	0.025354018
15	0x3ac414ba	0.001495979
16	0x3b187cf1	0.002326783
17	0x3ca651a5	0.020302603
18	0xbb5e68e4	-0.0033937031
19	0xbc29be49	-0.010360309
20	0x3c6aae0c	0.014323723
21	0x39b87a2a	0.00035186234
22	0xbc421a95	-0.011847158
23	0x3c0f21da	0.008736098
24	0x3c13dd59	0.009024941
25	0x391a9310	0.0001474137
26	0xbbc61185	-0.006044569
27	0x3c0a127b	0.008427258
28	0x3bfe1126	0.007753509
29	0xbb8701f4	-0.004120106
30	0xb9aa2004	-0.0003244878
31	0x3bbaf827	0.0057058516
32	0xbb9ab778	-0.004721578
33	0x396e02a4	0.00022698432
34	0xbc3beeb6	-0.011470487
35	0xba25766a	-0.00063118956
36	0x3bd3fe31	0.006469511
37	0xbc862dd0	-0.016379267
38	0xbbc8af2d	-0.006124398
39	0x3bc27df3	0.0059354245
40	0xba24433c	-0.0006266122
41	0x3b26ab9c	0.0025431877
42	0x3c2f854b	0.010712932
43	0xbb846d80	-0.0040413737
44	0x3c29da46	0.010366982
45	0x3c0ce8c7	0.00860042
46	0x3c9622a6	0.018327069
47	0xbc654226	-0.013992822
48	0xba241a27	-0.00062600005
49	0xbc2dd2b6	-0.010609319
50	0xbbe964b2	-0.0071225995
51	0xbbf3190c	-0.0074187573
52	0xbc2cd4bd	-0.010548768
53	0xbc0472d4	-0.008084018
54	0x3ba24eba	0.0049532326
55	0xbb3833b1	-0.0028106982
56	0xbc207cfa	-0.009795422
57	0xbc0da943	-0.008646312
58	0xbce3d56b	-0.027811727
59	0xbc343142	-0.010998072
60	0xbbd55676	-0.006510551
61	0x3bcd1f42	0.0062598297
62	0x3b5f6fad	0.0034093664
63	0x3b401778	0.0029310863
64	0xbbb96f29	-0.0056590033
65	0x3bfbe44b	0.0076871268
66	0xbc9f0cb1	-0.019415231
67	0xbba7888b	-0.0051127127
68	0xbc84b0e6	-0.016197633
69	0xbac821da	-0.0015268878
70	0x3ac9b796	0.0015389796
71	0xbc856884	-0.016285188
72	0xbc49bd8e	-0.01231326
73	0xbc9ed02e	-0.019386377
74	0x3996dd6c	0.00028775202
75	0x3b53065e	0.003219984
76	0x3a8ee040	0.0010900572
77	0x3c19fc91	0.009398595
78	0x3ca8bc3b	0.020597568
79	0x3b31858e	0.0027087661
80	0xbbf10bea	-0.0073561566
81	0xba0b5211	-0.0005314658
82	0xbc2d4dc2	-0.010577621
83	0xbca048ac	-0.019565903
84	0x3a914d21	0.0011085608
85	0xbc019985	-0.007910137
86	0xbc198a6c	-0.009371381
87	0xbc92cd72	-0.01792023
88	0x3b86178b	0.004092162
89	0x3b9557e7	0.004557598
90	0x3ce26814	0.027637519
91	0xbd094dd6	-0.033521496
92	0x3b1653d5	0.0022938151
93	0x3b8b4c3c	0.004251031
94	0x3cafbe5a	0.021453071
95	0x3ca6b7fa	0.020351399
96	0xbbfa989c	-0.007647587
97	0x3c5463d4	0.012963254
98	0xbc182438	-0.009285979
99	0x3d0801f5	0.03320499
100	0xb95a9f8b	-0.00020849534
101	0xba940447	-0.0011292779
102	0xbb6d0187	-0.003616424
103	0xbb99441e	-0.0046773097
104	0xb9d6d6cf	-0.00040977306
105	0xbc821ff5	-0.015884379
106	0x3c3e54b8	0.011616878
107	0x3c589179	0.013218277
108	0x3c55df0b	0.013053666
109	0x3c8b5dff	0.017012594
110	0x3c9cc6e9	0.019137817
111	0xbcbe372b	-0.023219666
112	0xbc4ce613	-0.012506026
113	0xbb80f179	-0.003935036
114	0xbb27cec8	-0.002560543
115	0xbc459a3d	-0.012060699
116	0xbbf16fff	-0.0073680873
117	0xbbe9ff93	-0.0071410625
118	0x3b3ca0c0	0.0028782338
119	0xbc379ac7	-0.011206335
120	0x3c05cc87	0.008166439
121	0x3cb78bb4	0.022405483
122	0x3cb9e9e8	0.022694543
123	0x3bb84f9c	0.0056247246
124	0xbc5bbda2	-0.013411911
125	0x3c073ef6	0.008254757
126	0x3aa19de9	0.0012330386
127	0x3b1873f6	0.0023262477
128	0xbcbfc734	-0.023410417
129	0xbc014ccd	-0.007891846
130	0x3aa6e906	0.0012734241
131	0xbc064a2f	-0.008196398
132	0x398147a6	0.0002465818
133	0x3bfed8be	0.0077773025
134	0xbbfc8816	-0.0077066524
135	0xbb89f678	-0.0042102896
136	0x3aa85e47	0.001284548
137	0x378c9f50	1.6763486e-05
138	0xbc3c4d51	-0.011493043
139	0xbcbf35bb	-0.02334105
140	0x3cabc977	0.02097009
141	0xba93e58e	-0.0011283623
142	0x3c46922c	0.012119811
143	0xbc404520	-0.011735231
144	0x3c5199d2	0.012793021
145	0x3c51a7f9	0.012796395
146	0xbc2f3cf3	-0.010695684
147	0x3cf7ea48	0.030263081
148	0xba62c6ce	-0.000865084
149	0x3c27825e	0.010223953
150	0xbb652df5	-0.003497002
151	0xbc4f8af7	-0.012667409
152	0xbc523ece	-0.012832357
153	0x3989aba0	0.00026258547
154	0x37830b10	1.5621568e-05
155	0xbc553362	-0.013012739
156	0x3a7f77d6	0.0009745335
157	0xbc0c054f	-0.008546188
158	0x3c3a0582	0.011353852
159	0xbbbba152	-0.005726018
160	0xbbb7d6ff	-0.0056103463
161	0xbbb990fd	-0.005663036
162	0x3bf43a45	0.0074532353
163	0x3c217066	0.009853458
164	0xbc500256	-0.012695869
165	0xbb47cbd9	-0.0030486493
166	0x3bbeef78	0.0058268867
167	0x3c0921d8	0.008369885
168	0x3cb2a34d	0.021806384
169	0x386b8e7b	5.616106e-05
170	0xbbfbd758	-0.007685583
171	0x3c543f7c	0.012954589
172	0x3bc874d2	0.0061174417
173	0x3c4162cd	0.011803341
174	0x3c20ba77	0.009810082
175	0x3cbb0036	0.022827249
176	0x3a74a0ce	0.0009331823
177	0xbc9c88a9	-0.019108133
178	0xbbc9224c	-0.0061381217
179	0xb8be0a38	-9.0618094e-05
180	0xba844d29	-0.0010093796
181	0x3c83720a	0.016045589
182	0xbb3f425d	-0.0029183843
183	0xbc4a2eb3	-0.0123402355
184	0x3a820f19	0.0009922712
185	0x3c33fcf9	0.010985606
186	0x3b7889ee	0.003792401
187	0xbc0445c5	-0.008073275
188	0xbbd46a0f	-0.0064823697
189	0x3c96bde7	0.0184011
190	0x3cc66463	0.02421779
191	0xbc2cc19c	-0.010544207
192	0xbbf6ae78	-0.0075281225
193	0x3bb1999c	0.005419923
194	0xbb4f3be6	-0.0031621396
195	0xbc7a2159	-0.01526674
196	0xbba02da6	-0.004888254
197	0xbc361a30	-0.011114642
198	0xbc73d978	-0.014883392
199	0xbc1629fe	-0.009165285
200	0x3b87e744	0.004147442
201	0xbc8d8933	-0.017277336
202	0xbc8a6665	-0.016894529
203	0x3b86a978	0.0041095577
204	0xbc956544	-0.018236764
205	0x3826445a	3.964114e-05
206	0x3bb5ecd8	0.0055519156
207	0xbc5306b6	-0.012880018
208	0x3a8309ce	0.0009997429
209	0xbbcc8174	-0.006241018
210	0xbba21cda	-0.004947287
211	0xbc2c8a1c	-0.010530975
212	0x3c2ebd89	0.010665306
213	0x3b009c44	0.0019624392
214	0x3c542423	0.012948069
215	0x3c5b3bc7	0.013380951
216	0xba8de8e6	-0.0010826855
217	0x3be70af9	0.0070508686
218	0x3c1da331	0.009621427
219	0xbc8bb1ce	-0.017052557
220	0x3b7d630b	0.003866377
221	0xbc6d0937	-0.014467529
222	0x3aa133e5	0.0012298791
223	0xbbcf69da	-0.006329757
224	0xbb9f01e6	-0.0048525212
225	0x3c18d34f	0.009327724
226	0x3a9cb83a	0.0011956759
227	0x3b8203f4	0.0039677564
228	0xbc73b0d0	-0.014873698
229	0xbc87596e	-0.016522136
230	0x3b83766d	0.00401192
231	0xba5933b1	-0.00082855957
232	0x3c85d1f2	0.016335461
233	0x3b4f09ac	0.0031591458
234	0xbbbda847	-0.0057878825
235	0x3bab0002	0.005218507
236	0x3cea9284	0.028634317
237	0x3c532818	0.012887977
238	0x3a836d8f	0.0010027158
239	0x3c85a065	0.016311834
240	0xba9c586b	-0.0011928206
241	0xbc36f341	-0.011166395
242	0xbc271ee3	-0.010200235
243	0x3c28bd70	0.010299072
244	0xbc0b675a	-0.008508528
245	0x3d22d40c	0.039753005
246	0x3a9a1129	0.0011754382
247	0x3c96e4ba	0.018419612
248	0xbc189a58	-0.009314142
249	0xbc110757	-0.008851848
250	0x3a427a52	0.000741874
251	0xbb629c5c	-0.003457806
252	0xbbb7c6df	-0.005608424
253	0xbc8ac0e3	-0.016937679
254	0xbc3b4c0e	-0.011431707
255	0x3b6905b4	0.0035556378

network.1.running_mean f4 [256]
0	0x3b30dab4	0.0026985826
1	0xbc16d4ad	-0.009205979
2	0x3c55b56b	0.013043742
3	0x3bd3c88a	0.006463115
4	0xbc903952	-0.017605457
5	0xbc875be1	-0.016523303
6	0x3b3bc704	0.0028652558
7	0xbc08337a	-0.008313054
8	0xbb9d92c1	-0.004808754
9	0x3a49dd10	0.00077004824
10	0x3cbd32ef	0.023095576
11	0xbcb3d172	-0.021950457
12	0xbb97efa2	-0.0046367208
13	0x3b73322a	0.0037108758
14	0x3bd11926	0.0063811718
15	0x3b3324d0	0.0027335174
16	0xbbb3d585	-0.0054881
17	0x3a71a4a0	0.00092179514
18	0xbab2c2c8	-0.0013638372
19	0xbbaec9e3	-0.0053341254
20	0xbba9763a	-0.0051715644
21	0x3b6ff1ec	0.0036612703
22	0x3bf367e7	0.0074281576
23	0x3c18c637	0.009324602
24	0xbc0c2e99	-0.008556032
25	0xbc2d6429	-0.010582962
26	0xbb16bf66	-0.0023002266
27	0x3bc4f5b6	0.0060107363
28	0x3b3a3090	0.0028410293
29	0x3afe1ee0	0.0019387864
30	0x3ba893f6	0.0051445914
31	0xbba7a816	-0.005116473
32	0xbb611010	-0.003434185
33	0xbc9f9711	-0.019481214
34	0xbb614596	-0.0034373752
35	0x3a102c81	0.00054997957
36	0xbbccb230	-0.0062468275
37	0x3c261223	0.01013616
38	0xbb932362	-0.004490302
39	0x3c4f9639	0.012670093
40	0xbc12221e	-0.008919267
41	0x3a6f9a20	0.0009140093
42	0xbb66a3b0	-0.003519278
43	0xbca2e3a2	-0.019883934
44	0x3c319724	0.010839257
45	0x3bd572e0	0.0065139383
46	0x3c5da48c	0.013528001
47	0x3bbe6b60	0.00581114
48	0xbc437739	-0.01193028
49	0xbc288cf4	-0.010287512
50	0x3b743d00	0.0037267804
51	0xbbf6cd25	-0.0075317794
52	0x3c61c6f8	0.013780348
53	0xba256920	-0.00063099153
54	0x3b83cf3f	0.0040225084
55	0xbb90e08e	-0.0044213003
56	0x3cc2bbc6	0.023771178
57	0xbbb88d6c	-0.005632093
58	0x3c0558cd	0.008138848
59	0xbb366ede	-0.0027837078
60	0xbb084884	-0.0020795176
61	0xbb07557c	-0.0020650318
62	0xbc25e15a	-0.010124529
63	0xbb586ce6	-0.0033023893
64	0xbba05587	-0.004893008
65	0xbc42cbf0	-0.011889443
66	0xbc985525	-0.018595288
67	0x3c6d6226	0.014488732
68	0x3b175a78	0.0023094695
69	0x3a4374d4	0.00074560684
70	0x3c6e436c	0.014542442
71	0x3b1f51f6	0.0024310327
72	0x3aa5df34	0.0012655021
73	0xba3559d9	-0.00069179904
74	0xbac05938	-0.0014675027
75	0x3b2b58d4	0.0026145475
76	0x3a20e530	0.0006137667
77	0xbb8e7a1a	-0.0043480517
78	0x3c21d85b	0.009878243
79	0xbb780808	-0.0037846584
80	0x3c2e3a18	0.010633968
81	0xbba0bb0e	-0.004905111
82	0x3c3c5e97	0.011497161
83	0x3bca2a42	0.0061695883
84	0x3bec5377	0.007212098
85	0xbbf66058	-0.0075188093
86	0x3c6c7697	0.014432571
87	0xbb0d3282	-0.0021544998
88	0xbaa190fa	-0.0012326532
89	0xbc4997ef	-0.01230429
90	0xbbe8fd74	-0.007110292
91	0x3c616339	0.013756567
92	0x3ba403dc	0.005005343
93	0x3b7deb5e	0.0038745026
94	0xbab5f4cc	-0.0013882159
95	0xbb541330	-0.003236007
96	0x3c5272c9	0.01284475
97	0x3ba2b76e	0.004965714
98	0x3b61c88e	0.0034451815
99	0xbc0cf6ec	-0.008603793
100	0xbb9c798a	-0.004775231
101	0xbb82969c	-0.003985239
102	0xbbe41a0a	-0.006961112
103	0xb818d528	-3.643814e-05
104	0x3bb8e058	0.0056419782
105	0xbbfee16a	-0.0077783363
106	0x3c006c9c	0.0078383945
107	0x3aa56fa0	0.0012621768
108	0xbb8a9b13	-0.004229912
109	0x3bf63cd7	0.007514577
110	0x3b66fc40	0.0035245568
111	0x3b02f89c	0.0019984609
112	0x3bf5b6ef	0.007498614
113	0xbc6f6921	-0.014612467
114	0x3c50f62c	0.012754004
115	0xbb2ab18c	-0.0026045768
116	0xbbbbe928	-0.0057345815
117	0x3bd3ce98	0.006463837
118	0xba760da0	-0.00093861856
119	0xbacc2ab0	-0.0015576687
120	0xbb130842	-0.0022435342
121	0xbc0d3f5b	-0.008621062
122	0x3c35267b	0.011056538
123	0xbbb89c5c	-0.005633874
124	0xbbd03226	-0.0063536344
125	0x3c3a1a40	0.011358798
126	0x3c0f3469	0.008740523
127	0x38d8ad00	0.000103319064
128	0x3c484a49	0.012224742
129	0x3b8dfada	0.0043328824
130	0xbbbcd472	-0.00576263
131	0xbc24d849	-0.010061332
132	0x3af8cf8a	0.001898275
133	0x3bc8e87a	0.006131229
134	0xbc42e873	-0.0118962405
135	0x3c7ac234	0.015305091
136	0x3a8c5ca6	0.0010708764
137	0xbb437984	-0.0029827068
138	0xbc356b86	-0.011072999
139	0xbb31889c	-0.0027089482
140	0x3beda998	0.007252883
141	0xbc8df2aa	-0.017327625
142	0xbbccd0fd	-0.0062504993
143	0x3b101a2a	0.0021988251
144	0x3b8c874e	0.0042885905
145	0x3c3c3eaa	0.01148955
146	0xba69c340	-0.0008917339
147	0xbc4481ca	-0.011993835
148	0x3b13b20c	0.0022536544
149	0xbbcdce21	-0.006280676
150	0xbbc5c112	-0.0060349787
151	0xbca39f82	-0.01997352
152	0x3ba24573	0.0049521266
153	0x3b01c228	0.0019799564
154	0xb7891b00	-1.6344246e-05
155	0x3badc2b0	0.0053027496
156	0x3a14cc28	0.00056761736
157	0xba5e9e60	-0.00084922276
158	0xba96ffcc	-0.0011520325
159	0xbba23ad5	-0.004950861
160	0x3bec877a	0.0072182985
161	0xbad200e0	-0.0016021989
162	0x3c2c95c1	0.010533751
163	0xbc5c720f	-0.013454928
164	0x3b40a6fc	0.0029396405
165	0xbbcfadad	-0.0063378424
166	0xbc21fb66	-0.009886598
167	0x3c2e1090	0.010624066
168	0xbc210800	-0.0098285675
169	0x3af2866e	0.0018503198
170	0x3be055b9	0.0068461564
171	0xbbc91cb5	-0.0061374553
172	0xbb459f78	-0.0030154865
173	0xba5afa60	-0.0008353349
174	0x389037e0	6.8768626e-05
175	0xbc8e49e8	-0.017369226
176	0xbbfc72f6	-0.007704134
177	0x3bf46da8	0.007459361
178	0xbb733ab0	-0.0037113838
179	0x3b45246a	0.003008152
180	0x3b209a48	0.0024506021
181	0x3c0d3045	0.008617465
182	0xb8c5ed00	-9.437837e-05
183	0x3c5ea294	0.013588566
184	0x3b85ef41	0.004087359
185	0xbc336be6	-0.010951018
186	0xba054e20	-0.0005085189
187	0x3ae2ec16	0.0017312791
188	0x3c1ec023	0.009689364
189	0xbb6e9ea3	-0.0036410473
190	0x3c8762aa	0.016526539
191	0x3c280b90	0.010256663
192	0xbb06c9e2	-0.002056711
193	0xbb374f00	-0.0027970672
194	0xba9030b0	-0.0011000838
195	0xb90437e0	-0.00012609316
196	0xbb8e3617	-0.004339944
197	0x3c8e8465	0.017397115
198	0x39584140	0.00020623673
199	0xbb66abaf	-0.0035197546
200	0x3c2ac510	0.01042296
201	0xbac9aa16	-0.0015385773
202	0x3b389e3a	0.0028170482
203	0x3bdcc150	0.006736912
204	0x3bcf5966	0.006327796
205	0xbc44632a	-0.011986533
206	0xbac24077	-0.0014820237
207	0xbb899852	-0.004199066
208	0x3c888b1a	0.016667891
209	0x3ad5adec	0.0016302443
210	0x3b89d390	0.0042061284
211	0xbc2ce1b6	-0.010551861
212	0x3b196ab8	0.0023409557
213	0x3b8b9b42	0.0042604515
214	0xbc657936	-0.01400595
215	0xba45c9a8	-0.0007545003
216	0x3bb1191c	0.0054046046
217	0xbad7ba23	-0.0016458671
218	0x3a819cf8	0.0009888699
219	0xbb2bb4a8	-0.0026200209
220	0x3a2ffc30	0.0006713299
221	0xbbfc8a96	-0.0077069504
222	0xbbbcc415	-0.0057606795
223	0x3ca758ea	0.02042814
224	0x3b8e35db	0.004339916
225	0xbc39b006	-0.011333471
226	0xbc5bf6d7	-0.01342555
227	0xbc4b5ba3	-0.012411985
228	0xbb809316	-0.003923784
229	0x3c70f65e	0.014707176
230	0xbb77a7a9	-0.0037789142
231	0x3c1df23f	0.0096402755
232	0x3af07670	0.0018345844
233	0x3c4fbe59	0.01267966
234	0x3ca84533	0.02054081
235	0xbb9f463b	-0.004860667
236	0x3b0b9e70	0.0021304153
237	0xbbb9e5a2	-0.0056731263
238	0x3b8c09cc	0.004273629
239	0xbcdf913f	-0.027290938
240	0x3c188b09	0.009310492
241	0xbca1a17a	-0.019730318
242	0x3a3bfe7a	0.0007171404
243	0xbc8d6d7d	-0.017264122
244	0x3a97e000	0.0011587143
245	0xbc3ead24	-0.01163796
246	0x3a0a2cd0	0.000527096
247	0xbb5bd854	-0.003354569
248	0xbc907b10	-0.017636806
249	0x3c91b2a9	0.017785387
250	0x3c5a3de2	0.013320418
251	0xbb354734	-0.0027660849
252	0xbbab0f42	-0.0052203247
253	0x3c00fc34	0.00787263
254	0x3c0a7a6d	0.00845204
255	0xbc37e348	-0.011223622

network.1.running_var f4 [256]
0	0x3e86c02f	0.263185
1	0x3eef9c5d	0.46798983
2	0x3ea42f05	0.32067123
3	0x3e8eba8b	0.27876696
4	0x3e90615f	0.28199288
5	0x3ef24c45	0.47323814
6	0x3ea5ba00	0.3236847
7	0x3eb883f8	0.36038184
8	0x3e93ddec	0.2888025
9	0x3eb9b1a4	0.36268342
10	0x3ec8774c	0.39153516
11	0x3ea361b3	0.31910476
12	0x3e7b0245	0.24512585
13	0x3e6e7304	0.23286062
14	0x3eb2f30a	0.3495105
15	0x3eb7bc5f	0.35885903
16	0x3ea8f1b7	0.32996914
17	0x3ea4a5c2	0.32157713
18	0x3e797170	0.24359679
19	0x3e771c5f	0.24131916
20	0x3e94d32c	0.2906736
21	0x3e8b278a	0.27178603
22	0x3e99379d	0.29925242
23	0x3e9bf059	0.30456808
24	0x3eac4e77	0.33653614
25	0x3eb9cd94	0.36289656
26	0x3ec1496a	0.37751323
27	0x3e88a9dd	0.26692095
28	0x3e8d72ec	0.2762674
29	0x3e9b0afd	0.3028182
30	0x3ea5f0fb	0.32410416
31	0x3e93880c	0.28814733
32	0x3ea2758a	0.317303
33	0x3eb01666	0.3439209
34	0x3e97c160	0.2963972
35	0x3e9d52cc	0.30727232
36	0x3f03787f	0.5135574
37	0x3ea02994	0.31281722
38	0x3e919b52	0.28438812
39	0x3e86ec3e	0.26352113
40	0x3e99e877	0.3006017
41	0x3e99afb3	0.3001686
42	0x3ea03251	0.31288388
43	0x3ea47465	0.32120052
44	0x3ec1ac2d	0.37826672
45	0x3ecf8b39	0.40535906
46	0x3e8d5414	0.2760321
47	0x3e9f04db	0.31058392
48	0x3e9d4899	0.3071945
49	0x3ea4da34	0.32197726
50	0x3e8dde56	0.2770869
51	0x3eb6ee62	0.35728747
52	0x3ec7de0e	0.39036602
53	0x3ea77dd7	0.32713196
54	0x3e92a745	0.28643242
55	0x3e7d30e3	0.2472568
56	0x3eb14dc8	0.34629655
57	0x3ee0485e	0.43805212
58	0x3ea2c202	0.3178864
59	0x3eed7b49	0.46383122
60	0x3e9637c4	0.2933942
61	0x3ecc627d	0.3991889
62	0x3eb88822	0.3604136
63	0x3e826913	0.2547079
64	0x3e886d40	0.2664585
65	0x3ec8b366	0.3919937
66	0x3eb4d74a	0.35320503
67	0x3eaceea8	0.3377583
68	0x3e991cb8	0.29904723
69	0x3e9b721a	0.3036049
70	0x3e898568	0.26859593
71	0x3ecad42f	0.39615008
72	0x3ea5b1a0	0.3236208
73	0x3ec729a4	0.38898957
74	0x3ea1c7b7	0.31597683
75	0x3ea0dd05	0.31418625
76	0x3ea0e8ba	0.31427556
77	0x3eaa4fd3	0.33264026
78	0x3e83b1eb	0.25721678
79	0x3e857739	0.26067522
80	0x3ea29e86	0.3176157
81	0x3e99be84	0.30028164
82	0x3e95ab2c	0.29232156
83	0x3e93d480	0.28873062
84	0x3ea8e9db	0.32990918
85	0x3e8a84e3	0.2705451
86	0x3e88bf7f	0.267086
87	0x3e952ebb	0.29137215
88	0x3e7c52b3	0.24640922
89	0x3e9192d8	0.28432345
90	0x3e8fed0a	0.28110534
91	0x3e9c989e	0.30585188
92	0x3eb9349f	0.3617296
93	0x3e8ad43d	0.2711505
94	0x3ea15c26	0.31515616
95	0x3ea5318e	0.3226437
96	0x3e9bfa3b	0.30464348
97	0x3ea41fb5	0.3205544
98	0x3eb7ec7e	0.35922617
99	0x3e8fd6fd	0.2809371
100	0x3ed048d1	0.40680555
101	0x3e929ff4	0.2863766
102	0x3eb9f7f3	0.36321983
103	0x3e9a19ec	0.30097902
104	0x3ea128e8	0.31476521
105	0x3ea356ba	0.31902105
106	0x3eb59561	0.3546553
107	0x3e8422bd	0.25807753
108	0x3e88f914	0.26752532
109	0x3e9c3efa	0.30516797
110	0x3eb608f8	0.35553718
111	0x3e9b1419	0.3028877
112	0x3e869c10	0.2629094
113	0x3e55c813	0.20877104
114	0x3e9783ea	0.2959283
115	0x3eb9020b	0.3613437
116	0x3e9e9be5	0.30978313
117	0x3e9a160a	0.3009494
118	0x3e811006	0.25207537
119	0x3ebb86d9	0.36626318
120	0x3ea60ffe	0.32434076
121	0x3e910e4c	0.2833122
122	0x3e98e162	0.29859453
123	0x3e9e3263	0.30897817
124	0x3e68530e	0.22687933
125	0x3eaaf739	0.3339174
126	0x3eab26e2	0.33428103
127	0x3ebb3000	0.3656006
128	0x3eb8ebc7	0.36117384
129	0x3e99243f	0.29910466
130	0x3e6fed45	0.23430355
131	0x3ebd99e7	0.3703148
132	0x3e9130b1	0.2835746
133	0x3e95b059	0.29236105
134	0x3eae8f2d	0.3409361
135	0x3e838f15	0.256951
136	0x3ee36ddd	0.44419757
137	0x3ea8c521	0.32962897
138	0x3eb02f16	0.34410924
139	0x3e9ea820	0.30987644
140	0x3eb2ae39	0.34898546
141	0x3e9c42cc	0.30519712
142	0x3e9f3616	0.31095952
143	0x3eb78299	0.35841826
144	0x3ebb6620	0.36601353
145	0x3eb79239	0.35853747
146	0x3e89c546	0.2690832
147	0x3eb821e9	0.3596337
148	0x3e8be9e6	0.27326888
149	0x3e99fdc7	0.3007643
150	0x3eb2de81	0.34935382
151	0x3ea58179	0.32325342
152	0x3e82f9c8	0.25581193
153	0x3ec5ee07	0.38658163
154	0x3eb7be44	0.3588735
155	0x3e881373	0.2657734
156	0x3e8c5754	0.27410376
157	0x3e9ab297	0.30214378
158	0x3ed3b6d1	0.41350415
159	0x3e870cf5	0.26377073
160	0x3e9a3a99	0.3012283
161	0x3ed0a5f4	0.40751612
162	0x3ec170c1	0.37781337
163	0x3e90585e	0.2819242
164	0x3ec1a112	0.378182
165	0x3e7af61a	0.24507943
166	0x3edaae70	0.4271121
167	0x3e6e883c	0.23294157
168	0x3eab0cea	0.3340829
169	0x3ec28fa9	0.3800023
170	0x3ecd2fb0	0.40075445
171	0x3ec2e288	0.38063455
172	0x3e9cfdb9	0.30662325
173	0x3ecd6e69	0.401233
174	0x3e8831fe	0.2660064
175	0x3e89f1da	0.2694233
176	0x3eb17201	0.3465729
177	0x3ed5fd9e	0.41795057
178	0x3eb9a6bc	0.3626002
179	0x3e9755a5	0.2955753
180	0x3e9027ea	0.28155452
181	0x3e96caa7	0.29451486
182	0x3e8c6377	0.27419636
183	0x3ebc9366	0.36831206
184	0x3e97f5bf	0.29679677
185	0x3eb88d3e	0.3604526
186	0x3e924835	0.28570715
187	0x3eb53a65	0.35396114
188	0x3e9127cb	0.28350672
189	0x3ea89c72	0.32931858
190	0x3ea7173f	0.32634923
191	0x3e86a0b9	0.26294497
192	0x3e8d7faa	0.27636462
193	0x3ea99747	0.33123228
194	0x3eb7ddfd	0.3591155
195	0x3ec481ce	0.38380283
196	0x3eb0bf1b	0.34520802
197	0x3e815062	0.2525664
198	0x3e7d5cf6	0.24742493
199	0x3e99574b	0.29949412
200	0x3e91ec31	0.28500512
201	0x3e8d55be	0.2760448
202	0x3eb32be1	0.34994414
203	0x3eaeffc1	0.341795
204	0x3e9ead39	0.30991533
205	0x3eb8f426	0.3612377
206	0x3ea01a90	0.31270266
207	0x3e984bd6	0.29745358
208	0x3eb0d6d1	0.34538892
209	0x3eb10eb8	0.34581542
210	0x3e946351	0.28982022
211	0x3ec4d83b	0.3844622
212	0x3eb685d0	0.35648966
213	0x3e849a16	0.25898808
214	0x3e89ccf1	0.2691417
215	0x3e9b5de2	0.30345064
216	0x3e9120a4	0.28345215
217	0x3eaa9194	0.33314192
218	0x3e8d9d2a	0.2765897
219	0x3ec2a952	0.38019806
220	0x3eb48fc4	0.35265934
221	0x3eb61f56	0.35570782
222	0x3e9f25ab	0.31083426
223	0x3e8a2028	0.26977658
224	0x3e808d9f	0.25108048
225	0x3e8a40c1	0.27002528
226	0x3ea35912	0.31903893
227	0x3ea12179	0.3147085
228	0x3e9dde87	0.30833837
229	0x3eb86171	0.36011842
230	0x3ea46f3a	0.3211611
231	0x3e9d1ee2	0.30687624
232	0x3e9297f1	0.28631547
233	0x3eb0c48c	0.34524953
234	0x3e85edff	0.2615814
235	0x3ea494b1	0.32144693
236	0x3e9071bc	0.28211772
237	0x3eaf14d6	0.34195584
238	0x3ec957f6	0.3932492
239	0x3eb30eb4	0.34972155
240	0x3e6e2832	0.23257521
241	0x3e9100d5	0.28320947
242	0x3e8d5b43	0.2760869
243	0x3e90dcc0	0.2829342
244	0x3e962d0e	0.2933125
245	0x3e906a42	0.28206068
246	0x3eaed265	0.34144893
247	0x3e93e5d8	0.28886294
248	0x3e9183cf	0.28420874
249	0x3e9f6e19	0.31138685
250	0x3e8552c8	0.2603972
251	0x3e9cfa8b	0.306599
252	0x3e9aeb8a	0.30257827
253	0x3e83c1ca	0.25733787
254	0x3eb5ec55	0.3553187
255	0x3e893fbf	0.26806447

network.4.weight f4 [128, 256]
0	0x3d46d9ae	0.04854744
1	0x3ba0e30c	0.0049098786
2	0x3d5abf50	0.053405106
3	0x3d254fbd	0.040359247
4	0xbb9e6483	-0.0048337593
5	0x3d051c98	0.032497972
6	0x3c60e8d1	0.013727383
7	0xbc1621c2	-0.009163322
8	0x3cd7be3a	0.026335824
9	0xbd45d766	-0.048301123
10	0x3bd06c65	0.006360578
11	0x3d0c275d	0.034217227
12	0x3c8caa83	0.01717115
13	0xbd8dc9a4	-0.069232255
14	0x3d3cc65e	0.046087615
15	0xbbe6d8b2	-0.007044875
16	0xbc7cff1a	-0.01544168
17	0xbcc64f65	-0.02420778
18	0x3d38d566	0.045125388
19	0xbd09afba	-0.03361485
20	0x3d4c832d	0.049929786
21	0xbd37d5e3	-0.044881713
22	0x3d2511f6	0.040300332
23	0xbd3c6eac	-0.046003982
24	0xbd441440	-0.047870874
25	0x3d29fc96	0.04150065
26	0x3c2c17a7	0.010503686
27	0x3bc3ab84	0.005971374
28	0x3c42ad0e	0.01188208
29	0xbca98a54	-0.020695843
30	0x3bed9cce	0.0072513586
31	0x393b4ef3	0.0001786312
32	0xbd8e85f3	-0.069591425
33	0xbd6342b1	-0.055483524
34	0xbbe18058	-0.006881755
35	0x3cec55c7	0.028849496
36	0xbcf9a323	-0.030473297
37	0x3ba9d451	0.005182781
38	0x3d589ba8	0.05288282
39	0xbd43a950	-0.04776889
40	0xbc8943b1	-0.01675591
41	0x3d2215ed	0.03957169
42	0xbce2ba62	-0.027676765
43	0x3d173236	0.03691312
44	0x3b3acee9	0.0028504676
45	0xbcb15cee	-0.021650758
46	0x3d5bdfda	0.05368028
47	0xbd7d70af	-0.06187504
48	0xbc99e9fc	-0.01878833
49	0x3d187eca	0.03723029
50	0x3d331bbc	0.04372762
51	0x3d2ee9d9	0.042703483
52	0x3d6cfccb	0.05785827
53	0x3c9284c4	0.017885573
54	0x3cfadeaf	0.030623762
55	0xbd8e24a5	-0.06940583
56	0x3d63425d	0.05548321
57	0x3cf570b5	0.02996097
58	0xbce8eb79	-0.028432595
59	0xbd70e4be	-0.058811896
60	0x3d468c5b	0.048473697
61	0x3b8aba37	0.0042336243
62	0xbcd28f24	-0.02570302
63	0xbcc21b0f	-0.023694543
64	0x3cfb0183	0.03064037
65	0x3d7ab1df	0.061204787
66	0xbb9cbd93	-0.004783341
67	0x3c947261	0.018120946
68	0x3cb9221b	0.02259927
69	0x3d645ee3	0.055754554
70	0xbae0ac84	-0.0017141257
71	0x3c537872	0.012907134
72	0x3caac529	0.020845966
73	0x3d62a592	0.05533368
74	0xbd1394b9	-0.036030505
75	0xbd6dfa63	-0.058100116
76	0xbd500c16	-0.050792776
77	0xbc041cd0	-0.00806351
78	0xbc942d74	-0.01808808
79	0xba05a3b8	-0.00050979434
80	0xbcdf0017	-0.027221723
81	0xbca0ed40	-0.01964438
82	0x3d341fa6	0.043975495
83	0x3c353162	0.011059137
84	0x3d0fc3aa	0.03509871
85	0x3d640ffa	0.0556793
86	0x3d35b3c4	0.04436089
87	0xbcc6c7bf	-0.024265168
88	0x3d2fa31b	0.04288016
89	0xbba1144c	-0.0049157497
90	0xbc80fda3	-0.015745943
91	0x3d84616d	0.06463895
92	0x3ce3b82a	0.027797777
93	0xbd23f9af	-0.04003304
94	0xbd73266b	-0.05936281
95	0xbd6e58ab	-0.05819003
96	0xbd12e40c	-0.035862014
97	0xbcd853dd	-0.026407177
98	0x3d6cd5c2	0.057821043
99	0xbb6e7a3f	-0.0036388782
100	0x3d058e23	0.032606255
101	0xbd601319	-0.054705713
102	0xbd035863	-0.032066714
103	0xbccdccad	-0.025122011
104	0x3c99059b	0.01867943
105	0x3d2b15c2	0.041768797
106	0x3cd34c82	0.025793318
107	0x3cab655e	0.02092236
108	0x3d1e7906	0.038689636
109	0x3c405dfc	0.011741158
110	0x3d4eb54b	0.050465863
111	0xbd32f3c3	-0.0436895
112	0x3c77c735	0.015123178
113	0xbd658d6c	-0.056043074
114	0x3bfda189	0.0077402038
115	0xbd35c3d0	-0.044376194
116	0x3c552673	0.013009655
117	0x3c30f98a	0.010801682
118	0x3bc61bb9	0.0060457853
119	0x3d54a4b8	0.0519149
120	0xbbe07262	-0.006849573
121	0x3d36d62b	0.04463784
122	0x3abc2f65	0.0014357386
123	0xbd51b211	-0.051195208
124	0xbb864a18	-0.004098188
125	0xbc550f7e	-0.013004182
126	0x3b36e6a8	0.0027908478
127	0xbc93dd56	-0.018049877
128	0xbd9f55b8	-0.077800214
129	0x3cfe65b1	0.03105435
130	0x3c366751	0.011133031
131	0xbd6c9382	-0.057757862
132	0x3c0bd9ba	0.008535797
133	0x3d29f67c	0.04149483
134	0xbd46900e	-0.048477225
135	0xbc0cc35f	-0.008591502
136	0x3b18fa78	0.002334265
137	0xbd71d7a5	-0.059043545
138	0x3cb62fcb	0.022239586
139	0xbcd79404	-0.026315697
140	0x3d68fb49	0.05688027
141	0xbc892370	-0.01674053
142	0xbcce6e6c	-0.025199138
143	0xbd232268	-0.039827734
144	0xbceb4ca6	-0.028723072
145	0xbb95667e	-0.004559337
146	0xbd1cde0d	-0.0382977
147	0xbc089a1d	-0.008337525
148	0x3bb86383	0.005627097
149	0x3a4dee0c	0.0007855601
150	0x3d210807	0.039314296
151	0x3cd42e9d	0.025901133
152	0x3d23008c	0.039795443
153	0xbd612c01	-0.054973606
154	0x3d3fee20	0.046857953
155	0x3ce01171	0.027352067
156	0x3cd5075a	0.026004482
157	0x3cb5ad4c	0.022177361
158	0x3d25637a	0.04037807
159	0xbcec2cc0	-0.028829932
160	0x3d6ffd74	0.05859132
161	0x3d2f9679	0.04286811
162	0x3b37937d	0.0028011494
163	0x3d71df9e	0.05905115
164	0xbd51c4d5	-0.051213104
165	0xbd13909c	-0.036026582
166	0xbd0bc96b	-0.034127634
167	0xbcecea07	-0.028920187
168	0x3d184112	0.03717143
169	0xbd283415	-0.041065294
170	0xbd2b53b4	-0.041827872
171	0x3d7a8d5a	0.06116996
172	0x3c9c9050	0.019111782
173	0xbcb0adf5	-0.021567324
174	0xbd4ccead	-0.05000179
175	0x3c95abad	0.018270338
176	0x3c21e697	0.009881637
177	0xbcfa5a7a	-0.03056072
178	0xbcf94ec7	-0.030433072
179	0x3d89b979	0.06724829
180	0xbc4257ee	-0.011861784
181	0x3c9d1633	0.019175624
182	0xbd70fdfc	-0.05883597
183	0x3cb66f13	0.022269761
184	0xbce0c56f	-0.027437894
185	0x3b1eaa3a	0.002421035
186	0x3c26d710	0.010183111
187	0x3cfb3533	0.030665016
188	0xbb5a53b3	-0.0033314049
189	0x3d53d169	0.05171338
190	0x3d0f6c7d	0.03501557
191	0x3d403f0f	0.046935137
192	0x3d8be177	0.068301134
193	0x3c8faf3c	0.017539613
194	0xbc2a6a8f	-0.010401382
195	0xbd271b0a	-0.04079727
196	0x3d257a5b	0.04039989
197	0x3d142123	0.036164414
198	0xbc90fe65	-0.01769943
199	0xbd8e4de0	-0.06948447
200	0x3d41cefa	0.04731653
201	0xbd5477e9	-0.051872168
202	0x3c6189f8	0.0137658045
203	0x3d3bb6e2	0.045828708
204	0x3d4811cd	0.0488451
205	0xbd656cfa	-0.05601213
206	0x3d801a6d	0.0625504
207	0xbc96abdf	-0.018392501
208	0xbd51f705	-0.051260967
209	0x3d1ac302	0.03778363
210	0x3d093edc	0.033507213
211	0xbc11daf6	-0.008902302
212	0x3d223f26	0.039611004
213	0xbd284817	-0.041084375
214	0x3bd19e4a	0.0063970434
215	0xbc20f533	-0.009824085
216	0x3d197c45	0.03747203
217	0x3d7c51c0	0.0616014
218	0x3d8fbff1	0.07019032
219	0x3acfd1f3	0.0015855416
220	0xbca8b627	-0.02059467
221	0xbcbfcf28	-0.02341421
222	0x3d053020	0.0325166
223	0xbc0dd63e	-0.008657036
224	0x3c21b933	0.009870815
225	0xbd46d6dc	-0.04854475
226	0xbd1aa0a1	-0.037750844
227	0x3b97467f	0.004616558
228	0x3d18d9a3	0.03731693
229	0xbd8a972a	-0.067671135
230	0x3c9af75f	0.018916784
231	0xbd2812e8	-0.041033655
232	0x3c5bf547	0.013425178
233	0x3d31e582	0.043431766
234	0x3d1d40cc	0.038391873
235	0x3d932020	0.07183862
236	0x3d5cbe2b	0.053892296
237	0xbd628bd2	-0.055309124
238	0xbd41b3bb	-0.047290545
239	0xbcb6fdcb	-0.022337815
240	0x388c8513	6.700507e-05
241	0x3d6dc2d3	0.058047127
242	0xbd3325f0	-0.043737352
243	0xbd0cde81	-0.034391884
244	0x3d0c986a	0.03432504
245	0x3cf9ff1a	0.03051715
246	0x3bd2d842	0.0064344713
247	0xbd2e4014	-0.04254158
248	0x3c8937c8	0.016750231
249	0xbd58fb50	-0.052974045
250	0x3c12612c	0.0089343
251	0xbc734110	-0.014847055
252	0x3c06d9e4	0.00823066
253	0xbd7e250b	-0.062047046
254	0x3b9f71a6	0.004865843
255	0xbd5e166d	-0.054220606
