log_reg/models/tree_root_failure_final.pth (torch, 717084 bytes, 25 tensors)

network.0.weight f4 [256, 179]
000000 e2 d5 22 bd 64 34 19 bc fa fd 29 bd 80 06 48 3d
       -0.039754756 -0.00935087 -0.041501977 0.048834324
000010 22 57 92 3d 72 52 56 bb 1f c7 a3 ba d2 22 36 3c
       0.071455255 -0.003270295 -0.0012495256 0.0111167
000020 b2 27 2c bd 13 90 04 bd 74 4f 55 3d 1f d0 84 3c
       -0.042030044 -0.032363962 0.052077726 0.016212521
000030 26 13 37 bc 2d 8f 84 3c 23 8c 11 3d 8d 75 2f 3d
       -0.011173999 0.016181553 0.035534035 0.042836715
000040 84 3d e9 30 82 4b c0 3c e8 3b 15 bd fb bb f9 30
       1.6970465e-09 0.023473505 -0.036434084 1.8170562e-09
000050 7c b0 18 bb f3 be b8 ba 9a 59 7a b1 2b 97 64 3d
       -0.0023298552 -0.0014094993 -3.643072e-09 0.055808228
000060 66 90 1f 3c c9 06 93 bb a1 dd 12 3d c8 8f bf 3c
       0.009739017 -0.004486893 0.035855893 0.02338399
000070 e6 98 85 30 f0 cf c3 ba 4c 3f 90 bd 3c 09 cf bc
       9.72048e-10 -0.001493929 -0.07043323 -0.025272958
000080 4e f7 18 3d 70 05 60 bd f9 1a c8 3c 3b 35 9d 3d
       0.037345223 -0.054692686 0.024426924 0.076761685
000090 0f 9f 0e 3d 59 dd 8e 3d 1a 70 d9 3c 8d 93 84 3c
       0.03481966 0.069758125 0.026542712 0.016183639
0000a0 20 73 03 3d 18 fa c7 3a 94 e1 0e 3d 62 cb 5c 3d
       0.032092214 0.0015257029 0.034883097 0.0539049
0000b0 72 77 44 bc 62 c3 3f 3c 20 81 71 bd c2 c4 0e 3c
       -0.011991369 0.011704298 -0.058961034 0.008713903
0000c0 4f 92 45 32 7a 5b eb bb 5f ed 03 3d 84 26 d7 bc
       1.1500176e-08 -0.0071825357 0.032208797 -0.026263483
0000d0 53 8a c2 3d a1 ba 4e bc f5 90 1f 3d c7 81 89 bc
       0.094990395 -0.012617738 0.0389566 -0.016785515
0000e0 b1 e0 98 bd c6 00 9e 3d e6 0c 98 3c 4a 11 87 3c
       -0.074647315 0.07714991 0.018560838 0.016487736
0000f0 38 e8 7a bd 07 80 de b3 4a 50 07 3c 76 b3 a5 bc
       -0.061256617 -1.03609686e-07 0.0082588885 -0.020227175
000100 22 92 68 2f 2e af 33 bd e9 df 00 3d ad e2 83 3d
       2.1152194e-10 -0.043868236 0.031463537 0.06439719
000110 f4 da d3 bb 64 0d e4 bc 36 f7 df bc 3d d1 11 bd
       -0.00646531 -0.027838416 -0.027339559 -0.035599936
000120 66 da 6c bc 98 84 91 3c ff 60 78 bd 21 26 8c bc
       -0.014456367 0.017763421 -0.060639378 -0.017108025
000130 a1 82 5a 3d 75 70 80 bd 01 f2 ae 3d 7a 81 79 3c
       0.053347234 -0.062714495 0.08542252 0.0152286235
000140 b4 d4 3f bd 3d 1d 25 3d 00 08 9d 3c 2c 56 9f bd
       -0.04683371 0.040311087 0.019168854 -0.07780108
000150 bb fd 14 3d 01 57 84 3d a5 5f 99 3c d8 16 11 bd
       0.03637479 0.06461907 0.018722365 -0.035422176
000160 ce e6 a4 bc a8 9b 27 bd d6 19 35 3c 4d 10 55 bd
       -0.020129588 -0.04091993 0.011053523 -0.0520175
000170 72 72 79 bc 6c 95 c0 bb c9 8a 38 bd 07 64 7c 3d
       -0.01522504 -0.0058771875 -0.04505423 0.06161883
000180 da f6 8b 3d 99 dc 3f bd f0 31 08 be 43 9e 14 3d
       0.068341926 -0.046841238 -0.133003 0.036283743
000190 74 fd a1 bb af b8 35 3d ad db 73 bd d4 1e 16 3d
       -0.004943544 0.04436558 -0.05953567 0.036650494
0001a0 28 92 6d 3d 72 4f 74 3d ec 43 78 bd 70 fb 8f 3d
       0.058000714 0.059646077 -0.06061165 0.0703038
0001b0 a4 da 75 bd a2 c9 a7 bc 40 6e 45 bd ca 2b 13 3d
       -0.060022965 -0.020481888 -0.048200846 0.035930432
0001c0 91 68 7e bd f3 d9 1c ba 2e 25 56 b4 80 06 46 bc
       -0.06211144 -0.00059834047 -1.9943829e-07 -0.012086511
0001d0 86 74 73 3d 18 c7 08 3c 62 9f e5 bb e8 9f 0d 3d
       0.059437297 0.008348249 -0.0070075253 0.034576327
0001e0 61 79 1d bd 0e f9 8b bd bd 05 e8 ba 89 c9 d8 bc
       -0.038445834 -0.06834613 -0.0017701905 -0.026463287
0001f0 f8 5f ad bc 42 76 dc 39 2e 7e 1f bc 42 90 f5 3b
       -0.021163926 0.0004204978 -0.009734673 0.0074940035
000200 6f ac 09 bd 3d a3 af 3c 9c fe 46 3d 7e fd 46 3c
       -0.03361171 0.021440143 0.04858266 0.012145398
000210 2c 97 f6 bc f3 d1 72 3d 23 57 6f 3c 2a 2b f3 2f
       -0.030101381 0.059282254 0.014608177 4.4232112e-10
000220 98 b5 b6 3a 8c b9 19 2f 0e 3d 8a b1 a7 c5 00 3d
       0.0013939617 1.3981188e-10 -4.0232697e-09 0.031438496
000230 ef e0 7a 3d f0 1e dd bc 15 7b 35 b2 18 f2 0b bd
       0.06124967 -0.026992291 -1.0563572e-08 -0.034166425
000240 67 d3 17 bc c8 42 2a bc 13 26 82 3d a6 a6 80 3d
       -0.009266711 -0.010391898 0.06354918 0.06281786
000250 df 86 d3 bc 1e 25 ac b9 d8 30 c4 3b 5c 68 24 bc
       -0.025821147 -0.0003283405 0.005987268 -0.010034647
000260 43 07 96 3c b4 39 1d bc e7 eb 5a 3c 3b 69 8f 3b
       0.01831401 -0.009596277 0.013361908 0.004376558
000270 5f 53 2a 3d 54 1e 64 3b a9 5c 7c 3d 8d b3 86 3c
       0.041583415 0.0034808116 0.061611805 0.016443038
000280 22 36 06 3d 59 96 b5 3c 4f a1 d0 3b 3f f1 7c bd
       0.03276647 0.022166418 0.0063668857 -0.061753508
000290 26 17 48 bb 86 52 77 3c 37 19 d5 30 ef 08 57 bc
       -0.0030531376 0.015095359 1.5504956e-09 -0.0131246885
0002a0 68 5c 97 bd 62 b1 77 3d 1d 48 04 bd df 50 15 3d
       -0.07390672 0.0604719 -0.032295335 0.036454078
0002b0 e8 1b be bc 00 25 3e 3d 3a 8b a0 3c 9f ad 69 bd
       -0.023206666 0.046422005 0.019597638 -0.057050344
0002c0 14 0e e4 bb 0e 7c ab 3a f1 3d 88 3c 90 97 85 3d
       -0.006959686 0.0013083236 0.016631098 0.06523049
0002d0 54 56 f4 bc 39 47 2a 3d 1c 6f 76 bd 31 af ed bb
       -0.02982632 0.04157183 -0.060164556 -0.0072535505
0002e0 fd 3d c3 bc 9f c7 67 3c 9c d7 8a bd 46 aa b1 3c
       -0.02383327 0.0141467145 -0.067794055 0.021687638
0002f0 16 a1 32 bd 26 54 d9 3c 8f c6 33 3b 12 fa 35 bc
       -0.043610655 0.026529383 0.0027431583 -0.011106985
000300 04 50 79 3d 89 06 51 3d 56 81 fb bc 01 21 c0 2f
       0.060867324 0.051031623 -0.03070132 3.4948047e-10
000310 30 9b db 3c 4b 9e 2c 3c ab f8 46 af 21 34 99 3b
       0.026807398 0.010535787 -1.809634e-10 0.0046754037
000320 c5 9b d4 bc a6 dc 36 34 a3 99 b1 bd 62 85 90 3d
       -0.025953183 1.7030342e-07 -0.08671882 0.07056691
000330 41 f4 80 3c cd 4c b0 bb 2a d9 bb ba 3e 4c b4 30
       0.01574147 -0.005380249 -0.0014331688 1.3118393e-09
000340 4b fd 23 bc 01 2b 5b 3d e9 3b 00 bd 56 57 d3 bb
       -0.01000912 0.05350781 -0.031307135 -0.0064496202
000350 62 ca bf 3d 3d d7 4f 3d 7d ed 6f 3d d8 c2 08 bc
       0.09364773 0.050742377 0.058576096 -0.008347236
000360 47 d5 12 bd 0b 74 77 bd b0 0c ec bb db f5 92 3d
       -0.03584793 -0.0604134 -0.007203661 0.071757995
000370 ad 30 e1 3c 34 88 29 3c 37 5b 3d 3d f3 61 4a 3d
       0.02748903 0.010347415 0.046229567 0.049409818
000380 6e fe a8 bc 62 0b 7d bd 65 52 2f 3d 15 f3 d0 34
       -0.020629134 -0.061778434 0.042803187 3.8919885e-07
000390 59 7f 4d 3d 63 89 ce bb 41 e6 6c bd c4 41 0a bd
       0.050170276 -0.006302999 -0.057836775 -0.033754125
0003a0 8c 8a 60 bd ba a6 5f 3d 49 46 b7 3c aa b4 78 3b
       -0.05481963 0.054602362 0.022372382 0.003794948
0003b0 2c e4 21 bc 4f 2b 3d bc 49 37 9b bc a0 f2 3d 3d
       -0.009881061 -0.01154597 -0.01894726 0.046373963
0003c0 9e b5 b7 b2 6e 7f 5c bd ff b1 2d bd 66 04 0d b2
       -2.1386594e-08 -0.053832464 -0.04240608 -8.20828e-09
0003d0 69 9c 7b bd 53 7b 2f 3d 61 18 24 bd 55 d9 f9 3c
       -0.06142846 0.04284222 -0.040062312 0.03049914
0003e0 78 0e d8 bc 5e df 9a 3c 4a 23 0d 3d 9c 33 82 3d
       -0.026374087 0.018905338 0.034457482 0.063575
0003f0 ff 64 05 bd e1 51 58 bd 50 be 77 bc e8 bf 08 3d
       -0.03256702 -0.05281246 -0.015121058 0.03338614

network.0.bias f4 [256]
000000 1c 67 9e 36 6a 85 b2 36 50 b0 5a 37 70 69 2d b5
       4.7207704e-06 5.320345e-06 1.30348635e-05 -6.4600954e-07
000010 38 e2 bd b6 32 12 89 36 cc ef 5f 36 e5 a9 2d 37
       -5.6589743e-06 4.0850364e-06 3.336917e-06 1.035116e-05
000020 7a d2 07 36 5a d4 c5 37 9d 6c 02 b5 5b b3 e8 b6
       2.023908e-06 2.3583114e-05 -4.8586827e-07 -6.9350185e-06
000030 af fa b5 b7 7a da 39 b6 d8 a6 c0 36 4d 4a 0d b6
       -2.1693615e-05 -2.7694318e-06 5.741469e-06 -2.1053886e-06
000040 ec 5a d3 34 4d 74 07 36 b5 08 71 37 a4 83 9d 34
       3.9367967e-07 2.0184264e-06 1.4366747e-05 2.933931e-07
000050 90 67 1e 36 60 1b b1 b4 f3 75 11 37 bd 91 2d b5
       2.3604116e-06 -3.2988737e-07 8.670136e-06 -6.46596e-07
000060 98 87 c2 b5 c9 bd 02 b6 72 c1 b0 b5 07 ec 88 34
       -1.4493589e-06 -1.948198e-06 -1.3169322e-06 2.5503707e-07
000070 95 62 17 37 78 9b 49 37 97 db b0 36 b8 c4 0c b7
       9.023254e-06 1.20167315e-05 5.2707724e-06 -8.390452e-06
000080 ad 56 07 b8 d0 d1 5a 35 4a 46 00 b7 6b eb 34 b7
       -3.226723e-05 8.1516646e-07 -7.64576e-06 -1.0783649e-05
000090 aa fe 9b b6 d9 c1 00 37 52 18 b7 37 28 91 af b6
       -4.6490068e-06 7.674528e-06 2.1826625e-05 -5.232305e-06
0000a0 ba 76 19 b7 f7 7b 05 b6 a9 ef 9c 36 08 86 f9 33
       -9.147154e-06 -1.9890701e-06 4.6770624e-06 1.1619346e-07
0000b0 6a 2f ac b6 3a a2 87 b7 1e 15 00 36 85 de bc 36
       -5.131519e-06 -1.6168797e-05 1.9085778e-06 5.6287413e-06
0000c0 aa db c1 b7 10 fd 28 b5 5c 88 63 b6 e3 a3 20 b7
       -2.3109682e-05 -6.295313e-07 -3.3905008e-06 -9.574901e-06
0000d0 f6 95 00 36 8c b8 c1 b5 c9 1c 03 35 dc 9a f6 b4
       1.9160775e-06 -1.4433331e-06 4.884319e-07 -4.5933746e-07
0000e0 92 d3 51 36 80 b8 c9 36 fe d5 6f 33 eb 66 b8 37
       3.1266577e-06 6.0117454e-06 5.584115e-08 2.1982434e-05
0000f0 fc 38 b4 b5 57 bc 35 b6 2e 35 ba b5 be 64 15 37
       -1.342763e-06 -2.708073e-06 -1.3873557e-06 8.904548e-06
000100 2b 08 07 36 4b b1 d8 36 61 4b c6 b7 6e fe bf b6
       2.0121322e-06 6.4579413e-06 -2.363854e-05 -5.721863e-06
000110 b7 3d f4 b5 f7 53 fb 36 02 c0 1a b7 f7 50 d3 37
       -1.8197378e-06 7.4901577e-06 -9.223821e-06 2.5190862e-05
000120 75 13 5c 37 5d 88 d8 36 6f 79 bd 37 de 89 95 b5
       1.3117552e-05 6.4531764e-06 2.2587103e-05 -1.114149e-06
000130 8b 4c f5 36 ca 03 6c b6 2e 72 e8 36 9d f4 2b b7
       7.3104798e-06 -3.5168946e-06 6.927431e-06 -1.0249348e-05
000140 c2 36 56 b6 b4 2b 48 36 da 2e 5e b6 a0 9a 91 35
       -3.1920358e-06 2.982776e-06 -3.310785e-06 1.0848344e-06
000150 c6 b9 a7 35 52 dd 05 b7 90 d7 30 b7 8e f4 b0 b6
       1.2496537e-06 -7.978948e-06 -1.0540607e-05 -5.2736787e-06
000160 ca 61 7b 35 d3 ad 97 36 c3 41 4c b6 45 fd 9a 36
       9.364709e-07 4.5203865e-06 -3.0436647e-06 4.619042e-06
000170 29 a2 36 37 95 f5 70 b6 ac 1d f2 b5 27 a4 20 b6
       1.0885801e-05 -3.5905734e-06 -1.8039041e-06 -2.3937407e-06
000180 f9 a8 98 35 fd 05 e2 b5 0e a3 1b 37 54 cc 18 37
       1.137406e-06 -1.6840055e-06 9.276684e-06 9.10748e-06
000190 b5 2d 20 36 45 ac 95 b7 dc 6e c0 b6 34 6c 41 36
       2.3868463e-06 -1.7842403e-05 -5.7349516e-06 2.8822224e-06
0001a0 50 a6 65 36 3a 80 e0 36 92 bf b9 35 e2 75 36 37
       3.4220466e-06 6.6906478e-06 1.3839328e-06 1.0875492e-05
0001b0 e1 a1 8e b4 20 73 a7 b7 6c ca 7f 36 db d3 ea 36
       -2.6567344e-07 -1.996156e-05 3.8115786e-06 6.9984067e-06
0001c0 03 cc 15 38 d2 d8 9f b6 4a 69 9f 33 b9 85 65 37
       3.571437e-05 -4.7638105e-06 7.4231664e-08 1.3680598e-05
0001d0 94 d0 5e b6 48 b2 33 35 37 40 dd b6 19 02 a5 36
       -3.3201986e-06 6.694213e-07 -6.593789e-06 4.9176274e-06
0001e0 a7 4b 03 b7 1b 83 07 37 2e 61 90 36 14 70 e0 36
       -7.825823e-06 8.077152e-06 4.3028476e-06 6.688768e-06
0001f0 e0 86 03 b6 2e 94 c3 36 74 84 ab 35 95 f1 95 b7
       -1.9599029e-06 5.8287033e-06 1.2779042e-06 -1.787468e-05
000200 00 a6 e7 b6 47 e9 22 35 a2 66 11 38 b9 42 cf b6
       -6.9036614e-06 6.0689166e-07 3.466628e-05 -6.1768483e-06
000210 db dc 8f b6 18 39 06 b4 20 13 80 b6 c8 06 17 35
       -4.287443e-06 -1.2500493e-07 -3.8169237e-06 5.626175e-07
000220 02 3f 8c 37 64 14 72 36 a4 42 16 b7 25 00 45 b7
       1.671864e-05 3.607268e-06 -8.956213e-06 -1.1742149e-05
000230 b5 54 93 b6 fe e8 e7 36 1b 2f 33 36 5d 27 f2 b4
       -4.3908026e-06 6.9114603e-06 2.6700498e-06 -4.5104653e-07
000240 43 22 da b4 da 66 a9 b6 6d 02 49 35 b8 2b 41 36
       -4.0630593e-07 -5.048566e-06 7.4881865e-07 2.8784689e-06
000250 e9 a6 50 b6 5c 79 7f 36 a4 ba 3c 37 d6 d6 d5 b7
       -3.109157e-06 3.8068601e-06 1.1249129e-05 -2.549162e-05
000260 4c ce 57 b6 65 94 a3 b6 cc 01 ac b7 46 6c 54 b7
       -3.2157577e-06 -4.875054e-06 -2.0504835e-05 -1.2661394e-05
000270 82 46 5b 36 2f cf d4 b6 54 78 0a b6 8a 5e 0a 36
       3.2674584e-06 -6.3422117e-06 -2.0633643e-06 2.0618631e-06
000280 4c 83 cc 36 ce fd 63 37 e4 f0 6d 36 95 bf f2 b6
       6.0949587e-06 1.3589348e-05 3.5455969e-06 -7.234465e-06
000290 54 20 46 b6 07 3b 1d 37 71 7e 6c 36 bd 95 b3 b7
       -2.9523117e-06 9.371673e-06 3.524034e-06 -2.140819e-05
0002a0 c2 f0 00 37 2d f5 f1 34 b4 e4 ac 34 62 ea 8b b6
       7.68545e-06 4.5068137e-07 3.22039e-07 -4.1698086e-06
0002b0 0d ab 49 b6 de ae 45 36 59 4f e7 b7 07 9e d6 b7
       -3.0050899e-06 2.9457074e-06 -2.7574295e-05 -2.5584375e-05
0002c0 e6 e9 51 b6 c1 7d 98 b6 5c 23 ac 36 ce ab 8b b5
       -3.1279574e-06 -4.5445927e-06 5.130116e-06 -1.0406309e-06
0002d0 03 a1 fa 36 b8 58 cc b5 4c e1 b4 b6 ad 9e 84 b7
       7.469325e-06 -1.5225005e-06 -5.390646e-06 -1.5809515e-05
0002e0 e4 4e 42 33 0c 10 27 37 1d 40 68 b6 4e e9 e9 b5
       4.5240895e-08 9.957712e-06 -3.4608013e-06 -1.7427753e-06
0002f0 5e fb b6 b5 09 2f f3 37 9b 30 7e 36 37 c1 c0 36
       -1.3633214e-06 2.898976e-05 3.7877242e-06 5.744539e-06
000300 eb 40 89 b6 6d 87 d0 37 60 24 c8 36 c2 0f 50 36
       -4.0904756e-06 2.4858595e-05 5.964699e-06 3.1003588e-06
000310 37 88 62 b5 39 81 7b b5 f1 bb 41 b7 27 7f cd 35
       -8.438978e-07 -9.369283e-07 -1.1547455e-05 1.5310696e-06
000320 0a 91 73 37 24 36 3a b5 aa 35 73 36 92 6d 8d 36
       1.4517698e-05 -6.9369185e-07 3.6241058e-06 4.214883e-06
000330 4f 3f 4b 36 8c 05 b8 37 cc 1e ab b5 8e e8 7e b7
       3.0286208e-06 2.1937092e-05 -1.2749456e-06 -1.5193726e-05
000340 21 73 43 b5 14 e6 c7 b7 e2 da 32 b6 38 c5 9d 36
       -7.2810695e-07 -2.3829787e-05 -2.6651473e-06 4.701924e-06
000350 ac 97 3a b7 8a 1c ad b7 56 bd 0c b7 a7 c2 87 37
       -1.1121778e-05 -2.0636497e-05 -8.3887335e-06 1.6183896e-05
000360 5e b4 56 37 d4 81 eb 36 2b 4e 5e 36 65 aa eb b5
       1.2797389e-05 7.0186597e-06 3.3126078e-06 -1.7558456e-06
000370 a3 94 df 35 36 7d fe 36 28 20 57 b7 2c 00 f8 35
       1.6658054e-06 7.5843664e-06 -1.2822486e-05 1.847749e-06
000380 26 ee 12 37 db f1 3b 37 6f f7 d5 b6 32 20 d6 b4
       8.757726e-06 1.120238e-05 -6.3766997e-06 -3.988403e-07
000390 f6 1a 49 37 a6 54 46 b5 29 26 d8 35 d7 ee bd 36
       1.1986811e-05 -7.388393e-07 1.610436e-06 5.6604435e-06
0003a0 12 f7 a7 36 ef f7 18 b5 85 fe a7 b6 a8 01 79 36
       5.0057506e-06 -5.6985203e-07 -5.006618e-06 3.7104855e-06
0003b0 2a 1e 6d 35 13 41 c1 b6 63 68 25 37 97 0b 01 b7
       8.8333275e-07 -5.759424e-06 9.859071e-06 -7.691698e-06
0003c0 cf 41 22 34 fb ae 6e 35 0a bb a0 37 8d 09 d6 b3
       1.5111367e-07 8.891654e-07 1.9160583e-05 -9.966889e-08
0003d0 16 1e f7 b5 2e b5 02 b6 51 56 38 36 cc 81 f0 36
       -1.841169e-06 -1.947697e-06 2.746838e-06 7.1676677e-06
0003e0 93 69 7a b7 f0 b9 1a 36 40 ce 7f b7 70 06 27 b6
       -1.4925742e-05 2.3056018e-06 -1.5247206e-05 -2.4888686e-06
0003f0 9c 7f ae 35 72 2a b9 b5 71 45 ed 36 60 c3 a6 37
       1.300115e-06 -1.3795927e-06 7.0712344e-06 1.987972e-05

network.1.weight f4 [256]
000000 82 07 81 3f 64 57 7e 3f 2b a7 7d 3f a2 5e 81 3f
       1.0080416 0.993521 0.99083203 1.0107005
000010 52 8d 81 3f d3 c0 79 3f 0a 93 7c 3f 23 71 85 3f
       1.0121253 0.9755985 0.98661864 1.0425152
000020 76 73 7d 3f 4e 1c 80 3f 85 e2 80 3f ff df 83 3f
       0.99004304 1.0008638 1.0069128 1.0302733
000030 1a a3 7f 3f 7f 59 82 3f ca 03 85 3f 4c 46 83 3f
       0.9985825 1.0183562 1.0391781 1.0255828
000040 7f 35 7f 3f b1 7a 81 3f 7b 59 81 3f 59 d6 7f 3f
       0.99691004 1.0115567 1.0105432 0.99936444
000050 36 b0 80 3f 37 64 74 3f 3f 58 7d 3f 9e b6 7a 3f
       1.0053775 0.95465416 0.9896278 0.979349
000060 86 b4 7a 3f 6c f3 79 3f 69 b1 7d 3f 88 be 7d 3f
       0.97931707 0.9763706 0.9909883 0.9911885
000070 6b 5a 80 3f 85 c9 7a 3f 3f e8 7f 3f a9 d9 78 3f
       1.0027593 0.97963744 0.99963754 0.97207123
000080 40 d4 7f 3f ef 7e 7c 3f 95 3e 80 3f d6 d4 84 3f
       0.9993324 0.98631185 1.0019099 1.0377452
000090 1b f9 81 3f 70 2a 7f 3f 4a c1 7e 3f 07 d4 80 3f
       1.0154146 0.9967413 0.99513686 1.0064706
0000a0 da fe 80 3f 9a 9f 7a 3f 28 d0 7c 3f 08 e8 80 3f
       1.0077775 0.9789978 0.9875512 1.007081
0000b0 59 81 77 3f a8 d1 7d 3f 7b 39 80 3f 7c 1a 81 3f
       0.96681744 0.99148035 1.0017542 1.0086207
0000c0 9f ff 80 3f c0 b5 7b 3f ad ea 7f 3f cc ad 81 3f
       1.0078009 0.98324203 0.9996746 1.0131164
0000d0 51 de 81 3f bf da 7b 3f bc 7f 7d 3f 6d 17 7d 3f
       1.014597 0.98380655 0.9902303 0.9886387
0000e0 40 c0 7c 3f 81 02 7c 3f f7 32 7a 3f b6 8a 84 3f
       0.9873085 0.9844132 0.97734016 1.0354831
0000f0 5a d4 79 3f 72 2c 80 3f ed f9 7d 3f 1f 3a 7c 3f
       0.9758965 1.0013564 0.9920948 0.98526186
000100 d9 55 7a 3f 41 b4 82 3f 4a 7b 7a 3f 70 91 76 3f
       0.97787243 1.0211259 0.97844374 0.9631567
000110 7c ba 79 3f a1 88 7d 3f 4a 00 7f 3f 0b a8 7d 3f
       0.9755018 0.99036604 0.99609816 0.9908454
000120 8d 2d 78 3f 4b 5f 80 3f be 84 7e 3f 9d 5e 7d 3f
       0.96944505 1.0029081 0.994213 0.98972493
000130 50 55 83 3f f5 07 84 3f ae f5 82 3f f5 50 7c 3f
       1.026041 1.0314928 1.0231225 0.9856103
000140 6e bd 82 3f ee 35 7f 3f ca 00 74 3f 14 82 78 3f
       1.0214059 0.99691665 0.95313704 0.97073483
000150 cb a2 80 3f 28 b6 73 3f 90 cc 77 3f 67 75 77 3f
       1.004968 0.95199823 0.9679651 0.96663517
000160 0f e5 7e 3f ef 27 81 3f 3f cc 83 3f 52 ef 7b 3f
       0.99568266 1.0090312 1.0296706 0.9841205
000170 f5 55 7f 3f bb ef 7d 3f 4e fe 81 3f 77 04 81 3f
       0.99740535 0.99193925 1.0155733 1.0079488
000180 aa 6a 7e 3f 3b e9 83 3f 9d d4 7e 3f c6 97 81 3f
       0.99381506 1.0305551 0.9954317 1.0124443
000190 b2 78 80 3f f7 d3 7e 3f 20 ac 7d 3f f7 3a 79 3f
       1.0036833 0.9954218 0.99090767 0.973556
0001a0 ad ce 80 3f 84 20 7b 3f bf aa 7b 3f 19 0a 83 3f
       1.0063072 0.9809649 0.9830741 1.0237457
0001b0 0e a1 75 3f b8 4e 82 3f ae bf 7e 3f 0d 39 7e 3f
       0.95948875 1.0180273 0.9951123 0.993058
0001c0 b4 60 81 3f 8b b9 78 3f f7 be 7b 3f 3e 81 80 3f
       1.0107636 0.97158116 0.98338264 1.0039442
0001d0 1a 23 81 3f fc e8 7a 3f f1 b5 7a 3f 63 a2 80 3f
       1.0088837 0.98011756 0.9793387 1.0049556
0001e0 e5 cd 82 3f 6d 81 81 3f a8 15 7a 3f 01 55 82 3f
       1.0219084 1.0117623 0.97689295 1.0182191
0001f0 94 20 80 3f e1 54 7b 3f 20 5d 7a 3f ed b6 80 3f
       1.0009942 0.9817639 0.9779835 1.0055825
000200 e7 e3 7b 3f b0 3a 7d 3f 4c 36 86 3f 53 d6 83 3f
       0.98394626 0.98917675 1.048532 1.0299782
000210 ba 6b 7d 3f bf 6f 76 3f 73 ab 7d 3f fe c2 7a 3f
       0.989925 0.9626426 0.99089736 0.97953784
000220 07 63 7e 3f 04 30 80 3f b1 12 80 3f 0e db 7e 3f
       0.99369854 1.0014653 1.0005704 0.99553
000230 fd a8 77 3f db e1 79 3f 1c c8 7f 3f 32 e9 78 3f
       0.9674223 0.97610253 0.9991472 0.9723083
000240 b7 e6 7d 3f 2e 94 7c 3f a1 d5 7e 3f 93 28 7c 3f
       0.9918017 0.98663604 0.9954472 0.9849941
000250 b9 be 71 3f de 14 7d 3f a4 94 86 3f 01 11 81 3f
       0.94431645 0.98859966 1.0514112 1.0083314
000260 89 33 80 3f b0 1e 83 3f 08 61 83 3f ec fd 84 3f
       1.0015727 1.024374 1.0263987 1.0389991
000270 35 76 7e 3f 41 b6 80 3f e0 f9 80 3f ea 9d 83 3f
       0.9939912 1.005562 1.0076256 1.0282567
000280 4c d7 7c 3f 21 aa 81 3f 58 7c 80 3f 35 a5 7f 3f
       0.98766017 1.0130044 1.0037947 0.9986146
000290 a1 dd 80 3f 3e e1 79 3f ac b0 76 3f cf cb 7d 3f
       1.0067636 0.9760932 0.9636333 0.9913911
0002a0 85 28 80 3f a1 e9 7b 3f 7f 2d 79 3f 55 82 84 3f
       1.0012366 0.98403364 0.97335047 1.0352274
0002b0 ce 0c 80 3f 39 59 7a 3f c3 1a 7e 3f ed 63 7e 3f
       1.0003908 0.9779239 0.99259585 0.99371225
0002c0 ad 3f 7f 3f 61 68 78 3f a3 70 81 3f 43 a8 80 3f
       0.99706537 0.9703427 1.0112499 1.0051349
0002d0 b7 29 83 3f f1 84 80 3f 99 3c 81 3f 0f 62 7d 3f
       1.0247105 1.004057 1.0096618 0.9897775
0002e0 c2 fb 77 3f 8a 36 7f 3f 68 51 7a 3f d5 27 82 3f
       0.96868527 0.99692595 0.97780466 1.0168406
0002f0 4c a5 7e 3f 21 36 81 3f ab 27 81 3f 2a 24 7a 3f
       0.99470973 1.0094644 1.0090231 0.9771143
000300 96 20 80 3f b0 12 85 3f fa 0d 7d 3f 35 b3 7d 3f
       1.0009944 1.0396328 0.9884945 0.99101573
000310 34 98 79 3f a8 63 7f 3f 2d e6 83 3f e7 44 7d 3f
       0.9749787 0.9976144 1.0304619 0.9893326
000320 44 47 7d 3f a3 f2 7a 3f ce 0c 81 3f 10 e4 7b 3f
       0.9893687 0.98026484 1.0082033 0.9839487
000330 6e a7 80 3f a0 cb 81 3f 87 35 7d 3f f5 9e 81 3f
       1.0051095 1.0140266 0.989098 1.0126635
000340 71 78 79 3f 36 a2 81 3f c3 b1 84 3f 45 51 78 3f
       0.97449404 1.0127628 1.0366749 0.9699901
000350 0d e5 82 3f 53 36 80 3f d5 12 82 3f 40 0e 7f 3f
       1.0226151 1.0016578 1.0161997 0.9963112
000360 78 c7 7f 3f e3 e9 7c 3f 1d 33 84 3f a4 6c 7b 3f
       0.9991374 0.9879438 1.0328099 0.9821265
000370 ae 32 81 3f 68 6d 83 3f fa 7e 78 3f 12 e5 7b 3f
       1.0093591 1.0267763 0.9706875 0.9839641
000380 b2 44 82 3f e9 54 74 3f fb 22 79 3f cd 78 7b 3f
       1.0177214 0.9544206 0.97319 0.982312
000390 96 a8 77 3f d8 b9 7e 3f 4e 8f 7a 3f 09 60 81 3f
       0.96741617 0.99502325 0.97874916 1.0107433
0003a0 da 77 81 3f d8 9a 79 3f 1a 9a 7b 3f d8 66 7e 3f
       1.0114701 0.975019 0.98282015 0.9937568
0003b0 a1 ee 81 3f 8f 8b 81 3f a2 90 7c 3f 25 92 7c 3f
       1.0150949 1.0120715 0.9865819 0.986605
0003c0 df ba 7b 3f 97 56 80 3f da 97 80 3f 2e af 81 3f
       0.9833202 1.0026425 1.0046341 1.0131586
0003d0 d3 df 7d 3f 14 68 7f 3f 79 0a 7d 3f cd 66 76 3f
       0.99169654 0.99768186 0.98844105 0.9625061
0003e0 1b fd 83 3f 26 9c 79 3f 0f 71 7e 3f 72 14 80 3f
       1.0311617 0.9750389 0.99391264 1.000624
0003f0 2c 97 82 3f fd 4d 7c 3f ea 2d 7f 3f 39 80 80 3f
       1.0202384 0.985565 0.99679434 1.003913

network.1.bias f4 [256]
000000 fd bd 13 bc c2 42 59 bc 4f 70 de 3b eb ab 98 3c
       -0.009017465 -0.013260545 0.0067882906 0.018636664
000010 1f d9 47 3c e7 33 50 bb 1c 1b f5 bc 18 3c e7 3c
       0.012197762 -0.0031769217 -0.029920153 0.028226897
000020 f5 d8 86 bc 5c c0 09 bd 54 88 24 3c bc 1f a5 3c
       -0.016460875 -0.033630714 0.010042269 0.020156734
000030 4d d5 15 bb 4a 24 76 3b 40 c1 9e 3c ae b6 60 3c
       -0.0022862733 0.003755825 0.019379258 0.013715429
000040 15 70 1f bc 26 b2 06 bc f2 e8 a2 ba 76 f0 21 3c
       -0.009731312 -0.008221185 -0.0012429042 0.0098839905
000050 1a f8 a1 3b 58 02 6d bd fe 89 02 bc fd 1f c6 bc
       0.004942906 -0.057863563 -0.00796747 -0.024185175
000060 1a e8 f3 bc 4e f3 ba bc c9 7f 75 bc c7 9a d3 ba
       -0.02977376 -0.022821095 -0.01498408 -0.001614415
000070 06 d3 53 bc 04 73 02 bd 5f fe 95 bc 6b 58 13 bd
       -0.01292873 -0.03184797 -0.01830977 -0.035972994
000080 b3 ac cf bc d9 2e 8a bc aa 63 db 3c c1 68 07 bc
       -0.025350904 -0.016868042 0.026780922 -0.008264721
000090 2e 4b 95 bc aa e7 4f bc 57 71 aa bc 2a 5e a4 bc
       -0.018224325 -0.01268951 -0.020805998 -0.020064432
0000a0 23 75 60 3b 86 0d 67 3c 2d 13 20 bc 6d 69 1a 3d
       0.0034249506 0.014102345 -0.009770197 0.037698198
0000b0 57 0c 04 bd b4 a2 7f bc 2a 34 92 bb a7 7b e6 3b
       -0.03223833 -0.015602756 -0.004461785 0.0070337835
0000c0 27 24 13 bc bd c1 e7 bb 13 47 92 bc 0b 39 91 3c
       -0.008980787 -0.007072656 -0.017856156 0.017727396
0000d0 4e db ae 3c ed 92 a1 ba 04 9f c1 bb 22 6d a4 bc
       0.021344807 -0.0012327112 -0.0059088487 -0.02007157
0000e0 07 6c bc bc a7 5c 3e bc dc 13 cb bc bf d9 ef b9
       -0.02300073 -0.01161877 -0.024789743 -0.00045747866
0000f0 c4 cd 20 bc 13 dc aa 3c 01 1e 71 3c 0a 69 01 bd
       -0.009814683 0.020856893 0.014716626 -0.031594314
000100 3d d0 39 bb 54 ef 79 3c 44 1a dc bc 8a d8 86 bc
       -0.002835288 0.015254814 -0.026867993 -0.016460676
000110 0e 69 94 bb 88 1b 8f 3b 07 31 19 3b 02 ba d3 bc
       -0.004529125 0.0043672957 0.002337517 -0.025845531
000120 33 b1 ad bc 9f 11 12 bc 8b f0 79 bc 9b 4e b5 bc
       -0.02120266 -0.008915334 -0.015255104 -0.022132209
000130 36 5d 7a 3c 71 f4 0f 3d fa 9c 0c bb 49 e3 1e 3c
       0.015281012 0.035145227 -0.002145587 0.009697744
000140 eb 7b ec 3c 65 5a 6b bc 56 cb 40 bc a1 ad 0f bd
       0.028867682 -0.014364813 -0.011767229 -0.035077695
000150 54 3f 3e bb 4c 45 15 bd a6 f9 85 bc f7 20 3c bd
       -0.0029029446 -0.03644304 -0.016354393 -0.045929875
000160 e6 36 cf ba 96 fd e8 3c 65 67 2a 3d 2c 27 fe bb
       -0.0015809208 0.028441232 0.04160251 -0.0077561345
000170 48 41 ac 3a 1b d7 d1 bc 87 d3 4b 3b cc db 52 3c
       0.0013142014 -0.025615266 0.0031101422 0.0128697865
000180 1b fd 90 bc 54 e5 c6 3c 13 c3 a2 bb eb 24 97 b9
       -0.017698815 0.024279274 -0.0049671023 -0.0002882847
000190 6e 9e f7 3b 00 0a 9b 3b 32 58 8b bc 14 cd fd bc
       0.007556728 0.0047314167 -0.017009828 -0.030981578
0001a0 8c cd 15 bc 86 b2 97 bc 03 52 91 bb b5 eb 1a 3b
       -0.0091432445 -0.018517744 -0.0044348254 0.0023639027
0001b0 1b 17 13 bc 50 22 9c 3c 78 84 38 bc c8 56 ce bc
       -0.008977677 0.01905933 -0.011262052 -0.025187865
0001c0 01 52 33 bc 81 cf a3 bc 2a 46 99 bc a9 d5 7a bc
       -0.010944844 -0.019996407 -0.018710215 -0.01530973
0001d0 c4 ae 51 bc d6 90 18 bc 46 8d 84 3b 7c da 07 bc
       -0.012798015 -0.009311875 0.0040451614 -0.008291837
0001e0 30 b6 0f 3c d4 48 e4 3c a5 31 e1 bc 0e c9 43 ba
       0.008771464 0.027866758 -0.027489493 -0.0007468619
0001f0 91 de af bb 3a fb 93 bc 40 62 0f bd 7e e7 af 3c
       -0.005367108 -0.01806413 -0.035005808 0.021472689
000200 47 43 da bb 62 66 6f 3b e8 66 a8 3c 57 8d e9 bc
       -0.006660852 0.003652953 0.020556882 -0.028509779
000210 0e 6f b8 3b 97 55 36 bd 78 28 8a bb f7 c0 dc bc
       0.005628473 -0.04451522 -0.00421625 -0.026947482
000220 7f 74 7b bc 87 f8 d3 3a e8 ee 61 bb 7e e7 0f bc
       -0.015347599 0.0016172089 -0.0034474675 -0.008783219
000230 59 a5 9e bc 64 76 0c bb 66 f0 81 3c 74 b1 e4 bc
       -0.019365953 -0.002143287 0.015861701 -0.027916647
000240 a6 39 91 bb 05 ff 97 bc dc d0 5c bc 14 a8 fd bb
       -0.004431921 -0.01855422 -0.01347753 -0.0077409837
000250 cf 21 7c bd 8b 88 8e bc f8 2c 03 3d 7d 5f 07 bb
       -0.06155568 -0.017399093 0.032025307 -0.002065628
000260 1e 02 35 bc 7f ee 47 3c a8 38 60 3c 38 9a 89 3c
       -0.011047868 0.012202858 0.013685383 0.01679717
000270 26 25 d5 bc 27 d7 6c bb bb b0 fb bc 9b eb 75 bc
       -0.02601869 -0.0036138983 -0.03072392 -0.015009786
000280 be b5 55 bc 7e f2 33 3b 72 06 83 3b 8d cd 8c 3c
       -0.013043819 0.002745777 0.003998571 0.017187858
000290 f2 fc d4 3a f2 ae 64 bc 8c c0 b7 bc fd 1e 3d 3c
       0.00162497 -0.013957726 -0.02243068 0.011543033
0002a0 db 3d 97 ba 9f d2 fb bc 44 02 65 bc c6 5f bd 3c
       -0.001153882 -0.03074008 -0.013977591 0.023116957
0002b0 bc 44 89 bb 91 ac df 3b 24 ce ba bc ec 9a 8e 3b
       -0.004189102 0.0068259914 -0.022803374 0.004351964
0002c0 ea df 14 bc ba 63 e0 bc d1 a1 f5 bb d6 8b 59 bc
       -0.009086588 -0.027391303 -0.0074960967 -0.013277968
0002d0 70 0f c0 3c 42 e3 ba bb cd 6f e7 3b 4b 70 75 bc
       0.023444861 -0.005703361 0.0070628882 -0.014980386
0002e0 d2 8b da bb 6a 0b 0d bd aa e7 e7 bc 02 33 23 bc
       -0.0066695 -0.034434713 -0.028308708 -0.009960892
0002f0 df bb 1d 39 24 d8 e7 3c ad e4 97 bc bc 9d ef bc
       0.00015042674 0.028301306 -0.018541658 -0.029250018
000300 a0 68 6e 3c dd 07 91 3c 1d 81 b9 bc b0 1e e1 bb
       0.014551312 0.017703945 -0.022644574 -0.0068701133
000310 a5 bc 07 bd 13 a4 ac bc 7a 21 70 3c 08 79 a4 bc
       -0.03313889 -0.02107433 0.014656419 -0.020077243
000320 ba db 3c bc 37 69 08 bc 17 05 82 ba 77 7a 7a bc
       -0.011526996 -0.008325866 -0.000991973 -0.015287987
000330 7f 9a 0a 3a 59 6a 96 bb 89 ec 65 bc 94 0a aa 3c
       0.0005287304 -0.0045903143 -0.014033445 0.020756997
000340 0b b5 ce bc 92 33 98 3c 82 04 93 3c d5 c8 dd bc
       -0.025232812 0.018579278 0.017946485 -0.027073303
000350 cb c1 cc 3c f8 68 97 bb e2 a8 af 3b 83 e8 75 3b
       0.024994751 -0.0046206675 0.0053607086 0.003752262
000360 9a 13 b6 ba f8 af 05 bd 34 fe a9 3c 2f c0 89 3c
       -0.001389134 -0.03263852 0.020751096 0.016815273
000370 b9 55 9d 3c d1 95 87 3c d2 e6 ad bc c6 55 28 3c
       0.019205915 0.01655093 -0.021228228 0.010274356
000380 f0 80 81 3c 0a 63 fa bc 1c cf 96 bc 08 e8 38 3c
       0.015808553 -0.030564804 -0.018409304 0.011285789
000390 7f 8b 8c bc 22 3b 20 bc 38 77 33 bc 0b 60 b0 3c
       -0.01715636 -0.009779723 -0.010953717 0.021530172
0003a0 58 7a 81 bb b5 7b a5 3b ec d7 63 bc 80 68 87 3b
       -0.003951352 0.0050501474 -0.01390646 0.0041323304
0003b0 73 a3 15 3c e8 0b 9a 3b 67 55 21 bc 17 35 14 3b
       0.009133208 0.0047011264 -0.009847022 0.0022614652
0003c0 68 92 7f bc 73 a1 80 ba 5c d0 4e bc 0b 0b 96 3c
       -0.015598871 -0.0009813741 -0.012622919 0.018315813
0003d0 40 10 4b 3c 4b 96 8b 3c b5 14 90 bc 7f 6d fc bc
       0.012394011 0.017039439 -0.017587999 -0.03081393
0003e0 f3 cc 9c 3c ae 81 d4 bb c9 29 0e bc 9e 72 ba bc
       0.019140696 -0.0064851856 -0.008676955 -0.022759732
0003f0 d7 ee 07 3d bd 8b d0 bc 39 5a 9f bc dc 0c 65 bc
       0.03318676 -0.025457257 -0.019452201 -0.013980117

network.1.running_mean f4 [256]
000000 ef 93 a2 bb 00 74 c9 ba 1f a9 ef ba 54 15 11 bb
       -0.0049614827 -0.0015369654 -0.0018284655 -0.0022137957
000010 78 3e f2 bb 41 d5 07 bb 0e 7d 80 3b c6 01 28 3c
       -0.0073927008 -0.0020726474 0.0039211577 0.010254329
000020 23 b7 34 3b bf 3e d4 bb 64 04 0e 39 9c 9b 47 bc
       0.0027574978 -0.0064772065 0.00013543811 -0.012183096
000030 83 ed 97 3b 9e 8f 07 3c 03 2c c0 3a d8 62 3c bb
       0.004636468 0.008273987 0.0014661554 -0.002874544
000040 42 86 b7 ba 36 34 b1 3b 68 73 e1 bb c6 c8 c4 3b
       -0.0014001804 0.0054078354 -0.0068802126 0.0060053794
000050 1d b6 8e 3b 43 33 80 bb c2 82 14 3c 51 f5 a5 b9
       0.0043552057 -0.003912361 0.009064378 -0.00031654027
000060 06 b1 33 bb a3 ec 18 bc c3 8d 8f 3c 96 25 6e 38
       -0.0027418747 -0.009333762 0.017523652 5.6778626e-05
000070 45 aa 8a b8 b4 b0 bd bb 2d b1 35 bb f0 fd 92 ba
       -6.612068e-05 -0.005788887 -0.0027724013 -0.0011214595
000080 d2 31 0f bb 3c f2 2f 3c ca 3d 45 bc 65 35 25 3c
       -0.0021849764 0.0107389055 -0.012038657 0.010083531
000090 0c e3 58 3c 12 f7 6e bc fb ea 20 bb 3b 4f 02 3b
       0.013237726 -0.014585273 -0.0024554122 0.001988365
0000a0 db 3f 83 bc 50 c0 82 bc bd 89 5b 3b 32 e2 15 bb
       -0.01602166 -0.015960842 0.0033498846 -0.0022870419
0000b0 3b fc aa ba 91 ee b8 bb d8 f6 e7 b8 b9 df f4 3b
       -0.0013045141 -0.0056436737 -0.000110609166 0.007472959
0000c0 49 c4 32 bb 5d 47 83 bb 25 61 16 3c 48 ae 41 3b
       -0.002727764 -0.00400631 0.0091784345 0.0029553343
0000d0 cd 41 25 3c ac e1 1a bc b4 f4 f7 39 a1 7a 23 bc
       0.010086489 -0.009453218 0.0004729383 -0.0099779675
0000e0 9f 54 08 3c 9c a5 84 3c 95 f8 a9 3a 04 7f 9e 3a
       0.0083209565 0.01619225 0.001296776 0.0012092297
0000f0 fe 38 8e bb cc fc 98 3b 7b 2d 63 3b 47 10 8a 3a
       -0.00434029 0.0046688076 0.003466456 0.0010533415
000100 a2 99 4f bc fa 34 25 ba d0 87 c3 3a 2c 5d fb bb
       -0.012670906 -0.00063021446 0.0014917795 -0.007671019
000110 ff 36 22 3c 98 ae 5b bb d3 81 6a 3c 6d 6d 22 3c
       0.009900807 -0.0033520814 0.014313179 0.009913784
000120 45 bd 67 bb 5f bf 4c 3b 2e e3 4e 3b 70 33 19 3c
       -0.0035360616 0.0031241996 0.0031568515 0.009350643
000130 55 bc 51 bb 21 23 55 bb 97 4a 19 bc 74 99 28 3b
       -0.0032003124 -0.003252216 -0.0093561625 0.002572623
000140 4a b3 8f 3a 89 40 c3 bb 1d 6b 04 3b 50 19 99 3c
       0.0010963466 -0.005958621 0.0020205446 0.018688828
000150 c2 d3 98 ba ff 62 24 bc da 70 b4 3a e2 72 23 bb
       -0.0011659788 -0.010033368 0.0013766543 -0.0024940302
000160 dc e2 ba 3b 3f e0 02 bb 5d 3e 87 bc f8 b2 cc bb
       0.0057033133 -0.0019970087 -0.01650923 -0.0062469207
000170 64 82 f8 3a 0f f1 88 ba f3 bb 94 3a f8 90 97 3b
       0.0018959758 -0.0010447818 0.0011347517 0.004625436
000180 60 9d 9c bb 77 b0 cd 3b ae 27 77 3a c9 aa 49 3b
       -0.0047795027 0.0062771398 0.0009428215 0.0030771962
000190 94 8b 28 bc 0a 97 a0 3c 98 ea 2e ba 71 c1 9d 3a
       -0.010287184 0.019603271 -0.00066725304 0.00120358
0001a0 3d 8b 8b 3a 25 a1 2a ba 06 ab ad 3b 70 e0 83 3b
       0.0010646355 -0.0006508998 0.0052999286 0.004024558
0001b0 76 ee cf bb b9 bf df ba 8e d4 cf 3b b2 eb 3f 3c
       -0.0063455654 -0.0017070688 0.006342477 0.011713909
0001c0 75 9c 75 3b 22 5e b7 3b 69 ad 0b bb 09 5c 24 bc
       0.003747729 0.0055959383 -0.0021313077 -0.0100317085
0001d0 af aa 2b 3c f8 8b b7 3b 8b eb 96 3b b0 cf 1c 3c
       0.010477706 0.0056014024 0.0046057156 0.009571001
0001e0 c5 42 3b 3b 20 b7 54 3c 27 82 e3 b9 6d 23 da 3b
       0.0028573733 0.0129831135 -0.00043393785 0.006657055
0001f0 c0 66 16 3c c6 09 79 bb 2a 96 1e ba 79 97 3a bc
       0.009179771 -0.003800021 -0.0006049598 -0.011388653
000200 49 63 af 3b e5 fe 03 bb 14 0e 83 3a 38 0a 8c 3b
       0.005352412 -0.0020140943 0.0009998702 0.004273679
000210 f0 2b 66 bc 72 9b 04 bc 3b b5 e1 bb ca f5 b2 3a
       -0.014048561 -0.008093702 -0.0068880594 0.0013653573
000220 cd 68 2b 3b a9 bb e4 3b 8f 9c 94 3b f4 23 73 bb
       0.0026154995 0.0069803786 0.004535265 -0.0037100287
000230 ed 00 1c bb 7d da eb b9 4c 1c 17 3c 1d 21 e6 bb
       -0.0023804263 -0.0004498548 0.009223055 -0.0070229904
000240 24 15 45 bb fb e4 7f bb 79 bd 08 3b c4 81 ef 3b
       -0.0030072415 -0.0039046395 0.0020864888 0.0073091704
000250 ab ee 90 3a 11 67 86 bc 2f be c5 bb 28 23 ce 3b
       0.0011057457 -0.016406568 -0.0060346345 0.006290812
000260 0d 4f 10 bb f5 1e ce 3b c5 17 2e 3c 38 6e bf 39
       -0.0022019774 0.0062903115 0.010625784 0.00036512478
000270 d6 32 e5 bb 10 f2 a5 ba d8 c8 8d bb ca 53 25 3b
       -0.0069945855 -0.0012660641 -0.004326921 0.0025226944
000280 ab ec ac 3b 3b 4c c1 bb 78 11 00 3c be 5c 0a bc
       0.0052772365 -0.00589898 0.007816665 -0.008444963
000290 f0 e4 bd 3b 52 b2 22 3c 9e cd 0c b8 8a 10 a1 3a
       0.0057951137 0.00993021 -3.3570097e-05 0.0012288254
0002a0 12 6d 58 bc 14 80 d4 3b e4 f1 3a 3b 1d 28 73 3b
       -0.013209598 0.0064849947 0.0028525526 0.0037102767
0002b0 a6 46 b4 ba ab 9a 97 bc f4 55 93 3a 7e 2e 59 3c
       -0.0013753965 -0.018506369 0.0011240826 0.0132557135
0002c0 40 bb 4e bc 18 2e 80 bc 85 87 bf 3a aa d8 d2 3b
       -0.012617886 -0.01564698 0.0014612532 0.00643452
0002d0 b7 f7 d5 ba b9 81 a6 ba fc 15 1e bb 69 86 22 bc
       -0.0016324435 -0.0012703455 -0.002412199 -0.009919741
0002e0 b4 98 47 bc be 8b c1 3b e2 6c 33 bb c1 78 ac ba
       -0.012182403 0.005906551 -0.0027378132 -0.0013158546
0002f0 32 96 e9 3b 49 fb 99 3b e0 47 b9 ba ed 53 c2 3b
       0.0071285004 0.004699145 -0.00141358 0.005930415
000300 db ba ed ba af cf 11 bb 6e 01 ea bb b0 f2 3a 3b
       -0.0018137352 -0.0022249033 -0.0071412837 0.0028526
000310 31 46 8e ba aa c5 4c 3a ed 18 03 3b 58 ea 38 bc
       -0.0010854659 0.00078114367 0.002000387 -0.011286341
000320 0e eb e5 3a 50 9d ef bb 01 f8 f5 bb 07 6e b6 3a
       0.0017541365 -0.0073124543 -0.007506371 0.0013918289
000330 d3 9a a4 3b fc 90 18 3b b3 d7 07 39 bb ac 17 3a
       0.0050233393 0.0023279777 0.00012954957 0.0005785932
000340 d8 bb b6 bb bd 93 96 bb 75 8a 71 bc 35 9d bc bb
       -0.005576592 -0.0045952485 -0.014742483 -0.005756045
000350 05 4b 53 3c 58 d2 12 3c 75 b5 26 ba e4 90 b8 3b
       0.012896304 0.008961283 -0.00063594367 0.0056325067
000360 74 01 28 bc 5e 42 ea bb 51 79 f8 bb 84 a3 65 bc
       -0.010254253 -0.007149025 -0.0075828214 -0.014016036
000370 5b 3f 87 ba 64 53 e4 3a f3 02 d2 3a 6b 3d 2a 3a
       -0.0010318564 0.0017419872 0.0016022607 0.00064941373
000380 36 74 bb bb 66 46 14 3c b5 35 e9 39 d1 9b 27 bb
       -0.0057206405 0.009049987 0.00044481238 -0.0025575052
000390 c9 21 2e bc 11 9f 81 bc 84 51 48 bc 46 87 4a bb
       -0.010628172 -0.01582292 -0.012226466 -0.0030903383
0003a0 06 80 d5 ba a6 7e 4a bb 8a b6 fb bb 06 97 f9 bb
       -0.0016288764 -0.0030898242 -0.0076816725 -0.0076168803
0003b0 62 97 bf bb 3a 0a 21 bc d8 5e e5 3b c3 11 13 3c
       -0.0058469037 -0.009829098 0.0069998316 0.008976403
0003c0 25 95 cd 3b 39 11 29 bb 04 01 dd bb 96 c1 9b 3b
       0.006273883 -0.002579762 -0.006744506 0.004753302
0003d0 01 4d 30 3c 72 97 47 bb 57 16 41 bc 30 58 2a 3a
       0.010760547 -0.0030455259 -0.011785111 0.00064981263
0003e0 42 02 fd 3b cd ab 26 3c 5e 22 3c bc e1 2c 80 bb
       0.0077212164 0.010172796 -0.011482803 -0.0039116
0003f0 7c 5b af 3a 61 06 04 3b b8 42 04 bc 1a b7 67 3a
       0.0013378705 0.0020145404 -0.008072548 0.0008839235

network.1.running_var f4 [256]
000000 0b d5 93 3e e2 5d ab 3e 42 3c a8 3e c4 cb c9 3e
       0.28873476 0.33470064 0.32858473 0.39413273
000010 82 de d6 3e c4 9a b6 3e 95 b7 8d 3e 66 85 bb 3e
       0.41966635 0.35664952 0.27679124 0.36625212
000020 72 d9 c7 3e 7a 28 10 3f ca b7 bd 3e 9e ae a1 3e
       0.39033085 0.5631176 0.37054282 0.31578535
000030 57 d7 b6 3e 62 37 d0 3e 81 d4 a3 3e d3 5f b3 3e
       0.35711166 0.40667254 0.31998065 0.35034046
000040 90 3a 91 3e bd 9e a7 3e e0 9a 03 3f b3 f0 e1 3e
       0.28364992 0.32738295 0.51408195 0.4412895
000050 52 1c 8b 3e 25 3b c6 3e 0f 8b ae 3e c9 fb 9b 3e
       0.27170044 0.38717 0.34090468 0.30465534
000060 db ce a1 3e f5 02 e6 3e 5a 1a b4 3e 12 06 c9 3e
       0.3160313 0.4492413 0.35176355 0.39262444
000070 06 63 80 3e b2 ea b9 3e 79 74 94 3e 8e 96 c5 3e
       0.2507555 0.3631187 0.28995112 0.38591427
000080 1a b6 e1 3e e5 94 07 3f 86 ff d7 3e 8a 1b a7 3e
       0.44084245 0.5296157 0.42187136 0.32638198
000090 d0 83 9e 3e cf 2c aa 3e 1c d7 c2 3e f7 b9 09 3f
       0.3095994 0.3323731 0.3805474 0.53799385
0000a0 41 1a d5 3e fb 56 c4 3e f8 ea b1 3e 32 3a cc 3e
       0.41621593 0.3834761 0.3474958 0.3988815
0000b0 cd 47 d0 3e 6b a2 ab 3e 00 7f a9 3e 5a 42 86 3e
       0.4067978 0.33522353 0.33104706 0.26222497
0000c0 41 95 ac 3e b9 b6 9e 3e d1 91 b6 3e 89 87 cc 3e
       0.33707622 0.3099878 0.35658124 0.39947155
0000d0 64 93 e0 3e bb 30 b1 3e 6e dc b5 3e 73 02 c2 3e
       0.4386245 0.3460749 0.35519737 0.37892494
0000e0 a3 68 98 3e 64 11 ad 3e e5 22 b6 3e 82 e3 c6 3e
       0.2976733 0.3380233 0.35573497 0.3884545
0000f0 4c a1 d4 3e 72 8d c3 3e c9 03 d5 3e 9a d6 9b 3e
       0.4152931 0.38193852 0.4160445 0.30437165
000100 0d c5 e2 3e 36 62 9e 3e ab 46 84 3e 41 ab bd 3e
       0.44290963 0.30934304 0.25835165 0.3704472
000110 f6 65 d0 3e 00 79 ae 3e 70 ca c1 3e 07 8a d9 3e
       0.4070279 0.3407669 0.3784976 0.4248812
000120 0d 95 aa 3e fd c4 a9 3e d8 40 8f 3e 6e 31 b7 3e
       0.33316842 0.33158103 0.2797916 0.357799
000130 a6 12 7d 3e c4 f7 a0 3e 74 24 c9 3e ce 8b ba 3e
       0.24714145 0.3143903 0.39285624 0.36434788
000140 0c d6 f4 3e 68 e8 9e 3e f2 12 0c 3f 11 43 b7 3e
       0.47819555 0.31036687 0.5471641 0.35793355
000150 12 b6 a1 3e f2 39 c0 3e 44 87 af 3e 45 bd cc 3e
       0.3158422 0.3754421 0.34282887 0.3998815
000160 c5 1b 92 3e 92 a6 df 3e 5b 52 c6 3e 22 69 e0 3e
       0.2853681 0.4368177 0.38734707 0.4383021
000170 86 82 d1 3e 9f e2 ae 3e 33 3b e3 3e df b9 ab 3e
       0.40919894 0.34157273 0.44381103 0.33540246
000180 1a 03 e4 3e 47 e9 f0 3e 2d 39 d6 3e 18 b3 ca 3e
       0.44533616 0.47052976 0.41840497 0.39589763
000190 6e 30 ba 3e 38 42 b3 3e f0 4c 99 3e 26 2f 0d 3f
       0.36365074 0.35011458 0.2994151 0.5515007
0001a0 f0 72 9a 3e 10 eb a8 3e 07 a2 c3 3e b7 57 97 3e
       0.30165815 0.32991838 0.38209555 0.2955911
0001b0 e8 e8 ae 3e b6 a9 d6 3e 06 39 ab 3e 03 ad a9 3e
       0.34162068 0.41926354 0.33441943 0.3313981
0001c0 b5 f8 c9 3e 0a 19 cc 3e 17 ed a3 3e d4 57 b2 3e
       0.3944756 0.39862853 0.32016823 0.34832633
0001d0 ca 7d be 3e 67 6e 06 3f b7 f4 03 3f f8 dc 9e 3e
       0.37205344 0.5251221 0.5154528 0.3102796
0001e0 b0 1e ed 3e fc 2e c4 3e 1b 23 92 3e d7 1d c9 3e
       0.46312475 0.38317096 0.28542408 0.39280578
0001f0 01 8d a2 3e 56 a3 f1 3e 25 62 b8 3e 70 ef a7 3e
       0.31748202 0.47194928 0.36012378 0.32799864
000200 af 5b fc 3e f4 db d2 3e 01 f8 8b 3e 44 ad 7b 3e
       0.492887 0.41183436 0.2733765 0.24577814
000210 60 51 dd 3e 6c 31 94 3e 07 a5 d2 3e d1 c5 cc 3e
       0.43226147 0.28943956 0.4114153 0.39994672
000220 98 62 98 3e 61 9a a1 3e b0 48 8b 3e 4d a1 d7 3e
       0.2976272 0.31563094 0.27203894 0.4211525
000230 70 31 d7 3e d5 7d b4 3e e6 ae ba 3e 6b ac b3 3e
       0.42029905 0.35252252 0.36461562 0.35092482
000240 17 3a d5 3e 10 d5 b5 3e 39 ec aa 3e d8 fd cc 3e
       0.41645882 0.35514116 0.3338335 0.40037417
000250 33 d7 ea 3e 82 17 c5 3e 3a 00 8d 3e 1b d4 a3 3e
       0.4586731 0.38494498 0.27539235 0.3199776
000260 31 e3 b7 3e 1a 4d b3 3e d0 57 b5 3e ad df 98 3e
       0.3591552 0.3501976 0.35418558 0.2985815
000270 4e 8a fc 3e ac 21 a6 3e 23 2f 8f 3e 8f 96 88 3e
       0.49324268 0.32447565 0.2796565 0.26677367
000280 fa 6e bb 3e 11 f0 ac 3e 0c 6a c1 3e cd 9c e0 3e
       0.36608106 0.33776906 0.3777622 0.4386963
000290 04 78 c1 3e f6 85 a4 3e 06 b8 9f 3e e3 a6 b1 3e
       0.37786877 0.32133454 0.31195086 0.34697637
0002a0 2f 52 af 3e 9c 94 e9 3e ca 75 c8 3e 03 3f cc 3e
       0.3424239 0.45621192 0.39152366 0.39891824
0002b0 68 1c a4 3e 9b 1e cf 3e 2a 12 ab 3e c3 55 d0 3e
       0.32052922 0.40453038 0.33412296 0.4069043
0002c0 88 97 bc 3e f1 b9 ed 3e ea 65 c0 3e b5 35 b6 3e
       0.3683436 0.46430925 0.37577754 0.3558785
0002d0 81 ea ce 3e 8d 8b 89 3e bd 48 f8 3e 2d fa ae 3e
       0.40413287 0.2686428 0.48492995 0.34175244
0002e0 e4 19 ca 3e 5f de ab 3e 1e 44 89 3e 30 0b ec 3e
       0.39472878 0.33568093 0.26809782 0.46102285
0002f0 8a 9c 90 3e 68 4a 9c 3e aa 02 a7 3e 40 c4 26 3f
       0.2824443 0.30525517 0.3261922 0.65143204
000300 e1 d0 af 3e b3 81 d6 3e 4d ad e6 3e 04 03 23 3f
       0.3433905 0.41895828 0.45054093 0.63676476
000310 20 cc b1 3e e7 5c b6 3e d4 b3 99 3e 89 39 ba 3e
       0.34726048 0.35617754 0.3002001 0.3637202
000320 17 57 90 3e 00 d9 a4 3e a6 bb ad 3e 00 41 21 3f
       0.28191444 0.32196808 0.33932227 0.6298981
000330 c0 a0 81 3e 2e b9 a2 3e c9 af b3 3e e5 b4 f4 3e
       0.25317955 0.31781906 0.3509505 0.47794262
000340 64 f6 b2 3e 7f 33 9a 3e bc fb a7 3e 8b 6a 97 3e
       0.34953606 0.30117413 0.32809246 0.29573473
000350 85 7a db 3e 93 3a f0 3e 08 7b 9f 3e fd 01 aa 3e
       0.42866912 0.4691969 0.31148553 0.33204642
000360 99 11 9f 3e 63 d2 a0 3e fb cc a2 3e 68 ef e6 3e
       0.31068113 0.31410512 0.31797013 0.45104527
000370 ec 98 05 3f 1f 2f 9f 3e 79 2d d9 3e 80 42 b0 3e
       0.52186465 0.31090638 0.42417505 0.34425735
000380 d2 cc 93 3e 71 be cf 3e bc 5c c6 3e a6 75 c6 3e
       0.28867203 0.40574983 0.38742626 0.38761634
000390 ae 3e f4 3e ef 31 a7 3e 9e f7 c5 3e 02 0c 9b 3e
       0.4770407 0.32655284 0.3866548 0.302826
0003a0 46 e7 dd 3e 7d 95 b8 3e 61 08 bc 3e 75 3d cc 3e
       0.4334051 0.3605155 0.36725143 0.39890638
0003b0 02 50 e8 3e bd 08 bd 3e 0e af a4 3e 39 1c f8 3e
       0.4537354 0.3692073 0.32164806 0.48459032
0003c0 40 5d c5 3e e7 af 94 3e 74 18 b8 3e ca a0 a3 3e
       0.38547707 0.29040453 0.35956156 0.3195861
0003d0 69 ad cd 3e ac fd ba 3e da a5 90 3e 17 57 c4 3e
       0.40171364 0.3652166 0.28251535 0.38347694
0003e0 3d 17 a7 3e 78 6b bf 3e 83 d9 81 3e d0 c0 60 3e
       0.32634917 0.3738668 0.2536126 0.21948552
0003f0 87 4c a4 3e 17 28 c6 3e ce 53 fd 3e 9e 9a b6 3e
       0.32089636 0.3870246 0.49478 0.3566484

network.4.weight f4 [128, 256]
000000 f4 be 44 3d 1c 88 3a bd 85 39 05 3d e4 e9 15 3d
       0.04803367 -0.04553996 0.032525558 0.03660001
000010 64 b3 de 3c 0f 19 b6 3c c0 5c a2 bd d6 c2 17 bd
       0.02718515 0.022228746 -0.07927847 -0.037051044
000020 e6 c2 17 3c e6 78 1b bd 19 19 aa 3c db 10 75 3c
       0.009262776 -0.037957095 0.02076392 0.014957632
000030 18 0d 83 3d 86 f0 18 bb 33 4b 03 3d 8d f1 1d 3c
       0.06398982 -0.0023336723 0.032054137 0.00964011
000040 d6 1a 61 bd 49 81 9e 3b f5 78 c9 bc b2 73 3d bc
       -0.054957233 0.0048371893 -0.02459381 -0.011563228
000050 5f e3 09 3d cd 0e 54 3d a6 9b ba bc 90 1b 47 3d
       0.033664104 0.051771928 -0.022779297 0.04861027
000060 78 fc 2d 3d b2 4d 64 bd d2 f3 1a 3d 1c 40 16 3c
       0.0424771 -0.05573816 0.03783018 0.009170558
000070 4a 99 76 bb 7b 64 99 bc 4d f3 68 3d 15 65 33 3d
       -0.0037627988 -0.01872467 0.056872655 0.04379757
000080 b5 7c 2d bb 8c 32 85 bd d5 d4 fa 3c 28 00 38 3d
       -0.0026472036 -0.06503782 0.030619064 0.044922024
000090 ec b5 79 3d 0d a8 87 bc 0c 3e a8 bc 65 2a 18 3d
       0.06096451 -0.016559625 -0.020537399 0.037149806
0000a0 74 e3 ea bc 92 1b d8 bc d6 16 96 bc ba 09 21 bd
       -0.028672911 -0.026380334 -0.018321436 -0.039315917
0000b0 ac a5 71 3d 60 cf 3b 3d 3e 6e bc 3c c6 01 3f bd
       0.058995888 0.045852065 0.023001786 -0.04663255
0000c0 fd 34 04 bd 1b 89 5b bc 0c 97 2e 3d d4 20 ea 3c
       -0.032277096 -0.013399388 0.04262452 0.028580107
0000d0 70 cf 99 bd 05 f7 0c 3d 96 87 58 bd 25 d4 56 bd
       -0.07510269 0.034415264 -0.05286368 -0.05244841
0000e0 df 2f f3 bc 3c 04 93 3b 20 f2 d8 bc 93 da 01 bd
       -0.029685913 0.0044865888 -0.026482642 -0.03170259
0000f0 fe 06 2f bd 14 22 9e bd 37 a2 58 3c 25 92 06 bd
       -0.042731278 -0.07721344 0.013222269 -0.032854218
000100 a4 3e c1 3c 40 9e 46 bd 71 8a cc bc f5 18 28 3d
       0.02358944 -0.048490763 -0.024968358 0.041039426
000110 3d 0a 58 3d 7b a4 62 bd 11 8a 2e 3c 1e e3 bd bc
       0.05274414 -0.055332642 0.010653035 -0.023179587
000120 75 25 99 bd 1f e1 3a 3d 20 4f 30 3d a0 eb e8 3b
       -0.074778475 0.04562485 0.04304421 0.007108167
000130 a4 e3 1b bd cb 48 c0 3c 85 b9 75 3c 9f 35 29 3d
       -0.038058892 0.02347221 0.014997845 0.041310903
000140 b7 fa c2 bb 57 7e 05 bd 03 13 62 3c d7 a3 22 bc
       -0.0059502977 -0.03259119 0.013798478 -0.009926758
000150 32 81 15 3c ea 94 c4 3c ca 06 9e 3c 84 73 6b bd
       0.009125041 0.023996789 0.019290347 -0.05748321
000160 01 25 9a bd d8 60 45 bd b9 7a 42 3d 0a 1e 0d 3d
       -0.07526589 -0.04818806 0.04748032 0.034452476
000170 ab d0 ab bc 2e fd 1d 3c e5 de a2 bd cd 70 72 bc
       -0.020973524 0.009642882 -0.0795267 -0.014797402
000180 24 9a 3e 3d 41 0c 93 3d 70 d8 37 3d ae e4 e7 bb
       0.04653372 0.071800716 0.044884145 -0.0070768213
000190 be ca 1b bc da 0f 3d 3d 5d 46 a0 bc 68 7d 28 3d
       -0.009508787 0.046157695 -0.019564802 0.04113522
0001a0 5a 9b 61 ba f5 fd 8c 3b 63 77 c7 bc 6a b4 e7 bc
       -0.0008606218 0.004302735 -0.02434892 -0.02828427
0001b0 77 b0 8b bd 16 f9 74 3b 55 4c 81 bd 5c 72 ee 3c
       -0.068207674 0.0037379912 -0.06313387 0.029107265
0001c0 c5 8d e9 bc 3e 41 37 3c aa e2 bc bd 11 e0 09 bd
       -0.028509984 0.011184989 -0.0922292 -0.033660952
0001d0 13 03 22 3d 88 cb 57 3d dc 8e 7a bc cc d3 82 3b
       0.039553713 0.052684337 -0.015292849 0.0039925333
0001e0 4b a7 ba bc 66 c0 f9 3c 28 25 27 3c 0b e0 93 bb
       -0.02278485 0.03048725 0.01020173 -0.004512792
0001f0 bd 29 f8 bb 41 69 57 bd b9 21 cf 39 c5 e9 2f 3d
       -0.007573335 -0.052590612 0.00039507242 0.04294755
000200 7b a4 5d 3d 07 d7 5e 3d 26 0d d6 bc 3b 07 20 3d
       0.05411194 0.054404285 -0.026129317 0.039069396
000210 90 e0 94 bc 90 2e 8f bd f9 73 79 bc 71 c3 dd 3c
       -0.018173486 -0.06991303 -0.015225404 0.027070733
000220 47 2a 99 bc 5d b3 78 bc ff 75 fa b9 61 c1 0d bd
       -0.018696917 -0.015179482 -0.0004777163 -0.03460825
000230 5c 77 10 bd 2d 44 4c bd f0 6c 74 3c cb 58 25 bd
       -0.03527008 -0.049869705 0.014918551 -0.040367883
000240 f7 a4 15 3d 96 d9 69 bd d1 83 43 3d d8 8e c0 bc
       0.036534276 -0.05709227 0.04773313 -0.023505613
000250 c2 20 36 bd 6f 7b 87 3c 26 0b fc bb 7e 2a 48 bd
       -0.044464834 0.01653835 -0.0076917587 -0.04886865
000260 a4 a4 24 bd e5 ce 33 bd 3d f5 72 3d 7d cf 49 3d
       -0.040196076 -0.043898482 0.05931591 0.049270142
000270 6b 60 f6 bb 87 43 02 3c 2b 9f 89 bd 28 32 3e 3d
       -0.007518818 0.00795067 -0.06719812 0.04643455
000280 ae 9f a4 bc 42 dd 19 bd 1a 0b 98 3b 4a c3 94 bc
       -0.020095672 -0.037564524 0.0046399953 -0.018159527
000290 30 bb 88 bd 59 51 eb bc fc 8c 03 bd 6f 9c fd 3c
       -0.06676328 -0.028725313 -0.032116875 0.030958382
0002a0 bc 9d 70 bd ff 66 e6 3b b3 44 8e 3b be f3 10 bd
       -0.058744177 0.007031321 0.0043416857 -0.0353887
0002b0 dc 47 73 bb 70 3d 51 3d 17 09 2a 3d 11 f2 84 bd
       -0.003712169 0.051083982 0.041512575 -0.06491483
0002c0 55 24 b4 3c 54 e6 34 bd 59 5e 20 3d 06 f7 27 3c
       0.02198998 -0.04416497 0.039152477 0.010251766
0002d0 10 63 8e bc 7b 4a 43 3d 0c 64 fd 3c d2 7a a7 3c
       -0.017381221 0.047678452 0.030931495 0.020444307
0002e0 ba 3f 86 3c 59 1e 91 bd 31 d3 3d bd b1 ee fb bc
       0.016387809 -0.070858665 -0.046343986 -0.030753465
0002f0 b7 2f 97 bd b6 e4 44 bd 27 40 2f bd bc ae 3b 3d
       -0.07382148 -0.04806968 -0.04278579 0.045820937
000300 37 04 54 bd 5a 79 6e bd e9 59 d9 bc 2e b3 07 bd
       -0.051761832 -0.0582212 -0.02653213 -0.033129863
000310 16 08 0e bc ec 19 3b 3d bb 3e 8b 3c 06 14 a5 bc
       -0.00866892 0.045679018 0.016997686 -0.02015115
000320 4c 40 4f bd 57 bc 85 bd 8f 5f 96 3c fd ae 2a 3d
       -0.050598428 -0.065300636 0.018356113 0.041670788
000330 3b 96 d4 3b fe 20 84 bc 76 02 0c bd 84 2b 8b bb
       0.0064876354 -0.016129013 -0.034182034 -0.004247131
000340 35 92 56 bd 6d 49 a4 bc e5 3d 5d bc c2 3e 37 3c
       -0.052385528 -0.020054543 -0.013503526 0.011184396
000350 0b 94 57 bd 02 38 86 bd 18 e4 78 3c 58 49 83 bd
       -0.05263142 -0.065536514 0.015191101 -0.064104736
000360 ce ae fc 3c 19 cc 85 3d 1e 22 c0 3c 70 68 13 bd
       0.030845072 0.06533069 0.023453768 -0.03598827
000370 b8 f6 77 3d c8 49 72 3d 1c 40 35 3c ad 60 9d 3b
       0.060538024 0.059152395 0.011062648 0.0048027844
000380 b6 8b 5c bd 97 6f 25 bd 7d 95 29 bc ff b8 e7 3b
       -0.053844176 -0.040389623 -0.010350582 0.007071614
000390 a6 e3 07 bd c2 3a e2 3c 69 16 2b 3b 13 c9 b0 bc
       -0.033176087 0.027615909 0.0026105887 -0.021580255
0003a0 9d 2c cf bb 14 d2 47 bd 0e d2 76 3b 1a b7 21 3d
       -0.006322457 -0.04878433 0.0037661823 0.03948126
0003b0 5f 10 5b 3d ed fb b3 3c bd 68 e9 bb 63 43 a1 bc
       0.05348241 0.021970714 -0.0071230815 -0.019685453
0003c0 52 c4 40 bb 9d d5 c4 b9 26 72 f1 3c 50 c7 68 bd
       -0.002941389 -0.00037543187 0.029473376 -0.056830704
0003d0 57 2e a4 3c be ba a7 3c 66 0a 52 bd 14 c7 7a bd
       0.020041628 0.020474788 -0.051279448 -0.061225012
0003e0 c1 e6 75 3c bf a1 90 bd a3 4d 34 3d 07 9d aa bd
       0.015008629 -0.070621006 0.044019353 -0.08330732
0003f0 79 9a 7c 3c f9 58 0b 3d d6 26 8c 3d 86 e0 0f 3d
       0.0154176885 0.034020398 0.06843345 0.03512623
