log_reg/models/tree_branch_failure_best.pth (torch, 389054 bytes, 25 tensors)

network.0.weight f4 [256, 179]
000000 bc 27 11 bc 40 05 af bc 50 75 8a bd 2b 81 97 3c
       -0.008859571 -0.021364808 -0.06760657 0.01849421
000010 ae f5 53 3d 7e 5a 66 3d bb bc 5f 3c d3 fe 0c 3d
       0.05174797 0.056238644 0.013655837 0.034422707
000020 71 e2 a9 3b e7 9b aa b7 db 63 07 3d cf fa 8c 3d
       0.0051844646 -2.0338177e-05 0.033054214 0.068837754
000030 00 06 bf bc e2 07 ab 3c 33 7f 18 bd 4b 93 7a 3d
       -0.02331829 0.020877782 -0.03723068 0.061175626
000040 57 c0 a5 bb 8e d2 f6 bc e3 fd 2d bc e1 cb 8d 3d
       -0.005058329 -0.030129697 -0.010619613 0.069236524
000050 96 13 21 bd b6 e9 68 bc 2a b5 ba 3c 0f 04 34 bd
       -0.03932532 -0.014215877 0.022791464 -0.043949183
000060 6e 06 a7 3d d5 f6 c7 bb 20 e0 44 bd 50 fb ce bb
       0.08155523 -0.0061024227 -0.048065305 -0.00631658
000070 a2 35 5c bd de ad 19 b9 dd 77 d1 3c b6 27 95 bb
       -0.053762086 -0.00014655988 0.02556985 -0.004551853
000080 c9 4c de 3b 8e 79 38 bd 0a e0 d7 3c 0b 12 8e 3d
       0.006784056 -0.0450378 0.026351947 0.06937035
000090 05 f5 0f bd 17 c3 24 ba 56 10 56 bd b7 72 49 3d
       -0.03514578 -0.0006285174 -0.052261673 0.049181666
0000a0 01 13 27 ba 38 88 45 bd 40 92 86 bd 2c 2b 91 bd
       -0.0006373376 -0.04822561 -0.06570864 -0.070883125
0000b0 18 42 e6 3c 25 41 af b8 89 0c 79 3d 98 80 15 bd
       0.028107688 -8.3567844e-05 0.06080297 -0.03649959
0000c0 6e 9d 91 3d 92 fc 32 bd 6f 40 cd 3c 7f 53 a3 3c
       0.071101055 -0.0436979 0.025055138 0.019937275
0000d0 ba 56 6a bd c3 79 48 3c 17 c6 2e bc b7 db 0f bd
       -0.057211615 0.0122360615 -0.0106673455 -0.035121646
0000e0 21 93 10 3d e2 ce 61 bd b5 c6 10 bd 97 4d b7 bc
       0.035296563 -0.05512894 -0.03534575 -0.022375865
0000f0 28 74 81 bd 82 ed 6e 39 89 56 1d 3b d6 2c b3 3c
       -0.06320983 0.00022785927 0.0024007878 0.021871965
000100 fa 45 02 bc c1 bb 07 bd d5 78 5f bd 65 97 82 bd
       -0.007951254 -0.03313804 -0.054558594 -0.063765325
000110 9a 64 a0 3c a0 80 51 bd a2 ac b7 3c 57 68 2e bd
       0.01957922 -0.051148057 0.022421185 -0.042579975
000120 c3 fb 0d 3d 8b c1 ae bc 53 6c 0c bd e8 f9 6f 3b
       0.034663927 -0.021332523 -0.034282994 0.0036617462
000130 6a 3e bb ba cb b3 0c 3c ea cc 45 bd b8 fa 57 bd
       -0.0014285569 0.008587788 -0.048291124 -0.05272934
000140 ca 15 19 bd e4 5a 06 bd 41 39 85 bb 78 5c 88 3d
       -0.037374295 -0.032801524 -0.004065663 0.06658262
000150 fe bc 40 bd 86 36 8d 3c e4 34 2c bd ee 8f 0a 3d
       -0.047055237 0.017237913 -0.042042628 0.03382867
000160 69 7b 16 3d 3d e6 0e 3c 08 3f b7 bc 1f ec f3 3c
       0.036738787 0.008721885 -0.022368923 0.029775677
000170 85 41 87 3c 9e eb 57 3d a9 ac 8a bd 26 78 9f bc
       0.016510734 0.052714936 -0.067712136 -0.01946647
000180 41 a5 1b bd 84 2b bc bb 96 f1 9b bc 9d c9 a7 bb
       -0.037999395 -0.005742492 -0.019036096 -0.0051204697
000190 de 86 54 3b 97 35 6f bc e1 21 ab bc 04 c5 45 bd
       0.003242902 -0.014600179 -0.020890178 -0.048283592
0001a0 56 3d 77 3d ce 83 34 bd fc 9c 19 bd 8d bb 11 bc
       0.06036123 -0.04407101 -0.037503228 -0.008894813
0001b0 67 39 d7 3c 7d 5d 0d 3d 4a a4 67 b9 c4 9a ed 3c
       0.026272489 0.034512985 -0.00022091079 0.029004462
0001c0 b5 e7 9d 3c 1c 20 cb 38 fc 45 54 3d 4a 11 93 3c
       0.019275526 9.685775e-05 0.051824555 0.01795258
0001d0 76 b5 ca 3c 08 6a 85 bd 11 46 63 bd 8f dc 00 3c
       0.02474473 -0.065143645 -0.055486742 0.007865085
0001e0 3c 1c c4 bc 42 c8 8b bd 28 45 1e 3d 04 dc 3c bd
       -0.023939244 -0.068253055 0.03864017 -0.04610826
0001f0 3d 31 0c bc 85 06 b2 3c ef 34 6f 3c 85 53 29 bc
       -0.008556661 0.021731624 0.014600023 -0.010334854
000200 2b 42 45 bc f8 4a 39 bd c8 83 75 bd 9f 2a 58 bd
       -0.012039701 -0.04523751 -0.05994013 -0.05277502
000210 7a 82 c0 39 45 e0 2f 3d dc e2 82 3d a6 3c 9d 3b
       0.00036718306 0.04293849 0.06390926 0.0047984896
000220 1a a0 84 3c ba aa 02 bc b0 e3 35 bb e9 0a 27 bd
       0.016189624 -0.007975275 -0.002775412 -0.04078189
000230 3d 30 b4 bc ed 9d c5 3c aa f7 64 3d 4b 29 1b 3a
       -0.021995658 0.024123156 0.055900253 0.0005918934
000240 1a 91 82 3c ef 28 a2 3c 0d 58 ba bc 62 f2 a8 3c
       0.01593833 0.01979491 -0.022747064 0.02062339
000250 02 11 a9 3b 40 27 1a 3d d5 9b 1c bd 72 87 3c 3d
       0.005159498 0.037635088 -0.03823455 0.04602761
000260 3a 14 b5 bd c7 2b 44 bd 56 b4 0e 3d 6f 28 57 bc
       -0.088417485 -0.04789331 0.03483995 -0.013132199
000270 fd 1e 4c 3d ea 2c 03 3c bb 03 58 3c f6 21 1a bd
       0.04983424 0.008006314 0.013184483 -0.037630044
000280 35 27 a7 bd c5 49 56 39 12 5d 36 3d d3 6f 14 3c
       -0.08161775 0.00020436112 0.044522353 0.009059864
000290 7f 80 9d bb 10 1b 92 3d 08 87 da bc fc e6 8d 3d
       -0.0048065777 0.07134068 -0.026675716 0.069288224
0002a0 ce 38 66 ba fc c9 fc 3b 7d 62 2a 3d 5b a8 38 3d
       -0.0008782268 0.007714508 0.041597832 0.04508243
0002b0 46 8a 94 bd b4 5a 25 3d a6 6a e7 3b 10 6f 0a bd
       -0.07252936 0.040369704 0.007062274 -0.033797324
0002c0 63 31 40 bd 52 e0 58 3d 1d 66 0b 3d c4 05 34 bd
       -0.0469221 0.052948304 0.03403293 -0.04395081
0002d0 c5 9a 72 3c d8 af f7 3c 84 d4 a9 3d c6 3a 46 3d
       0.014807408 0.030235216 0.08292487 0.048395894
0002e0 7c 81 2b 3c 88 f0 51 3c 94 4a 12 bd 37 4e 3a 3d
       0.010467883 0.012813695 -0.035715654 0.045484748
0002f0 c2 cc d7 3a d8 52 77 bc 03 9f 14 3d fa 14 0e bd
       0.0016464221 -0.015095435 0.036284458 -0.034687974
000300 76 ca 5a bd 78 6f 82 bd f2 09 69 3d 99 9d 88 bb
       -0.053415738 -0.06368917 0.05689425 -0.0041691777
000310 e7 ac 5d bd db 0d 7f 3c f1 2f a0 3c c7 b6 54 3d
       -0.05411997 0.015567268 0.01955411 0.051932123
000320 af f2 72 3d 1d 84 01 3d ce 48 75 bd 9e 1b 50 bd
       0.059313472 0.031620134 -0.059883885 -0.050807588
000330 9e 1a 87 bb d2 4d 2f 3d f4 a7 df 3c e8 aa 81 bd
       -0.004123046 0.042798825 0.027301766 -0.06331426
000340 40 9b ab 39 89 d8 2b 3c 93 fe 65 bc 5e 3f 13 bd
       0.00032731332 0.010488638 -0.014037746 -0.035949104
000350 be f7 39 bc 2c 0a a5 3c 74 9f e0 3b 79 84 59 bd
       -0.01135057 0.020146452 0.006854946 -0.05310485
000360 72 4f 8c bc 0e fa 96 bd a8 dd 2e 3c c0 2b ac bc
       -0.017127726 -0.07371913 0.010672964 -0.021016955
000370 0e 63 61 bd 92 84 95 3d 92 dc 56 bd c3 17 5a bc
       -0.055026107 0.073006764 -0.052456446 -0.013311329
000380 5e e3 c7 ba 19 db 8f 3c 9a 51 dc 3c 0d bb 33 3d
       -0.0015250256 0.017560529 0.02689438 0.043879557
000390 0b 41 e3 3c 0c 1e 5d 3d be af 33 3d a5 de 36 3d
       0.027740976 0.053983733 0.043868773 0.044645924
0003a0 d5 49 73 bd 6b 34 6b bd 53 15 b7 bb 5b 74 43 bd
       -0.059396584 -0.057423037 -0.005587259 -0.047718387
0003b0 d6 d2 86 3c ea 9a 8f bd 17 cb 98 bd ba c2 4b 3d
       0.016457956 -0.070119694 -0.07460611 0.049746253
0003c0 5f 5c 61 bd 74 f8 67 bc 8f b2 26 bb 56 48 54 bc
       -0.055019733 -0.014158357 -0.002543602 -0.012956699
0003d0 4a 42 36 bd db dc 22 bd 4b 85 98 bd 6d 10 77 3b
       -0.044496812 -0.039761405 -0.074472986 0.0037699
0003e0 7a f4 9d 3d 4e 26 62 bd bd e6 b1 3c 70 bf fb 3c
       0.07712646 -0.05521231 0.02171647 0.030730933
0003f0 10 cf a1 bd c1 a7 95 bb d8 b8 92 3d b6 bd 20 ba
       -0.07900822 -0.004567117 0.071641624 -0.0006131785

network.0.bias f4 [256]
000000 03 7c a0 ba 82 e9 cb b9 65 d1 38 bc 11 ed 0e bc
       -0.001224399 -0.00038893154 -0.011280392 -0.008723513
000010 db 54 d3 3c bc 21 bb 3b 27 b8 9c bc 73 df c7 38
       0.025797298 0.0057108086 -0.01913078 9.53068e-05
000020 f6 c1 d4 3a f6 58 d0 ba a1 ae d8 3a 2c 77 1e bb
       0.0016232121 -0.0015895653 0.0016531536 -0.0024179919
000030 a1 f7 c8 3a d3 f0 9f bb de a3 4d 3a de d9 6d 3a
       0.0015332588 -0.0048810034 0.00078445475 0.0009073297
000040 f5 3a 85 3a 0d a1 82 bb fe 53 51 3c 3c e3 ba bb
       0.0010164665 -0.003986484 0.012776373 -0.005703358
000050 89 20 b3 3a b2 d2 d1 3a 38 eb 05 3a 3c 64 33 3c
       0.0013666312 0.0016008227 0.00051085977 0.010949191
000060 1a 4e a0 3c 34 46 d7 ba b2 8a cb bb e8 0a 97 39
       0.019568492 -0.001642412 -0.006211602 0.0002880909
000070 ca 6f 80 bc a7 66 d4 3b 67 d7 cb ba 15 94 2c bc
       -0.015678305 0.0064819637 -0.0015551866 -0.010533352
000080 f4 19 74 b9 3d 9e c6 38 ae 94 6a b8 38 41 bf 3c
       -0.00023279322 9.47085e-05 -5.5928416e-05 0.023346528
000090 a4 b0 97 ba 02 c6 bb ba 78 40 07 b7 0e 5c a5 ba
       -0.0011573029 -0.0014325979 -8.061637e-06 -0.0012615935
0000a0 a1 f1 d4 bb 87 be 7d b8 b8 c4 f0 bb 2b 0b 93 3a
       -0.006498531 -6.0497343e-05 -0.0073476695 0.0011218538
0000b0 42 91 26 3a 51 27 3d 3a 74 47 8f b9 50 51 cb bb
       0.00063540426 0.00072156364 -0.00027328322 -0.0062047616
0000c0 42 81 ea 37 8e 15 4a b8 01 f7 a3 3a 93 17 7e bc
       2.7955164e-05 -4.8180627e-05 0.0012509526 -0.01550855
0000d0 70 a8 80 bc 9f 71 e3 b9 ac ee 3f ba e0 3a ea 3b
       -0.015705317 -0.00043381468 -0.00073216367 0.0071481317
0000e0 99 61 8c bc 3d 51 d0 39 9d 55 47 bc 29 97 bb 3c
       -0.017136382 0.0003973338 -0.012166408 0.022899227
0000f0 96 56 28 b7 06 3b 16 ba 52 ee 93 bc d9 d6 d3 ba
       -1.003374e-05 -0.0005730841 -0.018057976 -0.0016162052
000100 6a e3 de bb 70 53 60 39 ae 21 7a b8 d0 d1 9c 3b
       -0.006802012 0.00021393388 -5.963601e-05 0.004785754
000110 36 80 db bb e1 43 50 3a 84 59 83 bb 8a 4d 15 ba
       -0.0066986335 0.0007944685 -0.004008474 -0.0005695453
000120 00 9d 8c 3c 02 73 41 b8 60 51 7a b8 7f 9a c1 ba
       0.017164707 -4.6121895e-05 -5.968043e-05 -0.0014770775
000130 08 a0 c8 3b da 9d d1 3b 57 2c 06 3a 8d d0 ba ba
       0.006122593 0.006396991 0.00051183015 -0.0014252827
000140 25 51 07 ba 1b 0d 1c bc 67 05 d3 ba e9 a3 c9 bc
       -0.0005161933 -0.009524609 -0.0016099632 -0.024614291
000150 d1 97 d3 ba a1 51 2f 3a 9d 45 b7 ba 66 c4 c6 b7
       -0.0016143267 0.0006687884 -0.0013982538 -2.3694894e-05
000160 01 7c c9 3c 9f e6 10 3c b7 71 b7 3b 58 29 95 ba
       0.024595262 0.008844047 0.0055982727 -0.0011380119
000170 da 8a 86 3c c3 31 10 3a 66 12 a8 bc d2 a6 d8 3a
       0.016423631 0.0005500579 -0.020516586 0.0016529209
000180 05 c4 d7 3a 1a 7f d8 bc 77 8b ca 3c e4 cf 8d bc
       0.0016461617 -0.026427794 0.024724705 -0.017311044
000190 0d 75 19 3a c5 4c b1 3c 88 b9 98 3a b8 85 83 39
       0.0005853929 0.021643052 0.0011651972 0.00025085895
0001a0 d2 0d d9 3a 75 a3 92 bc 66 bd c1 bc ca 4e db 3c
       0.0016559905 -0.017900208 -0.023649883 0.026770968
0001b0 18 09 0e b7 0a dc c0 bc 03 92 c8 bc e2 9b b9 3a
       -8.465977e-06 -0.023542423 -0.024483686 0.0014160837
0001c0 16 d4 6f 3c a7 69 97 b9 58 89 24 bb 4a 4e be ba
       0.014637968 -0.00028879681 -0.0025106277 -0.0014519182
0001d0 62 7f ab bb 19 bc 9f 3a 42 e9 0d ba 48 33 17 38
       -0.005233691 0.0012186795 -0.0005413481 3.6048965e-05
0001e0 f8 19 e4 b9 59 db c9 b8 0c 98 ce 3a 60 60 45 3c
       -0.00043506897 -9.6252836e-05 0.0015761866 0.012046903
0001f0 42 31 c2 3b cb 40 82 3c 1f 8e d0 3a c0 b2 26 3a
       0.005926282 0.015900036 0.0015911496 0.0006359033
000200 9b 31 c9 ba d4 c4 90 3b e5 7f 52 3c fa ba 4e 3c
       -0.0015349867 0.004417995 0.012847875 0.012617821
000210 1c 72 23 bc 9f 8a 2e ba d9 3b 9a 3c 2d 49 de bc
       -0.009975936 -0.00066582294 0.018827366 -0.027134502
000220 06 b9 b7 b8 dc 0a ce 3c 8c 2d bf ba 66 e6 1a ba
       -8.760583e-05 0.025151663 -0.0014585718 -0.0005908966
000230 ee af 08 ba 51 6b 92 b9 09 30 34 bc 7a 9a 02 39
       -0.0005214204 -0.00027927247 -0.010997781 0.00012455313
000240 e1 86 ba bc cf df ca 3b 65 7c 2c 3c 77 c3 8c bc
       -0.022769393 0.006191231 0.010527705 -0.017183049
000250 a5 42 c8 3b 9a 8a d7 ba 9c ce 46 ba e0 97 09 3c
       0.0061114603 -0.0016444505 -0.0007583888 0.008398026
000260 02 bf 59 3c 7f 11 a1 bc e5 55 07 bc 11 22 dc bc
       0.013290169 -0.019661663 -0.008260225 -0.026871713
000270 8f 1a a3 bb 3e 35 0e 3c 6a b6 49 3c 5c b6 50 b9
       -0.0049775313 0.008679686 0.012311557 -0.0001990436
000280 4d c4 06 3c 85 e6 49 bb 23 e1 2d bb 09 d4 04 ba
       0.008225513 -0.0030807566 -0.0026531897 -0.0005066996
000290 d2 fc fe 39 30 81 9c bc e2 0f 5e b8 bf ab f3 bb
       0.0004863502 -0.01910457 -5.2943717e-05 -0.007436245
0002a0 20 61 9e ba 1c 5a 25 ba 8a ac 3f bb 3e 37 f7 bb
       -0.0012083389 -0.0006307678 -0.0029247128 -0.007544427
0002b0 f6 72 62 b9 0d ef da bc d3 b7 ca 39 b2 0d 5f 3a
       -0.00021595866 -0.026725316 0.00038665402 0.00085088157
0002c0 7f 54 60 3c 0b fe 89 39 d2 40 cb b9 f6 6f 59 b9
       0.01369202 0.00026319953 -0.00038767472 -0.00020736441
0002d0 a7 d2 d4 3a c4 44 c2 39 48 27 25 3a af 08 a8 b9
       0.0016237096 0.00037053798 0.0006300104 -0.00032049927
0002e0 ed af 18 bc 53 48 0d 3c 3c dd ce ba 9f 7d 0c 3c
       -0.009319288 0.0086232005 -0.0015782486 0.008574872
0002f0 80 cb 5b 3a fa 94 9d 39 83 49 c3 bc eb c7 0a 39
       0.0008384511 0.0003005637 -0.023838764 0.00013235181
000300 1c 2a b5 b8 3f 15 4f ba 8a ba 97 bb d6 87 5e 3c
       -8.638596e-05 -0.0007899589 -0.0046303915 0.0135821905
000310 ac 1c d7 3c 80 92 d3 3a 8a 31 3e 3a 89 e2 d2 3b
       0.026258789 0.0016141683 0.00072553067 0.0064356965
000320 c5 e6 05 b9 a1 3a a4 bb 23 25 b0 3c f4 f0 90 bc
       -0.00012769837 -0.005011872 0.021502083 -0.01769302
000330 a2 dc cb 3b 04 3f 31 3c 80 be 28 b7 92 3f e5 39
       0.00622137 0.010818247 -1.0057935e-05 0.00043725647
000340 a5 69 81 39 96 8f 79 b9 96 65 af b9 b8 5a 22 bb
       0.0002468351 -0.0002379998 -0.00033454288 -0.002477331
000350 49 df d7 bc f0 c1 71 b7 f1 03 11 ba 9c 5f 02 b8
       -0.026351588 -1.4409874e-05 -0.00055318984 -3.108346e-05
000360 17 ac 6a 3b b0 94 06 3c ad 5a a1 39 c4 68 e6 bb
       0.003580814 0.008214161 0.00030775872 -0.007031532
000370 4d 01 83 b9 e7 c8 a3 3c 57 d9 57 bc 67 35 8e bc
       -0.00024987236 0.019993259 -0.013174376 -0.017359449
000380 7a d3 71 3a 1a db a9 bc 9b 87 80 bc f0 33 c0 3b
       0.0009224933 -0.020734359 -0.015689662 0.0058655664
000390 3d 5d af bc 9a a1 8d b8 f1 bd 93 b9 4d b4 a5 bc
       -0.021406764 -6.7535046e-05 -0.00028179542 -0.020227576
0003a0 33 d6 cb bc 0e 05 12 b9 b7 76 16 ba fd a5 bb ba
       -0.024882412 -0.00013925528 -0.0005739736 -0.0014316436
0003b0 b6 e4 a2 38 2e 0e 5a 3b 17 3e d6 bc 7b f3 d6 3c
       7.767363e-05 0.0033272612 -0.026152654 0.026239147
0003c0 b7 05 08 b8 3d e3 bb 3b db 0d a0 39 4b f7 7e ba
       -3.243025e-05 0.005733876 0.000305279 -0.00097261806
0003d0 26 fc f1 b8 4e 8e 03 3a 26 43 40 b9 f3 2d c5 ba
       -0.00011538742 0.00050184585 -0.00018335562 -0.0015043601
0003e0 48 fb 6f bc 36 35 be 38 f9 69 58 bc 67 d3 00 ba
       -0.014647312 9.069817e-05 -0.01320886 -0.0004914314
0003f0 0c 5d 2c ba ba 7d 95 38 f4 4d 89 bb 58 76 d5 3a
       -0.00065751444 7.128292e-05 -0.004190201 0.001628588

network.1.weight f4 [256]
000000 84 a8 80 3f 19 fc 7f 3f 82 2c 7e 3f 61 c1 7f 3f
       1.0051427 0.99994045 0.99286664 0.9990445
000010 b4 8f 7e 3f 39 12 81 3f 9d de 7b 3f ac 25 81 3f
       0.99438024 1.0083686 0.98386556 1.0089622
000020 8e fa 81 3f 1e 95 7f 3f 03 1d 7e 3f 22 e2 80 3f
       1.0154588 0.9983691 0.9926302 1.006901
000030 65 ae 7e 3f 79 70 80 3f 8f 98 7f 3f 65 99 81 3f
       0.99484855 1.0034324 0.9984216 1.0124937
000040 bf 50 80 3f ec 3e 7e 3f bd e8 7e 3f 1f 89 7c 3f
       1.0024642 0.9931476 0.9957388 0.9864673
000050 cc 0b 82 3f 76 0d 83 3f 8a 41 81 3f 0d 9e 80 3f
       1.015985 1.0238483 1.0098126 1.0048233
000060 88 97 7f 3f 33 79 7e 3f 16 7f 81 3f 37 ce 7f 3f
       0.99840593 0.99403685 1.0116909 0.99924034
000070 15 3c 7f 3f ad 5d 7b 3f fe 23 80 3f 27 3e 7f 3f
       0.9970105 0.9818981 1.0010984 0.9970421
000080 7f 00 7d 3f 0d fe 7d 3f bd 39 81 3f 0a 6a 7e 3f
       0.9882888 0.99215776 1.0095745 0.9938055
000090 e5 fa 80 3f 94 d5 7e 3f c7 7a 81 3f df 38 80 3f
       1.0076567 0.99544644 1.0115594 1.0017356
0000a0 0e 17 7d 3f 60 7f 7d 3f 4c 01 81 3f 4a 66 7d 3f
       0.98863304 0.99022484 1.0078521 0.98984206
0000b0 35 7a 7c 3f da 71 7f 3f 41 72 7c 3f 9d ab 81 3f
       0.98623973 0.997831 0.9861184 1.0130497
0000c0 d0 9e 82 3f d3 e9 7e 3f d6 25 7d 3f 86 23 7e 3f
       1.0204716 0.9957554 0.9888586 0.99272954
0000d0 56 a3 7e 3f 60 36 7f 3f 26 74 7e 3f 38 9c 7e 3f
       0.9946798 0.99692345 0.9939598 0.9945712
0000e0 82 9c 80 3f f7 11 80 3f c0 0b 80 3f d6 71 81 3f
       1.0047762 1.0005482 1.0003586 1.0112865
0000f0 c7 93 7e 3f ab d1 7c 3f 20 4c 82 3f 80 39 7e 3f
       0.9944424 0.9875743 1.0179482 0.9930649
000100 06 25 80 3f d9 1e 7e 3f a6 4a 7d 3f 6d a6 7f 3f
       1.0011299 0.9926582 0.9894203 0.9986332
000110 ac 08 7f 3f 9d 36 80 3f 84 5b 84 3f 9f 64 7d 3f
       0.9962261 1.0016667 1.0340428 0.9898166
000120 58 68 7d 3f 75 8c 80 3f 91 0c 82 3f 83 07 7b 3f
       0.9898734 1.0042864 1.0160085 0.98058337
000130 74 36 7c 3f 82 3a 81 3f 75 dc 79 3f 28 b9 7c 3f
       0.9852059 1.009598 0.97602016 0.98720026
000140 fb 10 7c 3f c7 14 80 3f 94 df 81 3f 9f 70 80 3f
       0.9846341 1.0006341 1.0146356 1.0034369
000150 7f 4a 7e 3f 90 8c 7f 3f f7 d3 7b 3f 7d a1 80 3f
       0.9933242 0.99823856 0.9837031 1.0049282
000160 84 a1 7d 3f 74 0c 7c 3f d0 36 80 3f 99 47 81 3f
       0.9907458 0.984565 1.0016727 1.0099975
000170 e8 23 80 3f cd a9 81 3f 24 db 80 3f dc 58 7e 3f
       1.0010958 1.0129944 1.0066876 0.9935434
000180 d2 a1 7e 3f 13 f9 80 3f bc 2f 80 3f 0d 0b 7b 3f
       0.9946567 1.0076011 1.0014567 0.9806374
000190 0b df 80 3f f8 c3 80 3f 8b a0 7d 3f a4 e9 7c 3f
       1.0068067 1.0059805 0.99073094 0.9879401
0001a0 96 d0 7a 3f 2d ac 7f 3f 9c 9d 80 3f 3c 35 7e 3f
       0.97974527 0.99872094 1.0048099 0.9929998
0001b0 cc 17 81 3f 31 5a 7f 3f 49 81 7f 3f b0 4f 7e 3f
       1.0085387 0.99746996 0.9980665 0.99340343
0001c0 73 94 81 3f 02 47 7c 3f 1e 32 81 3f 6c 91 80 3f
       1.0123428 0.9854585 1.009342 1.0044379
0001d0 1e 87 7d 3f 7c 1d 83 3f dc 95 80 3f 25 16 7f 3f
       0.990343 1.0243373 1.0045733 0.99643165
0001e0 32 3a 7f 3f d9 01 80 3f 73 5a 7e 3f 49 05 80 3f
       0.99698174 1.0000564 0.99356765 1.0001613
0001f0 74 4b 81 3f 25 fb 7d 3f 85 74 82 3f 24 0e 7d 3f
       1.0101151 0.9921134 1.0191809 0.988497
000200 c1 c4 81 3f 34 20 81 3f 64 f8 7e 3f 13 dd 81 3f
       1.013817 1.0087953 0.99597764 1.0145591
000210 9c a6 7e 3f 37 3a 81 3f 43 7f 80 3f 2f 11 7d 3f
       0.99472976 1.0095891 1.0038837 0.98854345
000220 45 42 80 3f bb aa 7d 3f 30 07 81 3f 65 09 81 3f
       1.0020224 0.9908864 1.0080318 1.0080992
000230 04 12 80 3f 6e a0 80 3f 62 e0 80 3f a1 a2 7f 3f
       1.0005498 1.0048959 1.0068476 0.99857527
000240 f1 e5 7f 3f 3f 5b 7f 3f ab 12 80 3f 20 57 7b 3f
       0.9996024 0.99748605 1.0005697 0.9817982
000250 cd 66 7f 3f d3 10 80 3f 25 ac 7b 3f cd 3e 80 3f
       0.99766237 1.0005134 0.98309547 1.0019165
000260 43 58 7d 3f be 48 7c 3f 3c 87 80 3f b6 3b 7e 3f
       0.989628 0.98548496 1.004127 0.9930986
000270 d2 11 81 3f 8c 88 7a 3f f1 71 81 3f b5 d1 7e 3f
       1.0083563 0.97864604 1.0112897 0.9953874
000280 56 1d 7f 3f 7d b5 82 3f ba 47 78 3f 80 0a 80 3f
       0.9965414 1.0211636 0.96984446 1.0003204
000290 81 44 80 3f 51 fe 7f 3f 87 3c 80 3f 29 26 7d 3f
       1.0020906 0.9999743 1.0018471 0.9888635
0002a0 9d 69 7f 3f e9 78 7d 3f ee 77 83 3f b1 02 81 3f
       0.9977053 0.9901262 1.0270975 1.0078946
0002b0 6b fe 7e 3f 4f 9e 80 3f 12 45 7c 3f 91 91 7f 3f
       0.9960696 1.0048312 0.9854289 0.9983149
0002c0 23 4a 81 3f 2a 27 7f 3f 86 b1 7e 3f e4 fa 80 3f
       1.010075 0.99669135 0.9948963 1.0076566
0002d0 31 14 7f 3f fc 56 7d 3f 52 44 7d 3f 76 29 7e 3f
       0.99640185 0.9896085 0.98932374 0.99282014
0002e0 8b 43 80 3f b5 de 7e 3f c5 57 7e 3f cb dd 80 3f
       1.0020612 0.99558574 0.99352676 1.0067686
0002f0 37 4f 80 3f 6f 01 7e 3f 2d 19 80 3f c1 01 81 3f
       1.0024174 0.9922094 1.0007683 1.007866
000300 f6 42 7b 3f 63 3d 7d 3f 9a e0 81 3f 81 54 7e 3f
       0.9814905 0.98921794 1.0146668 0.9934769
000310 38 d4 7c 3f 43 20 80 3f 13 35 80 3f ba 86 80 3f
       0.9876132 1.0009845 1.0016197 1.0041115
000320 ff 50 7c 3f f3 a1 81 3f 0f 6a 7f 3f 40 a1 7b 3f
       0.9856109 1.0127548 0.9977121 0.9829292
000330 85 cb 7d 3f ba 2e 80 3f ae f8 7f 3f 8f 3f 7f 3f
       0.9913867 1.001426 0.9998883 0.9970636
000340 cd a6 82 3f 99 0b 7e 3f 36 ba 81 3f 36 d3 7f 3f
       1.0207154 0.99236447 1.0134952 0.9993166
000350 85 02 80 3f 13 a6 80 3f e7 89 7d 3f b9 8a 7e 3f
       1.0000769 1.0050682 0.9903855 0.99430424
000360 b1 dc 7f 3f 45 33 7e 3f 43 9a 82 3f b3 d9 7d 3f
       0.99946123 0.9929698 1.0203327 0.9916031
000370 0e d3 7e 3f af 11 80 3f cf 0e 7d 3f 5d 08 7c 3f
       0.99540794 1.0005397 0.9885072 0.9845026
000380 36 5f 80 3f a3 76 80 3f 9b 58 7b 3f ce 09 7d 3f
       1.0029056 1.0036205 0.98182076 0.98843086
000390 93 a6 7f 3f 72 12 7c 3f 00 dc 7d 3f 04 7b 81 3f
       0.9986355 0.98465645 0.9916382 1.0115666
0003a0 49 39 80 3f 8c a0 7c 3f 93 d2 7e 3f 59 60 7e 3f
       1.0017482 0.98682475 0.9954006 0.99365765
0003b0 3c a0 7e 3f 91 11 80 3f 6f 9f 7b 3f 36 25 80 3f
       0.9946325 1.0005361 0.9829015 1.0011356
0003c0 e1 31 7d 3f e6 ba 80 3f ef 3a 80 3f 48 31 7d 3f
       0.98904234 1.0057037 1.0017985 0.9890332
0003d0 9e e5 7b 3f 6a 3c 81 3f ca 07 81 3f 70 76 7f 3f
       0.98397243 1.0096562 1.0080502 0.99790096
0003e0 94 d5 82 3f be 40 7e 3f ad 66 80 3f 98 0f 7e 3f
       1.0221429 0.9931754 1.0031334 0.99242544
0003f0 90 e7 7d 3f 2e 87 81 3f a4 dc 7f 3f c3 6f 82 3f
       0.9918146 1.0119379 0.99946046 1.0190357

network.1.bias f4 [256]
000000 16 30 c1 39 7a 3a 99 ba 61 b2 bb ba f8 ec b3 3b
       0.00036847655 -0.0011690401 -0.0014320129 0.0054908954
000010 72 79 a3 bb 4d b6 7d 3b ac 4e 42 bc e4 3b 0f 3c
       -0.0049888426 0.0038713396 -0.011859577 0.008742306
000020 fc 9e 2b 3c b0 d8 8e 3b 66 6a 27 bc 97 ab 80 3a
       0.010474917 0.0043593273 -0.010218238 0.0009816763
000030 86 5a 38 bb c6 c2 b4 3b 24 17 d3 ba 82 b9 c3 3a
       -0.0028130128 0.005516383 -0.0016104919 0.0014932605
000040 86 a3 d3 3b fa af 33 3b 1a aa ba bc 37 c1 79 3a
       0.0064587025 0.0027418123 -0.022786189 0.00095273874
000050 c9 ff 10 3c 50 89 ae 3c db e8 d2 3b 80 30 a3 bb
       0.008850046 0.02130571 0.00643645 -0.004980147
000060 7c 8e 02 3c 5f 7e 7a bb 0a 8b 50 3c 20 74 a8 bb
       0.007968541 -0.0038222296 0.012728462 -0.0051407963
000070 18 5a e8 3b 99 1c 6f bc 8f e9 62 3b db 0e 5e bb
       0.007090818 -0.014594221 0.0034624075 -0.0033883366
000080 0f 09 fb ba 2b 4b bb 3a 07 24 c7 3b 65 d7 87 3b
       -0.001915248 0.001428937 0.006077293 0.00414555
000090 61 46 ad 3b 96 7f 1b 3a 5f 72 87 3c 9e a9 13 ba
       0.005287931 0.00059317925 0.016534029 -0.000563288
0000a0 c3 a0 49 bc 6b 0d 49 3a bd da d3 3b c3 d3 f4 bb
       -0.012306395 0.0007669541 0.0064652846 -0.007471533
0000b0 16 6c 17 bc 96 d3 c5 3b 9e 87 63 bc 83 fb 27 3c
       -0.009242078 0.006037186 -0.013887314 0.010252836
0000c0 78 4d 85 3c a1 47 9d 3b 48 9e 8a bb 3b 31 c8 3b
       0.016272292 0.0047997986 -0.0042302944 0.0061093844
0000d0 70 f7 bf 3a ef 66 57 bc 3a 36 b7 bb 00 e1 65 bb
       0.0014645886 -0.0131471 -0.005591181 -0.0035076737
0000e0 c4 e0 a9 3b b4 39 85 38 5e be 6d b9 73 58 95 3a
       0.005184265 6.352682e-05 -0.00022672999 0.0011394158
0000f0 e5 14 a0 bb 5a fb 22 bc 8c f3 c6 3b e4 82 33 bb
       -0.0048853033 -0.009947622 0.0060715135 -0.002739125
000100 fe 36 d5 3b 6f f8 9a ba c6 8a 59 bc e8 f0 2e bb
       0.0065067997 -0.0011823307 -0.013277715 -0.0026693884
000110 a0 41 83 b9 ba f7 ff 3b 64 b6 da 3c 0d b8 cc bb
       -0.00025035162 0.0078115137 0.026698299 -0.0062475265
000120 1e 88 11 bc ba 8e fa 3a 1c 65 8b 3c da cf 20 bb
       -0.0088825505 0.0019116022 0.017015986 -0.0024537952
000130 52 bf 89 38 c8 8c 9c 3b 72 a3 9b bc 8a 18 ab bb
       6.568305e-05 0.0047775246 -0.018998835 -0.005221431
000140 7a e9 17 bc 3d 32 88 3b 99 4b 42 3c 88 80 d3 ba
       -0.009271974 0.0041563795 0.011858844 -0.0016136328
000150 c0 e9 96 bb 19 1d a5 3b 85 d3 a1 bc 3c e6 d9 b9
       -0.004605502 0.005038869 -0.01975418 -0.00041561003
000160 2b e2 ea bb ba 25 09 bc 43 3c b4 3b 88 78 76 3c
       -0.0071680746 -0.008370811 0.005500348 0.015043385
000170 f6 3c 1e 3a c6 52 6b 3c 40 7a ac 3b b3 d0 ea 3a
       0.00060363056 0.014362996 0.005263597 0.001791498
000180 23 0a 13 bc 9e e1 71 3c 3a 23 60 39 fc 3f ca bb
       -0.008974585 0.014763264 0.00021375428 -0.0061721783
000190 d1 2a 9f 3c 5f 43 c9 3b 3c e3 75 bc 58 cc c1 3b
       0.019429596 0.0061420645 -0.01500779 0.0059142523
0001a0 7d b2 a2 bc 9f 3d 78 bb 67 52 69 3c a7 59 60 bc
       -0.0198605 -0.0037878526 0.014240838 -0.01369325
0001b0 e1 65 d4 3b 53 c7 b7 3a e7 c7 0f 3c a4 47 10 3c
       0.0064818715 0.0014021195 0.008775688 0.008806143
0001c0 01 63 62 3c 10 4d 50 bc 75 db 15 3c 94 ba 65 bc
       0.01381755 -0.012713686 0.009146561 -0.0140215345
0001d0 87 2e 6e bc 66 0e d1 3c b6 ff 44 3c 92 c9 8b bc
       -0.01453746 0.025519561 0.012023857 -0.01706389
0001e0 9a 3a 50 ba a7 53 1b bc 60 2c 66 ba 66 89 fd 3b
       -0.00079433026 -0.0094803935 -0.0008780416 0.0077373264
0001f0 d6 ee 26 3c 6e 0d e6 bb 99 79 1f 3a 58 86 97 ba
       0.010188779 -0.007020644 0.0006083488 -0.0011560423
000200 f6 e2 28 3a 56 32 86 3b fb dd 75 3c 7f 5a e1 3b
       0.0006442511 0.004095356 0.015006538 0.006877243
000210 55 2c 8c bc 61 52 a6 bb 7a f4 3b b9 af 99 8b bc
       -0.017110983 -0.0050757383 -0.00017924784 -0.017041055
000220 00 4c 2a 3c a5 53 07 bc 77 48 89 3c 79 a1 f8 bb
       0.010394096 -0.0082596885 0.016758187 -0.0075876084
000230 b4 a5 95 bb 9a ae 0d bc b1 22 33 3b 00 40 1f bb
       -0.0045668725 -0.008647585 0.002733391 -0.0024299622
000240 17 22 a0 3b c8 81 74 b7 eb 24 a0 3b 29 7e 28 bb
       0.0048868763 -1.457375e-05 0.0048872135 -0.0025709963
000250 53 61 68 bb 91 ca 68 3b db 98 4e bc 3c 4d d1 3b
       -0.00354584 0.003552113 -0.012609686 0.006387381
000260 e6 ce 1a bb f3 f2 70 bc a3 02 cb 3b cd 7e ea ba
       -0.0023621856 -0.014706361 0.0061953827 -0.0017890573
000270 85 69 9d 3b bf 34 7f bc 23 53 04 3c 7e 58 ec b8
       0.0048038387 -0.0155765405 0.008076462 -0.0001126984
000280 16 a5 15 3b 06 68 3e 3c 63 9b c4 bc ad e0 b0 b9
       0.0022833995 0.011621481 -0.023999875 -0.00033736732
000290 cf 2d 96 bb 9c 6a 14 3b 6f 1c 2a ba 8a 5d 17 bc
       -0.0045830975 0.0022646552 -0.0006489222 -0.00923861
0002a0 25 7f c7 ba df 18 27 bb 5a b0 b8 3c 82 da 68 3c
       -0.0015220387 -0.0025497002 0.022545028 0.014212253
0002b0 f4 ec 18 3c d7 9a 36 3b a9 50 8c bb 51 37 9b 3a
       0.009333838 0.0027863288 -0.0042820764 0.0011842047
0002c0 25 dc b2 3b ba 3e 8d ba 78 b5 d3 3b 45 0a 90 3b
       0.005458372 -0.001077614 0.0064608417 0.0043957555
0002d0 7f 42 e4 ba 56 2c 70 3b 98 ee d8 bb 2c aa 06 bc
       -0.0017414837 0.003664752 -0.0066202395 -0.008219283
0002e0 7e d5 d9 3b 34 f2 55 bb e5 b2 65 bc 5a 3e a2 3b
       0.0066477647 -0.0032645585 -0.014019703 0.0049512805
0002f0 97 26 06 3c d2 44 25 3b 47 a9 da 3b 8a fc 37 3c
       0.0081879115 0.0025218022 0.0066730115 0.011229644
000300 47 53 2b bc 03 26 8d 3b 37 03 e8 3b 74 43 20 bc
       -0.010456867 0.00430751 0.0070804614 -0.009781707
000310 3c ac 41 3b 76 c7 a2 3b b6 8c 12 3c 5e 73 85 3b
       0.0029552123 0.0049676253 0.008944681 0.0040725907
000320 92 57 1c bb 83 02 9a ba a2 ca 55 bc 78 9a b1 bc
       -0.0023855907 -0.0011750016 -0.0130488 -0.021680102
000330 d0 a4 d3 3b be 74 ae ba 83 e0 fd ba 62 47 05 3a
       0.006458856 -0.0013309938 -0.0019369278 0.0005084184
000340 9c d8 bd 3c 0d 5d 26 3a 3b 67 a5 3c 73 08 2b 3b
       0.023174576 0.0006346263 0.020190826 0.0026097565
000350 ce 39 82 bb 65 2c 0f bc 1e 28 5e bc 08 f7 92 bc
       -0.003974176 -0.008738612 -0.013559369 -0.01794006
000360 7d 4c d6 bb be 1d e9 bb d2 84 54 3c 32 49 d4 bb
       -0.00653988 -0.0071141412 0.01297112 -0.006478452
000370 19 b0 f7 3a b2 4b 6e ba 2c 17 76 bc 59 a1 1a bc
       0.0018897086 -0.0009090259 -0.015020173 -0.009437882
000380 d4 17 02 3c 44 88 33 3a 10 ad 20 bb 12 a5 a8 bb
       0.007940251 0.0006848613 -0.0024517216 -0.005146631
000390 9e 5c 95 bb f8 c9 70 bc 16 03 1f bb 8b ca 68 3b
       -0.00455816 -0.014696591 -0.0024263314 0.0035521116
0003a0 8e 08 c4 bb af 2a 8e bb 31 f0 05 bc 91 bb aa bb
       -0.005982465 -0.0043385844 -0.008174942 -0.005210348
0003b0 42 da 2e 3a 21 85 59 bb ae 03 66 bc 3f 5d 45 3c
       0.0006670096 -0.0033190923 -0.014038963 0.012046157
0003c0 8e 6d 33 bc 83 7d 87 3b 6c 95 1e ba 39 17 e8 bb
       -0.010951413 0.004134835 -0.0006049487 -0.0070828465
0003d0 17 d1 6e 3a ca ad 78 3c e2 10 1c 3c d4 db 82 bb
       0.00091101363 0.015178153 0.00952551 -0.0039934907
0003e0 70 ad 84 3c 95 7c 83 ba 69 58 67 3c e6 36 a2 3b
       0.016195983 -0.0010031635 0.0141202 0.004950392
0003f0 1e fa 0f bc 53 ed 53 3c 5d 0f d6 bb 85 15 5e 3c
       -0.00878766 0.0129350005 -0.006532593 0.013554935

network.1.running_mean f4 [256]
000000 2a f8 34 bc 00 91 a4 b9 a8 a5 5d bc 4f 0b de bc
       -0.011045495 -0.0003138855 -0.013528265 -0.027105002
000010 ee 98 a0 3c d4 58 21 3c b4 43 a1 bc e7 5d f4 3b
       0.019604173 0.009847838 -0.019685604 0.007457483
000020 45 40 0e 3c 32 c6 12 3c ec 76 0a bc fe 9d 3d bc
       0.008682315 0.008958386 -0.008451205 -0.011573313
000030 80 89 14 ba 87 e0 b4 bc b6 82 9b bb 80 34 c7 b9
       -0.0005666241 -0.02207972 -0.0047458066 -0.00037995353
000040 0a 3d 62 bc b4 ce 26 bb 35 60 81 3c ca 45 d1 bb
       -0.013808498 -0.0025452795 0.015792945 -0.0063864933
000050 08 0f 96 3b ca 85 e1 ba fa b9 01 3c 98 24 08 3c
       0.0045794286 -0.001720601 0.007917875 0.008309506
000060 36 60 2b 3d 0e 0b 21 bc 4c 76 b6 bc 74 ff d6 3b
       0.0418398 -0.009829296 -0.022273205 0.006561214
000070 05 2a 89 bc 55 f1 8a 3c 78 61 2a 3b 98 39 84 bb
       -0.01674367 0.01696078 0.0025998037 -0.004035186
000080 50 5e ee bb 55 68 a0 bb e2 ae 39 bc 3f 61 a1 3c
       -0.0072744265 -0.00489525 -0.011333199 0.01969969
000090 e0 40 b3 39 e0 cc 23 ba 80 7f 0a 3c 0a d5 c1 3b
       0.00034189876 -0.00062484853 0.00845325 0.005915289
0000a0 5f 09 e2 bb cc 91 12 bc c4 a0 9d bc a0 0e e6 bb
       -0.00689809 -0.0089458935 -0.019241698 -0.0070207864
0000b0 fe 7b cf bb ea 36 90 bc fe 3d 0f 3c ea af e0 bb
       -0.0063319197 -0.01760431 0.008742807 -0.006856908
0000c0 4d 86 33 3c b0 86 aa 3c 84 27 9c ba 54 a1 82 3a
       0.010957313 0.020816177 -0.0011913632 0.0009966292
0000d0 00 1c d8 bc f0 c2 bf 3c f8 01 0a 3c a3 ba 5a 3c
       -0.026380539 0.023408383 0.008423321 0.013350162
0000e0 fa 1e f3 bc 3e 4e c1 3b ce e0 83 bc 65 7b 0f 3d
       -0.029677857 0.00589922 -0.016098406 0.035029788
0000f0 0f e6 c7 bb b8 30 89 bc e4 ff e1 bc 91 08 e9 bb
       -0.006100423 -0.016746864 -0.027587838 -0.007111617
000100 df 49 67 bc 5e ea 95 bc c4 98 ca bb 86 67 6b 3c
       -0.014116733 -0.018300232 -0.006182762 0.014367944
000110 0e 97 8c bb cb 74 a9 bb 4e f2 66 bc ce fc e3 39
       -0.004290468 -0.0051713935 -0.014095856 0.00043485168
000120 c8 8d e7 3c 40 3e d0 ba 4f 6a 46 bb 7f 0f 8f 3b
       0.028265849 -0.0015887693 -0.0030275767 0.004365861
000130 20 55 3b 3c d2 07 9d 3c ce 2c 4c bc 7c 21 08 3b
       0.01143387 0.019168768 -0.012461854 0.0020771911
000140 de f4 8c 3c 87 bf bc bb 69 40 b8 3b d5 2c f5 bc
       0.017206606 -0.0057601365 0.0056229127 -0.029928604
000150 1b 46 83 bb e3 c9 50 3c e3 fe ca bb 59 1f 15 bc
       -0.00400616 0.012743446 -0.0061949356 -0.009101712
000160 af 3b 99 3c 26 a8 eb 3c 64 70 bf 3c 39 29 5c bc
       0.018705217 0.028766703 0.023369022 -0.013437563
000170 cd fb 30 3c 06 c8 0c bc 69 ac 08 bd 08 a7 f6 3b
       0.0108022215 -0.008592611 -0.03336755 0.007527236
000180 93 c1 5e 3b 27 68 c9 bc fa f5 97 3c 62 5a d7 bc
       0.003398989 -0.024585797 0.018549908 -0.026288215
000190 36 8e fb 3b ba 97 ef 3c d2 0e a4 bb 40 9d f7 3b
       0.007676865 0.029247154 -0.0050066495 0.0075565875
0001a0 c0 dd eb ba 5a 54 ed bc fe 26 d2 bc 66 10 1e 3d
       -0.0017995164 -0.028970886 -0.025653359 0.038589858
0001b0 77 f6 03 bc d7 02 07 bd c4 7e 2a bd ac 6a 2f bc
       -0.008054367 -0.032961693 -0.0416248 -0.010706585
0001c0 3e 28 b1 3c 60 ed 60 3a 96 4f 0b bc bc 86 db ba
       0.021625634 0.00085802935 -0.0085028615 -0.0016748528
0001d0 80 73 99 bc c2 68 11 3c d3 26 85 3b ce af d9 3a
       -0.018731833 0.008875074 0.004063466 0.001660818
0001e0 f9 45 87 3c 20 89 89 3b 46 bc b6 3a 78 27 b0 3b
       0.016512858 0.004197255 0.0013941608 0.005375799
0001f0 fd 5c a0 3c f2 2e bd 3c ad 53 aa 3c 9d b4 51 bc
       0.01957559 0.023093674 0.020791853 -0.012799409
000200 a8 31 5a 3a d9 bc 9c 3c 0d d7 a7 3c 8e a5 8e 3c
       0.00083234394 0.019133018 0.020488286 0.017412927
000210 79 4a c3 bc ae 9c 90 bc d4 4c 0d 3d 5f 4c 4e bd
       -0.023839222 -0.017652836 0.034497097 -0.050365802
000220 22 9f 6e bb 7d c1 28 3d 26 e9 15 bc d7 ed c6 3b
       -0.0036410769 0.04120015 -0.009149825 0.006070833
000230 f8 44 63 bb c0 c5 d4 ba 1e 68 a5 bb e6 d4 75 3c
       -0.003467856 -0.001623325 -0.005047812 0.015004372
000240 e9 b8 87 bc a6 bf 3f 3c 48 b7 06 3b 0f 20 c8 bc
       -0.016567664 0.011703407 0.0020556021 -0.02442935
000250 36 ad 3e 3c ca b5 87 3c 85 35 d5 bb c0 88 3e 3c
       0.011637976 0.016566176 -0.006506624 0.011629283
000260 68 f6 c5 3c b6 27 e6 bc aa 1d 4e bc 9a d3 25 bd
       0.024165347 -0.028095108 -0.012580315 -0.040485002
000270 20 15 17 3a ed 69 25 3c 6e d8 a1 3c f8 c7 65 3a
       0.0005763341 0.010096055 0.019756522 0.00087654544
000280 c3 84 2b 3c 04 13 b5 ba e0 b1 ff 37 d8 df ad ba
       0.010468665 -0.0013814871 3.0481198e-05 -0.0013265563
000290 fc 3c a9 3b fc 0e df bc ae 10 10 3b 16 5f 8a 3b
       0.0051647406 -0.027228825 0.0021982598 0.004222761
0002a0 fa 4d ab bb 26 f7 66 3b c0 01 c9 39 99 65 95 bc
       -0.0052278014 0.0035242527 0.0003833901 -0.018236922
0002b0 1e 90 91 bb 8f 79 72 bc 7f a4 bf ba 06 8c 88 3c
       -0.004442229 -0.01479949 -0.0014621167 0.01666833
0002c0 18 74 0e 3c a0 a5 83 3c 77 e0 ff bb 87 c9 c2 ba
       0.008694671 0.016070187 -0.0078087407 -0.0014861085
0002d0 78 1c c1 3a d8 27 72 3b c0 54 67 38 ed d3 59 bc
       0.0014733216 0.0036950018 5.515362e-05 -0.013295156
0002e0 bc 84 84 bb 74 36 3b 3c b6 27 92 bb 7a 16 8c 3c
       -0.0040441435 0.011426557 -0.0044603003 0.017100561
0002f0 ce ac 97 bb ef 6c b3 bb be 1b ca bc 80 ba f0 ba
       -0.004628754 -0.0054756324 -0.024671432 -0.0018366128
000300 d7 53 93 3b d2 db 00 3b 57 3f 66 bb ec 0f 92 3c
       0.0044960785 0.0019662273 -0.0035132968 0.017829858
000310 d4 fe 09 3d e8 1f 37 bb e0 c7 37 39 0e ee 21 3c
       0.03369029 -0.0027942602 0.00017526699 0.009883417
000320 66 4f 2d 3b 19 55 70 bc d9 ad ae 3c 80 9c bd bc
       0.002644503 -0.014668726 0.021323131 -0.023145914
000330 f0 5f 96 3c 23 32 d1 3c a8 fd 86 3b 30 c0 b4 bb
       0.018356293 0.025536602 0.0041195937 -0.0055160746
000340 b8 a5 88 bb d6 cb c8 3b dd 0c 53 3b b6 9d e0 bb
       -0.004170146 0.0061278148 0.0032203712 -0.006854738
000350 2d 42 e6 bc 45 c7 2b bb fc 9b 68 3b fc 6a da ba
       -0.028107727 -0.0026211303 0.0035493365 -0.0016663964
000360 ec a0 36 3b 32 f5 82 3c 7a 83 2c bb a4 d9 72 bb
       0.0027866913 0.015986059 -0.0026323483 -0.0037055993
000370 20 a5 39 3a e8 d8 80 3c 7c 40 8b bc ce a8 a6 bc
       0.00070817955 0.015728429 -0.016998522 -0.020344164
000380 0c c3 1f bb 7a 99 a0 bc 69 f2 f1 bc bc 64 a5 3b
       -0.0024377732 -0.019604433 -0.029534535 0.005047409
000390 c0 49 e8 bc 6a 21 e9 bb ce bd a6 3b c8 e8 b1 bc
       -0.02835548 -0.007114579 0.0050885445 -0.021717444
0003a0 7d e8 b4 bc 68 9a ce bb db f4 5b 3c f8 dd dd 3a
       -0.022083515 -0.0063050278 0.013425077 0.0016927114
0003b0 74 a6 b9 3b d6 0e 65 3c 73 0a 5b bc 80 44 0c 3d
       0.0056655947 0.013980588 -0.0133691905 0.034245014
0003c0 20 82 26 3a 8f b8 ce 3b f4 09 de bb 1d e4 38 3b
       0.00063517876 0.006308622 -0.006776089 0.0028212138
0003d0 e8 d6 ad bb bc 8e 67 bb d8 2f bc bc 0e f9 da bb
       -0.00530516 -0.003533288 -0.022972032 -0.0066825217
0003e0 c4 56 ef bc d6 85 ca 3a 84 72 85 bc 20 7f 0b bc
       -0.029216178 0.0015451263 -0.016289957 -0.008514196
0003f0 b7 f5 59 bc 12 ce 03 3a 82 23 44 bc 80 63 49 39
       -0.013303212 0.000502796 -0.011971356 0.0001920592

network.1.running_var f4 [256]
000000 f7 e6 84 3e 3e 63 b1 3e da ce 9e 3e e7 ed a4 3e
       0.25957462 0.34646028 0.3101719 0.32212755
000010 e2 84 d8 3e c6 7a cf 3e 61 7d 6b 3e c9 fa 7f 3e
       0.42288882 0.40523356 0.22997047 0.2499801
000020 ec 25 97 3e 86 b8 93 3e 68 45 bc 3e 02 41 bf 3e
       0.2952112 0.28851718 0.36771703 0.37354285
000030 fc 5e 95 3e 2e 48 98 3e 17 53 9b 3e d5 d7 95 3e
       0.2917403 0.2974257 0.3033683 0.2926623
000040 2b 6a 94 3e bc b6 ba 3e 7e 66 a3 3e ed ba b4 3e
       0.2898725 0.3646754 0.31914133 0.35298863
000050 1f 72 86 3e c1 f0 8c 3e 3f aa be 3e 5c 55 87 3e
       0.26258942 0.2752743 0.37239262 0.26432312
000060 de 4f 8e 3e 3c ed 86 3e 32 ef 87 3e 9d 29 8c 3e
       0.2779531 0.2635287 0.2654968 0.27375498
000070 b0 bf 93 3e 42 0a 83 3e 13 e4 9a 3e fd b4 8b 3e
       0.28857183 0.25593764 0.30252132 0.2728652
000080 c2 53 b3 3e 53 88 af 3e 44 d1 8c 3e 4e bb 9a 3e
       0.3502484 0.34283695 0.27503407 0.30221027
000090 2b 82 af 3e fb ff 98 3e a5 7b a7 3e 36 2f de 3e
       0.34278998 0.29882798 0.3271152 0.43395394
0000a0 77 28 9f 3e e8 96 a8 3e 62 1f 8a 3e 5a bb 9d 3e
       0.3108556 0.32927632 0.26977068 0.30807
0000b0 72 b2 94 3e 94 b3 91 3e 58 ce ac 3e 3d 98 88 3e
       0.29042393 0.2845732 0.33751178 0.2667865
0000c0 23 de 4d 3e a2 66 7b 3e 27 d9 b0 3e e7 34 ac 3e
       0.2010427 0.2455087 0.34540674 0.3363411
0000d0 fc c8 c5 3e bb 64 a1 3e 62 0c 94 3e 0e 92 9e 3e
       0.386299 0.31522164 0.28915697 0.30970806
0000e0 00 b2 87 3e 26 82 93 3e f1 2c 9f 3e 13 3a 94 3e
       0.2650299 0.28810233 0.31088975 0.28950557
0000f0 b9 15 9e 3e 07 c0 88 3e f4 07 9b 3e ba ca 98 3e
       0.30875948 0.26709005 0.30279505 0.29842168
000100 90 72 8b 3e 67 1e aa 3e 08 d6 8b 3e 92 41 79 3e
       0.27235842 0.3322632 0.2731173 0.2434142
000110 9e d5 96 3e 30 08 95 3e 28 d4 94 3e c8 9f 99 3e
       0.29459852 0.2910781 0.29068112 0.30004716
000120 25 bc 86 3e 6b 35 91 3e d3 e0 9b 3e 2a b7 98 3e
       0.26315418 0.28361067 0.30444965 0.29827243
000130 87 f2 9e 3e f8 0b af 3e dc 9f a8 3e 4d fc 6a 3e
       0.3104441 0.3418882 0.32934463 0.22947808
000140 95 0f 91 3e 7f 16 9a 3e da 1c ab 3e 05 41 8f 3e
       0.283322 0.30095288 0.3342045 0.27979293
000150 31 3f 9a 3e 0a 9d ae 3e 60 59 c2 3e c5 d9 ce 3e
       0.30126336 0.34104186 0.37958813 0.4040052
000160 98 93 b7 3e f6 e4 a7 3e 76 b9 c7 3e 44 b8 bc 3e
       0.35854793 0.3279187 0.39008683 0.36859334
000170 50 f8 8f 3e 82 e5 9b 3e dd 8d 88 3e ee d0 87 3e
       0.28119135 0.30448538 0.26670733 0.26526588
000180 ac 2b ac 3e c9 ba a9 3e d2 5c bc 3e d5 94 99 3e
       0.3362707 0.33150318 0.36789566 0.29996362
000190 94 d9 9c 3e 7e c5 a2 3e 7d d8 9c 3e d2 36 91 3e
       0.3063475 0.317913 0.30633917 0.28362137
0001a0 2e 3c b2 3e 44 34 8f 3e 96 e2 8f 3e 57 40 9c 3e
       0.34811538 0.27969563 0.2810256 0.30517837
0001b0 c2 eb af 3e 79 02 ab 3e 3d 59 8b 3e 92 43 94 3e
       0.34359556 0.33400324 0.2721652 0.28957802
0001c0 d3 e1 65 3e df 62 91 3e 37 ab 9e 3e 97 b5 93 3e
       0.22449426 0.28395745 0.30990002 0.2884948
0001d0 55 09 a2 3e c2 94 8c 3e c7 e6 5f 3e d5 65 90 3e
       0.31647745 0.27457243 0.21865378 0.28202692
0001e0 85 03 67 3e e2 7e b4 3e b3 1d c1 3e 6f b1 c2 3e
       0.22559936 0.35253054 0.3771797 0.38025996
0001f0 c2 45 90 3e 75 ce ad 3e 60 0d a9 3e eb 29 98 3e
       0.2817822 0.33946577 0.33018017 0.2971948
000200 38 c7 bf 3e 4c 82 91 3e db a8 b8 3e b5 be 8b 3e
       0.3745668 0.2841972 0.36066326 0.27293935
000210 41 ce b5 3e 13 fe ac 3e 4d 0c 74 3e 9d 07 a3 3e
       0.35508922 0.33787593 0.23832817 0.31841746
000220 9b 9d a2 3e 07 25 94 3e a9 f9 8f 3e 1e 03 d3 3e
       0.31760868 0.289345 0.28120163 0.41213316
000230 25 b2 ba 3e e9 0d 9b 3e 6f 1f 92 3e 66 00 91 3e
       0.36464038 0.3028405 0.28539607 0.28320616
000240 96 1f ae 3e d2 e4 88 3e 93 59 c0 3e 99 fb 80 3e
       0.34008473 0.26737076 0.3756834 0.25191954
000250 47 a7 9f 3e c2 8e cf 3e cc af 8f 3e cd a7 b4 3e
       0.3118231 0.40538603 0.2806381 0.35284272
000260 b7 28 a9 3e f2 be bf 3e 8f d4 b1 3e a7 bf a3 3e
       0.33038875 0.37450367 0.34732482 0.31982157
000270 7e a6 a4 3e 9a 49 a4 3e db 4b a6 3e 44 91 94 3e
       0.32158273 0.32087404 0.32479748 0.2901708
000280 30 2f 02 3f 37 7b 91 3e 4c 72 ab 3e 64 fa a5 3e
       0.5085325 0.28414318 0.3348564 0.32417595
000290 10 a7 b4 3e 7d ad 7d 3e 3e e3 8a 3e f7 4f 8f 3e
       0.3528371 0.24773212 0.27126497 0.27990696
0002a0 9a e6 b7 3e 25 ea a3 3e 78 fa 87 3e e2 81 a6 3e
       0.35918123 0.32014576 0.2655828 0.32520968
0002b0 df 1d 8d 3e 9c bc 9a 3e ac e3 9f 3e f4 0a ae 3e
       0.27561852 0.30222023 0.31228387 0.33992732
0002c0 07 76 94 3e 2d 1b 99 3e 1a 2b a0 3e bc 16 a4 3e
       0.28996298 0.29903546 0.31282884 0.32048595
0002d0 c7 46 80 3e f1 fe 91 3e c6 5f 93 3e 1f 41 78 3e
       0.25054 0.28514817 0.28784007 0.24243592
0002e0 a7 1e 89 3e 48 6e ae 3e 5b 7b c6 3e 33 8a 96 3e
       0.26781198 0.34068513 0.38765988 0.29402313
0002f0 bb 19 a1 3e 4a 10 79 3e ae e3 9f 3e ae 22 8a 3e
       0.31464943 0.2432262 0.31228393 0.26979584
000300 00 1b 9a 3e 14 5e a6 3e 95 53 a0 3e ea 81 a8 3e
       0.30098724 0.3249365 0.31313768 0.32911617
000310 07 fc a0 3e 92 f9 a2 3e ce 15 93 3e df cb b9 3e
       0.31442282 0.31831032 0.28727573 0.36288354
000320 9c f5 a2 3e 7a 8c 94 3e 38 64 bb 3e 67 b5 b0 3e
       0.3182801 0.29013425 0.36599898 0.345134
000330 c3 52 ba 3e bd 9b a5 3e 79 d6 8a 3e 35 15 6e 3e
       0.36391267 0.3234538 0.27116755 0.23250277
000340 d4 e5 b2 3e a8 0f 79 3e 4a 17 9d 3e ac 9c 9f 3e
       0.3494097 0.24322379 0.3068183 0.3117422
000350 42 4f a2 3e 38 29 9a 3e 87 a3 a3 3e 0b bf 91 3e
       0.31701094 0.30109572 0.319607 0.28466067
000360 35 21 8d 3e 29 14 8f 3e 92 c4 8f 3e 9b f0 98 3e
       0.27564397 0.27945068 0.2807966 0.29871067
000370 7b f2 9d 3e 6e 4c a8 3e b0 c0 c4 3e 4b 20 c1 3e
       0.3084906 0.3287081 0.3842826 0.3771995
000380 c6 15 a5 3e aa 5c b5 3e f6 07 93 3e 05 de ba 3e
       0.32243174 0.3542226 0.2871701 0.36497512
000390 7c 22 9d 3e a1 d7 a3 3e 43 7d b1 3e 32 c3 7c 3e
       0.30690372 0.3200045 0.3466588 0.24683836
0003a0 ba f1 a8 3e 07 99 9e 3e 33 d5 8a 3e d1 be ab 3e
       0.32996923 0.30976126 0.27115783 0.3354402
0003b0 54 99 a1 3e 8c 1d 94 3e 6d 17 9e 3e b3 55 af 3e
       0.31562293 0.28928792 0.30877247 0.3424507
0003c0 d8 5e ce 3e e5 e2 9e 3e 96 78 81 3e 62 d5 a2 3e
       0.40306735 0.31032482 0.25287312 0.31803423
0003d0 33 ac 8b 3e a7 3d b9 3e 24 ff 8b 3e a1 3c db 3e
       0.27279815 0.3617985 0.27343094 0.42819694
0003e0 99 5f 8e 3e d4 6c c6 3e 78 34 a6 3e 2a c4 94 3e
       0.2780731 0.38754904 0.32461905 0.2905591
0003f0 93 bb 8b 3e 47 df 9f 3e 65 3a a7 3e 8e c1 b8 3e
       0.27291545 0.31225035 0.3266174 0.3608517

network.4.weight f4 [128, 256]
000000 80 6d 1a bd b6 4a 7b bd 50 16 cf bc d6 ac de bc
       -0.037702084 -0.061350547 -0.025279194 -0.027182024
000010 34 b2 ec 3c 59 37 af 3b 8d a0 58 bd 58 02 6e bd
       0.028893568 0.005347174 -0.05288749 -0.058107704
000020 19 64 a2 3c ec 1d 31 bb a6 61 87 3d 75 79 19 3d
       0.01982312 -0.0027025891 0.06610422 0.037469346
000030 ae a9 45 bd fa 4d 8a bc f1 5f 13 bc a6 b2 d4 3c
       -0.048257522 -0.016882885 -0.008995042 0.025964092
000040 34 a9 4a ba 3c 2f 2c 3d 9a 1c 1f ba 2f aa 8c 3b
       -0.00077309017 0.042037234 -0.00060696306 0.0042927484
000050 51 db bf bb 86 2f 44 3d 0a 88 09 bd 2c 10 06 3c
       -0.005855002 0.047896884 -0.033577003 0.008182567
000060 f1 cf 65 3d e7 8c 1f bd d4 43 40 bd 37 ec 87 bd
       0.05610651 -0.038952734 -0.046939686 -0.06636851
000070 a4 ff 4f bd 4c 44 63 3d 8e a8 39 bd 2a fb 1d 3d
       -0.050780907 0.055485055 -0.045326762 0.038569607
000080 60 12 cb 3c 16 3e 16 3d ec 7b dd bc ce 04 44 3d
       0.024789035 0.036680304 -0.02703663 0.047856145
000090 47 a2 0d bd 86 b2 8c 3c 2a 27 28 bd ab 2a 05 bd
       -0.034578588 0.01717497 -0.041052975 -0.032511394
0000a0 66 db 12 3d 73 99 da 3c 8a 5e 71 bd f9 21 42 3d
       0.035853766 0.026684498 -0.05892805 0.04739568
0000b0 b6 bc 87 3c 58 55 e5 bc 7e 6b 29 bc e8 71 6f bd
       0.016569477 -0.027994797 -0.01034057 -0.05845824
0000c0 ec 6b d1 bc 10 cf 74 bd 1f d3 8b 3d 4a 01 5d bc
       -0.025564156 -0.059767783 0.068273775 -0.013489077
0000d0 fa 18 6c bc c1 32 4c bd 98 c3 20 3d 9b e8 17 3d
       -0.014410252 -0.04985309 0.039249033 0.037087064
0000e0 c7 f3 96 bc 82 09 18 bc 7a e4 c3 bc e4 0a bc 3c
       -0.018426789 -0.009279611 -0.023912657 0.022954412
0000f0 d4 8c 8b ba 8c d3 22 bd 03 51 27 3d 4d 53 86 bd
       -0.0010646828 -0.039752528 0.040848743 -0.06558857
000100 f6 1f cc 3c 89 f0 c1 3b b4 f5 9c ba a2 b8 2d bd
       0.024917584 0.0059185666 -0.0011975081 -0.042412408
000110 43 ee 89 3c 02 63 83 3d cb e6 27 bb 79 5d 40 3d
       0.016837245 0.064153686 -0.002561974 0.046964142
000120 35 ba c5 bc fc ba 90 bd 5d f2 59 3d 3a 91 40 bd
       -0.024136642 -0.070669144 0.05320965 -0.0470135
000130 e4 9c 18 bc 35 5f 1f bd bb 1d 7e 3d 61 76 ae bc
       -0.009314749 -0.038909156 0.062040072 -0.021296682
000140 e2 23 50 3d fa c1 63 bd 99 3e 89 bd 83 cc fc bc
       0.05081547 -0.055604912 -0.06701393 -0.030859238
000150 02 5d 31 3d a5 dc 09 bd 44 cb 06 bd 4a ec 23 3d
       0.04330159 -0.03365769 -0.032908693 0.040020265
000160 19 93 11 bd 5d 29 6b bc e3 0a 74 bc 5d 65 24 3d
       -0.035540674 -0.0143531235 -0.014895174 0.04013573
000170 34 e9 17 3d 4a 1a 79 bd 0f 04 1c bd 10 8c 85 3c
       0.037087634 -0.060816087 -0.038089808 0.016302139
000180 c9 14 8c bc 12 ec 99 bd a9 b7 32 3d 27 93 35 3d
       -0.017099755 -0.0751573 0.043632183 0.04432979
000190 98 60 52 bd c2 83 53 bd 16 86 0c bd ea 83 57 bd
       -0.05136165 -0.051639326 -0.03430756 -0.052616037
0001a0 7e be 9f bc 31 3e 0e 3d 20 22 9b 3a 5c d8 69 bc
       -0.019500013 0.03472728 0.0011835732 -0.0142727755
0001b0 ac a7 93 bc 40 43 6c b7 79 84 57 bd 7b bb 60 bc
       -0.018024288 -1.4082354e-05 -0.05261657 -0.013716574
0001c0 3f d8 ce 3c 55 03 5d bd 2d a4 4e bd 6f bf 12 bc
       0.025249599 -0.053958256 -0.05044954 -0.008956774
0001d0 ce fc a6 3c 13 d5 78 bd 84 b3 48 bd 5f 95 75 3c
       0.020384219 -0.06075008 -0.048999324 0.014989226
0001e0 3e 44 0f bd bc 52 4e 3d 02 1e 3b 3d 14 2c 38 3d
       -0.03497719 0.05037187 0.045682915 0.04496391
0001f0 6d 0e 27 bd b2 d1 92 3c 6c 76 22 3d 2a 9e a6 3c
       -0.040785242 0.017922256 0.039663717 0.02033909
000200 8a 39 90 bd fd e9 80 bd 48 1a c9 3c 72 03 58 3d
       -0.07042225 -0.0629463 0.024548665 0.05273766
000210 e0 1f 1b bd d1 6a 87 3d de 51 9c 3c c4 c2 42 3d
       -0.037872195 0.066121705 0.019082006 0.047549024
000220 a5 91 f6 3c da 5d 20 bd 9e c5 f6 3c 55 28 47 bc
       0.030098746 -0.039152004 0.030123528 -0.012155612
000230 cd 76 a3 3b ce 65 e5 3a 56 86 e0 bc f0 20 5a 3d
       0.0049885274 0.0017501654 -0.027407806 0.053254068
000240 0b 18 5e bc aa 53 12 bd 6a e5 42 3d e8 3e 8e 3c
       -0.013555537 -0.03572432 0.047582068 0.01736398
000250 5a 12 69 bd ed 6a 32 bd f4 93 d9 bb 28 1f 1a bd
       -0.056902267 -0.043559004 -0.006639952 -0.03762737
000260 d2 95 41 bd 15 aa 29 3d 6e 05 78 bd f3 be af 3a
       -0.04726202 0.04142197 -0.060552053 0.0013408348
000270 27 c1 08 bd be f6 e9 3c a7 bb f8 bc fd 27 75 3d
       -0.03338733 0.028560039 -0.030362917 0.05985259
000280 2f 41 37 bd 8c 12 3b bd 1c ee c8 3b c9 59 61 3d
       -0.0447399 -0.045671985 0.0061319005 0.055017266
000290 bb ff cf 3c 4d b0 ff 3c 87 9c 13 bd a1 a3 e9 bc
       0.025390496 0.031211996 -0.036037948 -0.028520407
0002a0 fe e2 07 3d 5c 7e 10 bd 47 83 e8 bc c8 8a 07 bd
       0.03317546 -0.035276756 -0.02838291 -0.033091336
0002b0 64 da 66 3c 5f d4 0c bd 60 db 66 3c 71 3c 7d bd
       0.014090154 -0.03438222 0.014090389 -0.06182522
0002c0 a6 d8 7a bc f5 46 5f bd e2 d6 77 bd 54 ad b4 3c
       -0.015310442 -0.05451103 -0.060507663 0.022055306
0002d0 f2 91 f0 bc 5c 20 96 bc be fd 0e bd 2a 01 99 bc
       -0.029366467 -0.018325977 -0.034909956 -0.018677313
0002e0 01 9d 62 bc e2 7d c3 bb 85 95 35 bd 7a a5 eb bc
       -0.013831378 -0.005965934 -0.044332046 -0.028765429
0002f0 07 37 bb bc 19 ff 9f 3c 0e c2 ce bb 6f a8 bc bb
       -0.022853388 0.01953082 -0.006309754 -0.0057573835
000300 36 b8 f5 3c b5 c7 fd bc ea 13 3e bd e1 6d 57 3c
       0.029995065 -0.030979017 -0.04640571 0.013148756
000310 7f 13 2b 3d 08 c3 8e bb ee a5 bc 3c 17 b1 0c 3d
       0.04176664 -0.0043567456 0.02302834 0.034348574
000320 06 1e a6 3c 3a 2d 47 3d e9 e3 2c b9 61 00 03 3c
       0.020277988 0.048627116 -0.00016488101 0.007995696
000330 42 be 96 3b 46 14 25 3d 31 6f 2d bd ef 88 c7 3c
       0.004600317 0.040302537 -0.04234237 0.024357287
000340 ac ad 86 3d fd 76 bb bb 79 c5 40 ba 88 5c d9 3c
       0.06576094 -0.0057209716 -0.00073536445 0.02653338
000350 26 13 ef 3c 75 31 ba bc 16 71 24 bc a1 5e a6 3c
       0.029183935 -0.022728661 -0.010036727 0.020308794
000360 c8 71 e1 3c b3 97 b5 bc 7c 43 8b bd 8f 61 8a bd
       0.027520075 -0.022167062 -0.06799981 -0.06756889
000370 dc b9 e2 3c 26 8f c9 3c c5 6a 24 bd 01 be 51 3d
       0.027676515 0.024604391 -0.040140886 0.051206592
000380 a7 9f 81 3c 02 bf b1 3c 6e ec a3 b9 5e 41 ae bc
       0.015823198 0.021697525 -0.00031265937 -0.021271404
000390 41 43 97 bc 4f 2c 50 3d 55 47 1e 3c c4 f7 3a bc
       -0.018464686 0.050823506 0.009660562 -0.011411611
0003a0 f4 c4 67 3d 26 97 c9 3c 25 65 f4 bc 35 f5 b6 ba
       0.056584314 0.024608206 -0.029833386 -0.0013958575
0003b0 86 86 fe bc 79 f2 b0 3a 8e b7 8d bc cf a7 16 bd
       -0.031070005 0.0013499997 -0.01729944 -0.03678113
0003c0 03 6f fb 3a 56 a1 a3 bc e5 61 62 bd 77 f5 0d 3d
       0.0019182864 -0.019974392 -0.05526914 0.03465792
0003d0 30 6c a8 3b 1f 44 02 3c 72 57 4d bd 2a 38 c1 bc
       0.00513985 0.007950812 -0.050132222 -0.023586351
0003e0 b9 0b 62 3d 14 48 14 3d cb 3f ee bc d8 0e fd bc
       0.05518696 0.03620155 -0.029083153 -0.030890867
0003f0 83 1a b6 bc 56 e2 dc 3c 96 a1 13 bd f6 ba 0b 3d
       -0.022229439 0.026963394 -0.036042772 0.034113847
