log_reg/models/tree_branch_failure_best.pth (torch, 389246 bytes, 25 tensors)

network.0.weight f4 [256, 179]
0.0052925837 0.048790414 -0.085195705 -0.037079707 0.024133367 -0.03387693 0.015905026 0.060746104
0.03775343 -0.00070369244 0.00045375826 0.035265677 0.035776813 -0.027859172 0.016510984 -0.04760395
-1.7558574e-05 0.024941482 -0.013969796 0.00013909029 0.05331017 -0.06277431 -0.0004374217 -0.0013281626
-0.08859861 -0.059970193 0.011139905 -0.013322843 -8.043422e-05 -0.061461147 -0.04203433 -0.05083426
0.02643055 0.026217414 0.05955926 0.028222041 -0.060168292 -0.0511032 -0.036042165 0.013719666
-0.030127835 -0.017016541 -0.02790071 0.057951342 0.02019752 -0.015462479 0.005494728 0.080949955
-8.9706955e-05 -0.047806684 0.003936315 -0.0285279 -0.07815706 0.03249432 -0.03457334 0.010526835
-0.03885465 0.012171203 -0.036681738 -0.067317724 -0.034930374 -0.0023950404 -0.031448234 0.030014576
-0.00010825419 -0.007859087 0.05852939 -0.041172788 -0.048065223 -0.042547394 0.013705545 -0.031727362
0.049789652 -0.022748014 0.0020000373 -0.0012725061 0.005388357 -0.030122876 -0.023062535 -0.027130978
-0.0908549 0.0529638 -0.062995784 0.043908205 -0.061367866 0.07270036 -0.05632298 0.06130788
0.058655933 -0.004309405 -0.07907908 -0.03497509 -0.025238683 -0.0076259687 0.017187012 0.0194994
0.053107675 -0.0009841941 0.021167057 0.009281263 -0.056138974 -0.058343153 0.041610505 -0.032979652
-0.038536742 0.051506646 0.037536163 -0.07356095 -0.0070858407 0.0056776735 0.039956857 -0.08896607
-0.052248407 -0.06659778 0.00010341535 0.03322313 0.06965441 0.054696653 -0.07819975 -0.046112306
-0.05715348 -0.06552441 0.08077504 0.036783583 -0.07622725 -0.008914958 0.030797567 0.054751843
-0.026537234 -0.021431128 0.016991103 0.0658406 0.022115149 -0.06470341 -0.006799182 0.0001377616
-0.011981403 0.00025268793 3.708441e-06 -0.05286161 -0.039992835 -0.044582725 -0.0033776066 0.013485189
-0.015564177 -0.046865456 0.025720645 0.07639664 -0.035218224 -0.010095519 0.07889677 -0.008867459
0.04604539 0.01759448 0.018347425 0.05990539 -0.07816953 -0.032017775 -0.017471032 -0.04452472
-0.036520977 0.025418382 0.024136417 0.017737761 0.050890293 -0.012275083 -0.00025250847 -0.033039402
0.005527192 0.018491808 0.019335471 0.016989846 -0.026402045 -0.080167696 -0.030106729 0.03732726
0.05458047 -0.04857687 0.017068472 0.044650905 -0.054451033 0.05199678 -0.040966067 0.0033864535
-0.05518361 -0.00819003 0.0005476408 0.06967505 0.027108764 0.013896532 0.040984616 -0.018988319
0.058536295 0.053839527 0.022376036 0.003392694 -0.051412977 -0.031688314 4.7635713e-05 0.037738215
-0.024992855 -0.00040984937 0.037662912 0.05089152 0.046358332 -0.06964387 0.07232948 -0.00045902203
-0.013600665 0.0074734148 -0.028379565 -0.015969342 -0.032162197 -0.0029143465 0.032167856 0.004408696
-0.0055994615 0.022322746 -0.01963494 0.05829544 0.0073609673 -0.03069613 -0.03613636 0.021528747
0.007578721 -0.043105707 -0.04737127 4.557919e-05 0.07503177 -0.061180223 0.068125874 -0.035182416
-0.04067707 -0.007336571 -0.04968842 0.03224306 0.035256177 0.013321114 0.022259975 -0.036778893
-3.6624097e-05 -0.026514592 0.054563634 3.2757e-05 -0.016152395 0.03023194 -0.033090394 0.03181339
0.056572918 -0.060648445 -0.04705484 0.041795973 -0.0033396368 0.047913015 0.045756366 0.050291926
00000000: 696d ad3b 75d8 473d 167b aebd e4e0 17bd
00000010: 57b3 c53c 89c2 0abd 424b 823c e8d0 783d
00000020: 57a3 1a3d 0078 38ba 67e6 ed39 be72 103d
00000030: b58a 123d eb38 e4bc 0b42 873c 5cfc 42bd
00000040: c04a 93b7 1452 cc3c 92e1 64bc c4d8 1139
00000050: c45b 5a3d d18f 80bd bf55 e5b9 be15 aeba
00000060: 3073 b5bd 4ea3 75bd 2684 363c 0e48 5abc
00000070: cbae a8b8 afbe 7bbd 312c 2cbd 9637 50bd
00000080: e184 d83c e7c5 d63c 69f4 733d e931 e73c
00000090: 0773 76bd 9751 51bd f3a0 13bd 73c8 603c
000000a0: a6ce f6bc 4666 8bbc 0890 e4bc 635e 6d3d
000000b0: 4575 a53c 5656 7dbc 1f0d b43b 17c9 a53d
000000c0: 0e21 bcb8 f1d0 43bd 34fc 803b 58b3 e9bc
000000d0: cf10 a0bd c418 053d c69c 0dbd bf78 2c3c
000000e0: 0e26 1fbd ba69 473c 973f 16bd e0dd 89bd
000000f0: 2713 0fbd 1cf6 1cbb ddcf 00bd 21e1 f53c
00000100: 8706 e3b8 66c3 00bc 83bc 6f3d cca4 28bd
00000110: 0ae0 44bd 2d46 2ebd 398d 603c 8df4 01bd
00000120: 3cf0 4b3d 0b5a babc 0f13 033b 38ca a6ba
00000130: d190 b03b 40c4 f6bc a4ed bcbc c941 debc
00000140: 2212 babd 92f0 583d ef03 81bd 17d9 333d
00000150: df5c 7bbd ede3 943d edb2 66bd f91d 7b3d
00000160: 3441 703d e935 8dbb 36f4 a1bd 0a42 0fbd
00000170: 5bc1 cebc 43e3 f9bb c7cb 8c3c 35bd 9f3c
00000180: 6f87 593d 1300 81ba 8966 ad3c 7010 183c
00000190: fbf1 65bd 3bf9 6ebd c76f 2a3d ac15 07bd
000001a0: b4d8 1dbd a2f8 523d 85bf 193d 20a7 96bd
000001b0: 5730 e8bb c70b ba3b cda9 233d d833 b6bd
000001c0: 6d02 56bd 6b64 88bd b1e0 d838 fa14 083d
000001d0: f9a6 8e3d 9909 603d 3127 a0bd 42e0 3cbd
000001e0: c419 6abd a931 86bd 626d a53d 62aa 163d
000001f0: 081d 9cbd 0b10 12bc 2e4b fc3c 7843 603d
00000200: 9d64 d9bc 5590 afbc ed30 8b3c 70d7 863d
00000210: d42a b53c 3983 84bd accb debb 1974 1039
00000220: a64d 44bc 337b 8439 88de 7836 6a85 58bd
00000230: 87cf 23bd 609c 36bd d65a 5dbb fbf0 5c3c
00000240: e400 7fbc fef5 3fbd 1ab4 d23c d775 9c3d
00000250: fc40 10bd ad67 25bc a194 a13d d248 11bc
00000260: 179a 3c3d 4d22 903c 574d 963c 5b5f 753d
00000270: 5917 a0bd 1225 03bd 691f 8fbc 8e5f 36bd
00000280: 0597 15bd 363a d03c bcb9 c53c c84e 913c
00000290: 5772 503d 6e1d 49bc 1d63 84b9 5354 07bd
000002a0: 721d b53b 227c 973c 6c65 9e3c 4a2e 8b3c
000002b0: 1a49 d8bc f62e a4bd 63a2 f6bc 78e4 183d
000002c0: c58f 5f3d 8af8 46bd 2ed3 8b3c dee3 363d
000002d0: 0c08 5fbd 93fa 543d 09cc 27bd 43ef 5d3b
000002e0: 3608 62bd 7a2f 06bc 8d8f 0f3a cbb1 8e3d
000002f0: 3313 de3c 48ae 633c 7cdf 273d 648d 9bbc
00000300: c1c3 6f3d d686 5c3d f34d b73c f657 5e3b
00000310: 6a96 52bd 9bcb 01bd 75cc 4738 6393 1a3d
00000320: d1bd ccbc 0de1 d6b9 6d44 1a3d a073 503d
00000330: 3ce2 3d3d 72a1 8ebd 7a21 943d e5a8 f0b9
00000340: 53d5 5ebc 8ce3 f43b 437c e8bc 23d2 82bc
00000350: 82bc 03bd 9ffe 3ebb 71c2 033d d376 903b
00000360: b07b b7bb 31de b63c 74d9 a0bc 33c7 6e3d
00000370: 4534 f13b 7376 fbbc b803 14bd 0e5d b03c
00000380: eb56 f83b 9c8f 30bd 6008 42bd 482c 3f38
00000390: 42aa 993d 1d98 7abd 9485 8b3d 701b 10bd
000003a0: 009d 26bd 9e67 f0bb 1686 4bbd 4d11 043d
000003b0: c868 103d cd40 5a3c 8d5a b63c 77a5 16bd
000003c0: d39c 19b8 2135 d9bc 1e7e 5f3d 9064 0938
000003d0: 0752 84bc f9a8 f73c cb89 07bd c24e 023d
000003e0: 01b9 673d 816a 78bd 93bc 40bd 4132 2b3d
000003f0: cfdd 5abb 7040 443d 076b 3b3d e8fe 4d3d

network.0.bias f4 [256]
2.7570377e-05 -2.2354321e-05 4.1436295e-05 -0.0055153775 -0.00045127905 -1.43765e-05 -2.7761953e-06 0.0004223771
0.0005696618 -0.0035771641 0.0011088018 5.482664e-05 0.0033243955 0.00044956454 -0.00021876028 0.00010521297
0.00024908813 -1.1664128e-05 -0.002909018 0.0038424523 4.0899435e-05 -5.7854857e-05 -5.724228e-05 0.0071568214
2.0161737e-05 3.4033426e-05 6.0439415e-05 8.0542406e-05 1.2654288e-05 0.00011993193 0.00014485283 2.53609e-06
-5.348503e-05 -0.0021076957 -0.00019962079 -0.00035876568 -3.8809798e-05 -0.00040687865 -0.004763959 6.262866e-05
7.094134e-06 -7.345408e-05 0.0020320616 0.000102303915 -0.00018125754 -0.00010519323 6.1392726e-05 -0.00014119782
-0.00046940224 0.0024363014 -2.478686e-05 -1.9460867e-06 -0.00016607353 9.2681774e-05 0.0053978735 0.00011657744
-5.4822864e-05 -0.0055874125 -0.0001286385 0.0004689708 1.6404632e-05 -5.8441925e-05 -0.00046829644 -0.00020434437
-7.982955e-06 7.370835e-05 -0.00029685645 -9.62741e-05 3.0050587e-05 -0.00015251226 9.7827884e-05 7.779666e-06
-0.0073568886 -8.6992884e-05 -1.01319165e-05 -0.00019887474 -2.772619e-05 -0.00014339144 0.005175351 -4.255409e-05
5.7975485e-06 -0.003990465 0.004930739 -0.0004052122 0.00016425623 0.00010127576 -0.0025928952 -0.003015767
-0.00014388016 -6.5450266e-05 0.00010342446 0.00010289979 0.005795161 -6.639523e-05 -0.0070095523 0.0031059065
-0.00040820026 0.00011997164 7.4521355e-05 0.005796232 -0.0004555005 0.000106939086 9.473397e-05 -0.0010536143
-3.835302e-05 -0.00027316823 0.00421229 0.0049072644 -1.9974203e-05 0.0073856227 -0.00041241435 -7.323062e-05
-0.0053461064 0.0069726636 1.2628118e-05 -0.00043047915 -3.211184e-05 -4.6841833e-05 -0.005740606 -0.0047875806
-8.052641e-05 3.234303e-05 0.00017732325 0.0001967158 -4.8242473e-06 -0.00016200854 0.00044017323 -1.0614931e-05
-0.00028327375 1.6250367e-05 -1.2129112e-07 -0.00020279946 9.783971e-05 -1.4819006e-05 0.00012076361 0.00036393857
-0.00014419903 7.9519246e-05 0.0002698633 -0.00020100185 0.00010546654 -0.0018927996 2.9353494e-05 0.00012313266
0.0062695397 -2.5160767e-05 3.567456e-05 -0.006311534 1.2934608e-05 -2.52625e-05 0.00014066786 3.3651366e-05
-3.6004833e-05 8.020812e-05 -5.3186513e-06 -2.1344003e-05 0.0003727271 0.00034285433 -6.371686e-06 -3.9008382e-06
-9.937103e-06 -2.187594e-06 0.0004229408 -0.00015665444 0.00074491603 0.00019195325 -0.004531955 1.8771743e-07
-0.0004074489 -0.00038628516 -0.0023790123 -0.0031583088 -0.00037854898 3.1746953e-05 0.00036596105 0.00045692734
-0.00012992439 -3.0543364e-05 0.0037168318 -0.00045368448 0.00011439459 -0.0003239302 0.0026140986 3.746093e-05
1.4528652e-05 -5.4382042e-05 0.00016999547 2.8703485e-05 4.20538e-05 0.00039827 -0.00015551352 0.00011357858
-0.0001394287 0.00040118693 -0.000109646884 -0.00028135735 0.004601911 -0.00018199616 0.00017287163 0.00010079898
5.216638e-06 0.00043805438 -0.00019964743 -2.7397786e-05 1.8181585e-05 -4.4775887e-05 0.0012061802 0.00078995066
-3.74392e-05 0.00031928916 -0.0016270033 0.0069584055 -1.4284867e-05 0.00014120367 0.00018348436 -0.0003284664
-0.0036070438 0.0007422278 0.0013142943 -3.0521293e-05 1.2427217e-06 3.0660365e-06 -9.3647745e-05 0.0046293647
-7.404278e-05 0.0013169161 0.0007264277 -1.8911944e-05 1.4707111e-06 -8.9185596e-05 9.588161e-05 0.00017936733
0.00033131245 -0.00018897506 7.744768e-05 0.00039470984 -7.159111e-06 -0.0053509194 -3.0006746e-05 2.2526374e-05
0.000100652025 -0.0003121771 -0.00048514668 9.484317e-05 5.3615633e-05 -0.00046972107 -0.0001537573 -1.2933219e-05
0.0035401115 -0.00018138129 -0.0004041681 -8.7709e-05 0.0011996602 -0.00019533292 0.00035713016 0.0003678436
00000000: ef46 e737 8a85 bbb7 e2cb 2d38 57ba b4bb
00000010: a699 ecb9 9932 71b7 ac4e 3ab6 7f72 dd39
00000020: 5b55 153a db6e 6abb 3755 913a a8f5 6538
00000030: 1ade 593b 88b3 eb39 0463 65b9 c8a5 dc38
00000040: 0b98 8239 0cb1 43b7 39a5 3ebb a7d1 7b3b
00000050: 6f8b 2b38 2ea9 72b8 6e17 70b8 c583 ea3b
00000060: 0021 a937 1dbf 0e38 5480 7d38 e0e8 a838
00000070: c14d 5437 f783 fb38 a3e3 1739 b231 2a36
00000080: 1d55 60b8 4421 0abb 4c51 51b9 b718 bcb9
00000090: b4c7 22b8 5452 d5b9 fc1a 9cbb 8157 8338
000000a0: 260a ee36 5c0b 9ab8 562c 053b ff8b d638
000000b0: f30f 3eb9 2f9b dcb8 f8bf 8038 800e 14b9
000000c0: 1a1a f6b9 5baa 1f3b 60ed cfb7 8499 02b6
000000d0: 0624 2eb9 265e c238 a5e0 b03b 097b f438
000000e0: 9af1 65b8 9d16 b7bb 22e3 06b9 32e0 f539
000000f0: ae9c 8937 8a1f 75b8 af85 f5b9 4645 56b9
00000100: 88ee 05b7 de93 9a38 66a3 9bb9 c4e6 c9b8
00000110: 2515 fc37 b3eb 1fb9 f228 cd38 6985 0237
00000120: 0e12 f1bb f36f b6b8 40fc 29b7 0889 50b9
00000130: 8a95 e8b7 595b 16b9 fe95 a93b 1b7c 32b8
00000140: 9088 c236 72c2 82bb 0992 a13b a972 d4b9
00000150: 323c 2c39 0264 d438 90ed 29bb 2da4 45bb
00000160: 89de 16b9 5842 89b8 96e5 d838 e7cb d738
00000170: 55e5 bd3b ab3d 8bb8 63b0 e5bb 778c 4b3b
00000180: b603 d6b9 4999 fb38 5948 9c38 51ee bd3b
00000190: 3ed0 eeb9 7c44 e038 eaab c638 6e19 8aba
000001a0: 3edd 20b8 0538 8fb9 4007 8a3b 1ecd a03b
000001b0: 468e a7b7 1803 f23b 5139 d8b9 6493 99b8
000001c0: 642e afbb f17a e43b 5bdd 5337 efb1 e1b9
000001d0: d3af 06b8 0978 44b8 b21b bcbb 23e1 9cbb
000001e0: 4ae0 a8b8 10a8 0738 d9ef 3939 7f45 4e39
000001f0: f8df a1b6 d6e0 29b9 0dc7 e639 c816 32b7
00000200: 5c84 94b9 6651 8837 403c 02b4 91a6 54b9
00000210: 4b2f cd38 259f 78b7 7842 fd38 02cf be39
00000220: 2234 17b9 92c3 a638 707c 8d39 06c4 52b9
00000230: eb2d dd38 d117 f8ba 263c f637 2c1d 0139
00000240: b670 cd3b 5610 d3b7 44a1 1538 fcd0 cebb
00000250: b801 5937 ceea d3b7 3e80 1339 e124 0d38
00000260: e503 17b8 6835 a838 de76 b2b6 e60b b3b7
00000270: 966a c339 21c1 b339 5ecc d5b6 f2e3 82b6
00000280: 88b7 26b7 94ce 12b6 27be dd39 9b43 24b9
00000290: 7846 433a 0f47 4939 cb80 94bb 608f 4934
000002a0: de9e d5b9 5186 cab9 34e9 1bbb a1fb 4ebb
000002b0: fc77 c6b9 0828 0538 76de bf39 c08f ef39
000002c0: 503c 08b9 b01b 00b8 1796 733b 80dc edb9
000002d0: 21e7 ef38 2dd5 a9b9 4c51 2b3b 5e1f 1d38
000002e0: 16c0 7337 4618 64b8 d040 3239 44c8 f037
000002f0: ed62 3038 e5ce d039 5811 23b9 0931 ee38
00000300: 9b33 12b9 6656 d239 39f2 e5b8 2583 93b9
00000310: a1cb 963b 39d6 3eb9 e044 3539 0a64 d338
00000320: 940a af36 aaaa e539 7358 51b9 4cd4 e5b7
00000330: a884 9837 becd 3bb8 b118 9e3a b114 4f3a
00000340: 0908 1db8 4466 a739 2c41 d5ba 5603 e43b
00000350: 09a9 6fb7 1210 1439 b565 4039 0436 acb9
00000360: 2764 6cbb 1192 423a 6644 ac3a fd03 00b8
00000370: 98cb a635 1bc2 4d36 c064 c4b8 edb1 973b
00000380: 6a47 9bb8 5f9c ac3a bd6d 3e3a 17a5 9eb7
00000390: 4065 c535 2709 bbb8 0c14 c938 8d14 3c39
000003a0: 01b4 ad39 9b27 46b9 686b a238 0ff1 ce39
000003b0: 4c38 f0b6 c456 afbb ffb6 fbb7 05f7 bc37
000003c0: 2515 d338 b3ab a3b9 495b feb9 8ae6 c638
000003d0: 59e1 6038 e544 f6b9 e939 21b9 c1fb 58b7
000003e0: 3701 683b 2b31 3eb9 86e6 d3b9 69f0 b7b8
000003f0: eb3d 9d3a 48d2 4cb9 333d bb39 22db c039

network.1.weight f4 [256]
0.9879128 1.018725 0.9914311 0.98118335 0.9994628 0.99208474 0.99950224 0.9939361
1.0079112 0.9974469 1.0085886 1.0222178 0.9901926 0.9928188 1.0047388 0.9960928
0.9806931 0.99342144 0.99298334 0.99446946 0.9881911 0.99067056 1.0049982 1.0175109
0.99356544 0.9923418 0.9846657 0.98475224 0.977629 1.0253971 0.9993564 0.9848582
0.9919931 1.0124384 0.99033433 0.98825496 0.99517965 0.9909744 1.0127553 0.980734
0.9907451 1.0352013 1.0238798 0.99360585 0.99428827 0.99914384 0.9988309 0.9925178
1.0031081 1.0151793 1.0000563 0.99485385 0.9951303 0.97655964 1.0014049 1.0020682
0.99052185 1.0148546 0.99866974 0.99166185 1.0081134 1.0046699 1.0333081 1.0185035
0.9820244 0.99630487 0.9936956 1.0090103 0.9907852 1.0100707 0.99278456 1.0026312
0.99352795 0.9910283 0.9768738 0.9897667 1.016149 0.987424 1.0004597 1.0097519
1.0179698 0.9810756 0.9963382 1.0317032 0.97189856 1.0003185 0.98936224 0.9882551
0.986476 0.9828866 0.99482423 1.002626 1.0043302 0.97238714 0.99389774 0.99651825
1.0204254 0.9928386 0.98808604 0.9991416 1.0187566 0.99604106 0.9837351 0.98372775
0.9988574 0.99975693 0.9851318 0.9889987 1.0184587 1.0002669 1.0093906 1.018432
1.0136652 1.0105716 1.0059944 0.996447 0.9786121 1.0081942 0.97720075 1.0203166
0.9884731 0.9905547 0.99860036 0.990115 1.0047791 1.001181 1.0001099 1.0185907
1.0139921 0.98011684 0.9804942 1.0038561 0.9672637 1.0147322 0.9990763 1.0086163
1.0011535 1.0073209 0.98519313 1.013116 0.9976625 0.986355 1.0196633 0.9772768
1.0186535 0.9951083 0.9999085 1.0066384 0.98077977 1.0013742 0.9720674 1.0052325
1.0065837 1.0025175 0.99960196 0.9881107 0.991512 0.98656625 0.9895222 0.9969439
1.0030687 1.0074003 1.0029215 1.0257369 0.9940998 0.9986035 1.0080358 1.0001942
0.991955 1.0208832 0.99875575 0.9811029 0.99155384 1.0192689 0.9686477 0.98967975
0.98778325 1.0134435 1.0067677 0.98858935 1.0113052 0.98625416 0.9931764 1.0066134
0.9957053 0.98740584 0.99003196 1.0498217 0.9816701 0.9969334 1.0178051 0.99631006
0.99301434 1.0055245 0.99943036 1.0034586 1.0289694 0.9976636 0.99814075 0.9983315
1.0052198 0.99358284 0.9931429 1.0158138 0.99110925 1.0173988 1.0131698 0.99631965
0.99105364 1.0035697 0.99867624 1.0144182 1.0099506 1.0100266 0.9932918 0.97562605
0.9980341 0.9952623 0.9894451 1.0112065 1.0132419 1.005777 0.99014753 0.9895379
0.99861497 1.0052811 0.9919082 1.0010517 1.0029345 1.0124537 0.97131616 1.0105208
1.0083622 0.99471027 1.0121331 0.9820936 1.0043181 0.99315643 0.9888688 0.9990097
1.0113589 0.99591947 1.0073748 0.9951228 1.0047753 0.98010856 1.0036665 0.99041814
1.0189172 0.99553764 0.99375445 0.98585534 0.98885304 0.999 0.982237 1.0079271
00000000: dae7 7c3f 9565 823f 6ece 7d3f d52e 7b3f
00000010: cbdc 7f3f 44f9 7d3f 61df 7f3f 9972 7e3f
00000020: 3c03 813f ae58 7f3f 6e19 813f 08d8 823f
00000030: 437d 7d3f 5f29 7e3f 489b 803f f0ff 7e3f
00000040: b40e 7b3f de50 7e3f 2834 7e3f 8d95 7e3f
00000050: 18fa 7c3f 969c 7d3f c8a3 803f cc3d 823f
00000060: 4e5a 7e3f 1d0a 7e3f 0d13 7c3f b918 7c3f
00000070: e545 7a3f 3640 833f d2d5 7f3f ab1f 7c3f
00000080: 43f3 7d3f 9597 813f 8d86 7d3f 47fe 7c3f
00000090: 18c4 7e3f 80b0 7d3f f7a1 813f 6211 7b3f
000000a0: 79a1 7d3f 7a81 843f 7e0e 833f f45c 7e3f
000000b0: ad89 7e3f e4c7 7f3f 62b3 7f3f a615 7e3f
000000c0: d965 803f 65f1 813f d801 803f beae 7e3f
000000d0: dcc0 7e3f d0ff 793f 092e 803f c543 803f
000000e0: d792 7d3f c1e6 813f d2a8 7f3f 8ddd 7d3f
000000f0: dc09 813f 0699 803f 7143 843f 535e 823f
00000100: f365 7b3f d60d 7f3f d662 7e3f 4027 813f
00000110: 19a4 7d3f ff49 813f 2127 7e3f 3856 803f
00000120: d957 7e3f 08b4 7d3f 6714 7a3f 5a61 7d3f
00000130: 2c11 823f d2c7 7c3f 100f 803f 8d3f 813f
00000140: d64c 823f c527 7b3f 0510 7f3f da0e 843f
00000150: 58ce 783f 700a 803f d846 7d3f 49fe 7c3f
00000160: b189 7c3f 759e 7b3f cdac 7e3f 0c56 803f
00000170: e48d 803f 5dee 783f 1570 7e3f d21b 7f3f
00000180: 4d9d 823f ac2a 7e3f 35f3 7c3f bec7 7f3f
00000190: 9e66 823f 8cfc 7e3f 10d6 7b3f 95d5 7b3f
000001a0: 1eb5 7f3f 12f0 7f3f 9931 7c3f 052f 7d3f
000001b0: db5c 823f bf08 803f b633 813f fb5b 823f
000001c0: c8bf 813f 695a 813f 6dc4 803f 2717 7f3f
000001d0: 5386 7a3f 820c 813f d429 7a3f bc99 823f
000001e0: 930c 7d3f fe94 7d3f 46a4 7f3f 2d78 7d3f
000001f0: 9a9c 803f b326 803f 9a03 803f 2e61 823f
00000200: 7eca 813f f0e8 7a3f ab01 7b3f 5b7e 803f
00000210: 989e 773f bfe2 813f 77c3 7f3f 571a 813f
00000220: cc25 803f e4ef 803f 9e35 7c3f c9ad 813f
00000230: cf66 7f3f c381 7c3f 5484 823f d02e 7a3f
00000240: 3d63 823f 6bbf 7e3f 01fa 7f3f 87d9 803f
00000250: 6214 7b3f 082d 803f 69d9 783f 75ab 803f
00000260: bcd7 803f 7e52 803f eae5 7f3f d3f4 7c3f
00000270: bbd3 7d3f 9b8f 7c3f 5451 7d3f b737 7f3f
00000280: 8e64 803f 7ef2 803f bb5f 803f 594b 833f
00000290: 537d 7e3f 7ba4 7f3f 5107 813f 5d06 803f
000002a0: c3f0 7d3f 4dac 823f 75ae 7f3f 8f29 7b3f
000002b0: 79d6 7d3f 6777 823f 4cf9 773f a75b 7d3f
000002c0: 5ddf 7c3f 84b8 813f c4dd 803f 3114 7d3f
000002d0: 7372 813f 277b 7c3f cf40 7e3f b5d8 803f
000002e0: 8be6 7e3f a1c6 7c3f bc72 7d3f 8f60 863f
000002f0: bb4e 7b3f 0737 7f3f 7047 823f 2d0e 7f3f
00000300: 3036 7e3f 07b5 803f abda 7f3f 5571 803f
00000310: 45b5 833f e266 7f3f 2786 7f3f a792 7f3f
00000320: 0bab 803f 725b 7e3f 9d3e 7e3f 3006 823f
00000330: 56b9 7d3f 203a 823f 8caf 813f ce0e 7f3f
00000340: b1b5 7d3f f974 803f 3fa9 7f3f 75d8 813f
00000350: 1046 813f 8d48 813f 5f48 7e3f a1c2 793f
00000360: 2a7f 7f3f 83c9 7e3f 464c 7d3f 376f 813f
00000370: e9b1 813f 4dbd 803f 4f7a 7d3f 5b52 7d3f
00000380: 3ba5 7f3f 0dad 803f b2ed 7d3f 7622 803f
00000390: 2860 803f 1598 813f 2da8 783f bf58 813f
000003a0: 0312 813f 55a5 7e3f 948d 813f 7c6a 7b3f
000003b0: 7f8d 803f 803f 7e3f 8126 7d3f 1abf 7f3f
000003c0: 3574 813f 94f4 7e3f a8f1 803f 5ec0 7e3f
000003d0: 7a9c 803f 65e8 7a3f 2578 803f 0b8c 7d3f
000003e0: e16b 823f 8edb 7e3f b166 7e3f 0461 7c3f
000003f0: 7925 7d3f 77be 7f3f e273 7b3f c103 813f

network.1.bias f4 [256]
-0.011246249 0.0036367625 0.00091970246 -0.012109804 0.0013546548 -0.0009469143 -0.0038174158 -0.0048852134
-0.00696554 -6.0276543e-05 -0.003517433 0.0199856 -0.0100697195 0.010863011 0.00373607 -0.0021666037
-0.017542537 -0.017393984 -0.0051193014 0.0019468694 -0.0060441582 -0.010285731 -0.013171567 0.021764256
-0.0011352034 -0.011110103 -0.00451957 -0.012012285 -0.02472832 0.015491381 0.0031572767 -0.019365229
-0.0012965389 -0.017976029 -0.009801697 -0.007761109 -0.0055257585 -0.01001309 -0.00080852007 -0.014370285
-0.005461822 0.029718788 -0.0005296591 -0.010802739 -0.016275203 0.0064892056 -0.006838389 -0.002558162
-0.0056405147 -0.0024722074 0.004431768 -0.026593076 0.007910677 -0.023217324 0.002586016 -0.0040890025
-0.0072669396 0.00084787543 0.0065134694 -0.0008918498 -0.016766097 0.0059257243 -0.001951003 0.013285897
-0.015040496 -0.0016912592 0.009111553 0.01833501 0.0004944032 0.0046475083 -0.010009467 0.0015267264
-0.007089361 -0.007651712 -0.02431938 5.8570557e-05 0.004516513 -0.017768182 -0.0045812638 0.016360808
0.021068864 -0.016284127 0.0008533548 0.023659702 -0.024872677 0.01085962 -0.019737717 -0.013593955
-0.009382002 -0.01162201 -0.0024255603 0.018336311 -0.0025313797 -0.021133848 -0.0019382908 0.0057171937
0.01960669 0.016173845 -0.0055524204 0.010767264 0.01968468 -0.0011776238 0.0024125597 -0.011941978
0.0006837677 0.014789316 -0.00025239706 -0.009979066 0.014276768 -0.008711912 0.00738909 0.002754236
0.024504166 0.01072344 0.0009802227 0.009751963 -0.015203103 0.009379083 -0.013552815 0.012342009
0.0069771847 -0.014986113 -0.004510361 -0.0008900659 0.017069884 0.005772598 -0.020397078 0.009020308
0.0013280172 -0.02531326 -0.00073362066 0.011457189 -0.030089833 0.0034916175 -0.008103213 -0.0034715182
-0.009185776 -0.006746201 -0.028184902 0.006868084 -0.00738942 -0.00608848 0.017340302 -0.016504109
0.019344354 -0.01366391 0.015119808 0.006920751 -0.016464647 -0.0073086233 -0.005143328 0.0052809156
0.011154631 0.009277998 0.0054188003 -0.01809099 0.0005978663 -0.011470063 0.0012247416 -0.010624006
0.008486036 -0.0036970472 0.009848558 0.0157212 0.0014964204 -0.0004029689 -0.0021062947 -0.0020088607
-0.025902582 0.020943854 0.0008982426 -0.010692155 0.0031250417 0.026957136 -0.030289216 -0.0017106772
-0.0053611714 0.013573974 0.009078099 -0.0069004465 -0.0007396062 -0.0006270699 0.0043350672 0.018709019
-0.0135184005 -0.0053470787 -0.0073636193 0.028476302 -0.013988875 -0.010104909 0.0017825884 0.007373582
-0.012829211 0.0018105266 0.0061076987 0.0025245063 0.04534022 0.002885699 -0.0149299735 0.00038824973
0.00074858783 0.0052418243 -0.004462725 0.028371088 -0.022171997 0.023387402 0.018574225 0.00630684
0.0037917995 -0.013669527 0.0032804646 0.028900342 0.010458798 0.019039959 -0.018637342 -0.018040385
0.0060046213 -0.0027380039 -0.016730953 0.008401029 -0.00040869578 8.748495e-05 -0.0066837156 -0.013317615
-0.017833961 0.009607281 -0.002590648 -0.005094583 0.006743779 0.011946864 -0.02062922 0.006457189
0.012445229 0.00025297905 0.008486659 -0.0027081624 0.011569561 -0.007695633 -0.027503407 -0.0006397029
0.0044576237 0.0042352085 0.0109163765 -0.00090851856 0.0045570955 -0.007989489 -0.002340761 0.0037719295
0.009894501 -0.012916572 -0.015999911 -0.00038337844 -0.01824594 0.0013978961 -0.002201025 0.008797686
00000000: 3042 38bc c056 6e3b 3018 713a 3368 46bc
00000010: ac8e b13a 583a 78ba 9c2d 7abb 2414 a0bb
00000020: 2f3f e4bb 72d1 7cb8 bc84 66bb d7b8 a33c
00000030: 77fb 24bc c5fa 313c dad8 743b 94fd 0dbb
00000040: 5eb5 8fbc d47d 8ebc d0bf a7bb 192e ff3a
00000050: 130e c6bb 7c85 28bc 8ecd 57bc f44a b23c
00000060: 1bcb 94ba 2607 36bc e718 94bb 2dcf 44bc
00000070: 0c93 cabc 90cf 7d3c 50ea 4e3b d4a3 9ebc
00000080: a0f0 a9ba 7742 93bc 4c97 20bc e750 febb
00000090: 6c11 b5bb f20d 24bc ddf2 53ba 5871 6bbc
000000a0: 15f9 b2bb d174 f33c d2d8 0aba f9fd 30bc
000000b0: 9353 85bc 67a3 d43b 9114 e0bb d6a6 27bb
000000c0: 11d4 b8bb c204 22bb 5d38 913b b9d9 d9bc
000000d0: c99b 013c 4232 bebc 267a 293b 0afd 85bb
000000e0: 821f eebb f543 5e3a f16e d53b 07cb 69ba
000000f0: 0e59 89bc 942c c23b ccb8 ffba 17ad 593c
00000100: 6a6c 76bc 3ead ddba a048 153c 4e33 963c
00000110: d69a 013a 204a 983b bffe 23bc 701c c83a
00000120: df4d e8bb 36bb fabb 7039 c7bc a8a9 7538
00000130: 42ff 933b 948e 91bc 6d1e 96bb 1a07 863c
00000140: 9c98 ac3c 4a66 85bc acb3 5f3a fed1 c13c
00000150: c9c1 cbbc 8cec 313c feb0 a1bc 2eb9 5ebc
00000160: f8b6 19bc 3e6a 3ebc 26f6 1ebb 0836 963c
00000170: 81e5 25bb e420 adbc 3f0e feba 4c57 bb3b
00000180: 369e a03c 037f 843c 14f1 b5bb 2e69 303c
00000190: c441 a13c 7f5a 9aba 091c 1e3b 49a8 43bc
000001a0: e03e 333a e34e 723c 2954 84b9 3d7f 23bc
000001b0: 1be9 693c 68bc 0ebc 2e20 f23b 6a80 343b
000001c0: f6bc c83c 5eb1 2f3c d17a 803a b3c6 1f3c
000001d0: 7016 79bc baaa 193c a00c 5ebc 2336 4a3c
000001e0: dea0 e43b 5088 75bc a6cb 93bb 5053 69ba
000001f0: 24d6 8b3c 1028 bd3b c617 a7bc eac9 133c
00000200: dd10 ae3a c15d cfbc 7350 40ba efb6 3b3c
00000210: f47e f6bc 9fd3 643b 57c3 04bc 6982 63bb
00000220: f07f 16bc 3c0f ddbb 06e4 e6bc aa0d e13b
00000230: f322 f2bb df81 c7bb 400d 8e3c a033 87bc
00000240: 0d78 9e3c 98de 5fbc 12b9 773c 78c7 e23b
00000250: dee0 86bc 2d7d efbb 5d89 a8bb 880b ad3b
00000260: eac1 363c be02 183c 3190 b13b 8e33 94bc
00000270: 21ba 1c3a eeec 3bbc 8287 a03a 5010 2ebc
00000280: 0409 0b3c 294a 72bb d95b 213c bfc9 803c
00000290: 8923 c43a 9245 d3b9 c309 0abb 17a7 03bb
000002a0: a731 d4bc 7292 ab3c 0a78 6b3a 262e 2fbc
000002b0: 80cd 4c3b 36d5 dc3c 1721 f8bc cd38 e0ba
000002c0: c4ac afbb 6065 5e3c 4fbc 143c 241d e2bb
000002d0: 22e2 41ba f361 24ba 2e0d 8e3b a843 993c
000002e0: 487c 5dbc 8c36 afbb 844a f1bb 2247 e93c
000002f0: 9831 65bc 0f8f 25bc bea5 e93a 179e f13b
00000300: 9c31 52bc 314f ed3a 1723 c83b 3072 253b
00000310: abb6 393d ff1d 3d3b d99c 74bc ff8d cb39
00000320: e13c 443a 9cc3 ab3b 0d3c 92bb 7c6a e83c
00000330: 0ca2 b5bc f096 bf3c f928 983c 9ca9 ce3b
00000340: d77f 783b 27f6 5fbc 10fd 563b 69c0 ec3c
00000350: 615b 2b3c b0f9 9b3c 57ad 98bc 6ec9 93bc
00000360: 6ac2 c43b 1570 33bb 5a0f 89bc 78a4 093c
00000370: 3846 d6b9 2078 b738 1203 dbbb 2032 5abc
00000380: 8718 92bc db67 1d3c dcc7 29bb 76f0 a6bb
00000390: ebfa dc3b c8bc 433c 9cfe a8bc d496 d33b
000003a0: 13e7 4b3c 46a2 8439 a10b 0b3c 6d7b 31bb
000003b0: 428e 3d3c a62b fcbb d34e e1bc bcb1 27ba
000003c0: 4211 923b 81c7 8a3b 9ada 323c a629 6eba
000003d0: b053 953b 58e6 02bc 7467 19bb 7a32 773b
000003e0: 8c1c 223c 08a0 53bc 3f12 83bc 2f00 c9b9
000003f0: 8278 95bc 9c39 b73a 123f 10bb 2b24 103c

network.1.running_mean f4 [256]
-0.0022224176 -0.0022891532 0.00028108276 -0.01867585 0.009131887 0.003464932 0.005762321 0.014423261
0.01080823 -0.012309411 0.015331872 -0.01203801 0.0042970534 -0.0072840373 -0.01367566 0.015440855
-0.002830004 -0.008105506 -0.0058421767 -0.0010705688 0.009887455 0.014722146 0.0028053273 0.013297453
-0.009118035 -0.0040968363 -0.00793158 -0.005101469 -0.009017676 0.005836643 -0.00066788826 0.00037387182
0.008120191 -0.005365118 -0.008321058 0.0130508505 0.0011852474 0.002179809 -0.008819901 0.0094880825
0.0051379483 0.011737745 0.012882924 -0.009484259 0.0070187855 -0.012042357 0.0068153944 -0.011057712
-0.0076408624 0.0035742999 -0.00133229 0.0065053934 -0.013049506 0.0043287072 0.01399522 0.00373591
-0.0030952517 0.0051105837 -0.0062101507 0.008055771 -0.006708744 -0.018069701 -0.008967105 -0.002966463
7.429627e-05 -0.005805166 -0.0002919445 0.014853315 -0.0013145003 -0.0024251554 -0.008143722 0.00017281967
-0.015204227 0.015309291 0.0024639617 -0.012130982 0.012574574 0.015901132 0.015221696 0.0026503394
-0.008757736 -0.014647601 0.012865252 0.010888359 -0.009611631 0.0026392734 -0.001159078 0.0049457233
0.0075072804 -0.0018209248 -0.0014385204 -0.007895817 -0.0058233878 0.0058714543 -0.009519084 -0.011186794
0.0032418952 -0.0021682929 0.0030507843 -0.0016803814 0.010723232 -0.0021943846 -0.0047922935 -0.011221489
0.0073175775 -0.0113063045 -0.0007732334 0.010092686 0.0073667774 0.009059195 -0.0068942183 -0.0066766567
-0.0032586034 0.009846125 0.01465665 0.001623048 0.017322855 -0.0132102305 -0.0063643004 -0.0062131435
-0.002812431 0.013333938 0.001891058 0.0011904518 -0.005974987 -0.0017427435 -0.013445945 0.0047224653
-0.0038229749 0.011619005 -0.008176714 -0.018919758 0.0068619144 0.012409915 -0.003303178 0.0038712467
-0.01147934 0.002130597 -0.00026312724 0.0029443554 0.00075804465 -0.0013671942 -0.0035987757 0.00039925042
0.0068688854 0.002324788 0.001295981 -0.005693813 -0.009189642 0.0033133314 0.0053823777 0.002049278
-0.009269848 -0.0075958143 0.008813411 0.004989502 -0.010305602 -0.0070846104 0.0027457864 0.012447663
0.004132766 0.001708483 -0.015410489 -0.016560948 0.009440878 0.0035970167 -0.00085133186 0.006045382
0.017235855 -0.0028652844 -0.012846268 -0.01466358 0.008616893 -0.0123609025 -0.014470449 -0.00078838115
-0.03011962 0.0060567134 -0.003164387 -0.0012557223 0.0069703506 0.0005683852 -0.0068214354 -0.010520286
-0.0017935022 0.002949088 -0.006602815 0.007447214 0.0021148457 0.0055303765 0.006059349 -0.00987122
-0.003882279 -0.0030470241 -0.008917436 -0.009517367 -0.0075197616 0.00085458974 -0.005062704 0.004732988
-0.010311296 0.0052413675 -0.009257484 -0.0031698004 -0.0062400214 -0.005345968 0.01080669 -0.0034036154
-0.0034034417 0.010263392 0.0066476823 -0.00399275 0.004288951 -0.018140996 -0.009094478 -0.008100483
-0.0053120893 0.0061876397 0.013633311 0.016516251 0.0060961004 -0.008195814 -0.0009788482 0.019615773
-0.0025612537 -0.00083997555 -9.3374074e-05 -0.009272676 0.004534842 0.005202499 -0.0007913351 0.0012239252
0.007852215 -0.008317064 -0.005646644 -0.00017480574 0.010739431 -0.0077844076 0.00062367885 -0.0076934593
0.005881736 -0.01314741 -0.0036926589 0.007968084 0.011322881 0.004270759 -0.0025346908 0.010909725
0.0042747897 -0.002218303 0.016816895 -0.0011028216 0.0059468267 -0.015894007 0.0023800377 -0.0049663885
00000000: fba5 11bb 9e05 16bb 4a5e 9339 19fe 98bc
00000010: e99d 153c ea13 633b dad1 bc3b 8b4f 6c3c
00000020: 0115 313c 69ad 49bc 8832 7b3c 133b 45bc
00000030: 4cce 8c3b efae eebb e00f 60bc a4fb 7c3c
00000040: 9777 39bb f5cc 04bc bb6f bfbb 5452 8cba
00000050: fefe 213c 2835 713c 95d9 373b 8fdd 593c
00000060: d063 15bc c13e 86bb 75f3 01bc 392a a7bb
00000070: e0be 13bc 4f41 bf3b 3915 2fba 3a04 c439
00000080: 8d0a 053c dfcd afbb 0c55 08bc 3cd3 553c
00000090: 4e5a 9b3a 20db 0e3b 5981 10bc e773 1b3c
000000a0: 3c5c a83b ac4f 403c e612 533c de63 1bbc
000000b0: d7fd e53b 4e4d 45bc ac53 df3b 682b 35bc
000000c0: 3360 fabb cd3e 6a3b 3ca0 aeba 322b d53b
000000d0: 98cd 55bc d4d7 8d3b 354c 653c 2bd6 743b
000000e0: b5d9 4abb af76 a73b 857e cbbb 5afc 033c
000000f0: 06d5 dbbb e906 94bc c4ea 12bc fe68 42bb
00000100: 82cf 9b38 4339 bebb 2110 99b9 525b 733c
00000110: 504b acba 5bef 1ebb 3f6d 05bc ed36 3539
00000120: 261b 79bc d2d3 7a3c 6b7a 213b 07c1 46bc
00000130: 9605 4e3c 1743 823c 6c64 793c 51b1 2d3b
00000140: 9b7c 0fbc 7efc 6fbc c7c8 523c 1665 323c
00000150: 1a7a 1dbc a9f7 2c3b 34ec 97ba bc0f a23b
00000160: a2ff f53b 19ac eeba bc8c bcba 755d 01bc
00000170: 1ed2 bebb 5465 c03b eff5 1bbc d148 37bc
00000180: fa75 543b eb19 0ebb abef 473b 3e40 dcba
00000190: 7fb0 2f3c aacf 0fbb ac08 9dbb 56da 37bc
000001a0: 4ac8 ef3b 143e 39bc d1b2 4aba cb5b 253c
000001b0: 0265 f13b 056d 143c e5e8 e1bb dbc7 dabb
000001c0: 4b8e 55bb a451 213c 7222 703c 74bc d43a
000001d0: a9e8 8d3c b96f 58bc 9f8b d0bb a097 cbbb
000001e0: c350 38bb 9776 5a3c 61dd f73a ef08 9c3a
000001f0: d3c9 c3bb c56c e4ba 624c 5cbc e9be 9a3b
00000200: e08a 7abb a45d 3e3c a0f7 05bc 9cfd 9abc
00000210: e9d9 e03b f552 4b3c 217a 58bb beb4 7d3b
00000220: d713 3cbc 7ca1 0b3b 57f4 89b9 16f6 403b
00000230: 84b7 463a 6d33 b3ba 70d9 6bbb 7c52 d139
00000240: 6314 e13b 785b 183b e8dd a93a 2a93 babb
00000250: 2790 16bc 7a24 593b a85e b03b 2e4d 063b
00000260: 8fe0 17bc 4fe6 f8bb 2066 103c fa7e a33b
00000270: d4d8 28bc 0526 e8bb a7f2 333b 48f1 4b3c
00000280: 276c 873b 2def df3a 477c 7cbc d3aa 87bc
00000290: eaad 1a3c edbb 6b3b ea2b 5fba 5718 c63b
000002a0: 3532 8d3c 7fc7 3bbb 2779 52bc 833f 70bc
000002b0: de2d 0d3c 6285 4abc 7615 6dbc 5dab 4eba
000002c0: 6cbd f6bc 6577 c63b 9b61 4fbb 0c97 a4ba
000002d0: 8a67 e43b afff 143a 5986 dfbb 475d 2cbc
000002e0: f313 ebba 7d45 413b 6d5c d8bb c207 f43b
000002f0: 3999 0a3b 2938 b53b 818d c63b e6ba 21bc
00000300: d56d 7ebb 95b0 47bb 701a 12bc bbee 1bbc
00000310: 5568 f6bb 8c06 603a 0ae5 a5bb 2e17 9b3b
00000320: b6f0 28bc c7bf ab3b b4ac 17bc 6dbc 4fbb
00000330: 1879 ccbb 3b2d afbb 8b0e 313c 310f 5fbb
00000340: 470c 5fbb c927 283c cdd4 d93b 9dd5 82bb
00000350: 548a 8c3b 6d9c 94bc 0101 15bc e3b7 04bc
00000360: 0911 aebb afc1 ca3b 405e 5f3c 174d 873c
00000370: ccc1 c73b bc47 06bc b24c 80ba 42b1 a03c
00000380: b5da 27bb ce31 5cba d3d1 c3b8 6cec 17bc
00000390: 0399 943b ba79 aa3b 9971 4fba 1d6c a03a
000003a0: 94a6 003c 4b44 08bc 7c07 b9bb 0f4c 37b9
000003b0: 70f4 2f3c 5814 ffbb 617e 233a 6a19 fcbb
000003c0: 94bb c03b 3c68 57bc 8900 72bb 918c 023c
000003d0: 9b83 393c b9f1 8b3b 0e1d 26bb b4be 323c
000003e0: 8913 8c3b f360 11bb 96c3 893c 8d8c 90ba
000003f0: 99dd c23b 2634 82bc 68fa 1b3b 16bd a2bb

network.1.running_var f4 [256]
0.3202821 0.25371727 0.31395343 0.3718048 0.28182933 0.2976592 0.22567151 0.42611974
0.29630622 0.33512747 0.33262867 0.36202502 0.44542864 0.35248807 0.24921149 0.4706611
0.3641778 0.35153618 0.28348583 0.35692203 0.29096386 0.37619495 0.42276683 0.38498908
0.3366721 0.25517955 0.29169527 0.33676097 0.3627837 0.34231928 0.38002354 0.2795347
0.4489313 0.319669 0.34641328 0.3076308 0.2887194 0.36749944 0.32149866 0.36399138
0.39934948 0.36341056 0.299426 0.33992192 0.3256597 0.23721474 0.20644066 0.2962343
0.27688715 0.34043565 0.27684775 0.36922204 0.5257624 0.2904366 0.3159716 0.28298485
0.35623255 0.33248568 0.3681435 0.41214377 0.2879731 0.2638269 0.25749716 0.3519437
0.34315383 0.33013505 0.369675 0.34417504 0.31981504 0.29094782 0.29124463 0.24518979
0.28758925 0.25228748 0.24750774 0.37309265 0.4834515 0.30755782 0.3141174 0.540639
0.33002213 0.3253339 0.36372766 0.3459702 0.36654997 0.26508212 0.3122622 0.29107112
0.31595644 0.25282598 0.32990584 0.33734894 0.27306107 0.3214636 0.217568 0.3019679
0.4099301 0.33192092 0.3079442 0.37498367 0.30747446 0.3456459 0.44095844 0.32055742
0.37829366 0.2594157 0.322431 0.45578784 0.3159658 0.28941652 0.3062302 0.28065875
0.3772114 0.34690303 0.3220873 0.3314646 0.41407686 0.3645149 0.33682063 0.30392796
0.33565986 0.28608933 0.42713773 0.28390348 0.32507244 0.25128675 0.32994244 0.3519308
0.30674726 0.3688188 0.27071398 0.30128676 0.33312097 0.36349973 0.22333924 0.3261916
0.2505553 0.33894286 0.35897455 0.25326705 0.30961835 0.32240108 0.34555346 0.30323887
0.31373215 0.34700248 0.33786216 0.35149312 0.24598657 0.3245109 0.36174488 0.30847156
0.40683535 0.27160415 0.37042874 0.28998154 0.32018265 0.24917874 0.44229913 0.38242853
0.28637594 0.2716407 0.34049067 0.38191742 0.27604556 0.3168291 0.29092935 0.379693
0.4228746 0.34868622 0.25843835 0.3181704 0.25436637 0.2929532 0.43885335 0.30433598
0.3881934 0.39111555 0.31241202 0.3233305 0.35490477 0.27673727 0.31272888 0.34923345
0.34708744 0.47353846 0.40864795 0.30394503 0.33316362 0.32783383 0.25932953 0.4163862
0.24234924 0.41007158 0.24211065 0.32370603 0.32999396 0.40926543 0.2507223 0.36539972
0.31765717 0.2852205 0.30111474 0.3596684 0.3148196 0.28687418 0.2963451 0.28692567
0.39441666 0.29899532 0.46101734 0.3711285 0.31193691 0.24567203 0.36497396 0.33857
0.31757608 0.38330883 0.31909186 0.2870335 0.3207599 0.26577485 0.43591774 0.32763523
0.30403486 0.27806285 0.29327473 0.32240382 0.30041352 0.4714454 0.31655872 0.25751486
0.31069517 0.365328 0.26927844 0.35002124 0.34592596 0.45805365 0.35898656 0.28003138
0.31963235 0.32665312 0.3145958 0.27423722 0.34818035 0.3537335 0.36307287 0.4009817
0.28196025 0.30633628 0.333323 0.26327902 0.32255858 0.4426517 0.34805718 0.30658782
00000000: 04fc a33e 3be7 813e 81be a03e 335d be3e
00000010: ef4b 903e c966 983e 6f16 673e 5e2c da3e
00000020: 73b5 973e d495 ab3e 4e4e aa3e 585b b93e
00000030: 390f e43e 5179 b43e 4c31 7f3e 7efa f03e
00000040: 8375 ba3e 8dfc b33e 0e25 913e 7cbe b63e
00000050: 37f9 943e a09c c03e e574 d83e 4a1d c53e
00000060: 4960 ac3e e5a6 823e 1559 953e ef6b ac3e
00000070: c9be b93e 7944 af3e 7292 c23e 2c1f 8f3e
00000080: 53da e53e a8ab a33e 155d b13e c981 9d3e
00000090: 07d3 933e e328 bc3e 799b a43e 145d ba3e
000000a0: 8977 cc3e f310 ba3e 5d4e 993e 3f0a ae3e
000000b0: debc a63e 6ce8 723e 2e65 533e 06ac 973e
000000c0: 27c4 8d3e 954d ae3e fdbe 8d3e ac0a bd3e
000000d0: 5d98 063f 1bb4 943e 08c7 a13e 64e3 903e
000000e0: 1d64 b63e 903b aa3e 4e7d bc3e 8204 d33e
000000f0: 3671 933e 5214 873e abd6 833e f731 b43e
00000100: dcb1 af3e 7607 a93e 0b46 bd3e b637 b03e
00000110: ccbe a33e 1df7 943e 041e 953e 0813 7b3e
00000120: e63e 933e d32b 813e ab72 7d3e 0006 bf3e
00000130: f486 f73e 3878 9d3e ffd3 a03e 5167 0a3f
00000140: a9f8 a83e 2a92 a63e 833a ba3e 0223 b13e
00000150: 70ac bb3e d8b8 873e d5e0 9f3e 4607 953e
00000160: 0bc5 a13e 6872 813e 6be9 a83e 00b9 ac3e
00000170: a9ce 8b3e e196 a43e 25ca 5e3e 899b 9a3e
00000180: 5ce2 d13e 8af1 a93e ddaa 9d3e dcfd bf3e
00000190: 4b6d 9d3e 80f8 b03e 4ec5 e13e 1a20 a43e
000001a0: b5af c13e 22d2 843e ad15 a53e 065d e93e
000001b0: 45c6 a13e 672e 943e 34ca 9c3e 81b2 8f3e
000001c0: da21 c13e 469d b13e a0e8 a43e bab5 a93e
000001d0: e201 d43e b2a1 ba3e c173 ac3e 729c 9b3e
000001e0: 9cdb ab3e 4d7a 923e ccb1 da3e cc5b 913e
000001f0: e56f a63e a8a8 803e 37ee a83e 4630 b43e
00000200: fa0d 9d3e d1d5 bc3e 069b 8a3e 4242 9a3e
00000210: d58e aa3e a31c ba3e 0bb3 643e 9602 a73e
00000220: c948 803e eb89 ad3e 83cb b73e 38ac 813e
00000230: 4c86 9e3e c111 a53e 62ec b03e 2042 9b3e
00000240: 80a1 a03e 4faa b13e 45fc ac3e e8f6 b33e
00000250: e7e3 7b3e 4b26 a63e a036 b93e fcef 9d3e
00000260: b94c d03e b30f 8b3e d6a8 bd3e 7678 943e
00000270: fbee a33e b628 7f3e 0875 e23e accd c33e
00000280: de9f 923e 7d14 8b3e cb54 ae3e ae8a c33e
00000290: d855 8d3e 6c37 a23e b1f4 943e 1f67 c23e
000002a0: 0583 d83e 0087 b23e 0852 843e 3be7 a23e
000002b0: 4f3c 823e f6fd 953e 63b1 e03e edd1 9b3e
000002c0: 49c1 c63e 4c40 c83e 78f4 9f3e 938b a53e
000002d0: 14b6 b53e 82b0 8d3e 001e a03e bace b23e
000002e0: 72b5 b13e a273 f23e 4e3a d13e af9e 9b3e
000002f0: 6c94 aa3e d6d9 a73e d7c6 843e 9230 d53e
00000300: 662a 783e e7f4 d13e dbeb 773e ccbc a53e
00000310: f8f4 a83e 3d8b d13e ac5e 803e ac15 bb3e
00000320: f6a3 a23e 6c08 923e b62b 9a3e 7526 b83e
00000330: 0930 a13e 2ce1 923e 8cba 973e ece7 923e
00000340: fbf0 c93e ea15 993e 770a ec3e 8e04 be3e
00000350: 32b6 9f3e 7391 7b3e dedd ba3e 0c59 ad3e
00000360: 5599 a23e 0e41 c43e 0260 a33e 0ef6 923e
00000370: a43a a43e a413 883e 9c30 df3e cebf a73e
00000380: 75aa 9b3e 415e 8e3e 1b28 963e 1d12 a53e
00000390: cdcf 993e 4b61 f13e fc13 a23e fdd8 833e
000003a0: 7013 9f3e 460c bb3e ddde 893e fc35 b33e
000003b0: 351d b13e 0286 ea3e 16cd b73e 4660 8f3e
000003c0: daa6 a33e 143f a73e b312 a13e d268 8c3e
000003d0: b244 b23e 8f1c b53e b0e4 b93e 794d cd3e
000003e0: 185d 903e 1cd8 9c3e 50a9 aa3e 82cc 863e
000003f0: 6626 a53e 3ea3 e23e 8d34 b23e 14f9 9c3e

network.4.weight f4 [128, 256]
0.04199953 -0.044091877 0.040394455 0.028851815 -0.015332529 0.03161645 -0.064182594 0.030507067
-0.016183617 0.0148491245 0.06055986 0.033404466 -0.071183205 -0.025197413 -0.032630328 0.0146419285
-0.04394636 -0.012882984 -0.011935759 -0.025353884 0.0007011341 -0.05045884 0.00683964 0.022006713
-0.010202279 0.037862245 0.057276785 0.0019108253 -0.040679723 0.022798123 -0.047483075 -0.0126943765
-0.040204387 -0.040714364 0.034466647 0.031484418 -0.011958929 0.0034905388 0.0052673593 -0.031552516
0.0444649 0.0069895606 0.019972464 0.01661503 0.08358037 -0.028160695 -0.011462943 -0.051190082
-0.043638144 -0.036760062 -0.030547023 -0.031581365 0.012881215 -0.027238429 0.013049884 0.031278323
0.03369728 0.02778763 -0.061561693 -0.040775456 -0.07451963 -0.05377308 -0.048459042 0.012679762
-0.026173815 -0.045682717 -0.03324592 0.04297739 -0.030084891 -0.061746314 -0.057194013 0.013268392
-0.019890299 0.039836906 0.0098299 0.06270917 -0.02894503 0.042830203 0.037448484 0.042051442
0.0551669 -0.032141063 -0.020532103 0.04131463 0.029888127 -0.035531044 0.039163783 0.06828466
-0.06378551 0.036592085 0.018660367 0.0366614 0.047272287 0.009414344 -0.051239308 0.06175272
0.07565615 -0.030134268 -0.01454069 0.020818295 0.0043059285 0.031142427 -0.012235236 -0.047732156
-0.023950519 -0.008378293 -0.034068786 -0.058603868 0.017649753 -0.020218939 0.05206171 0.018133644
0.053418603 -0.028117588 -0.0064787515 -0.036203995 -0.041633025 0.0034585702 -0.03822605 0.021841211
0.023962576 0.0028755357 -0.01140557 -0.0049371305 0.021562701 0.004715211 -0.009779353 0.02012671
0.062182333 -0.027534608 0.0011876065 0.0056742625 -0.018671826 0.03163862 -0.057930756 -0.00980043
0.00023120744 0.0025529903 0.024953553 0.051880755 0.042029765 0.063544996 0.014164846 0.045539998
-0.05924399 -0.041638464 0.03944134 -0.027001562 0.06685622 0.04846387 0.039790787 0.062162723
-0.028450632 0.026874533 -0.047878318 -0.0028858422 -0.012954595 -0.06091145 -0.048593193 0.06645687
-0.05524486 0.022638703 -0.01369265 0.026278976 3.4613215e-05 -0.047092907 0.0013052508 0.02143022
0.022155574 -0.017611299 -0.023337694 0.028215632 -0.038954023 0.028456608 0.032921497 0.04444939
-0.041301403 -0.038414378 0.032345563 0.033137176 0.058394752 -0.03209843 0.049118795 -0.070306756
-0.015479104 0.006055816 0.01875164 0.061371535 0.017697286 0.069286734 -0.004327346 -0.04291278
0.00051853515 0.017169096 0.004512058 -0.005217474 0.015295796 -0.003358684 -0.0065145306 0.0046279137
-0.0480036 0.04832753 0.019141719 -0.055516377 -0.0022184965 0.0015285986 0.025794728 0.051275928
0.0059886603 -0.0379493 -0.031048376 0.023051038 -0.062950164 -0.027292216 0.010875445 -0.005438775
-0.0697639 0.05558739 0.044071503 0.0016325336 0.016840504 -0.0142844645 -0.059608866 0.011199597
0.038326122 -0.04372597 -0.057853892 -0.040752847 -0.056936074 -0.017008318 0.02191076 -0.00030854423
0.03265359 0.04854625 0.021596337 -0.04172589 0.0033147947 -0.058276013 0.035549793 -0.06350777
0.07824749 -0.023910051 -0.02034897 -0.04862905 -0.019615378 -0.043720935 0.042926375 -0.049876027
0.016810294 -0.00624512 0.021499453 0.0035829183 -0.0077404734 0.06324811 0.015236657 -0.0033576463
00000000: b307 2c3d af99 34bd a874 253d a45a ec3c
00000010: 4a35 7bbc 4080 013d 2a72 83bd f5e9 f93c
00000020: 8193 84bc be49 733c 9e0d 783d 1fd3 083d
00000030: 80c8 91bd ce6a cebc 61a7 05bd b3e4 6f3c
00000040: 1901 34bd 2713 53bc 348e 43bc f3b2 cfbc
00000050: 50cc 373a eead 4ebd 0f1f e03b 6c47 b43c
00000060: 7627 27bc 7115 1b3d 109b 6a3d a874 fa3a
00000070: c89f 26bd 21c3 ba3c 9d7d 42bd 13fc 4fbc
00000080: 5bad 24bd 1bc4 26bd e62c 0d3d cef5 003d
00000090: 62ef 43bc 86c1 643b d099 ac3b 363d 01bd
000000a0: d420 363d af08 e53b 4b9d a33c 3e1c 883c
000000b0: 2f2c ab3d 42b1 e6bc 11cf 3bbc b1ac 51bd
000000c0: e9bd 32bd b891 16bd c03d fabc 765b 01bd
000000d0: bb0b 533c 2023 dfbc 2ecf 553c b31d 003d
000000e0: 2906 0a3d e2a2 e33c 1d28 7cbd 2a04 27bd
000000f0: bf9d 98bd 2941 5cbd fd7c 46bd c7be 4f3c
00000100: 786a d6bc cd1d 3bbd e02c 08bd 0f09 303d
00000110: 9774 f6bc b4e9 7cbd 4544 6abd ab63 593c
00000120: fbf0 a2bc 062c 233d 970d 213c aa6d 803d
00000130: 211e edbc b96e 2f3d 9563 193d 223e 2c3d
00000140: b0f6 613d 59a6 03bd f132 a8bc 8839 293d
00000150: f2d7 f43c 0089 11bd 346a 203d d4d8 8b3d
00000160: faa1 82bd 95e1 153d a0dd 983c 442a 163d
00000170: 96a0 413d 9f3e 1a3c 4fe0 51bd 6cf0 7c3d
00000180: 9df1 9a3d 24dc f6bc 133c 6ebc 218b aa3c
00000190: bf18 8d3b 671e ff3c 4d76 48bc cb82 43bd
000001a0: e133 c4bc 1c45 09bc b68b 0bbd 9c0a 70bd
000001b0: 3796 903c 30a2 a5bc a93e 553d 028d 943c
000001c0: 77cd 5a3d db56 e6bc b54b d4bb a44a 14bd
000001d0: 6487 2abd 2ea9 623b eb92 1cbd 57ec b23c
000001e0: 2a4d c43c 7c73 3c3b 6ede 3abc a7c7 a1bb
000001f0: 43a4 b03c 0f82 9a3b 9439 20bc c5e0 a43c
00000200: e7b2 7e3d 4290 e1bc 76a9 9b3a 2aef b93b
00000210: a8f5 98bc 7f97 013d cd48 6dbd fc91 20bc
00000220: 4670 7239 1250 273b 656b cc3c ea80 543d
00000230: 6727 2c3d e123 823d ac13 683c 2688 3a3d
00000240: d3a9 72bd 188d 2abd 3e8d 213d 6132 ddbc
00000250: eaeb 883d 0d82 463d aafb 223d 579e 7e3d
00000260: 4d11 e9bc fb27 dc3c 0e1c 44bd 6620 3dbb
00000270: 823f 54bc 497e 79bd a809 47bd 8a1a 883d
00000280: 6f48 62bd cd74 b93c 2357 60bc 0247 d73c
00000290: a82d 1138 7ee4 40bd f314 ab3a 6e8e af3c
000002a0: 9b7f b53c 9245 90bc b12e bfbc 7824 e73c
000002b0: 418e 1fbd d51d e93c b1d8 063d 9010 363d
000002c0: a92b 29bd 6558 1dbd c87c 043d d9ba 073d
000002d0: 562f 6f3d a579 03bd ca30 493d fdfc 8fbd
000002e0: 119c 7dbc de6f c63b 0a9d 993c b860 7b3d
000002f0: e6f9 903c 34e6 8d3d 69cc 8dbb 50c5 2fbd
00000300: 4eee 073a 34a6 8c3c e3d9 933b 58f7 aabb
00000310: 389b 7a3c 5e1d 5cbb d877 d5bb c1a5 973b
00000320: 6c9f 44bd 17f3 453d 18cf 9c3c 2465 63bd
00000330: 3264 11bb 425b c83a 774f d33c b506 523d
00000340: 863c c43b ba70 1bbd 2a59 febc 88d5 bc3c
00000350: 04ec 80bd ed93 dfbc ec2e 323c c037 b2bb
00000360: 60e0 8ebd 9aaf 633d 5284 343d bdfa d53a
00000370: 19f5 893c 6309 6abc 6d28 74bd 847e 373c
00000380: dafb 1c3d 011a 33bd 34f8 6cbd 75ec 26bd
00000390: cd35 69bd 0755 8bbc 327e b33c 1bc4 a1b9
000003a0: c5bf 053d 6fd8 463d cdea b03c c4e8 2abd
000003b0: 073d 593b d4b2 6ebd a99c 113d 5d10 82bd
000003c0: 3840 a03d 03df c3bc e2b2 a6bc 412f 47bd
000003d0: 6eb0 a0bc b914 33bd 91d3 2f3d ce4a 4cbd
000003e0: beb5 893c dda3 ccbb 9f1f b03c 65cf 6a3b
000003f0: cca3 fdbb 3a88 813d 2ca3 793c f50b 5cbb

network.4.bias f4 [128]
-0.00010819372 0.00017095421 -0.00017952117 8.408369e-05 -0.00011814677 -4.8291484e-05 0.00045442226 -0.00014402163
-0.00032830238 0.00019022288 0.00013098234 0.00014113549 -0.0013055302 -0.0021910176 -3.0875686e-05 0.00019850537
-0.00046281732 -0.0019334924 -0.00018828092 1.760025e-05 -0.0008174016 2.6664198e-05 -0.0002479787 4.6957593e-05
-6.65667e-05 -0.00041649834 -1.9803623e-05 -3.9407714e-06 0.0001532038 -0.00020701696 -0.00010355723 6.2701274e-06
-0.00033910325 0.0004574584 -8.331913e-07 -3.114526e-05 -4.4714645e-05 0.00036392472 -0.0017283182 -2.089266e-05
7.3969015e-05 0.00011501577 -0.0014349137 -2.6358884e-06 -3.3415366e-05 -0.000413404 0.001253966 -0.00017834091
0.00037920635 4.4608336e-05 5.3488762e-05 -0.00095972244 -0.0002385561 -0.00041345126 -0.0021207985 -0.00010222263
-2.7086835e-06 -0.00014708943 0.00017596636 0.0013817092 -4.5177976e-06 -1.9036968e-05 -0.0004098002 0.0011100979
-0.00044884565 4.6390538e-05 7.143465e-05 0.00018588644 1.2455514e-05 -0.00045801193 0.00046472892 -4.783191e-05
0.00046510782 9.4101284e-05 1.2507442e-05 -0.00046838413 2.550142e-05 -9.909155e-05 -0.00015332819 0.00010146562
-4.988849e-05 -0.00021644952 -0.00024885303 0.001744201 0.0004544316 0.00012354649 -8.585706e-05 -4.063906e-05
0.00040865407 -2.2350172e-05 0.00018351749 -0.00010272142 0.00010785367 0.0001265584 -0.00017139204 2.1576945e-05
9.10741e-05 -2.4021638e-05 5.8291123e-05 -0.00012753851 -0.00013948366 -1.2682216e-05 4.0646773e-05 -0.0004611655
-5.378226e-05 0.0004710282 1.3551215e-05 -6.610946e-05 0.00018870833 0.00039673597 7.34854e-05 0.00022681763
3.1811982e-05 -3.8939477e-05 -0.0017262307 0.0003656243 5.1455834e-05 0.00030144717 -8.985595e-05 -0.00020332896
-0.00029862506 0.00032502256 3.1461772e-05 -9.6831835e-05 0.0002594222 0.00016309354 -8.56636e-05 0.0012649193
00000000: 10e6 e2b8 2c42 3339 d93d 3cb9 1656 b038
00000010: 90c5 f7b8 968c 4ab8 863f ee39 8304 17b9
00000020: 0020 acb9 9176 4739 4e58 0939 c5fd 1339
00000030: 531e abba 2d97 0fbb 8480 01b8 e125 5039
00000040: 4aa6 f2b9 3d6d fdba 466d 45b9 40a4 9337
00000050: e546 56ba eeac df37 2303 82b9 55f4 4438
00000060: ba99 8bb8 765d dab9 f51f a6b7 f83a 84b6
00000070: 55a5 2039 b112 59b9 dd2c d9b8 fc63 d236
00000080: abc9 b1b9 07d7 ef39 78a8 5fb5 f8a1 02b8
00000090: fc8b 3bb8 26cd be39 bc88 e2ba a542 afb7
000000a0: d01f 9b38 9f34 f138 b713 bcba 38e4 30b6
000000b0: 7a27 0cb8 25be d8b9 1e5c a43a 0601 3bb9
000000c0: 37d0 c639 d619 3b38 1f59 6038 e295 7bba
000000d0: ea24 7ab9 7dc4 d8b9 18fd 0abb 5b60 d6b8
000000e0: d4c6 35b6 053c 1ab9 9c83 3839 781a b53a
000000f0: 9697 97b6 94b1 9fb7 74da d6b9 b480 913a
00000100: 0b53 ebb9 7693 4238 30cf 9538 83ea 4239
00000110: 06f8 5037 5221 f0b9 dca6 f339 1f9f 48b8
00000120: b7d9 f339 3e58 c538 0ed7 5137 7491 f5b9
00000130: e2eb d537 5fcf cfb8 b9c6 20b9 f1c9 d438
00000140: 5c3f 51b8 baf6 62b9 7d78 82b9 ad9d e43a
00000150: c740 ee39 428c 0139 280e b4b8 dc73 2ab8
00000160: 9f40 d639 a17c bbb7 9a6e 4039 246c d7b8
00000170: 802f e238 c3b4 0439 b3b7 33b9 2300 b537
00000180: 09ff be38 1382 c9b7 9e7d 7438 dcbb 05b9
00000190: 5c42 12b9 b4c5 54b7 247c 2a38 96c8 f1b9
000001a0: 4394 61b8 56f4 f639 065a 6337 3fa4 8ab8
000001b0: 02e0 4539 0001 d039 2c1c 9a38 e5d5 6d39
000001c0: db6d 0538 f252 23b8 b142 e2ba 43b1 bf39
000001d0: 48d2 5738 8e0b 9e39 0c71 bcb8 b434 55b9
000001e0: c790 9cb9 ca67 aa39 d2f5 0338 3212 cbb8
000001f0: 0f03 8839 1704 2b39 4ca6 b3b8 a6cb a53a
