log_reg/models/tree_stem_failure_best.pth (torch, 389178 bytes, 25 tensors)

network.0.weight f4 [256, 179]
000000 fb 9b 9e bc 52 12 b3 3c c4 39 d2 3c 99 e5 89 bd
       -0.019361487 0.021859322 0.02566231 -0.067332454
000010 7a 6c 11 3d 64 b7 22 bd a4 4c ee 3c a8 69 1c 3d
       0.035503842 -0.039725676 0.02908928 0.0381867
000020 47 a5 8a bd eb 56 77 3d 3d 0d 94 bd 2f 3f 48 bc
       -0.067698054 0.060385626 -0.072290875 -0.012222095
000030 6f a1 8a 3d fe 0b 7a 3d 42 f6 f9 3b e0 6f 22 bd
       0.06769072 0.061046593 0.007628233 -0.039657474
000040 3b aa 28 3b 9e 7a 4f 3d 70 2c 15 3d 28 6e eb 39
       0.002573623 0.050654046 0.036419332 0.00044904766
000050 1e d2 60 bc d6 b1 31 bd 2a 1f 40 39 85 7e c9 bc
       -0.013721971 -0.04338249 0.00018322156 -0.024596462
000060 c5 c6 a5 3a 3e 70 0d 3d 42 4d 26 3d f0 da b6 bc
       0.0012647739 0.03453087 0.040601023 -0.022321194
000070 13 d0 f5 bb f7 71 90 bc cd e8 93 bd 91 c2 09 3c
       -0.007501611 -0.017632468 -0.072221376 0.008408205
000080 d0 6f 4a 3d 0a 2c 42 bd 46 1d 22 bd 9d 21 1f 3d
       0.04942304 -0.04740528 -0.0395787 0.038850415
000090 ec 56 20 3d 7a fd 10 3d 91 dc 28 3d 24 c4 d8 3c
       0.039145395 0.035397984 0.041225974 0.026460715
0000a0 a2 73 91 3d d0 b1 05 bb 2e 18 88 bd 9d 20 09 bd
       0.07102133 -0.0020400174 -0.06645237 -0.033478368
0000b0 95 c3 ac 3c da eb 6a bd ff 66 28 bd e4 7c d1 3c
       0.021089355 -0.05735383 -0.04111385 0.025572248
0000c0 7c 78 f0 b9 f5 76 03 bd 37 7a f7 3c 0f 2a 39 bd
       -0.00045866135 -0.03209587 0.030209644 -0.045206126
0000d0 76 d7 02 bd c7 c4 e4 bc 15 02 55 bd 92 52 ee bc
       -0.03194376 -0.027925862 -0.05200394 -0.029092107
0000e0 e1 5a 66 bc 63 3c 91 3d 05 96 20 3d 73 50 6e bd
       -0.014059753 0.07091596 0.03920557 -0.05818219
0000f0 48 73 17 3c 3e 4d c0 3b 97 cb 52 bd e1 f3 5c bc
       0.009243794 0.005868583 -0.05146369 -0.01348588
000100 a8 7c 16 39 6c 8f 81 3c 3b 05 5b 3b e3 c9 26 bd
       0.00014351553 0.01581546 0.0033419866 -0.040719878
000110 3e fa c7 3c 0f b8 ba 3d 04 33 7a bd e7 ad 1d bc
       0.024411317 0.09117138 -0.06108381 -0.009623981
000120 5d 92 92 3d d7 78 41 3d 8b 83 3f 3d 26 df 0d 3d
       0.07156823 0.047234382 0.04675631 0.03463664
000130 fa b2 ce bb dd 09 8e 3d c0 26 cf bc 1a f3 46 3c
       -0.0063079568 0.06935475 -0.025287032 0.012142921
000140 b7 a7 99 bc 3b 36 07 3d 65 ec e5 bc fd e5 bc bc
       -0.01875673 0.033010703 -0.028066823 -0.023058886
000150 de 12 01 3d 75 9b 02 3d 16 85 f8 bc 2e 54 b7 bb
       0.031512134 0.031886537 -0.030336898 -0.005594752
000160 72 c3 51 bc be 24 c0 bc fc 7b 02 bc af e8 58 bd
       -0.012802945 -0.02345502 -0.0079641305 -0.05295628
000170 94 b8 c7 3c a1 89 44 bc 17 ba 77 bd c9 52 72 3c
       0.024380006 -0.011995704 -0.060480203 0.014790245
000180 a9 cc ad bd b2 2e b4 ba f5 27 a1 3d 27 f3 30 3d
       -0.084863015 -0.0013746826 0.07868949 0.04320064
000190 55 ed 5b bd 00 eb 38 3d 69 84 54 bc 03 d4 7d 3c
       -0.053693134 0.04514599 -0.012971022 0.015492442
0001a0 18 7c c8 3c 37 11 65 3d 47 b7 41 bc ac 90 2e 3c
       0.024473235 0.05592462 -0.011823482 0.01065461
0001b0 1e d5 c6 3b 0b 81 b8 3c 29 1e 98 3b 05 69 dd bc
       0.006067886 0.02252247 0.0046422672 -0.027027616
0001c0 46 de 7e 3d d2 12 c9 bb d0 06 4a b9 17 be 08 bd
       0.062223695 -0.0061362768 -0.00019266759 -0.03338441
0001d0 d2 72 4f bd d7 b5 6b bb d3 35 70 bd f1 95 ef bc
       -0.05064661 -0.003596654 -0.05864508 -0.029246302
0001e0 6a 94 ae bc bc 2e 7c bb c5 34 21 3d 3b b0 e6 bc
       -0.021311004 -0.0038480004 0.039356966 -0.028160205
0001f0 33 64 eb 3c 73 57 4d bd 2b 60 59 bd a0 f2 ac bd
       0.028734302 -0.050132226 -0.05307023 -0.084447145
000200 a9 0c 42 bc ec e1 90 3d c8 f5 4e 3d 54 3f 43 3d
       -0.011843839 0.07074341 0.050527364 0.047667816
000210 55 9d 50 3d e7 12 9a 3c 3a e2 0b 3d 06 e1 2e 38
       0.050931294 0.018807841 0.034151293 4.1694402e-05
000220 bc 22 4b bb 20 a0 1e 39 b9 15 11 b8 75 db 23 bc
       -0.0030996045 0.00015127705 -3.4590925e-05 -0.010001053
000230 e2 1c ed 3b ae f2 c6 3c 3c 31 d1 b8 b7 aa ee bc
       0.007236109 0.02428564 -9.975067e-05 -0.029134138
000240 9b a1 b3 3c 4d f4 08 bd 1e 67 7a 3c 6b 63 47 3d
       0.021927645 -0.03343611 0.015283374 0.048678797
000250 ca 9d 76 3c 78 54 29 bd d6 10 01 3d 2e 79 58 b9
       0.015052268 -0.04134032 0.031510197 -0.00020644508
000260 18 ca 82 bc 92 0a 87 bd 54 b0 8c 3c e5 c7 82 bc
       -0.015965506 -0.06593813 0.017173924 -0.015964458
000270 d9 45 99 3a 7e 32 40 bd b5 29 25 3c a0 a9 a2 3c
       0.001169379 -0.046923153 0.0100807445 0.019856274
000280 4f 4d 6e bb 35 ca b5 bd f8 e9 43 bd e1 cd 15 bc
       -0.0036361997 -0.088764586 -0.047830552 -0.009143324
000290 f4 d8 08 3c 57 fa 95 bc 3d b2 af 38 2a 23 80 bd
       0.008352507 -0.018307848 8.37785e-05 -0.06256707
0002a0 f6 40 63 3d 4c 99 87 bd 56 38 58 3d 6f 8f 88 bd
       0.055481873 -0.06621036 0.0527881 -0.06667983
0002b0 56 bf 11 3d bc e2 93 bd 44 bd 1f bd f0 72 74 3d
       0.035582863 -0.072209805 -0.038998857 0.059679925
0002c0 f0 3f bb bb b1 26 b0 3d 64 e2 c8 bb de 70 4e bd
       -0.005714409 0.0860113 -0.0061305035 -0.050400607
0002d0 11 c0 7d bd 7d 04 93 bc ac f5 a4 3d da 2e 1a bd
       -0.061950747 -0.017946476 0.08054671 -0.037642337
0002e0 99 2f 71 bc 92 e8 70 bb b2 d5 ad bb 22 f8 2a 3d
       -0.014720821 -0.0036759716 -0.0053050155 0.041740544
0002f0 ed c9 08 bd 4e e2 6d 3a 28 0d 9d 3b 65 09 83 3d
       -0.033395696 0.00090745545 0.004792828 0.06398276
000300 b5 f6 50 3b f0 12 7c 3d dd 50 02 bc be 1b c2 b9
       0.003188533 0.061541498 -0.00795385 -0.00037023233
000310 00 cd 82 bc ac bc 10 bc ba ec e7 39 ae b3 d0 3c
       -0.015966892 -0.008834045 0.00044236128 0.025476303
000320 cf 5c 0a 3d 3f 5c f6 b8 6e 40 36 3d fc 3c 48 bd
       0.033779915 -0.00011747376 0.04449504 -0.048886284
000330 28 d4 3e 3c de 3f 24 bd 7c 2c 88 bc e2 57 0e 3b
       0.011647262 -0.04009997 -0.016622774 0.0021719863
000340 2c 9c 86 3d ef 5f 0b bd 07 de 89 bd ba e3 a7 3d
       0.06572756 -0.034027036 -0.067318015 0.08197732
000350 d0 a8 6f 3d 5c bf ba 3d c3 b0 77 3d 7a ef d6 bb
       0.0585106 0.0911853 0.060471307 -0.0065593095
000360 c8 6e 92 bc e1 fd 6c 3d fd 4f 1f bd a2 df 09 bc
       -0.01787509 0.057859305 -0.038894642 -0.008415135
000370 1d a1 74 bd b5 07 a0 3c d8 e5 8a 3d 38 e7 2d bc
       -0.059723962 0.019534925 0.067821205 -0.010614209
000380 97 42 48 3d 1b 6a 21 bc a1 13 cd bc a9 81 63 38
       0.04889163 -0.009851958 -0.025033774 5.4241773e-05
000390 d1 22 be bc df dd 06 bd 2a 94 32 ba cf f5 9f bc
       -0.023209961 -0.032926437 -0.00068122393 -0.01952639
0003a0 b3 d9 00 3d 85 e3 f4 3c e9 2d 3e 3d 15 7a 0c 3c
       0.031457614 0.029893646 0.046430502 0.0085740285
0003b0 f4 14 a4 bb 14 9f 93 3c 15 58 a7 3d a2 ba 55 bd
       -0.0050073806 0.01802019 0.08171097 -0.05217994
0003c0 f5 47 92 b7 60 60 0e 3d e1 de c4 3b f7 f2 32 38
       -1.7438064e-05 0.03475988 0.0060080145 4.2664786e-05
0003d0 d5 0a 0c 3c 94 ab ae bc 2c d9 19 bd f8 94 d7 bc
       0.008547504 -0.02132205 -0.037560627 -0.026316151
0003e0 26 9e 49 bd 3b b4 88 3d dd 58 37 bd c5 21 4b bd
       -0.049223088 0.06675001 -0.04476248 -0.049592752
0003f0 19 9e 35 bd 80 fa 88 3b e9 4f ea bb f0 d7 c5 3c
       -0.044340227 0.0041802526 -0.0071506393 0.024150819

network.0.bias f4 [256]
000000 e4 aa 11 b9 e5 fa d0 3a 8a f9 14 bb ad f0 61 b9
       -0.0001389194 0.0015943913 -0.0022731745 -0.00021547331
000010 d4 c8 21 b9 04 d2 b0 b8 e1 02 53 39 58 3d 66 b9
       -0.00015428971 -8.4314524e-05 0.000201236 -0.00021957362
000020 28 06 6a 3b 8a c4 3e b9 44 65 f0 39 ce 1d 3d 39
       0.0035709236 -0.00018193029 0.00045851816 0.00018035548
000030 3e 4a a7 37 4c bf 44 ba f7 7d 92 b9 0d d9 0a 39
       1.9942523e-05 -0.0007505312 -0.0002794114 0.00013241563
000040 30 aa c7 36 26 69 c7 b9 10 9d d6 39 ed 96 18 3b
       5.9504746e-06 -0.0003803458 0.0004093428 0.0023283318
000050 b2 fa 92 b9 2a 48 c8 b7 f4 2b 30 b9 d8 e3 12 b6
       -0.00028034073 -2.3875462e-05 -0.00016801042 -2.1888318e-06
000060 ac 54 9e b7 dc 1a 0b 37 79 60 8d 3a 8d db 4a b8
       -1.8874496e-05 8.291299e-06 0.0010786197 -4.8365026e-05
000070 bc fa 41 39 33 94 3e 39 09 fd 50 3b 81 b4 cc 38
       0.0001849932 0.0001817502 0.0031889102 9.7610995e-05
000080 f7 a7 e5 bb 0d e0 27 39 dc d4 2e b7 d7 41 c8 bb
       -0.0070085484 0.00016009827 -1.0420768e-05 -0.0061113643
000090 e2 c4 07 b7 78 1a 50 b9 96 4c c3 b7 7d dd 88 38
       -8.092467e-06 -0.00019846286 -2.3281475e-05 6.526241e-05
0000a0 b1 9d 62 3b ae 9a f4 39 02 8d de 38 b0 7d 6b 35
       0.0034578855 0.00046654552 0.0001061205 8.772722e-07
0000b0 50 17 26 38 de 05 d8 b8 a0 78 e7 b8 98 7e d2 bb
       3.9599196e-05 -0.000103007755 -0.000110374065 -0.0064237826
0000c0 3d be e5 bb 0e 38 42 bb a0 a4 9d b9 60 c9 ff 37
       -0.0070112036 -0.0029635462 -0.0003006803 3.0492141e-05
0000d0 f1 5c 40 bb 5b 67 dc b8 dc 30 31 36 bd 80 5e b7
       -0.0029352272 -0.00010509669 2.6403495e-06 -1.3262205e-05
0000e0 8d 2d f4 b9 46 6c 1d b9 ca 79 f4 3b c6 cb 03 39
       -0.00046573245 -0.00015013022 0.0074608075 0.00012569045
0000f0 bc 07 88 b8 54 2d ab b7 6b bf aa b9 c0 26 c1 34
       -6.486426e-05 -2.0405896e-05 -0.00032567544 3.5977246e-07
000100 79 d0 8b 38 94 c3 71 38 a3 0d b7 3a 1b a3 bd b8
       6.6668676e-05 5.7641024e-05 0.0013965856 -9.042603e-05
000110 c0 94 ff b7 50 19 ec 37 f5 a6 51 3b 33 3d da b8
       -3.0467636e-05 2.814518e-05 0.0031990383 -0.00010406449
000120 cb df 3c b9 61 e9 c6 39 da 18 08 39 85 f2 13 ba
       -0.00018012447 0.00037939384 0.00012979229 -0.0005643743
000130 3e 5d 28 b8 10 5f ca b7 5b 08 c5 bb 76 34 22 39
       -4.014116e-05 -2.4124543e-05 -0.006012959 0.00015469067
000140 3e 45 89 39 46 0e e8 b9 b4 cd 3b 37 80 92 bd b6
       0.00026182266 -0.00044261123 1.1193963e-05 -5.649694e-06
000150 61 c2 cb bb 13 f5 ed b9 20 38 c7 36 0e 4c dd bb
       -0.00621824 -0.00045386757 5.937196e-06 -0.006753451
000160 f6 a3 0c bb 54 44 fb 3a 27 13 b6 3a b7 55 39 b9
       -0.0021460033 0.0019170144 0.0013891206 -0.00017674906
000170 13 55 99 b7 11 4f 51 b8 4f 5f e3 bb 04 9a 35 b8
       -1.8278637e-05 -4.990312e-05 -0.006938852 -4.32972e-05
000180 37 8e 69 38 ce 4b 49 b7 57 7c b8 b8 34 51 d1 ba
       5.5683977e-05 -1.1998183e-05 -8.796964e-05 -0.0015969635
000190 cf 61 98 38 d2 33 c6 38 de 5b 15 b8 05 ff 56 38
       7.266143e-05 9.451028e-05 -3.5609926e-05 5.125908e-05
0001a0 a4 da 0d b7 a4 9c d8 39 86 58 3e b9 6a 15 9e b7
       -8.455161e-06 0.00041315437 -0.0001815279 -1.884504e-05
0001b0 b8 8e 40 38 58 e1 aa 38 b2 dd 0e b8 77 8a dc b9
       4.5909284e-05 8.148205e-05 -3.4061908e-05 -0.00042064834
0001c0 db 7d 94 b8 77 8e 0d 3a 67 ea f0 38 e6 51 0e 39
       -7.080632e-05 0.0005399952 0.000114877526 0.00013572685
0001d0 58 b0 a8 b7 b8 ce 8d ba 08 46 82 b8 9e 01 bf b7
       -2.0109277e-05 -0.0010819053 -6.2119274e-05 -2.2769727e-05
0001e0 42 f0 34 b9 5b 5a f3 37 28 fc 27 3a 6a c8 89 b8
       -0.0001725564 2.9009932e-05 0.00064081186 -6.569999e-05
0001f0 f6 08 8b b8 ae 4c 90 38 66 3c 62 bb 66 07 e9 b9
       -6.6297056e-05 6.880738e-05 -0.0034520864 -0.00044446735
000200 54 ab 42 39 e2 a8 77 3b f4 ed d8 3b 53 16 41 39
       0.00018565106 0.003778987 0.006620163 0.0001841423
000210 4f 4e 43 b9 52 c2 86 b7 98 49 69 bb 6b b9 1f b8
       -0.00018625821 -1.6064532e-05 -0.0035596844 -3.8081238e-05
000220 a4 66 65 b9 9c e0 be 39 16 c9 b4 36 16 cf b1 3b
       -0.00021877378 0.0003640697 5.3878275e-06 0.005426298
000230 98 90 f9 38 3d 92 02 b9 5c 6a ad bb ab 6a cd b8
       0.00011900178 -0.00012452244 -0.00529222 -9.79503e-05
000240 98 ad 49 3b 65 f1 35 39 c8 3c ad 36 01 4d 69 3b
       0.0030773636 0.00017351432 5.1628776e-06 0.0035598876
000250 2c f2 4f 39 be e3 2e b8 70 4e 45 b7 01 ed 67 39
       0.00019831274 -4.1696934e-05 -1.1760378e-05 0.00022118168
000260 25 a6 e8 38 c9 5a d6 3b 57 0c 6b bb 7d d7 84 38
       0.00011093569 0.006541584 -0.003586551 6.334388e-05
000270 69 31 bf 38 30 44 e0 39 c7 3c bc 38 02 62 1e ba
       9.116793e-05 0.00042775413 8.975859e-05 -0.0006041826
000280 0c 77 91 39 ea df d0 38 e6 a6 de 3a 12 7e 45 38
       0.00027745252 9.95992e-05 0.0016986995 4.7085872e-05
000290 4e 3c 8d ba 6e 07 02 37 64 32 ed 39 56 1a eb 3a
       -0.0010775418 7.750334e-06 0.00045241707 0.0017936926
0002a0 97 b3 39 b9 ba cf e1 37 ab 23 e7 b9 45 09 d0 b9
       -0.00017709877 2.691882e-05 -0.00044086328 -0.00039679758
0002b0 53 8f 3b 3a 13 5a a1 b7 c7 ae f1 39 47 d6 10 3b
       0.0007154841 -1.923464e-05 0.0004609732 0.0022100375
0002c0 bf ba 95 b8 37 ad 0b 39 bc 45 55 ba 14 a7 35 bb
       -7.139658e-05 0.000133206 -0.00081356964 -0.0027717995
0002d0 9b 1d c3 3b 77 4c df 39 74 ba 0c 39 48 46 ec 35
       0.005954457 0.00042590845 0.000134209 1.7603825e-06
0002e0 c8 29 91 3b f0 94 06 39 99 cd 8c b7 82 64 ef 3a
       0.0044300295 0.0001283472 -1.678504e-05 0.0018264207
0002f0 f3 96 ba 38 47 c0 0e 38 59 6a 2f b7 83 4b 1e bb
       8.8972876e-05 3.403451e-05 -1.0455574e-05 -0.0024153895
000300 58 b5 b4 3a 84 18 de 37 42 50 0e 37 89 c4 94 37
       0.0013786955 2.6475878e-05 8.482546e-06 1.7734494e-05
000310 40 f2 6c 37 60 af f0 b8 1e 9c 3a b9 a9 5d 9c b7
       1.4123099e-05 -0.00011476758 -0.000177965 -1.8640263e-05
000320 a2 9a 44 b9 1f 6a 88 b8 a5 4d af bb 63 fe cc b9
       -0.00018749622 -6.504752e-05 -0.005349832 -0.00039099445
000330 98 97 48 b9 34 dc 28 39 c4 11 cd b7 90 20 c3 bb
       -0.0001912996 0.0001610376 -2.4446177e-05 -0.0059548095
000340 bc c2 8b b6 c3 9e 2c b6 04 5c 14 bb 1d 80 3e 37
       -4.165193e-06 -2.5722409e-06 -0.0022637853 1.1354711e-05
000350 6e 1e 5d b8 5a 78 32 ba c0 3c 6d b8 a4 fd c5 b8
       -5.2718846e-05 -0.0006808095 -5.656178e-05 -9.440936e-05
000360 19 6b 4c 38 df 4c 4a 38 f8 fc 9d b9 d6 63 47 b9
       4.8737133e-05 4.8232145e-05 -0.0003013385 -0.0001901531
000370 39 7a 88 38 40 2f 6e b8 e1 06 a1 b8 4f 20 e8 37
       6.507751e-05 -5.6787627e-05 -7.6783595e-05 2.76716e-05
000380 85 d4 d0 39 a1 7f 48 39 b9 a4 ee b8 bf 7e a9 39
       0.0003983119 0.00019121032 -0.00011379406 0.00032328625
000390 95 80 ec 37 9e 9f d2 3b de 9f 86 b9 cc 2c d3 b8
       2.8193268e-05 0.0064277193 -0.00025677582 -0.00010069608
0003a0 86 4c 78 b8 f1 f9 d2 38 19 78 50 b8 3a b9 a2 b8
       -5.9199076e-05 0.000100601355 -4.9702914e-05 -7.759263e-05
0003b0 5f d1 e8 38 84 d6 f4 b7 7a e7 a1 ba ce b5 ba 3b
       0.000111016205 -2.9186958e-05 -0.0012352311 0.0056979423
0003c0 51 5c a1 38 79 72 94 b8 2e b7 9e bb a3 fd 19 b9
       7.6942735e-05 -7.078512e-05 -0.004843614 -0.00014685704
0003d0 49 d6 6e 3a 33 9f e1 b9 c9 27 43 39 9e 79 42 39
       0.00091109105 -0.00043033957 0.0001861147 0.00018546588
0003e0 2c 23 5b bb 85 23 0e 3a 84 62 d7 39 5a c1 a0 3b
       -0.0033437712 0.0005422163 0.00041081395 0.004905862
0003f0 64 13 88 ba 2e db 32 3b 18 33 bb 36 da fd f6 37
       -0.0010381755 0.0027291286 5.5789824e-06 2.9443694e-05

network.1.weight f4 [256]
000000 6b 50 79 3f e9 4b 85 3f a0 82 7c 3f 2e 8e 7e 3f
       0.97388333 1.0413791 0.9863682 0.994357
000010 02 38 7c 3f 3d 2a 7d 3f 9a 15 7e 3f a4 14 7e 3f
       0.9852296 0.98892576 0.9925171 0.99250245
000020 06 96 7e 3f be 3e 81 3f 45 dd 80 3f f4 ec 7b 3f
       0.9944767 1.0097272 1.0067526 0.98408437
000030 d4 be 7a 3f b5 84 7e 3f 79 54 7d 3f 63 06 81 3f
       0.9794743 0.99421245 0.9895702 1.0080074
000040 ec 7c 81 3f 61 c6 7b 3f bd 0e 81 3f 24 0d 82 3f
       1.0116248 0.9834958 1.0082623 1.016026
000050 6a 3e 80 3f e0 6b 81 3f af 61 7f 3f ca df 80 3f
       1.0019047 1.0111046 0.9975843 1.0068295
000060 a8 c2 7e 3f 5c 69 7b 3f 55 45 80 3f 59 c7 7f 3f
       0.9951577 0.9820764 1.0021158 0.99913555
000070 46 99 79 3f 4f 42 7a 3f 31 64 80 3f 74 f1 81 3f
       0.974995 0.9775743 1.0030576 1.0151811
000080 27 ab 7e 3f b6 63 83 3f 7d 98 80 3f 6f 97 7f 3f
       0.9947991 1.0264804 1.0046536 0.99840444
000090 98 6a 80 3f ea a1 7b 3f 70 df 7d 3f 6c 98 80 3f
       1.003253 0.98293936 0.99169064 1.0046515
0000a0 7b 4d 7d 3f 70 e7 7e 3f b5 24 7f 3f 1f df 81 3f
       0.9894635 0.99571896 0.99665385 1.0146216
0000b0 de 8a 80 3f 98 3d 81 3f a9 ad 7a 3f ac 59 7a 3f
       1.0042379 1.0096922 0.97921234 0.9779308
0000c0 62 ae 81 3f 00 29 82 3f 47 7c 7c 3f 50 ed 7c 3f
       1.0131342 1.0168762 0.9862713 0.9879961
0000d0 69 37 7f 3f 03 dc 7c 3f 45 59 7d 3f 49 60 7e 3f
       0.99693924 0.9877321 0.9896434 0.9936567
0000e0 6a 72 7c 3f 90 56 7f 3f d1 f1 80 3f c0 09 7d 3f
       0.9861208 0.9974146 1.0073797 0.98843
0000f0 35 05 80 3f c3 17 81 3f 87 b8 7f 3f df 95 80 3f
       1.0001589 1.0085377 0.9989094 1.0045737
000100 87 a7 7f 3f 92 76 82 3f a9 4b 81 3f ae c3 7f 3f
       0.99865 1.0192435 1.0101215 0.9990796
000110 d6 30 80 3f 08 94 7f 3f 7d e7 7c 3f c4 73 7f 3f
       1.0014904 0.9983525 0.98790723 0.9978602
000120 67 58 81 3f 0d 2e 7e 3f 69 b9 80 3f a5 22 82 3f
       1.0105103 0.9928902 1.0056583 1.0166823
000130 bb 57 81 3f 9d 1b 7e 3f 0e da 80 3f 5a c5 80 3f
       1.0104898 0.99260885 1.0066545 1.0060227
000140 b2 1d 82 3f 13 3d 81 3f e0 25 7f 3f 99 7c 80 3f
       1.0165312 1.0096763 0.9966717 1.0038024
000150 af d7 7a 3f 00 d2 7c 3f 67 3b 7d 3f d2 7d 81 3f
       0.9798536 0.98757935 0.98918766 1.0116522
000160 51 ef 81 3f 59 7a 80 3f 37 4b 7d 3f 6f 47 7b 3f
       1.0151159 1.0037338 0.98942894 0.98155874
000170 9e 42 80 3f 22 c3 81 3f d5 f1 7c 3f 8e ab 7d 3f
       1.002033 1.0137675 0.98806506 0.99089897
000180 7b f3 80 3f aa fa 7f 3f 05 04 83 3f c4 f9 7d 3f
       1.0074304 0.9999186 1.0235602 0.9920924
000190 94 1d 7e 3f de 20 80 3f c1 48 7e 3f d1 08 82 3f
       0.9926388 1.001003 0.99329764 1.015894
0001a0 c7 b5 7a 3f 43 d4 80 3f e6 fb 79 3f e4 b1 7d 3f
       0.9793362 1.0064777 0.9764999 0.99099565
0001b0 78 08 80 3f 8c 70 80 3f 5a ee 7c 3f 2c 18 7b 3f
       1.0002584 1.0034347 0.98801196 0.9808376
0001c0 34 97 7f 3f b2 e3 7c 3f f5 20 7d 3f eb b8 7e 3f
       0.9984009 0.98784935 0.98878413 0.9950091
0001d0 69 e3 7d 3f 58 23 7c 3f 3d 27 80 3f 92 f5 80 3f
       0.99175125 0.9849143 1.0011975 1.0074942
0001e0 3c b4 7d 3f ef 2e 80 3f dd 95 80 3f e6 fe 7a 3f
       0.9910314 1.0014323 1.0045735 0.98045194
0001f0 49 9a 80 3f c8 02 83 3f 37 3f 83 3f 7d 28 7f 3f
       1.0047084 1.0235224 1.0253667 0.99671155
000200 08 6f 81 3f 2f 18 82 3f 25 1b 81 3f e5 43 7b 3f
       1.0112009 1.016363 1.0086409 0.98150474
000210 73 41 7e 3f d8 9f 81 3f cc 76 7e 3f eb 8d 7e 3f
       0.9931862 1.0126905 0.9940002 0.994353
000220 31 6a 7f 3f 7f b9 7e 3f 98 88 7e 3f 74 5f 7c 3f
       0.9977141 0.99501795 0.99427176 0.9858315
000230 f5 75 7e 3f 12 6d 80 3f 27 d1 7e 3f 82 82 7f 3f
       0.9939874 1.0033286 0.9953789 0.99808514
000240 cf 32 7c 3f 34 60 7d 3f 64 80 7f 3f f5 92 7d 3f
       0.9851503 0.9897492 0.99805284 0.99052364
000250 34 e6 7e 3f d2 c7 83 3f 63 36 80 3f ba 4f 7c 3f
       0.9957001 1.0295355 1.0016598 0.98559153
000260 dc c6 81 3f cc 26 7e 3f 5b c1 7a 3f f6 bc 7e 3f
       1.0138812 0.9927795 0.9795129 0.9950708
000270 11 68 7d 3f 62 fa 7d 3f 3f b2 80 3f 97 27 80 3f
       0.9898692 0.9921018 1.0054396 1.0012082
000280 32 ec 82 3f 6a 32 80 3f 25 52 7f 3f 4a 38 83 3f
       1.0228331 1.0015385 0.9973472 1.0251553
000290 79 e6 80 3f cc d4 7e 3f 23 d5 7a 3f dc fe 7d 3f
       1.0070335 0.9954345 0.9798147 0.9921701
0002a0 69 2f 80 3f e6 f2 7d 3f cf 6c 80 3f cb 2b 80 3f
       1.0014468 0.9919876 1.0033206 1.0013365
0002b0 cf b4 7f 3f 8a e6 80 3f 01 ad 80 3f 6d 18 7e 3f
       0.99885267 1.0070355 1.0052797 0.9925602
0002c0 7e ea 7f 3f 80 aa 81 3f 26 e2 7b 3f e0 27 80 3f
       0.9996718 1.0130157 0.9839195 1.0012169
0002d0 a2 0f 80 3f d9 51 7d 3f d2 86 7b 3f e0 d2 81 3f
       1.0004771 0.98953015 0.98252594 1.0142479
0002e0 36 39 7c 3f 3e 39 7d 3f 03 33 7f 3f 38 75 7d 3f
       0.98524797 0.9891547 0.9968721 0.99006987
0002f0 12 fb 79 3f 40 01 82 3f 91 5d 7a 3f 69 09 7d 3f
       0.9764873 1.0156631 0.9779902 0.98842484
000300 08 70 80 3f c5 04 80 3f b1 9a 80 3f f7 4b 81 3f
       1.0034189 1.0001456 1.0047208 1.0101308
000310 c0 9a 7e 3f c9 16 7f 3f ab c0 7d 3f 24 ef 82 3f
       0.9945488 0.9964414 0.99122113 1.022923
000320 e4 6b 7b 3f 49 a6 7e 3f 41 a6 7c 3f 9e 75 7d 3f
       0.98211503 0.9947248 0.98691183 0.99007595
000330 1c e4 7e 3f 65 1a 7d 3f 00 2a 83 3f cd 80 7a 3f
       0.9956682 0.988684 1.0247192 0.97852784
000340 20 e1 7c 3f 08 6a 7d 3f 4f ad 80 3f 71 3c 80 3f
       0.98781013 0.98989916 1.005289 1.0018445
000350 91 2b 80 3f ea 3b 81 3f bc 3f 82 3f 6c bd 7e 3f
       1.0013295 1.0096409 1.01757 0.99507785
000360 1c 66 80 3f b2 d7 7a 3f c5 df 77 3f 8c ab 7e 3f
       1.0031161 0.97985375 0.9682582 0.9948051
000370 91 bb 7f 3f 21 60 7d 3f 53 06 7f 3f ad 29 81 3f
       0.9989558 0.98974806 0.99619025 1.0090843
000380 32 52 81 3f 3a a0 7a 3f 58 8b 7d 3f 01 00 80 3f
       1.0103209 0.97900736 0.99040747 1.0000001
000390 02 42 80 3f a8 37 80 3f b0 86 80 3f 44 0e 82 3f
       1.0020144 1.0016985 1.0041103 1.0160604
0003a0 11 3a 80 3f 71 56 7b 3f 6b 71 7f 3f a3 8f 81 3f
       1.001772 0.98178774 0.9978244 1.012196
0003b0 2f 1f 83 3f 7c 09 80 3f fc 9d 7e 3f 47 47 80 3f
       1.0243891 1.0002894 0.99459815 1.0021752
0003c0 1e f4 7c 3f 39 27 81 3f 73 d4 80 3f a1 91 7c 3f
       0.98809993 1.0090095 1.0064834 0.9865971
0003d0 d5 92 7d 3f 65 82 80 3f 19 c3 7e 3f c6 39 81 3f
       0.9905217 1.0039793 0.99516445 1.0095756
0003e0 d8 8e 80 3f c2 fe 80 3f 06 76 81 3f ce dc 80 3f
       1.0043592 1.0077746 1.0114143 1.0067384
0003f0 2d 72 80 3f d1 1f 80 3f 72 08 81 3f 71 00 82 3f
       1.0034844 1.000971 1.0080702 1.0156385

network.1.bias f4 [256]
000000 ed 81 d5 bc e6 be 9c 3c 33 2a c4 ba bd ce 07 bb
       -0.02606293 0.019133996 -0.001496619 -0.002072259
000010 00 44 75 bc da 44 a0 bc 70 17 65 3a 33 eb dd bb
       -0.014969826 -0.019564081 0.0008739149 -0.0067724227
000020 e7 c0 8b bc 04 37 b6 3a aa a4 1d 3b 89 81 96 bc
       -0.017059756 0.0013901894 0.0024054446 -0.018372314
000030 00 d5 a4 36 bf 40 b0 3b 0f 4b 8b bc 8c b1 2b 3c
       4.9123773e-06 0.005378812 -0.017003564 0.010479342
000040 51 d4 15 3c df 8c 0d bc 6b 0b 95 3c 4c 23 ff bb
       0.009144858 -0.008639543 0.018193921 -0.00778619
000050 eb 9f 25 bb c1 1a 8c 3c 58 d8 85 3b ea ba 60 3c
       -0.002527232 0.017102601 0.004084628 0.013716439
000060 04 e1 62 3b a7 fd 97 bc 92 21 e1 ba 4a b7 d8 3b
       0.0034618983 -0.018553568 -0.0017176142 0.0066136466
000070 f4 84 b7 bc 3d 87 83 bc f2 60 ad 3a de 4f a4 3c
       -0.022402264 -0.016055698 0.0013227744 0.020057615
000080 0b 4e 27 3c 8b 81 87 3c d4 87 46 3c c4 a5 83 3b
       0.010211478 0.016541263 0.012117345 0.0040175635
000090 96 53 b4 3c 89 1b 33 bc 7c a3 36 bb 42 c3 78 bb
       0.022012513 -0.010931858 -0.002786844 -0.003795818
0000a0 d9 f5 0f bc c7 81 44 bb af 69 74 3b 37 17 88 3c
       -0.008786642 -0.002998458 0.0037294438 0.016612632
0000b0 70 f4 f9 3b 91 6a a4 3c e6 8f 11 bc a5 99 b8 bb
       0.007628016 0.020070346 -0.008884406 -0.00563355
0000c0 24 7c 02 3d dd d0 ca 3c e4 b1 8d bc 4b 33 92 bc
       0.03185667 0.024757797 -0.017296739 -0.017846724
0000d0 38 fc bc 3b 2d 0a 08 bb 7a 91 68 ba a8 8d 0f bc
       0.0057673715 -0.0020758018 -0.00088717754 -0.008761801
0000e0 ea eb 98 bc 4a 12 3a bc 9b 72 4a 3b ee 82 1a bc
       -0.01866718 -0.0113568995 0.0030891064 -0.00943063
0000f0 a5 2a 95 ba c9 e0 8e ba 11 3d fd 3a 32 3b 2c 3c
       -0.0011380507 -0.0010900731 0.0019320567 0.01051216
000100 31 c9 51 ba 62 69 5e 3c 72 cb 1e 3b 66 f3 33 3c
       -0.0008002697 0.01357493 0.002423015 0.010983324
000110 62 cd 05 3c 58 07 63 bb 78 ef 88 bc c3 fd 8a 3b
       0.008166643 -0.0034641828 -0.01671575 0.0042416765
000120 45 01 91 3c 9d d9 a4 3a 71 21 7d 3b f3 6d 40 3b
       0.0177008 0.0012577061 0.003862467 0.002936241
000130 4e e7 4e 3c bd ec 12 3b f9 1c 01 3c e7 3e 59 3c
       0.0126283895 0.002241894 0.007880443 0.013259626
000140 1f bf a5 3c 11 b1 bc bb 8a 80 90 3a 9b 80 dd 3b
       0.020232735 -0.0057584126 0.0011024636 0.0067597157
000150 9d 8d cf bc d3 e1 1a bc 31 30 2f bb 64 8a 07 3c
       -0.025336081 -0.009453255 -0.0026731605 0.008272741
000160 a6 13 91 3b c6 2d 46 3c 01 c5 87 bc 31 bf 94 bc
       0.004427391 0.012095874 -0.016573431 -0.018157573
000170 71 25 ea 3a 6e f1 e9 3a 90 b2 13 bc d0 61 51 bc
       0.0017863942 0.0017848441 -0.009014741 -0.012779668
000180 cf e1 2d 3c 24 a8 91 bc fc cd 47 3c 22 d8 0b bb
       0.010612919 -0.017780371 0.012195107 -0.0021338542
000190 9e d4 f4 39 21 92 b6 bb 31 b3 47 bc cf c1 ca 3c
       0.0004669772 -0.005571619 -0.012188719 0.024750618
0001a0 2e 22 d9 bb 79 a2 28 3c 20 7d 3d bc 5b 6c 10 bc
       -0.006626389 0.010292643 -0.011565477 -0.008814896
0001b0 72 22 38 bb 56 f6 88 3c e8 06 c2 bb ed 42 ec 3b
       -0.0028096703 0.016719025 -0.0059212334 0.0072101266
0001c0 4e aa 35 3c fb 2f 91 3b cc 6a 12 3a 12 8e df bb
       0.011087967 0.0044307685 0.0005585372 -0.006822356
0001d0 00 b0 6b bb 02 ca c6 bb c2 c4 a0 39 aa 5b 83 3b
       -0.0035963058 -0.0060665617 0.00030664174 0.00400873
0001e0 03 ca e0 3a 46 67 6a bb 9e 95 53 3b eb 15 bd bc
       0.0017150048 -0.0035767122 0.0032285224 -0.02308174
0001f0 9d f0 74 3b 5f 7d f2 3c 96 7b d5 3c de ac fc 3b
       0.0037374862 0.029600797 0.026059907 0.007711037
000200 18 b1 7c 3c 31 9e df 3b d1 29 af 3c 0b d5 de bb
       0.015423082 0.006824278 0.021382244 -0.006800299
000210 4b ed 8b bb 22 30 d8 3c 4d 12 3d 3c 64 90 07 bc
       -0.004270231 0.026390139 0.011540008 -0.0082741715
000220 b5 aa 15 ba 27 15 be 3b 4d a7 8d bb d7 e5 96 bc
       -0.0005709336 0.0058008614 -0.0043229223 -0.018420143
000230 95 c3 d0 3a 50 b8 df bb 38 d3 6e bb 85 57 43 3c
       0.0015927429 -0.0068273917 -0.0036441814 0.011922722
000240 db ef 5a bc 5d a8 bf bc b4 66 f8 bb d6 98 88 ba
       -0.01336285 -0.023395712 -0.0075806025 -0.0010421525
000250 3c e0 c6 ba 7b d1 04 3d 45 c0 ba 3c 41 80 0a bc
       -0.0015173028 0.03242634 0.02279676 -0.00845343
000260 b2 3b 8e 3b 8c 14 bf bc e0 4a ca bc 6a 2d b5 bc
       0.0043406123 -0.023325227 -0.024693906 -0.022116382
000270 2e 10 95 bb 0c 9a 60 bb 3e fb 20 3c 62 52 84 3b
       -0.004549048 -0.0034271507 0.009825526 0.004038141
000280 e2 94 d5 3c 9c d4 77 bb 84 56 8c 3c c5 fd 22 3d
       0.02607197 -0.0037815934 0.017131098 0.039792795
000290 3c c7 34 3c d6 12 94 bc 81 29 36 bc 8b df bc bb
       0.011033829 -0.018075388 -0.011118294 -0.005763953
0002a0 50 0c 87 3c 79 8b 45 bc 6f 62 0e 3c 96 bc f6 ba
       0.016485363 -0.012057179 0.008690461 -0.0018824514
0002b0 88 ca 57 bc 13 68 59 bb 41 b1 d0 3c 1a 2f a3 ba
       -0.013170846 -0.0033173605 0.025475146 -0.001244995
0002c0 c6 83 03 3c 0c 11 97 3c 26 2e e3 bc 8a 86 8e 3b
       0.008027023 0.018440746 -0.027731966 0.0043495344
0002d0 3a 26 8d 3a 0c 86 50 bc d4 54 8d bb 99 9b 3e 3c
       0.0010768839 -0.012727272 -0.004313091 0.011633777
0002e0 a1 c1 0f 3c 02 a4 0a bc 3e 2e 9c bc 64 b1 7f bb
       0.008774192 -0.008461954 -0.019065019 -0.0039015645
0002f0 2d 10 9c bc d6 72 84 3c e3 00 0a bc a3 f4 a8 bb
       -0.019050682 0.01616804 -0.008423063 -0.005156116
000300 2e 76 f8 bb 86 d2 b0 bb f9 4a 32 3c 85 c1 50 3b
       -0.0075824475 -0.00539619 0.010882133 0.0031853628
000310 10 f7 ff 3b 30 99 2d bb 41 d3 4f 3b ad 32 d6 3c
       0.0078114346 -0.0026489012 0.003171161 0.026147211
000320 40 2b b4 bc bf 1c 94 bb eb 72 8b bc da f0 4e bc
       -0.02199328 -0.0045200284 -0.01702257 -0.012630666
000330 ce 87 20 ba 6e a1 cd bb e1 b7 bc 3c f1 b9 a7 bc
       -0.0006123752 -0.0062753474 0.023036899 -0.020474406
000340 c5 ed 66 bb c2 fe f6 3a be 67 63 bb c5 da d2 bb
       -0.0035236937 0.0018844234 -0.0034699286 -0.0064347708
000350 a0 cd 16 bc 8c 47 1a 3c 25 ab 71 bb f8 0a af 3b
       -0.009204298 0.009416472 -0.0036875692 0.0053418837
000360 25 92 0f 3c 30 95 14 bc 6d ab fc bc 12 8c 90 ba
       0.008762871 -0.009068772 -0.030843461 -0.0011028072
000370 c6 d6 09 3c c8 61 50 bc c4 97 6e bb dd 0b 21 3c
       0.008413022 -0.012718625 -0.0036406377 0.009829489
000380 5e 5b cb 3b 16 17 09 3b ed b8 16 bb b4 d9 21 bc
       0.00620596 0.0020918301 -0.0022998408 -0.009878565
000390 18 4d 88 3b b0 20 ce bb 97 9a 2d 3c 0c 86 03 3c
       0.004159581 -0.0062905177 0.010595939 0.008027565
0003a0 4c 3d 77 bb 3b 15 86 bc df 98 8d 3a 87 0e bd 3c
       -0.0037725745 -0.016367545 0.0010803005 0.023078216
0003b0 2c 57 8b 3c 3d 8b 05 3c c3 c1 65 3b 12 24 bb b9
       0.01700934 0.008150873 0.0035058118 -0.00035694294
0003c0 68 ce 1f bc 94 0d 55 3c 0e 88 30 3c 4f 34 88 ba
       -0.009753801 0.013003726 0.010774625 -0.0010391566
0003d0 69 20 fe bb 0a 15 50 3c 2a 34 04 3a 69 14 a3 bb
       -0.0077553284 0.012700329 0.00050431734 -0.0049767983
0003e0 0f 68 16 bc e0 1f 8d 3b 2b 06 99 3b ee 37 a5 3c
       -0.009180083 0.0043067783 0.0046699247 0.02016827
0003f0 cd 84 76 bb d7 ca 92 bb c8 e7 bc ba 6f a8 ae 3b
       -0.0037615777 -0.004479747 -0.0014412338 0.0053301374

network.1.running_mean f4 [256]
000000 ea a0 9b bb 27 d1 39 3c 3b 73 5a bc 3f 03 3a bc
       -0.004749407 0.01134137 -0.013333137 -0.011353313
000010 99 9a 55 3c 1c a7 c2 bb 39 e8 6e bc f9 50 7a bc
       0.013037347 -0.005940331 -0.014581733 -0.015278094
000020 8e 55 bb bb 36 e5 10 bb 3c fa 81 3b 0f 17 45 3c
       -0.005716986 -0.0022109277 0.003966598 0.012029423
000030 d4 78 79 3a 39 a2 81 bc 8c ca 87 3b 3f b5 8a bb
       0.0009516601 -0.015824424 0.0041440185 -0.004233032
000040 67 8f 5d 3c b9 fb bf 3a 66 cf 2b bb 96 5b 9c bb
       0.013522959 0.0014647163 -0.0026216148 -0.00477166
000050 2a 5b c2 3a 83 24 e7 bb ea d5 26 ba 7b 05 4d 3c
       0.0014828194 -0.007053913 -0.0006364273 0.012513514
000060 a7 ec b5 3b 8c db c5 bb bf d0 3d bc da da 4d 3b
       0.005551893 -0.006038135 -0.0115854135 0.0031410963
000070 bd d8 4e bb aa 99 7c bb 58 5a 20 3c 6d e7 42 3b
       -0.0031562292 -0.003854374 0.009787165 0.0029739991
000080 63 ca 06 bd a4 c1 c7 3b aa ca 75 bb a0 cc 10 bc
       -0.032907855 0.006096082 -0.003750483 -0.008837849
000090 5c c8 e0 bb 71 41 85 bb 10 b7 e0 bb d6 6c 06 3c
       -0.006859822 -0.004066639 -0.0068577603 0.008204659
0000a0 68 20 e1 3b 46 e8 50 bb 30 e0 13 3b b6 a4 da b9
       0.006870318 -0.0031876727 0.0022564046 -0.0004170292
0000b0 6a 6b bb 3b 4e d7 40 3c 1a f3 1e bb b5 8c 94 bc
       0.005719592 0.011770083 -0.0024253787 -0.0181335
0000c0 64 a9 fc 3b 23 0e 4c ba ff cb 05 3c cc e9 21 3c
       0.0077106226 -0.0007784089 0.008166312 0.009882402
0000d0 fb 7d bd bb 6b b9 6b bb ee 0b 6d bb b4 82 da bb
       -0.0057828403 -0.0035968672 -0.003617044 -0.006668413
0000e0 1e f4 bd bb 59 11 2d bb c1 15 fe bb 4f e1 c9 bb
       -0.0057969233 -0.0026408045 -0.007754058 -0.006160892
0000f0 95 d8 3a 3c c1 d3 3b 39 ab 16 07 3b c5 26 9d ba
       0.011404176 0.00017912594 0.0020612876 -0.0011989704
000100 90 24 a5 3a 50 d1 4e 3c 22 10 eb 3b bc 07 39 3c
       0.0012599397 0.012623146 0.007173554 0.011293348
000110 05 05 46 3b 5b 3f f4 bb 1c f2 ed 3b 39 ff 1f 3b
       0.0030215394 -0.0074538416 0.0072615277 0.00244136
000120 c5 ff e9 bb 87 be 4d bb b9 10 16 bb 1c a1 54 3a
       -0.007141086 -0.003139408 -0.002289815 0.00081111654
000130 9b 89 69 3b 80 d9 da bb 66 18 4c b9 9d 69 b2 3b
       0.0035634998 -0.00667876 -0.00019464045 0.005444719
000140 b0 42 ef 3a e3 67 b2 bb d8 81 95 bb 30 7b 1b 3c
       0.0018254127 -0.005444513 -0.0045625977 0.009489819
000150 d0 14 1e bc d5 37 bf b8 de c1 a5 ba 1d 15 96 3a
       -0.009648517 -9.117989e-05 -0.0012646278 0.0011450384
000160 3b 31 0b 3c 71 40 2a 3c 47 00 1e 3c ed 6f a6 3c
       0.008495624 0.010391341 0.009643621 0.020317042
000170 9a 91 ec bb 03 e4 f0 bb c5 11 82 bb f5 ad 0d 3a
       -0.0072195055 -0.0073514 -0.0039694034 0.0005404645
000180 ff 20 f1 3a 4f e8 35 bb 71 5e d6 bb 8d 98 1c bc
       0.0018396674 -0.0027756875 -0.00654202 -0.009557855
000190 0a 22 c2 3b e5 83 bd bb 1d 9a 94 3b 93 9f 21 3c
       0.005924468 -0.0057835453 0.0045349733 0.009864706
0001a0 6e e4 c9 3b a9 8f 2f bc 22 a4 47 3b e0 0d 46 bc
       0.006161264 -0.010715404 0.003046282 -0.012088269
0001b0 67 42 7c 3b 4a 52 50 3b 32 36 e2 3b 63 d2 18 3c
       0.0038491727 0.003178733 0.0069034332 0.009327504
0001c0 cb eb bb ba 10 44 a1 bb 2f be 97 3b 49 8b 2b 3c
       -0.001433724 -0.0049214438 0.004630826 0.01047022
0001d0 40 4a 0d bc 41 c7 80 bc 8c b4 6f 3b 96 a9 1d bc
       -0.00862366 -0.015720012 0.003657612 -0.009622952
0001e0 a8 bc 8e bb 37 a1 6d 3b 47 51 c3 3c 4b 00 de 3a
       -0.0043559857 0.0036259422 0.023842467 0.0016937343
0001f0 59 39 33 b9 9b bf df bb 74 7f af bc f8 e9 80 39
       -0.00017092134 -0.006828261 -0.02142308 0.00024588383
000200 c4 ca 33 bc cd 2c ea 3b 6d 3c ad 3c 0c 27 9a 3b
       -0.010973636 0.007146454 0.021146977 0.004704362
000210 a8 18 30 bb d0 89 e3 b9 a1 1a a7 3b 10 bf 53 bb
       -0.0026870165 -0.00043399492 0.00509961 -0.0032309927
000220 74 92 42 ba c0 11 a5 3b a9 cf 16 bc c1 ac 87 3c
       -0.0007422336 0.0050375164 -0.0092047835 0.016561868
000230 5d ac 30 bb 0e 41 01 39 22 73 62 bc 29 28 ba ba
       -0.0026958205 0.00012326633 -0.013821395 -0.0014202642
000240 48 7c 84 39 c5 88 10 3c ca 0b d1 ba ff 70 b0 3c
       0.000252696 0.008821671 -0.0015948948 0.021538256
000250 eb cf ac bb 17 85 f3 bb 52 1d 93 3b b8 40 e9 3b
       -0.005273809 -0.007431637 0.0044895792 0.007118311
000260 cd 09 d8 bb b9 fd a3 3c 45 2c a5 bc 0e 8e 67 bb
       -0.006592965 0.020018445 -0.02016271 -0.0035332474
000270 f5 ae b1 3a 34 0b d9 ba b5 a1 24 3c a8 90 2a 3a
       0.001355617 -0.0016559125 0.01004832 0.0006506541
000280 0c da 92 3b 7f ef 87 bc f1 47 f4 3b ce 99 4d 3c
       0.0044815596 -0.016593693 0.007454865 0.012548877
000290 c2 ee 54 bb 3c 8b de 3b 8a 5a 55 bb c6 c5 96 3b
       -0.0032490944 0.0067915004 -0.0032555186 0.004601213
0002a0 61 40 07 3c 75 e5 85 bc ac f0 36 bb 1f b2 34 ba
       0.008255095 -0.016344765 -0.0027914448 -0.0006892997
0002b0 f1 b4 97 3a ba 83 ae bb 07 8b 73 bc 45 fd 18 3c
       0.001157431 -0.0053257616 -0.01486469 0.009337728
0002c0 16 6e ce 3b 75 3c 1c bc 01 ec 12 3b d7 4d 48 bc
       0.0062997444 -0.009535898 0.0022418501 -0.01222559
0002d0 9e 51 3f 3c d5 df 00 bc 24 a5 1b 3c 08 e3 72 ba
       0.011677174 -0.007865866 0.009499822 -0.00092653977
0002e0 a7 45 83 bb c7 fd 84 3c b2 db 63 bb 05 68 b1 bb
       -0.004006106 0.016234292 -0.00347684 -0.0054140114
0002f0 48 28 2d 3a 25 51 92 3b 02 76 9c 39 ed 30 47 bc
       0.00066054286 0.0044652396 0.0002984256 -0.012157661
000300 f8 56 63 3c 98 05 8c bb bf a9 a8 bb 7b 78 24 bc
       0.013875715 -0.0042731278 -0.0051471884 -0.01003849
000310 1c f8 6a bb 47 ce 04 3b 4e f5 8c bc 15 8e 83 3c
       -0.003585345 0.0020264552 -0.017206814 0.01605896
000320 00 1d b9 bb 5a a3 1b bc 66 a0 1d bc 65 45 a7 bb
       -0.005649209 -0.009499395 -0.0096207615 -0.005104708
000330 d6 fe 3b bb 5f 44 78 3c 68 57 9d bb 77 42 71 bc
       -0.002868583 0.01515302 -0.0048016794 -0.014725319
000340 93 3e ec 3a 83 33 a7 bb f9 42 b5 39 68 de d9 bb
       0.001802402 -0.005102576 0.0003457291 -0.0066488273
000350 41 ee 52 3b 95 60 41 bc b1 06 c3 bb 1a 22 ae 3a
       0.0032185467 -0.011802812 -0.0059517254 0.001328531
000360 6a 2d 06 bc 13 0e 93 3b 96 bd dd ba 28 e4 ab 3b
       -0.0081895385 0.0044877618 -0.0016917463 0.005245704
000370 29 b2 24 bc dc 6d 8d bb f4 e0 14 bc d7 0c 99 b8
       -0.010052242 -0.004316075 -0.009086836 -7.298e-05
000380 05 c3 93 3c 9a 40 d0 3a 1f d8 3d 39 b6 57 6c bb
       0.018037328 0.0015888393 0.00018104956 -0.0036063022
000390 de 72 58 3c 4a 0e b6 3c db 4a 03 3b 65 d5 66 bc
       0.01321098 0.02222361 0.002003363 -0.014088963
0003a0 b5 95 2a bc e5 c2 1d bc 5e 1e 98 bb e5 d8 db bb
       -0.0104116695 -0.009628986 -0.004642292 -0.0067092055
0003b0 d6 2b ec 3b 1a ed c7 bb 4f d7 f0 bb 97 d7 01 3b
       0.007207374 -0.0061012628 -0.0073498855 0.001981234
0003c0 8a 7f 2b 3c e9 f4 2a bc 34 6d 95 bc 01 39 ed ba
       0.010467419 -0.010434368 -0.018240549 -0.0018098654
0003d0 ef 08 5a b8 4f c4 00 ba 99 f7 ec bb 01 a1 18 bc
       -5.198357e-05 -0.0004912065 -0.0072316644 -0.00931573
0003e0 ca dd b9 bc 08 61 3a 3c dc bf 64 bb 85 0c 41 3c
       -0.022688765 0.011375673 -0.0034904396 0.01178277
0003f0 9c 1e bc bb 19 d3 f4 ba 51 52 5c bc 60 cb 21 3c
       -0.0057409536 -0.0018678635 -0.01344736 0.009875149

network.1.running_var f4 [256]
000000 6e cf b0 3e 39 df 78 3e 39 03 8f 3e eb 96 98 3e
       0.34533256 0.24303903 0.27932146 0.2980264
000010 b4 81 c4 3e c0 9f 95 3e 5e 26 95 3e e5 78 a5 3e
       0.38380206 0.29223442 0.29130834 0.32318798
000020 ca 0d 97 3e 45 65 bc 3e 69 dc 9e 3e 63 ab a2 3e
       0.29502708 0.36796013 0.31027535 0.31771383
000030 5e 10 c8 3e 2b 85 a4 3e ee 13 80 3e 96 bb ba 3e
       0.39074987 0.3213285 0.25015205 0.36471242
000040 ba 3e 80 3e 94 02 d4 3e 00 dc 8c 3e 4f 14 a5 3e
       0.25047857 0.41408217 0.27511597 0.32242057
000050 aa 18 99 3e c8 d3 b1 3e 8b 68 b5 3e 30 d8 9e 3e
       0.2990163 0.3473189 0.35431322 0.31024313
000060 04 dc 8e 3e 7d 11 8b 3e cc 43 ac 3e 50 0e 8f 3e
       0.27902234 0.2716178 0.33645475 0.27940607
000070 25 08 89 3e c5 55 93 3e d8 39 85 3e f4 95 8a 3e
       0.26764026 0.28776374 0.26020694 0.2706753
000080 2b 08 e2 3e d9 88 a5 3e a9 93 ae 3e 3a 59 a4 3e
       0.44146857 0.3233097 0.3409703 0.32099324
000090 2b f6 cb 3e 32 a8 a3 3e 72 b9 9d 3e ad 9b 9d 3e
       0.3983625 0.3196426 0.30805546 0.30782834
0000a0 c2 ec 88 3e e4 fc 99 3e 8a 80 d9 3e 38 3e ae 3e
       0.26743132 0.30075753 0.4248088 0.34031844
0000b0 76 17 8d 3e 53 77 bf 3e 7c 55 98 3e c4 1e 86 3e
       0.27556962 0.37395725 0.2975272 0.26195347
0000c0 a6 71 f3 3e e4 b2 95 3e 9f c4 a5 3e 7f 40 94 3e
       0.47547644 0.29238045 0.32376572 0.28955457
0000d0 ac 0b 89 3e 1e ad 8e 3e d3 99 95 3e f2 91 9b 3e
       0.26766717 0.27866453 0.2921892 0.30384785
0000e0 66 aa 68 3e 9d fc 98 3e c2 e2 b0 3e 2f af 9e 3e
       0.22721252 0.2988023 0.34548002 0.3099303
0000f0 b4 ee bb 3e 08 a6 c4 3e ac 99 96 3e 4a 64 84 3e
       0.36705554 0.38407922 0.29414117 0.25857764
000100 51 14 5e 3e 7c f9 a7 3e 9b 09 87 3e 57 92 ad 3e
       0.21687438 0.3280753 0.26374516 0.3390071
000110 f7 82 ac 3e 16 fe 83 3e a4 03 99 3e 3c cc 70 3e
       0.33693668 0.2577979 0.2988559 0.23515409
000120 73 67 99 3e dc 7a 9c 3e 68 b6 aa 3e 11 ac c7 3e
       0.29961738 0.30562484 0.3334229 0.38998464
000130 ae 33 0f 3f eb 5f 8d 3e 40 56 a3 3e 3d a7 96 3e
       0.5593823 0.27612242 0.3190174 0.29424468
000140 3d 25 97 3e dc f0 c4 3e a1 58 8b 3e a4 27 9d 3e
       0.29520598 0.3846501 0.27216056 0.30694306
000150 d0 ff ae 3e ea 8b 79 3e ab 6e 9a 3e 9d a9 90 3e
       0.34179544 0.24369779 0.30162558 0.28254405
000160 81 5b a2 3e bf 72 b8 3e 8b b1 b4 3e 5e 72 aa 3e
       0.31710437 0.36025044 0.35291705 0.3329038
000170 bd 6c 6c 3e d8 24 c1 3e d2 d2 9b 3e 46 49 9b 3e
       0.23088355 0.37723422 0.3043428 0.3032934
000180 84 15 a3 3e 8a ea 94 3e 71 9c 75 3e bb 53 a6 3e
       0.31852353 0.2908519 0.23985459 0.32485756
000190 15 95 9b 3e 59 62 89 3e 9f 1b ac 3e 90 36 b4 3e
       0.30387178 0.26832846 0.33614823 0.35197878
0001a0 44 4b ad 3e 22 81 d6 3e 25 92 c6 3e ba b7 ac 3e
       0.33846486 0.41895396 0.38783374 0.33733922
0001b0 20 60 9a 3e d6 4a d4 3e da 46 8e 3e 89 51 97 3e
       0.30151463 0.41463345 0.2778843 0.29554394
0001c0 cf 31 a4 3e 16 e7 cb 3e 08 44 9b 3e 1f 28 d6 3e
       0.3206925 0.39824742 0.3032534 0.41827485
0001d0 c9 4e 8c 3e f9 8b ad 3e c4 40 8a 3e 63 3a 7c 3e
       0.27403858 0.33895853 0.27002537 0.24631648
0001e0 16 1e c7 3e ba 74 a0 3e 60 6d 9d 3e 15 ed ba 3e
       0.3889014 0.31339055 0.3074751 0.36509004
0001f0 38 bc 74 3e 70 6d a8 3e 84 59 ae 3e 63 f2 9b 3e
       0.23899925 0.32895994 0.3405267 0.30458364
000200 a8 02 8d 3e 3e fc ab 3e 62 3e 80 3e 83 2a 84 3e
       0.2754109 0.33590883 0.25047594 0.25813684
000210 b9 50 9b 3e 98 aa a1 3e b8 0f 9d 3e 32 7e ae 3e
       0.30335024 0.31575465 0.30676055 0.34080654
000220 9a d1 85 3e 24 d8 83 3e c4 0c ac 3e d0 ac 84 3e
       0.26136476 0.2575084 0.3360349 0.25913095
000230 1e 94 7c 3e d1 b5 84 3e 5a 17 af 3e 35 fc c8 3e
       0.24665877 0.25919965 0.34197503 0.3925492
000240 ab 14 af 3e b2 02 6d 3e 58 ee bc 3e ad 94 b9 3e
       0.34195456 0.2314556 0.36900592 0.36246243
000250 67 4d 86 3e 68 2b 83 3e 49 d2 88 3e 8d a0 91 3e
       0.26230928 0.25619054 0.26722935 0.28442803
000260 ac f1 8c 3e 3e 26 c5 3e bc 6a 86 3e 9d 5b d1 3e
       0.2752813 0.3850574 0.26253307 0.40890208
000270 4f 61 ae 3e b2 bd c8 3e c2 2f 92 3e 2d 3d bc 3e
       0.34058616 0.39207226 0.2855206 0.36765423
000280 cf 15 b1 3e f3 60 92 3e 75 cd 8f 3e d8 bf 9a 3e
       0.3458695 0.2858959 0.2808644 0.3022449
000290 60 3d aa 3e f0 25 9d 3e b4 4c ab 3e ea 77 95 3e
       0.3324995 0.30693007 0.33456957 0.2919305
0002a0 e2 4e 87 3e 66 68 9a 3e 93 ee 86 3e 00 c8 8f 3e
       0.2642737 0.30157775 0.26353893 0.28082275
0002b0 23 44 a4 3e dc a6 90 3e 96 de c8 3e df 03 9e 3e
       0.32083234 0.28252304 0.3923232 0.30862328
0002c0 3c cf a7 3e 55 8b b1 3e 5e 47 a7 3e 7d fe a3 3e
       0.32775295 0.34676614 0.32671636 0.32030097
0002d0 89 37 8d 3e 32 73 71 3e bd 00 a5 3e 5c 6c b7 3e
       0.27581432 0.235791 0.32227126 0.3582486
0002e0 2e 06 b8 3e 59 77 98 3e 8a af 88 3e 88 47 a7 3e
       0.35942215 0.29778555 0.26696426 0.32671762
0002f0 4c 63 9d 3e 14 01 d0 3e a5 23 a5 3e b5 a5 8d 3e
       0.3073982 0.40625823 0.32253757 0.27665487
000300 03 c0 b7 3e a4 b7 b8 3e d9 7b 9e 3e 0b 54 b3 3e
       0.3588868 0.36077607 0.30953863 0.35025057
000310 bf 36 ad 3e bf b6 94 3e 08 3d a8 3e 70 10 b5 3e
       0.3383083 0.29045674 0.32859063 0.35364103
000320 99 90 b9 3e b6 42 8e 3e 5e 64 a8 3e 56 12 8c 3e
       0.36243132 0.2778527 0.32889074 0.2735774
000330 d8 c0 b3 3e 48 42 b0 3e f8 03 a5 3e 0b f9 d6 3e
       0.35108066 0.3442557 0.3222959 0.4198688
000340 d5 bc ac 3e 05 c5 9e 3e 01 97 80 3e c7 35 90 3e
       0.33737817 0.3100969 0.25115207 0.2816603
000350 e2 f9 93 3e 2f ed 88 3e 7b de 89 3e 3b d0 9e 3e
       0.28901583 0.26743457 0.26927552 0.31018242
000360 54 da ac 3e 92 2e 87 3e 92 a8 aa 3e a6 fc 84 3e
       0.3376032 0.26402718 0.33331734 0.25974005
000370 53 85 a2 3e e9 4f 91 3e 54 6a a3 3e c0 ca 82 3e
       0.31742343 0.2838128 0.3191706 0.2554531
000380 26 64 81 3e e5 bd a8 3e e0 9c 50 3e d2 7a a9 3e
       0.2527172 0.32957378 0.20372343 0.33101517
000390 fc 2e a3 3e b1 34 c1 3e ab 63 75 3e da c6 89 3e
       0.31871784 0.37735513 0.23963802 0.26909524
0003a0 ad cf 4f 3e 91 67 a6 3e e9 5f aa 3e 57 eb 9b 3e
       0.20294066 0.3250089 0.332763 0.30452988
0003b0 02 d6 8a 3e 22 ca 90 3e 52 61 e4 3e 5a f7 aa 3e
       0.271164 0.28279215 0.446055 0.3339184
0003c0 ee 65 8f 3e 85 25 96 3e 5e 54 84 3e bc fc d0 3e
       0.28007454 0.293255 0.25845617 0.4081782
0003d0 c6 f3 a5 3e 2a b9 75 3e de 42 a0 3e f8 0f a7 3e
       0.32412547 0.23996416 0.31301016 0.3262937
0003e0 10 2f bf 3e d7 76 79 3e 42 d3 7d 3e 23 38 aa 3e
       0.37340593 0.2436174 0.2478762 0.33245954
0003f0 11 db 83 3e 60 fd 88 3e 26 57 96 3e e8 3a af 3e
       0.25753072 0.2675581 0.29363364 0.3422463

network.4.weight f4 [128, 256]
000000 01 cd cc 3c 33 44 9e bc 86 2a c4 bc 02 8e 31 bd
       0.025000097 -0.01931963 -0.023946058 -0.04334832
000010 e1 9b d2 3c d4 2e 62 bd 32 28 fb 3c c7 5e 24 3d
       0.025709094 -0.05522044 0.030658815 0.04012945
000020 bb 13 04 bd 88 cc 26 bc 9f 92 56 bd c7 d3 91 bd
       -0.03224538 -0.0101806 -0.052385923 -0.071204714
000030 e9 44 0e bc 90 be 3b bd 70 a1 bf 3c a7 fd 25 bb
       -0.008683422 -0.04583603 0.02339241 -0.002532819
000040 64 a8 6a bd 21 d0 63 3d 00 7a 1a bd ac 70 de bc
       -0.057289496 0.05561841 -0.037714005 -0.027153336
000050 3d ed eb 3c e8 2c 42 3d 3e f7 57 bd 81 82 54 bd
       0.028799647 0.047406107 -0.052726023 -0.05188227
000060 82 05 be bc 41 2f 40 3d de 93 13 3d aa cc 2b 3d
       -0.023195986 0.046920065 0.03602969 0.04194323
000070 32 ad 54 bd 1d 5c 34 bd db 1a 05 3c 8d a1 e3 3c
       -0.051922984 -0.04403316 0.008124079 0.027786994
000080 22 cc 90 3d b7 77 95 bc 6f da 0c 3c cc 45 6e bd
       0.07070185 -0.018245561 0.0085970005 -0.058172032
000090 92 20 74 bc 06 bf 38 bd 78 ce 8a bd d3 26 1c 3d
       -0.0149003435 -0.04510405 -0.06777662 0.038122963
0000a0 3a 84 52 bd 75 2c fe 3c cf 18 1b bd 14 59 12 3d
       -0.051395632 0.031027058 -0.037865456 0.035729483
0000b0 28 30 a8 3c c9 34 9a 3b c7 37 be 3b ca 4f f6 3c
       0.020530775 0.0047059995 0.005804989 0.030067343
0000c0 43 1e 3e 3c 9a ca 5e bb 86 23 88 3c 97 24 64 3c
       0.011603895 -0.0033995272 0.016618501 0.013924739
0000d0 cb a4 fe 3c 67 da b3 3b 7a 28 20 3c ef 29 64 3b
       0.031084439 0.005488682 0.009775275 0.0034815033
0000e0 70 a2 2b 3d 71 30 12 3b ef 81 88 3c 96 70 2e bd
       0.04190296 0.0022306705 0.01666352 -0.04258784
0000f0 dc ff e5 bc fe 9f 07 3d 70 23 55 bd 91 fb 59 bd
       -0.028076105 0.033111565 -0.05203575 -0.053218428
000100 bf f4 4b 3d 5d b2 51 3d 4c d2 62 3c 43 69 e8 bc
       0.049793955 0.05119549 0.013844084 -0.028370505
000110 32 df 9b 3c 1f 1f 7d bd f4 65 d7 bb c7 4b 95 bc
       0.019027326 -0.061797258 -0.006573433 -0.01822461
000120 1e 7a b3 3c 10 59 10 bd de 01 83 bd 9b 59 92 bc
       0.021908816 -0.035241187 -0.063968405 -0.017864993
000130 e0 3c 08 3b 76 5a d8 bb f9 f6 fd 3b 61 94 67 3d
       0.0020788237 -0.0066025807 0.0077503887 0.05653799
000140 31 6b ce ba 5a 6c 24 3d 48 db 87 3d 7e d7 f7 bc
       -0.0015748498 0.040142395 0.066336215 -0.030254122
000150 1f d5 5f bd ae e4 e0 3c 0a 5f bb 3c d7 ce 29 bb
       -0.054646607 0.027452793 0.022872467 -0.002591064
000160 10 b8 85 bb 46 ba 41 bd ec a3 d5 3c 17 d8 54 bd
       -0.00408078 -0.047296785 0.02607914 -0.05196389
000170 01 91 62 bc 9d 86 47 bd 5a 1c 89 bd c5 bd 1f 3d
       -0.013828517 -0.04871236 -0.06694861 0.038999338
000180 e7 69 10 3d 7d 20 e8 bc b5 3a a8 bc 41 e0 e9 3c
       0.035257246 -0.028335804 -0.020535806 0.028549315
000190 a6 e4 42 bd 68 eb 57 bc ad a3 4c 3d eb af 5a bd
       -0.047581337 -0.013178684 0.04996078 -0.053390425
0001a0 9a 0c 40 3d 80 a6 3f 3d c4 c6 2d bd ef f9 14 bd
       0.046887018 0.046789646 -0.042425886 -0.036371168
0001b0 89 5d 1c bd 9f 62 57 bd aa aa 16 3c 98 6a fc 3c
       -0.03817514 -0.052584287 0.009195963 0.030812547
0001c0 2f cc 9b bc db 7c e0 bc 46 68 1e 3d 6c 2c 0e 3d
       -0.01901826 -0.027403286 0.03867366 0.034710333
0001d0 ff 76 43 bd e4 4f 05 3c 51 e8 60 bd 90 79 0d 3d
       -0.047720905 0.008136723 -0.054909054 0.03453976
0001e0 ed da 2b 3c ab 6b ae 3b 17 90 85 bc ef 50 48 3d
       0.010489208 0.0053228936 -0.016304059 0.04890531
0001f0 01 95 f9 ba d4 9f 31 3d e8 cf 8b 3d 55 4d 93 3d
       -0.0019041599 0.043365315 0.06826764 0.07192484
000200 09 08 6b bc b1 b2 fc bc f0 3f dc bc 68 03 ed 3c
       -0.014345177 -0.030846925 -0.026885957 0.028932288
000210 ac 39 36 bd 00 21 08 bc 5f c4 b4 3c 40 c3 a2 bb
       -0.044488594 -0.008308649 0.022066293 -0.0049671233
000220 08 08 a0 3b 6c e0 46 bd 38 82 35 bc 7b fe f3 3c
       0.00488377 -0.04855387 -0.01107841 0.029784432
000230 57 06 57 bc a6 45 18 bc e1 fe 10 bd c6 c9 2f 3d
       -0.01312407 -0.009293949 -0.03539932 0.042917036
000240 45 5b 59 bb 41 2e 4c 3d 1d c9 0d 3d 03 79 03 3d
       -0.0033165973 0.0498488 0.034615625 0.032097828
000250 64 92 30 3d 0f b6 cc bc 92 95 04 bc bd ae 33 bd
       0.04310836 -0.024989156 -0.008092301 -0.043867815
000260 71 2d 4a bc a1 f4 32 3d 48 48 a5 bb 24 b7 a5 3c
       -0.012339936 0.043690328 -0.005044017 0.02022893
000270 e2 e1 0e bd 37 cf bc 3c d2 30 f3 bc 16 d1 19 bc
       -0.034883387 0.023048026 -0.029686365 -0.009388229
000280 7b 1c ae bb a9 72 a4 bc 6f a3 14 3d 4b ed 55 3d
       -0.0053134537 -0.020074205 0.036288675 0.052228253
000290 0b 64 f4 bc 60 08 fb 3c 76 a5 55 3d 7a 63 eb bb
       -0.02983286 0.030643642 0.05215975 -0.0071834894
0002a0 ce 71 19 bd fc c1 55 3d 89 d2 0c bc b2 67 87 bd
       -0.03746205 0.05218695 -0.008595117 -0.06611575
0002b0 39 1f 5e 3d 4a 8d 8b bc 7b 58 c7 3c 9f 52 b0 bc
       0.054228995 -0.017035145 0.024334183 -0.021523772
0002c0 a4 f0 41 3d 82 8a 53 3d 31 f9 10 bd 06 b3 42 3d
       0.047348633 0.051645763 -0.035393897 0.04753401
0002d0 f0 c9 53 bd 4e b8 ae 3c 0c 06 05 bd e7 f7 35 3d
       -0.051706254 0.021328118 -0.03247647 0.04442587
0002e0 a9 2b b7 bb e4 92 4b bd 25 ad f7 3c 31 ea 2e 3c
       -0.0055899215 -0.049700633 0.030233929 0.010675953
0002f0 5f fe 03 3d eb 1a 4f bd 06 81 2e 3d f0 f9 33 3d
       0.03222501 -0.05056278 0.042603515 0.04393953
000300 32 ae 55 3d 96 3a 42 3d bd 6c 40 3d 34 4d 40 3d
       0.05216808 0.047419153 0.0469787 0.046948627
000310 77 0e 6f 3d 48 64 d0 bc ca 9e 01 3d 23 7c 17 bd
       0.058363404 -0.025438443 0.031645574 -0.03698362
000320 24 70 c8 bc 0d af 71 3d b9 53 84 bd c9 e3 a4 3c
       -0.024467535 0.059004832 -0.06461281 0.020128148
000330 2a 68 11 bd f5 24 c2 bb d3 49 22 3d 77 14 9a 3d
       -0.03549973 -0.005924816 0.039621186 0.075234346
000340 55 14 3c bd bb e9 2c bd 2d 5b 40 bd 14 39 4f bb
       -0.045917828 -0.04221509 -0.046961952 -0.0031619715
000350 bd 20 9f bd 0e a4 08 bd bc 98 98 3b 34 4d 80 bb
       -0.07769916 -0.03335958 0.004656879 -0.0039154533
000360 1f 1e 8d bc db 7a 24 bc 31 ec c8 bb ba 43 bd 3b
       -0.017226277 -0.010039057 -0.006131672 0.005775896
000370 14 3a 22 bd 84 79 23 bd 96 b3 50 3d 2e e1 ae bc
       -0.03960617 -0.03991081 0.050952516 -0.021347608
000380 25 36 18 bc 2d 23 1e bc 14 15 90 3c 6d 54 d6 bc
       -0.009290253 -0.009651941 0.017588176 -0.026163304
000390 f3 0b cc bc b7 08 82 3d 0d 87 be bc 5a 4a 2a bc
       -0.024908042 0.063493185 -0.023257757 -0.010393703
0003a0 8b c5 21 3b 52 49 26 bd d5 d2 ba bb 8f 4e 65 3d
       0.0024684395 -0.040597267 -0.0057014027 0.055983122
0003b0 d1 d9 1b 3d f0 50 ec bb 27 ff e3 bc e3 62 38 3d
       0.038049523 -0.007211797 -0.027831627 0.04501618
0003c0 d2 c3 dc bc d6 b7 1f bc 2a df 3d 3d b5 1c ce 3c
       -0.026948843 -0.00974842 0.046355404 0.025160173
0003d0 d6 9f a1 3b 92 c6 ad bc 35 05 cd 3b 38 e3 3d 3d
       0.004932384 -0.02121285 0.0062567242 0.04635927
0003e0 07 3f 59 bd 2a 56 04 3d 35 53 65 3d bb 5e da 3c
       -0.053038623 0.032308735 0.055987556 0.0266565
0003f0 c9 3c df ba dc 54 e3 3a 62 3e 26 bd f6 45 bc 3c
       -0.0017031665 0.0017344016 -0.040586837 0.022982579
