log_reg/models/tree_branch_failure_simple_best.pth (torch, 396550 bytes, 13 tensors)

network.0.weight f4 [64, 176]
000000 56 69 b6 bb 94 e0 38 3d aa f2 9c bc 33 91 70 3c
       -0.0055667562 0.04513605 -0.01915868 0.014683056
000010 76 f0 22 bc 9d 16 c8 3b 4e 43 10 b7 72 88 e7 3c
       -0.009945026 0.0061062113 -8.598739e-06 0.028263304
000020 6c 7d 78 3d 86 d2 03 bd 40 51 8a bd 04 7d e8 3c
       0.060666487 -0.032183193 -0.067537785 0.028379925
000030 61 33 ab 3d 47 66 a0 3b 0d 21 54 bd 55 5e ba bc
       0.08359409 0.004895005 -0.051789332 -0.02275006
000040 e7 ea 8b bd a6 90 4f bc f2 6a 8f bc 5e e6 3a bd
       -0.068319134 -0.012668764 -0.01750705 -0.04562985
000050 77 52 92 3d 68 17 84 3d 1a cc 68 bc be de 98 bd
       0.07144635 0.06449777 -0.014208818 -0.0746436
000060 71 71 ba 3c 72 3e d4 bb b7 fd 7d bc 20 db f5 37
       0.022759171 -0.0064771706 -0.015502385 2.9308314e-05
000070 44 f3 90 bd 99 4c de 3c c7 54 d6 bc 3d 94 80 bc
       -0.07077649 0.027136134 -0.026163472 -0.015695686
000080 d8 67 9d bc fa e5 76 3d 5d b5 83 3c ab 47 a2 3d
       -0.019214556 0.060277916 0.016077692 0.07923826
000090 44 6e fb 3c 9a da 47 3c 70 58 07 3d 80 c9 7e bd
       0.030692227 0.012198115 0.033043325 -0.062203884
0000a0 17 b6 b7 bc 15 1b c0 3b 20 69 58 3d af 13 57 3d
       -0.022425694 0.0058626034 0.05283463 0.052509006
0000b0 ea 88 41 3d 91 68 48 3d cb 78 14 ba 36 99 32 36
       0.047249712 0.048927847 -0.00056637515 2.6613247e-06
0000c0 47 b8 fe bc 00 ef 0f bc 53 5c 4e bd da 30 90 b9
       -0.03109373 -0.008785009 -0.050381016 -0.00027502218
0000d0 f0 2f 8f 3d 89 49 16 3d 31 cd 14 bd 0e 94 4f 3d
       0.06991565 0.036691222 -0.0363285 0.050678305
0000e0 70 11 c5 3c ef 0d 51 3d 84 f9 2c 3d 37 0c dc 3c
       0.024056166 0.05103868 0.042230144 0.026861293
0000f0 bc d5 a9 3c da 36 aa 3d aa 1d 85 3d 5c 35 9e bd
       0.0207318 0.08311243 0.064997986 -0.07725021
000100 7a 5a f2 bc fd 11 0d bd a1 2e eb bc a9 81 8f 3d
       -0.029584158 -0.034440983 -0.028708758 0.070071526
000110 ef 5e 1a b5 64 6d aa bc 73 64 9c bd b5 18 ac bb
       -5.7507617e-07 -0.020804115 -0.07636347 -0.0052519687
000120 35 82 34 bc 24 2a a4 3c 56 03 96 3c f9 7d 6b 3d
       -0.011017372 0.020039625 0.018312138 0.057493184
000130 70 77 a7 b8 0b 40 bf bc 4e b7 32 bd 60 76 58 3d
       -7.9854275e-05 -0.023345968 -0.043631844 0.052847266
000140 0f 0d 5d 3b 17 7f 15 3d 75 c7 12 3d cf e9 af 3d
       0.0033729707 0.036498155 0.03583475 0.08589517
000150 1e 9e 06 3d ec 8e 3c 3c 27 0b 3b 3d af a7 31 bd
       0.032865636 0.011508685 0.045664933 -0.043372806
000160 fa 2f 0b bd 24 1e 62 3d 0f 09 a0 3c 0b be 1a 3d
       -0.0339813 0.055204526 0.01953557 0.037778895
000170 b2 01 a7 3d 46 05 b3 3c 9b c0 17 bd 42 1a b8 bc
       0.0815462 0.0218531 -0.037048917 -0.022473458
000180 aa ff 97 bd 0c 37 41 bd b0 42 91 3d 09 00 24 3c
       -0.07421811 -0.047171637 0.07092798 0.010009774
000190 18 f4 32 3d fc 9d 05 bb 68 ce 87 3d de c8 ff 3c
       0.043689817 -0.0020388355 0.06631166 0.03122371
0001a0 9d a2 4e 3c a3 62 27 bc 5e 97 2d bd 7e d9 6c 3d
       0.012612012 -0.010216388 -0.042380683 0.057824604
0001b0 69 01 9d 3c fc 40 e7 36 b8 4a 56 39 78 85 20 3d
       0.019165711 6.8919016e-06 0.00020436465 0.039189786
0001c0 e1 fc 0d bd 72 15 28 3d 16 c9 90 3c 71 1e 40 3c
       -0.034664992 0.041036077 0.01767401 0.011726008
0001d0 c6 a0 ff bc ca 24 ef 3c 60 3e 44 3a 83 df 09 3e
       -0.031204592 0.029192347 0.0007486101 0.13464169
0001e0 fc 9a 20 bd ca c6 fe 3c e1 75 77 3d 1f 5b 77 bb
       -0.039210305 0.03110065 0.060415152 -0.0037743521
0001f0 dc 38 79 3d f1 df 58 bd cf 66 a7 3c ee a4 3f 3c
       0.06084524 -0.052947942 0.020434765 0.011697037
000200 2e 12 3e 3d 59 dc 2f 3d 64 00 b7 bc 41 62 0c 37
       0.046404056 0.04293475 -0.022339053 8.367527e-06
000210 ce 59 20 bc 50 74 b7 bc 06 db 69 3d 2b f6 cb bd
       -0.009787036 -0.02239433 0.057093643 -0.09959062
000220 a3 eb 81 bd 43 ac 0c 39 93 72 59 3d c7 36 89 bd
       -0.06343772 0.00013415613 0.053087782 -0.06699901
000230 ea d5 d3 bb dd 5a 2b bd 18 4c 00 bd de 92 08 3d
       -0.0064647095 -0.0418347 -0.03132257 0.03334319
000240 b0 a2 4a 3c 19 bd 5a bc c1 44 32 bc 8b 56 82 36
       0.012367889 -0.013350748 -0.01088065 3.884377e-06
000250 c1 27 80 3d 47 2c f9 38 c3 bb 8a bc b3 a4 7d 3d
       0.062575825 0.000118814925 -0.016935235 0.061924648
000260 e8 be 9b 3c a3 95 71 3d 47 b2 b2 3c ce fe c8 bc
       0.01901193 0.058980595 0.021813525 -0.024535563
000270 8d fc 43 3d 31 c0 24 3d 12 a6 8b 3c 66 00 e5 3c
       0.047848273 0.04022235 0.017046962 0.027954292
000280 1a 57 c8 3c 96 1a 24 bd 0e b6 98 3c f6 66 e9 bc
       0.024455596 -0.040064417 0.018641498 -0.028491478
000290 be 80 f2 3a cf 58 41 bd 3f c5 1a b9 c8 9b ab 3c
       0.0018501503 -0.047203835 -0.00014760064 0.020948306
0002a0 f3 50 0c bd d6 23 23 bd 59 b8 db bc 16 aa 1a 3d
       -0.034256887 -0.039829098 -0.026821302 0.037759863
0002b0 b9 ef 53 bd c9 82 31 bd e0 42 d3 bc 8b d4 31 3d
       -0.05174229 -0.043337617 -0.025788724 0.043415587
0002c0 58 59 93 bd 0c de 65 3d f9 d4 4b bc f5 99 1b bd
       -0.07194775 0.056119964 -0.012440913 -0.03798862
0002d0 69 c6 27 3d 16 3f 8b 3c df b8 de b6 6f 5f 75 bd
       0.040960703 0.016997855 -6.6376374e-06 -0.059905466
0002e0 79 8f d2 3c 38 74 32 bc 70 7a 59 3c 1c c7 5f 3d
       0.025703179 -0.0108919665 0.01327382 0.054633245
0002f0 d1 99 11 bd 10 0f ab bd e4 04 06 3c 9c fd be bc
       -0.03554708 -0.08352482 0.008179877 -0.02331429
000300 6c 63 f4 3c d2 d5 43 bd bd 9f e8 bc af b6 86 bd
       0.029832564 -0.047811337 -0.028396482 -0.06577813
000310 7b 07 17 bd 55 53 c0 3a d7 19 08 bc cc e7 e3 bc
       -0.03687237 0.0014673272 -0.008306942 -0.02782049
000320 f9 f8 b7 3c 45 38 80 bd 66 a8 21 3d f2 89 6e 3a
       0.022457587 -0.062607326 0.039467238 0.0009099535
000330 9e 8e b6 3b 74 9b d8 bc 52 26 38 3d 11 75 47 39
       0.0055712005 -0.026441313 0.04495842 0.0001902173
000340 86 fe f5 3c 15 52 55 3d 38 e2 47 bc 89 da bd bb
       0.030028593 0.052080233 -0.012199931 -0.0057938737
000350 7c d7 90 bd 8e a0 6d 3d 04 35 2d 3b f2 ed a1 bd
       -0.070723504 0.058014445 0.0026429305 -0.079067126
000360 d1 c7 89 bd 97 71 25 bd 1a 77 4b 3d 63 57 03 bd
       -0.06727565 -0.04039153 0.04967413 -0.03206576
000370 db c1 82 bb 7f 5e 48 bd 0b a3 8a ba fe e6 80 b7
       -0.0039903945 -0.048918243 -0.0010577155 -1.5366353e-05
000380 e4 63 0a bd c3 7b c0 ba 15 6b 87 bb 22 73 99 36
       -0.03378667 -0.0014685321 -0.004132638 4.5731585e-06
000390 84 1e b8 3d 14 02 65 3c f5 a8 76 bb f1 04 af bd
       0.089901954 0.013977546 -0.0037637327 -0.085458644
0003a0 75 99 f0 3c c4 17 0c bd cb 46 1a 3d 0a 3a 48 bd
       0.029370049 -0.034202352 0.03766517 -0.048883475
0003b0 3c 72 2d 3d eb 93 44 bd 48 23 46 3a 36 29 ad 3c
       0.04234527 -0.047992628 0.0007558358 0.021137815
0003c0 7e 5c 35 3d 18 ff b1 3d c5 96 27 3d eb 70 84 3d
       0.04427766 0.086912334 0.04091527 0.0646685
0003d0 59 e6 ab 36 18 62 5c bd fd c8 71 bd 3e 80 a9 bd
       5.123013e-06 -0.053804487 -0.059029568 -0.082764134
0003e0 4c da 2e 3d 5b da 31 bc f5 cd 6f 3d c5 bd 29 bd
       0.042688653 -0.010855283 0.058546025 -0.041440744
0003f0 ca 27 84 35 46 7e ce bc 43 ab b9 3d 0a 16 46 3d
       9.846347e-07 -0.025206696 0.09065869 0.04836086

network.0.bias f4 [64]
000000 72 70 7c 38 f4 53 94 b8 b5 f7 d0 b7 c1 1f 36 37
       6.0186205e-05 -7.0728274e-05 -2.491088e-05 1.0855439e-05
000010 d1 ba a5 ba aa f6 93 37 05 77 d0 38 16 43 91 b6
       -0.0012644177 1.7638627e-05 9.940382e-05 -4.3291466e-06
000020 38 af 76 b5 a1 d2 14 37 0f 9a 1c 38 90 21 c4 b8
       -9.189712e-07 8.870528e-06 3.7336777e-05 -9.35226e-05
000030 28 17 44 3a c8 75 2b b6 fd e5 11 b8 5f 9e 55 36
       0.0007480257 -2.5549543e-06 -3.4784887e-05 3.1831657e-06
000040 c6 2a 02 b8 ac 24 90 37 a8 22 87 b7 7c 7e 97 b8
       -3.103425e-05 1.7183214e-05 -1.6109392e-05 -7.223801e-05
000050 03 a2 c5 b7 b4 98 30 b6 86 bd 23 b7 1b 17 bd b8
       -2.3559673e-05 -2.6314929e-06 -9.759684e-06 -9.016526e-05
000060 fc 73 0d ba cc 51 c7 b7 00 46 69 b8 e7 21 04 37
       -0.0005396006 -2.3760738e-05 -5.561672e-05 7.875707e-06
000070 2b 7d c8 38 29 b5 14 ba 08 76 18 b8 79 f0 db b7
       9.5600575e-05 -0.0005672747 -3.634955e-05 -2.6218813e-05
000080 fc 27 99 38 a4 e0 92 b8 6c fe 33 35 e2 b3 80 ba
       7.303056e-05 -7.003665e-05 6.705293e-07 -0.0009819234
000090 77 33 4f b9 9c 7c 0c b8 91 2c 77 ba ac d8 4c b8
       -0.0001976023 -3.3494653e-05 -0.0009428943 -4.883918e-05
0000a0 b2 0e 44 38 fc ec bd b7 a2 08 75 37 3a da 7f 38
       4.6743728e-05 -2.264091e-05 1.4605148e-05 6.0999977e-05
0000b0 53 d6 22 b8 25 29 d4 38 3e cf 40 38 10 62 39 37
       -3.8823415e-05 0.000101166115 4.5969377e-05 1.1049691e-05
0000c0 4d d3 6e 38 01 0c fb b8 32 61 00 39 8d cc 5f ba
       5.694041e-05 -0.000119708486 0.0001224324 -0.00085372553
0000d0 72 53 25 b7 15 2c bf b7 29 ad bc 36 3f 3e 0a b9
       -9.854195e-06 -2.2789502e-05 5.622995e-06 -0.00013183894
0000e0 92 7f 29 38 7b de 8e 37 a1 f0 ae 37 ee 8f 02 b9
       4.041155e-05 1.703132e-05 2.0854468e-05 -0.00012451384
0000f0 7b f2 b7 b8 95 36 88 38 59 5d 4e 3a 9c a5 09 37
       -8.7712855e-05 6.495152e-05 0.0007872186 8.204395e-06

network.1.weight f4 [64]
000000 ed 08 83 3f 0c 95 73 3f 41 5a 80 3f 45 c2 7f 3f
       1.0237099 0.951493 1.0027543 0.99905807
000010 86 ec 89 3f b1 ea 7c 3f 09 c9 7d 3f 27 f5 78 3f
       1.0775306 0.9879561 0.9913488 0.9724907
000020 56 6a 80 3f 43 d9 7b 3f c4 ef 81 3f 1b 0a 85 3f
       1.0032451 0.9837839 1.0151296 1.0393709
000030 c6 26 7d 3f 67 54 7e 3f 2f 58 7c 3f b4 53 78 3f
       0.9888729 0.9934754 0.9857206 0.9700272
000040 41 35 81 3f 5e d5 7e 3f 91 c3 79 3f 90 32 7b 3f
       1.0094377 0.9954432 0.97564036 0.9812403
000050 c2 aa 7f 3f e9 b9 85 3f 4e 0f 80 3f fb ce 77 3f
       0.9986993 1.044736 1.0004671 0.968002
000060 19 fd 82 3f f7 f8 72 3f 50 6d 80 3f 4a 72 7d 3f
       1.0233489 0.9491114 1.003336 0.99002516
000070 04 22 74 3f 47 ce 78 3f 11 e6 7a 3f 91 e3 76 3f
       0.95364404 0.97189754 0.98007303 0.9644099
000080 75 df 84 3f 08 0f 7e 3f 3d de 7e 3f cb c5 76 3f
       1.0380694 0.99241686 0.9955786 0.9639556
000090 6a e5 7d 3f 2e 77 80 3f 82 de 84 3f f0 c3 82 3f
       0.99178183 1.0036371 1.0380404 1.0216045
0000a0 ef 50 85 3f db 1b 78 3f 22 16 7c 3f c0 09 76 3f
       1.0415324 0.96917504 0.9847127 0.9610863
0000b0 1f b7 7d 3f fe 23 73 3f b6 84 7a 3f e2 2e 77 3f
       0.99107546 0.94976795 0.9785875 0.9655591
0000c0 ec ec 7b 3f 99 0d 89 3f 76 74 80 3f 82 3b 80 3f
       0.9840839 1.0707275 1.0035541 1.001816
0000d0 6d 9b 7e 3f 46 42 86 3f 18 c4 79 3f 0b 76 86 3f
       0.9945591 1.0488975 0.9756484 1.0504774
0000e0 98 3c 7e 3f 78 d5 78 3f ed 98 80 3f 14 71 74 3f
       0.9931121 0.9720073 1.0046669 0.95485044
0000f0 66 b6 7d 3f c7 37 74 3f 19 44 84 3f 4a bc 7f 3f
       0.9910644 0.9539761 1.0333282 0.9989668

network.1.bias f4 [64]
000000 9d 94 c8 3c 74 92 45 bd df 89 bb 3a 9c f8 6f bb
       0.024484927 -0.04823537 0.0014308057 -0.0036616689
000010 c1 ef 34 3d c0 c0 2a 3c 54 8f 1b bb ce 18 e7 bc
       0.04417396 0.010421932 -0.0023736553 -0.02821007
000020 c5 78 78 bc 6a c4 80 bc 93 a7 b3 3c ad e1 9d 3c
       -0.015165512 -0.015718658 0.021930492 0.01927265
000030 47 17 15 bc 1b 51 68 bc b3 06 cc bc e5 42 11 bc
       -0.009099788 -0.014179493 -0.024905538 -0.008866047
000040 45 ce f6 3b cb 93 03 ba c7 08 17 bc 5d 2f 59 bc
       0.0075319135 -0.0005019276 -0.009218401 -0.013255921
000050 6d 41 1e bc e0 e9 0f 3d 8c cb 8e 3b 6f e5 bf bc
       -0.009659153 0.03513515 0.004357761 -0.023424832
000060 e6 4e 9c bc 2c cb c7 bc 1f 3c 68 3c f1 fd 0d bc
       -0.01908059 -0.024388872 0.01417449 -0.008666501
000070 e9 83 ea bc af a4 37 bc c5 29 bd bb 9e f6 e7 b9
       -0.028627353 -0.011208697 -0.0057728016 -0.00044243498
000080 9a c7 00 3d b6 98 e4 bb b7 fc b2 3b e1 a2 1b bd
       0.031440355 -0.0069762124 0.005462255 -0.03799713
000090 c2 a3 3a 3c f5 2f 98 bc 08 f7 1f bb c6 b8 1c 3d
       0.011391582 -0.018577555 -0.0024408717 0.03826215
0000a0 b0 9b 88 3d 88 fc d9 bc 00 f4 32 3a d0 e6 34 bc
       0.0667032 -0.026609674 0.000682652 -0.011041358
0000b0 ae a6 84 3b c8 50 0c bd 71 7a e7 3a 67 3f 04 bd
       0.00404819 -0.034256727 0.0017660392 -0.032287028
0000c0 13 70 b9 bc 1a 65 8e 3c 68 5c d6 ba 28 8d 0c 3a
       -0.022636449 0.017382193 -0.0016354444 0.000536161
0000d0 53 92 ca 3c 7e 11 27 3d 53 7d 61 bc a4 74 76 3d
       0.024727976 0.040788166 -0.01376279 0.06016983
0000e0 a9 63 a9 3c f2 d0 be bc 97 f6 48 bc ba 40 48 bd
       0.020677404 -0.023292992 -0.012265823 -0.048889853
0000f0 28 0c d9 bb ab 2c f0 bc a0 4b cf 3b 8d 10 de b9
       -0.0066237636 -0.029318174 0.006326154 -0.0004235547

network.1.running_mean f4 [64]
000000 a6 00 79 bc 93 ec 5c 3a a6 7c a6 3b ae 32 ab bb
       -0.0151979085 0.0008427586 0.005080777 -0.0052245473
000010 6a 74 1d 3b 4f f4 31 bc 53 69 47 3a 0b d4 b1 ba
       0.0024025687 -0.01086147 0.0007606942 -0.0013567222
000020 87 9d 0f 3c 5f 15 83 bb 09 00 e9 3b 47 d4 2b 3c
       0.008765585 -0.0040003504 0.0071106 0.010487623
000030 a8 59 b3 ba eb 49 c1 3b 0a 2a 05 3c 2b e3 4d bb
       -0.0013683336 0.0058987043 0.008127699 -0.003141592
000040 30 8e d3 ba dc 57 f9 ba eb 50 b9 bb d9 26 b1 3a
       -0.0016140398 -0.0019023377 -0.005655398 0.0013515606
000050 18 b7 9f 3b 74 33 83 3c de 5a d2 bb 49 2b d5 3b
       0.0048741214 0.016015746 -0.0064195236 0.006505404
000060 c0 dd 63 39 bf ba 96 bb 80 dc d8 38 19 8d ca ba
       0.00021731015 -0.0045998986 0.00010340754 -0.0015453427
000070 ab cc 8c bb 50 d3 87 bb 27 e7 f8 ba 82 4a 0f 3c
       -0.0042968593 -0.0041450635 -0.0018989787 0.008745791
000080 2b 16 5d bc 98 5d 87 ba d9 20 1e bc c0 8d cc 3b
       -0.013494055 -0.0010327576 -0.009651386 0.006242484
000090 da 5a a4 3b ec a1 92 3b 67 60 0b bc bf 09 58 3b
       0.005015713 0.004474869 -0.008506871 0.0032964793
0000a0 c2 12 07 bb 43 4a 1f 3c ee 43 3f bb a7 1a 29 3c
       -0.0020610546 0.009722295 -0.0029184776 0.010321296
0000b0 a6 c4 99 3b ef cf 20 bc 63 1e 83 3b a7 f8 3b bc
       0.004692632 -0.0098152 0.004001425 -0.011472858
0000c0 29 34 8b bb c1 60 61 bb f2 52 f7 ba cd bc 59 39
       -0.0042481613 -0.0034389945 -0.0018869324 0.00020765066
0000d0 60 92 74 bb ad 2e e8 ba 39 e6 19 3b 23 a2 b5 3a
       -0.0037318692 -0.0017714106 0.002348317 0.0013857525
0000e0 ad 8f 82 3b f1 04 4c 3c 33 1f 92 bb 4f 77 e9 3b
       0.0039844126 0.01245235 -0.0044592856 0.0071248184
0000f0 42 70 34 3b 14 e5 04 3c c1 ff a0 3b 0a eb d9 3b
       0.0027532731 0.008111257 0.0049133007 0.0066503333

network.1.running_var f4 [64]
000000 30 c2 a6 3e b9 0b 97 3e d6 85 95 3e 60 28 c8 3e
       0.32570028 0.2950113 0.2920367 0.39093304
000010 ea 96 a3 3e 7b 31 c6 3e bf ac a0 3e a5 5a d2 3e
       0.31951076 0.38709626 0.31381795 0.4108478
000020 63 bb b9 3e 80 3f 1d 3f 55 55 ae 3e cb 09 db 3e
       0.36275777 0.6142502 0.34049478 0.4278091
000030 20 54 d6 3e 06 36 9c 3e d2 d1 bb 3e 7a c5 e6 3e
       0.41861057 0.30509967 0.36683518 0.45072538
000040 ca 57 87 3e 9b fb ca 3e 87 e2 98 3e 0b bc f4 3e
       0.26434165 0.39645085 0.29860327 0.47799715
000050 5a bc e1 3e 6e 89 d7 3e 82 44 9f 3e 8a 1b af 3e
       0.44089013 0.42097038 0.31106955 0.34200698
000060 f1 d8 ad 3e 2a b2 d5 3e 71 f1 c0 3e 13 76 eb 3e
       0.33954576 0.4173749 0.37684205 0.4598852
000070 cb 0f d7 3e 77 99 f8 3e 47 94 b5 3e 54 96 d3 3e
       0.42004237 0.48554584 0.3546469 0.4132563
000080 55 e6 ef 3e 56 f0 c2 3e 85 0c e2 3e 9e 54 9f 3e
       0.46855417 0.38073987 0.44150177 0.31119245
000090 91 c4 cf 3e e7 fc 9b 3e ea 92 95 3e ee a0 b9 3e
       0.40579656 0.30466387 0.2921365 0.36255592
0000a0 fc 1e e7 3e 95 e9 9e 3e 39 97 cb 3e a5 ca d6 3e
       0.45140827 0.31037584 0.3976381 0.4195148
0000b0 9f 0e c1 3e b9 76 e1 3e e2 27 bd 3e 63 03 8e 3e
       0.37706468 0.4403589 0.3694449 0.2773696
0000c0 54 97 9f 3e 10 af 94 3e 0b b8 6e 3e c9 c5 d5 3e
       0.31170142 0.29039812 0.23312394 0.4175246
0000d0 be 3c 98 3e d5 83 e0 3e 1d 68 e1 3e af 94 a2 3e
       0.29733843 0.4385058 0.44024745 0.31754062
0000e0 91 ca 99 3e 37 ab c1 3e 02 ab a5 3e 09 6f a9 3e
       0.30037358 0.3782594 0.3235703 0.33092526
0000f0 95 c7 be 3e 1d 3b da 3e 4a 90 a8 3e ed c3 cd 3e
       0.37261644 0.42623225 0.32922584 0.40188542

network.4.weight f4 [32, 64]
000000 cc 2d aa bd da 31 0b 3d b4 f8 af bd ed 36 b3 3c
       -0.08309516 0.03398309 -0.08592358 0.021876777
000010 ce 1a 84 3d 8a 74 3e 3d 63 34 de 3d 0d e9 ad bd
       0.06450425 0.04649786 0.10849836 -0.084917165
000020 bb 8c 49 3d e3 6d d4 bd 5e 26 4e 3c 52 fd ca 3d
       0.049206477 -0.10372522 0.01258239 0.09911598
000030 b0 86 59 3d 2b 96 06 3d d8 68 0d 3e ce 6f 39 bd
       0.053106964 0.032858055 0.13809526 -0.04527264
000040 9d 92 27 3d b0 cd 55 3c c6 87 fb bc 37 9e 0c bd
       0.040911306 0.013049528 -0.03070439 -0.034330573
000050 0d ad ca bc 4f 01 b6 3d 27 c3 8e bd a1 49 a4 bd
       -0.02474072 0.08886968 -0.06970816 -0.08021856
000060 1e 3e 33 bd ac 72 d4 3d da 49 c1 bb aa ee 93 3d
       -0.04376041 0.103734344 -0.0058986964 0.07223256
000070 8c d8 aa bd 3c 18 75 3d 12 55 df 3d b5 ec 07 3d
       -0.08342084 0.059837565 0.10904898 0.033184726
000080 ff 18 fb bd 8d 9b 7a 3d ed db 00 be a5 92 e2 3d
       -0.12260627 0.0611835 -0.12583895 0.110631265
000090 e6 ba ae 3c 56 b2 96 bd 5b 1f 30 3e 7c ea 0f be
       0.021329354 -0.07358234 0.17199461 -0.14054292
0000a0 25 bb 61 bd c0 bc 37 3c cf b8 60 3d 34 3e ac bc
       -0.055110116 0.011214435 0.054863747 -0.021025755
0000b0 5a b0 79 bd 0e 8b ef bd 93 73 b4 3d 66 81 1e 3d
       -0.060959198 -0.116964445 0.088111065 0.038697623
0000c0 8e 9b 59 bc 5a 33 8b 3b c6 f7 34 bd 2d 52 c2 3a
       -0.013281716 0.004248065 -0.044181608 0.0014825516
0000d0 c9 78 35 bd 1f 1c 0c 3e 1c bf b2 bd 4f 04 65 3d
       -0.044304643 0.13682602 -0.087278575 0.055912312
0000e0 af 29 17 3d 07 60 c5 bc f1 f7 04 3e 75 ec 40 3d
       0.036904987 -0.024093641 0.12985207 0.047100503
0000f0 7d f9 9a 3d 00 14 88 3d a6 65 68 3d d5 ee 75 3c
       0.07567117 0.0664444 0.056737565 0.015010555
000100 a5 6e 07 3e f2 ca f0 3d 1b 70 a8 bd 85 15 cc 3d
       0.13225801 0.11757459 -0.082245074 0.09965042
000110 8e 2c 3a bc 2a 03 24 3c 4e 7b d8 bd 77 b4 d1 3d
       -0.011363162 0.01001052 -0.105703935 0.10239499
000120 59 bb ec bc 0a e2 8a 3d b1 15 bd 3d 60 28 f8 bd
       -0.028897928 0.06781395 0.09232653 -0.12117076
000130 14 c6 88 bb 98 01 cc bb 28 0d c9 bd ed 9a 2a bd
       -0.0041740034 -0.006225776 -0.098169625 -0.041651655
000140 6e 1e 24 3c 79 b9 3d bc 08 dc 4b bd 48 91 c3 bd
       0.010017021 -0.011579865 -0.049770385 -0.095491946
000150 21 af 08 be de cf b1 ba 85 96 a0 3d 1b 07 55 3c
       -0.13348056 -0.0013565978 0.07841209 0.013002182
000160 e8 25 25 bd 54 df 65 3c 36 6c 8d bc 00 7b 1c 3d
       -0.040319353 0.014030296 -0.017263513 0.03820324
000170 fc 4b 75 bc 7d 80 2b bd 11 61 36 bb df 2e ba bd
       -0.014971729 -0.041870583 -0.0027828852 -0.09090971
000180 95 39 50 3d 71 13 98 bc ab b0 04 3e 30 6d bd 3c
       0.050836165 -0.018563958 0.12958018 0.023123354
000190 da db 89 bc 98 a1 9a bd dd 74 da bd d1 a7 b0 bc
       -0.016828466 -0.07550353 -0.10666821 -0.021564396
0001a0 af d0 bd 3d a3 95 c1 3c a2 92 a1 bb f4 4c d5 3d
       0.09268319 0.023630923 -0.00493081 0.10415068
0001b0 98 bd 48 3d 0e e5 0c bc 5f 91 2e 3c 9e 33 8b bd
       0.049008936 -0.008599533 0.010654776 -0.067969546
0001c0 76 6a 82 3d 2d b5 b3 bd df 6d 41 3c be 5b ce bd
       0.06367962 -0.08774791 0.0118059805 -0.10076092
0001d0 34 e8 d4 3c 1b b8 89 bd ef f3 5d bd 54 89 8e 3d
       0.02598963 -0.067245685 -0.05418771 0.06959787
0001e0 d9 45 6d bd 57 8e f5 3c ea 1a a1 bd 29 f6 b1 bc
       -0.05792794 0.0299751 -0.078664616 -0.021723824
0001f0 a2 24 14 bd c3 46 3b 3d 3a 0d a5 3c 45 4a 10 be
       -0.03616775 0.04572178 0.020147908 -0.14090832
000200 82 d8 2a 3d f8 32 9c 3d 9c 7b 59 bd 90 36 e2 bd
       0.041710384 0.07626909 -0.0530964 -0.11045563
000210 47 37 31 3e c4 f2 76 3d 52 6f 9b bd b5 e7 c7 3d
       0.17306243 0.060290113 -0.07589592 0.097609915
000220 d9 39 9d bd 74 6e 06 be 21 c0 93 bd 64 22 1b 3e
       -0.07677049 -0.13128072 -0.0721438 0.15149838
000230 46 72 6a bd 9d 7b 12 3c 45 65 a8 bd aa db 02 be
       -0.057237886 0.0089406045 -0.08222441 -0.12779108
000240 06 7b 94 bd 4e e9 f9 3d 11 44 b1 39 0b db 41 3d
       -0.07250027 0.122027025 0.00033810784 0.047328036
000250 60 ce 6a bd d0 f8 19 3d 05 ce 95 bd a4 74 7a 3d
       -0.05732572 0.0375908 -0.07314686 0.061146393
000260 30 8f cf 3d 5c 3e d3 bc ab 3a 2c bd a4 11 32 bd
       0.10134733 -0.025786571 -0.042048138 -0.043473855
000270 84 e9 81 bd 9a 1f 27 3d fe e2 71 bd 4e 6b 82 3b
       -0.06343368 0.040801622 -0.059054367 0.003980077
000280 db a4 bb bd 77 46 ef 3d e5 fc 1d 3c 6e 0e de bd
       -0.09162303 0.11683362 0.009642814 -0.10842596
000290 97 fc 3a 3d cd aa bf bc 23 50 51 3c 24 7c 6d bc
       0.045651045 -0.023396874 0.012775454 -0.014494929
0002a0 f6 b4 29 3d 39 19 96 bd d8 92 64 bd 90 05 ba bd
       0.041432343 -0.073290296 -0.055804104 -0.09083092
0002b0 8e 2b de 3d 30 82 a9 3c da 4a b8 bd 73 12 ba 3d
       0.10848151 0.020691961 -0.08998652 0.0908555
0002c0 b6 3c d8 bd cb 99 da bb 79 84 97 bd 12 7c 51 bb
       -0.10558455 -0.0066711656 -0.07398314 -0.003196482
0002d0 e5 58 a1 bd 33 58 e0 bc 7f 2b 3a bd d4 fb 04 be
       -0.078782834 -0.027385807 -0.045451637 -0.1298669
0002e0 c5 67 01 be c1 94 7e 3d 57 fd 12 3d 4e cc d0 bc
       -0.12637241 0.06215358 0.035886135 -0.025488045
0002f0 d9 e1 9d bd dd b0 73 bd 58 b0 8b bd 78 19 18 3e
       -0.07709093 -0.05949484 -0.06820744 0.14853466
000300 b9 aa e1 bd 3e 16 e5 bd 32 d4 7a 3d 67 75 f8 bc
       -0.11018891 -0.11185883 0.06123752 -0.03032942
000310 c1 1f f4 3d de 21 c1 bd c9 b8 1b 3d 5d ba 1a bd
       0.11920119 -0.09430288 0.03801802 -0.037775386
000320 00 13 0e 3e 15 de bc bd d4 d0 35 bd 10 7a 35 3d
       0.13874435 -0.09222046 -0.044388607 0.04430586
000330 9e 4c 36 3d 2f 96 10 be 20 8b 4f bd 16 25 ab 3d
       0.04450666 -0.1411979 -0.05066979 0.08356683
000340 df 11 24 bd 67 26 15 3d 17 1f 76 3d 8e fe 3a 3d
       -0.040056106 0.036413576 0.060088243 0.04565292
000350 cb 94 08 3d 0f ef e2 3d 9b 90 c3 3d 52 eb a4 3d
       0.033345025 0.11080753 0.09549066 0.08052696
000360 b9 1d 56 3c c3 e8 37 bc 4b f6 17 be a7 87 56 bb
       0.01306861 -0.011224928 -0.14840047 -0.0032734664
000370 2b a1 80 bd 63 a7 c8 3c 9e bb c9 bd 77 71 68 3d
       -0.0628074 0.024493879 -0.09850238 0.056748834
000380 b9 8d 1f 3d 22 d9 7c 3d 02 f6 6b 3d dd 34 53 3c
       0.038953517 0.06173051 0.05760766 0.012891022
000390 5a 12 d8 3b 03 3a af 3c cd c2 0d 3e f7 83 0d 3d
       0.0065939846 0.021389967 0.13843842 0.03454968
0003a0 5e 42 8c bc 88 a2 ac bd c0 46 9e 3a 39 6d d6 bd
       -0.01712149 -0.08429438 0.0012075529 -0.10470051
0003b0 a5 61 c0 3d c3 41 c6 3d c9 8f 24 3d bf 6a e7 3d
       0.09393624 0.09680512 0.040176187 0.11299657
0003c0 97 e6 c5 3d eb 4e d8 3d e8 60 0a bc 19 98 c0 3d
       0.09663122 0.105619274 -0.008445956 0.0940401
0003d0 a1 e7 71 3d 14 35 06 3e 66 d9 5b 3d a3 3e 79 bc
       0.05905879 0.13106185 0.053674124 -0.015212688
0003e0 57 12 9f bd 9b 3d ba bd 1a 21 59 bc 37 c5 3a bc
       -0.0776717 -0.090937816 -0.013252521 -0.011399559
0003f0 03 fb a8 bd 48 45 89 3d a0 05 a6 bd c5 67 52 3d
       -0.08251002 0.067026675 -0.08106542 0.051368494

network.4.bias f4 [32]
000000 89 8e 1f b8 7b c1 d7 bb 92 1b 3e bc 6a 89 fb bb
       -3.80413e-05 -0.006584344 -0.011603253 -0.007676293
000010 0b 82 0b b7 6d fc 38 38 de fc 68 bb 1d 81 b7 3b
       -8.315324e-06 4.410411e-05 -0.0035551111 0.0056001083
000020 29 91 0c bc e0 a8 63 3b e2 4f ee b9 87 13 49 b8
       -0.008579531 0.0034738109 -0.00045454415 -4.794032e-05
000030 d2 3d 30 37 9a 19 9f 3c 77 60 23 b7 b6 7c 3b bc
       1.0504811e-05 0.019421387 -9.738017e-06 -0.011443308
000040 63 14 b3 3c f9 da ac ba a5 64 a7 3c e5 57 2f 3c
       0.021860307 -0.0013187818 0.020433733 0.010702108
000050 13 8d 58 37 1e a9 00 bc c6 a8 bc 3a 07 09 6d 38
       1.290745e-05 -0.007852821 0.001439356 5.651361e-05
000060 8d bf 27 bb f5 65 0b b7 c3 f9 8c b6 8b e9 b8 ba
       -0.002559635 -8.308784e-06 -4.201401e-06 -0.0014107687
000070 c6 4f 30 bc e5 64 31 37 11 83 7a b7 51 3e a1 3c
       -0.010761207 1.05735135e-05 -1.49316775e-05 0.019683035

network.5.weight f4 [32]
000000 4f cb 74 3f 25 0c 93 3f 8f 1b 76 3f d6 eb 7c 3f
       0.95622724 1.1488081 0.961358 0.9879736
000010 16 38 7d 3f 86 d7 77 3f d3 3f 75 3f f8 cf 93 3f
       0.98913705 0.9681324 0.95800513 1.1547842
000020 9b 30 7d 3f bc a5 90 3f 11 55 74 3f 45 b5 8f 3f
       0.9890229 1.1300578 0.954423 1.1227194
000030 93 9c 93 3f 43 0a 7d 3f 91 6c 91 3f 3f d3 91 3f
       1.1532158 0.98843783 1.1361257 1.1392592
000040 23 0f 7c 3f 54 25 84 3f d7 04 90 3f 92 5c 93 3f
       0.98460597 1.0323892 1.1251477 1.1512625
000050 7f cb 91 3f 32 f3 90 3f 5a af 76 3f af aa 77 3f
       1.1390227 1.1324217 0.96361315 0.9674482
000060 cf 17 91 3f fd ab 72 3f f3 8f 72 3f 13 6d 80 3f
       1.1335391 0.94793683 0.947509 1.0033287
000070 2b 75 7e 3f a9 13 7e 3f b2 17 7d 3f 21 ea 84 3f
       0.99397534 0.9924875 0.9886428 1.038395

network.5.bias f4 [32]
000000 c3 fc a2 bd a0 80 21 3e 93 e6 94 bd 61 3d 89 bd
       -0.07958367 0.15771723 -0.07270541 -0.0670116
000010 16 e5 8a bd 8c 99 8f bd 05 61 88 bd 96 f7 23 3e
       -0.06781976 -0.070117086 -0.0665913 0.16012415
000020 7c 6a 8d bd bb 7e 10 3e 7e 1d a1 bd 16 0c 0a 3e
       -0.06905076 0.14110844 -0.07866953 0.13481173
000030 3a 83 25 3e 1e ab 8d bd c2 7f 0f 3e 2e 97 18 3e
       0.1616334 -0.06917404 0.1401358 0.1490142
000040 cc 08 8b bd 95 df 6b bd 0b 2c 0e 3e 13 0f 22 3e
       -0.06788787 -0.05758627 0.13883989 0.15826063
000050 51 b1 10 3e 6e 3f 11 3e c0 46 7a bd c8 c7 33 bd
       0.14130141 0.14184353 -0.06110263 -0.043891698
000060 b2 8f 09 3e 77 21 a5 bd 81 22 a0 bd a7 97 67 bd
       0.13433722 -0.080630235 -0.07819081 -0.05654111
000070 e1 40 8f bd 16 c3 7a bd 86 18 67 bd 8b d3 65 bd
       -0.069947965 -0.061221205 -0.05641987 -0.056109946

network.5.running_mean f4 [32]
000000 10 5d 83 3e 11 95 2f be e5 fc 9e be 23 6a 92 3e
       0.2565694 -0.17146708 -0.31052318 0.285966
000010 93 f3 2f 3e 9d d8 3c be 19 83 33 3e 4b 5f b5 be
       0.1718276 -0.18442006 0.17530479 -0.35424265
000020 88 1a a8 be f8 52 8f bd 89 a5 24 bc 7b 43 00 be
       -0.32832742 -0.06998247 -0.010049232 -0.12525742
000030 e2 cd 1b be 8c 23 7c 3d 96 cc 4e be 22 0b d2 3c
       -0.15215257 0.061557338 -0.20195231 0.025640074
000040 c6 d8 47 3d 3d 66 34 be 14 7e 84 3d a9 5b f7 bd
       0.048790716 -0.17617126 0.0646936 -0.1207803
000050 91 7b e0 be 17 b9 4a be f7 b6 b2 bc 9f 68 74 ba
       -0.43844274 -0.19797169 -0.02181576 -0.0009323451
000060 8d 0c 6c be 8b 83 e1 bd 7c 59 3e be 5c 25 16 be
       -0.23051663 -0.11011418 -0.18588823 -0.14662689
000070 80 bf 85 be b9 92 33 3e ac 6c dc 3e e7 80 a2 3e
       -0.26122665 0.17536439 0.4305166 0.3173897

network.5.running_var f4 [32]
000000 a1 e7 fe 3e f9 75 22 3f 11 0a 03 3f 0d ae 4e 3f
       0.49786094 0.6346126 0.51187235 0.8073433
000010 71 16 46 3f a3 40 fe 3e f3 00 a1 3e 3a 40 3e 3f
       0.7737799 0.4965869 0.31446037 0.7431675
000020 93 d2 21 3f 68 0c 2c 3f b4 02 ad 3e 80 1e 34 3f
       0.63211936 0.6720643 0.33791125 0.7035904
000030 de fe 08 3f 43 5c 07 3f 47 76 17 3f 9b d2 0c 3f
       0.53513896 0.52875155 0.5916485 0.5500886
000040 ca 02 04 3f 79 b6 4c 3f 4a ff 18 3f ce 37 f7 3e
       0.51566756 0.7996593 0.5976454 0.48284763
000050 0f be 0f 3f e8 65 07 3f 81 af c2 3e 55 05 b4 3e
       0.5614938 0.5288987 0.38024524 0.35160318
000060 00 c0 38 3f 18 d2 dc 3e 1e 28 cf 3e 50 7b 3e 3f
       0.7216797 0.4312904 0.40460294 0.7440691
000070 83 25 14 3f ca ee 22 3f 3d 7a 49 3f ef a0 76 3f
       0.5786974 0.63645613 0.78702146 0.96339315

network.8.weight f4 [1, 32]
000000 ed 0d ca 3d f5 95 2c be fe 49 74 3d 13 e8 ff 3d
       0.098659374 -0.16854079 0.059640877 0.124954365
000010 87 a9 0d 3e b6 ca c0 3d 47 48 ba 3c 36 ac 14 be
       0.13834201 0.09413664 0.022739543 -0.14518818
000020 ce 1a c8 3d 65 44 5e be 65 b4 4d 3d 38 27 81 be
       0.097707376 -0.21705778 0.050220866 -0.25225234
000030 9c 5b 1d be b3 47 25 3e a7 51 45 be 8c 2a 1b be
       -0.15366977 0.16140632 -0.19269429 -0.15152949
000040 ce 29 3b 3d 2d 29 3d 3e 2e d6 67 be 62 7e 0e be
       0.045694165 0.18472739 -0.22640297 -0.13915399
000050 6a dc 75 be 5b c5 d8 bd c2 3d 0b 3d 8a a2 a7 3b
       -0.24009863 -0.105845176 0.033994444 0.0051158117
000060 1d a8 39 be 1d 9d c4 3d cd 78 bd 3d 66 10 fe 3d
       -0.18130536 0.096002795 0.092515565 0.124054715
000070 11 2a 28 3e b6 78 4e 3d 50 f6 cc 3d d3 9c 54 3e
       0.16422297 0.050408088 0.10007918 0.20762949
