log_reg/models/tree_branch_failure_final.pth (torch, 717024 bytes, 25 tensors)

network.0.weight f4 [256, 179]
00000000: 831b 2dbb 44ec 693d 4ebe e0bd 4c4e 51bd
00000010: 5033 483c e7a0 e6bc 7caf a23c 07e7 3a3d
00000020: 6e31 4c3d 137c 043d 7c36 5ebb bc87 673d
00000030: 296f d33c 7332 dbbc 9f9f 923c e3a7 2bbd
00000040: dee8 65b4 7cc7 d83c 2050 c8ba 4c4a 6534
00000050: 1fc8 583d 64a9 53bd e17f 9fb1 8c65 6fbb
00000060: 798b b6bd 5d84 76bd b101 803c 4bf2 a3bc
00000070: 752f 8032 8e0b 6cbd 64bc f7bc 8478 7dbd
00000080: 5d48 bb3c 7cd0 cd3c 48e5 433d eb2d e83c
00000090: 8bd0 95bd 2124 1dbd 2f63 a2bc 5fd5 52bc
000000a0: a6f5 b9bc 2429 66bc a0d3 f1bc c577 793d
000000b0: 23bc 823c 32f2 773a 6888 d53c 3927 a83d
000000c0: d0eb 11b3 bba6 29bd 8836 57bc 614e 08bd
000000d0: 1d27 b5bd 4f10 023d f1be 63bc 3151 723a
000000e0: b7f0 26bd 4d78 153b 7684 0cbd 5c0d 63bd
000000f0: b08f 81bc fdb3 49b5 93a9 07bd 76b9 dd3c
00000100: 0cbf 65b2 0673 45bc 63c0 8b3d 5870 6dbc
00000110: 5fde eebc c2a4 37bd 849d 5e3c ce20 21bd
00000120: 0871 543d 5b5e c1bb a339 7f3c 6b87 1ebc
00000130: 9e94 213b c3bb f13b fda8 bcbc 6771 3dbd
00000140: f6b8 f6bd f60f 943d bfd4 13bd 70fc 763d
00000150: ab21 59bd d49d 713d 3920 0dbd 3c93 843d
00000160: 5aaa 673d 765f 673c f568 a7bd 90f8 80bc
00000170: cfc5 31bd 4928 c9bb b3fb 943c e47f d53c
00000180: 2a52 903d 2040 bc3a 765d 6d3b 9de6 583c
00000190: 4910 67bd 8b58 3ebd 8ebe 4c3d 828f 49bc
000001a0: 6e2b 74bc 8269 6d3d cac9 173d b09b 9dbd
000001b0: 8a11 a1bc db06 003d 910f e63c 2868 90bd
000001c0: c4e1 84bd 8389 89bd f48c 8eb1 420f 273d
000001d0: 3a09 ad3d e424 753d 5333 b3bd 5f65 d5bc
000001e0: 57e0 2abd ba6c 42bd d1ad ad3d abf7 233d
000001f0: 60be 68bd 9288 5b3c de47 163d 7800 6c3d
00000200: 0032 60bb a95d 6d3a e082 883c fc9f 383d
00000210: 9d88 d53c a24e 65bd 03fe ebbc dc84 0f33
00000220: 69e7 3fbc 6f41 0d33 f701 0c32 16ed 27bd
00000230: 8ebe 36bd b7f9 3fbd 2fe0 23b4 f0de ce3c
00000240: 247c 9bbc 2b4a 16bd 73bc 303d 907e 9e3d
00000250: 9fb1 a6bc c0d2 c8bb 98bf 9c3d 2cab b4bc
00000260: d8a1 2d3d 8b78 ef3c 0faf b63c 2e18 7f3d
00000270: 62bf 8cbd 0fa9 a7bc 9450 e9bc 1ec8 bbbc
00000280: 443e 10bd 6947 133d 13d7 963c ab13 2e3d
00000290: 762b 583d 0f78 a2bc 388b 3fb4 c8fc ccbc
000002a0: 46ac 883b 0f91 033d 3960 8c3c d05a 4b3c
000002b0: d07e 16bd f4ab aabd 2b44 c8bc 2e4c 1a3d
000002c0: 015b 6f3d 6085 7bbd 3335 d03c a51d d43c
000002d0: 1cde 93bd a48c 903d 97c8 25bd 41c1 eabc
000002e0: c4ca 80bd e246 ecbb 4d1b a53a de88 aa3d
000002f0: f5ee 113d 429b 6d3c 3179 283d 4c48 b7bc
00000300: a942 713d c737 4a3d 6e1a 0f3d 792e 1434
00000310: 2910 81bd 0505 17bd 627d beb1 45e3 073d
00000320: 6130 b73a 7354 42b3 c220 ed3c 924a 163d
00000330: be5b 063d f229 97bd 7fdc 403d a254 1e33
00000340: 9534 4dbc 5405 0a3c 1722 eebc 571e 5fbc
00000350: a38a 13bd d35f 99bc 5822 dd3c 2686 9abb
00000360: 73ec ccbc 9c8c df3c 075c 04bc 6aa7 3a3d
00000370: 1011 203b e908 18bd 2e73 c5bc 3c4d bd3c
00000380: fa25 82bb d82e 01bd aba5 17bd 79ce 6834
00000390: 60aa 7a3d 5e92 80bd e524 843d c19b 3fbd
000003a0: 1ea9 1fbd 689c 473c 8690 06bd 1867 343d
000003b0: 60e6 cb3c 7eae a13c 03f8 ca3c 2a4e 20bd
000003c0: f4af 0632 b9fd bbbc a541 183d 469f c931
000003d0: 95e7 25bd e122 b23c 4c9c 75bd c881 703d
000003e0: 7a6c 3e3d edbe 69bd 3770 4bbd 79d8 2a3d
000003f0: 8eff fc3b 7e9c 5c3d e550 343d 72fb ab3c
-0.0026414103 0.057110086 -0.10973798 -0.05110006 0.012219265 -0.028152896 0.019859068 0.04563048
0.049851827 0.03234489 -0.0033906987 0.05652593 0.025809841 -0.026757454 0.017898379 -0.041908156
-2.1412004e-07 0.026462309 -0.0015282668 2.1354316e-07 0.052925225 -0.051675215 -4.642047e-09 -0.0036529033
-0.08913321 -0.060184825 0.015625807 -0.020012995 1.4922742e-08 -0.057628207 -0.030241199 -0.06188251
0.022861654 0.025123827 0.04782608 0.028342208 -0.07315167 -0.038364533 -0.019822685 -0.012868254
-0.022700142 -0.014047895 -0.029519856 0.060905237 0.015958851 0.0009458392 0.02606602 0.08210606
-3.3974914e-08 -0.041418772 -0.01313556 -0.033277873 -0.08845351 0.031753834 -0.013900504 0.0009243666
-0.040756907 0.00228073 -0.034306012 -0.055432662 -0.015815586 -7.514025e-07 -0.033120703 0.027065974
-1.3372993e-08 -0.0120513495 0.06823804 -0.014492117 -0.02915877 -0.04483486 0.013587359 -0.039337926
0.051865608 -0.0059011406 0.0155777065 -0.009675841 0.0024655233 0.0073771193 -0.023029799 -0.046250727
-0.12046997 0.07229607 -0.036091562 0.060299337 -0.053010624 0.058988407 -0.034454558 0.06473395
0.056558944 0.014121881 -0.08174316 -0.015743524 -0.043401536 -0.0061388356 0.018186426 0.02606196
0.070469216 0.0014362372 0.0036219037 0.013238576 -0.056412015 -0.04647116 0.049986415 -0.012302281
-0.014902933 0.05796195 0.037057675 -0.07695711 -0.019661684 0.031256538 0.028083595 -0.07051116
-0.06488374 -0.067156814 -4.1487684e-09 0.040786035 0.084490255 0.059849635 -0.08750024 -0.026049314
-0.041717853 -0.04746697 0.084804185 0.040031116 -0.05682218 0.01339926 0.03668963 0.057617635
-0.003420949 0.0009054789 0.016663969 0.045074448 0.026066119 -0.055983193 -0.028807646 3.3415617e-08
-0.011712887 3.2888632e-08 8.149519e-09 -0.040997587 -0.04461532 -0.046869006 -1.5262115e-07 0.02525279
-0.018980093 -0.036691826 0.04314847 0.07738984 -0.020348368 -0.006128639 0.07653731 -0.022054277
0.042390674 0.029232284 0.022300271 0.06227892 -0.06872441 -0.020466356 -0.028480805 -0.022922572
-0.03521563 0.035956774 0.018413102 0.042499226 0.052775823 -0.019832639 -1.7838909e-07 -0.02502288
0.004170927 0.03212076 0.017135726 0.012411788 -0.03674203 -0.08333579 -0.024446568 0.037670307
0.058436397 -0.061406493 0.025415992 0.025893042 -0.072200984 0.07058075 -0.0404745 -0.028656604
-0.062886745 -0.0072105983 0.0012596637 0.083268866 0.035628278 0.014502348 0.041131202 -0.022373341
0.058901463 0.0493696 0.034937315 1.3800481e-07 -0.063019104 -0.03687002 -5.543982e-09 0.033175725
0.001397621 -4.524595e-08 0.028946284 0.03669221 0.032802336 -0.07381047 0.04708528 3.6864215e-08
-0.012524744 0.008424122 -0.02906899 -0.013618073 -0.036020886 -0.01872245 0.026993915 -0.004715699
-0.025015092 0.027288727 -0.008078582 0.045569815 0.0024424233 -0.037117872 -0.024102774 0.023108117
-0.0039718123 -0.031538814 -0.037023228 2.1681798e-07 0.06119764 -0.06277917 0.064523496 -0.046779398
-0.038979642 0.012183286 -0.032852672 0.04404363 0.024890125 0.019736525 0.024776464 -0.039137043
7.839834e-09 -0.022948133 0.03717198 5.867977e-09 -0.040504057 0.021745147 -0.05996351 0.05871752
0.04649017 -0.057066847 -0.049667563 0.04171035 0.007720894 0.05386018 0.04402246 0.020993922

network.0.bias f4 [256]
00000000: 96b0 02b7 393f 28b8 c64f bc36 97c5 2236
00000010: f9c9 b636 0d45 40b8 1f4e 8db7 85ab 1337
00000020: 04ba 0bb6 32d2 d535 f350 cc36 be2a 93b7
00000030: 131e 9335 708a ebb6 d82b 53b6 7971 e5b6
00000040: 94eb 7eb5 9a87 af36 7100 c436 08ba c9b6
00000050: 95d6 d2b6 6cbe 4536 7f3b 27b7 9ae3 ddb6
00000060: 9d1a 6e36 81bf a1b7 6c78 01b7 1801 2e35
00000070: 79c0 85b6 9136 8a36 7c44 4bb4 2c7a ea34
00000080: 089c 3437 e638 c835 78d7 00b6 d586 7fb6
00000090: 9f8e 6136 a4a9 4cb6 771e 00b7 25e5 8536
000000a0: 6c35 9db6 4670 ce36 3bb6 44b7 d30c 24b7
000000b0: f3fe e8b4 f861 16b7 f28c 2737 1a1b e5b4
000000c0: 2cc2 3838 6c55 1ab6 550f 3bb6 9262 1a37
000000d0: 20f8 bd36 b28e d834 7568 08b6 967f ae35
000000e0: fa1e b835 0989 3237 70a6 c036 9ec6 1137
000000f0: ff69 aab6 2500 0a37 c156 a6b7 e1a0 d0b6
00000100: 1eb3 fdb7 e5e1 bab5 1ed6 95b6 6e1e 5a36
00000110: 6c12 78b6 09f5 97b6 c8a4 8737 d2d8 b5b7
00000120: 5dce 3936 8a82 fd36 fc99 cd36 5283 06b5
00000130: 7968 7cb6 a58a a535 f01e 27b7 21c4 2a37
00000140: 64fa 7a36 5782 30b7 0b0d 0635 bde2 1937
00000150: 23b3 3db5 7b6b 55b7 7bfd b5b3 3c2f cf35
00000160: 4860 94b6 f2b9 2ab6 d8e7 4bb6 144e 28b6
00000170: d107 dcb6 3e85 92b6 6bcc 00b7 9660 a3b6
00000180: f669 2a35 429c b4b6 e1ac f134 8281 62b6
00000190: 1dfe bf37 75bb 4eb6 c180 b7b5 83b2 7a35
000001a0: d015 b836 49ae b836 39a8 1eb6 e93b 0fb6
000001b0: 8c75 bfb6 76f8 61b6 0045 e0b5 d774 9e37
000001c0: daee 9a36 861c d5b6 5273 1d37 207d cfb6
000001d0: 2414 a9b5 0482 cab7 4b6a 8036 cffd 8335
000001e0: 24a1 09b5 9f2d 9637 14ad cd37 cc96 3236
000001f0: 1439 6736 dbe4 87b7 8a04 7335 a1f9 b537
00000200: be1c 0b37 a565 a6b6 e9b1 1b37 9802 dfb6
00000210: 765c cfb6 d85c 43b7 871d c6b6 ca92 ebb6
00000220: ac43 59b6 21ca 3136 e8e4 2237 d29d 64b5
00000230: a3bd e0b6 3d43 22b6 dc5b a0b7 a03b 09b7
00000240: 5e49 1536 b925 2cb6 01e3 f5b6 741f 4d36
00000250: d8d5 de37 c08c 3ab5 b61d c435 5487 d6b7
00000260: e9c9 ac36 3735 17b6 49d5 3cb7 70eb 5238
00000270: f83e ab36 0c2a 29b4 b407 bfb7 9d5f 7637
00000280: 7a20 34b7 431d 22b7 cede 5936 4c4f b9b7
00000290: f476 d5b6 4ae7 9ab6 8353 04b7 dd4e 95b7
000002a0: c3da 17b7 87b2 c036 7931 86b7 2c36 d935
000002b0: 2404 8c36 6d67 2d37 8c72 ce35 0255 0ab6
000002c0: b319 a736 58c5 db36 562d a6b6 0bcd 9635
000002d0: f191 8fb5 61f4 d8b6 9875 65b5 563e 2538
000002e0: b76f 88b7 4469 82b6 a0ca 3c36 6ca8 ff37
000002f0: 3152 09b8 905a ce36 3e86 dc36 91bd 4136
00000300: 68ce 7bb7 39d1 63b5 fd75 8f36 3ec2 9335
00000310: 0b35 3237 af43 7936 ecd5 8b36 104c 47b7
00000320: aa4d d0b6 f5e0 1b37 13b7 d9b5 d1e1 2ab8
00000330: 35fb 49b8 e4dc a136 04b7 b734 c485 9fb6
00000340: d208 2136 ca12 43b5 701b cd32 b26a 00b7
00000350: 05b2 1cb6 b4db cab6 9d5c 9cb7 55a3 c5b6
00000360: b9fc e2b6 de09 edb5 4008 d136 bd6c 12b5
00000370: 60d9 f0b4 639a 0737 0c07 4836 59b5 1db6
00000380: 065b 8b35 a78f 0ab6 958d 1f37 d044 ceb8
00000390: ba7c 46b6 c4b7 b535 a1b2 1cb7 21e6 8db6
000003a0: fb28 8d36 d663 0538 4f06 0337 7ee2 5ab4
000003b0: 49c7 24b7 09cf 9736 a7b9 0037 31e4 3b36
000003c0: 0e5c ebb6 40fc 65b4 58e8 70b7 4e44 2936
000003d0: bc63 fd36 c897 b336 1dab aa37 e8ca a737
000003e0: 001d 0bb7 4e15 6636 0e83 78b4 d287 39b7
000003f0: 9ad6 2f34 191e 3336 ef83 07b7 df6e de35
-7.789718e-06 -4.0113202e-05 5.6121235e-06 2.4254894e-06 5.4475354e-06 -4.5840676e-05 -1.6844888e-05 8.801818e-06
-2.082089e-06 1.5930912e-06 6.0890975e-06 -1.7543669e-05 1.0961106e-06 -7.019662e-06 -3.146697e-06 -6.837942e-06
-9.4965185e-07 5.2311925e-06 5.8413066e-06 -6.0119237e-06 -6.2834683e-06 2.9466128e-06 -9.967828e-06 -6.6128096e-06
3.5480255e-06 -1.9281872e-05 -7.717037e-06 6.482164e-07 -3.9861156e-06 4.119073e-06 -1.8930763e-07 4.3674788e-07
1.0765165e-05 1.4917721e-06 -1.9198906e-06 -3.8076444e-06 3.361063e-06 -3.0497113e-06 -7.636488e-06 3.990385e-06
-4.6851837e-06 6.1523488e-06 -1.1724939e-05 -9.778148e-06 -4.3398867e-07 -8.963507e-06 9.986792e-06 -4.2674293e-07
4.4049855e-05 -2.299751e-06 -2.7874096e-06 9.2020655e-06 5.6615245e-06 4.033696e-07 -2.0326381e-06 1.3001143e-06
1.3718084e-06 1.0641533e-05 5.741422e-06 8.688918e-06 -5.0787344e-06 8.225475e-06 -1.982914e-05 -6.217612e-06
-3.0243358e-05 -1.3923824e-06 -4.4654726e-06 3.2502244e-06 -3.6965603e-06 -4.5286765e-06 1.6169986e-05 -2.1677846e-05
2.7687267e-06 7.5551843e-06 6.1274022e-06 -5.0109986e-07 -3.7611737e-06 1.2333809e-06 -9.961179e-06 1.0178454e-05
3.739865e-06 -1.0520765e-05 4.993787e-07 9.172302e-06 -7.0668665e-07 -1.2720814e-05 -8.474577e-08 1.5436449e-06
-4.4219523e-06 -2.5440208e-06 -3.0384308e-06 -2.5079398e-06 -6.557421e-06 -4.3666505e-06 -7.676989e-06 -4.8690226e-06
6.348413e-07 -5.382609e-06 4.5015534e-07 -3.3752008e-06 2.2887305e-05 -3.0805506e-06 -1.3672035e-06 9.3392026e-07
5.4861666e-06 5.503917e-06 -2.3641753e-06 -2.1343533e-06 -5.705928e-06 -3.3672236e-06 -1.6709382e-06 1.8889476e-05
4.6173636e-06 -6.3512152e-06 9.384779e-06 -6.183647e-06 -1.2597343e-06 -2.414082e-05 3.8270714e-06 9.834129e-07
-5.127097e-07 1.7902637e-05 2.45185e-05 2.6611842e-06 3.4454906e-06 -1.6199823e-05 9.053116e-07 2.1693124e-05
8.291738e-06 -4.9590185e-06 9.280143e-06 -6.64622e-06 -6.1798446e-06 -1.1644523e-05 -5.9042973e-06 -7.0206343e-06
-3.237491e-06 2.649271e-06 9.709249e-06 -8.516628e-07 -6.697797e-06 -2.417902e-06 -1.9116262e-05 -8.179719e-06
2.2245436e-06 -2.5651955e-06 -7.3279957e-06 3.0565689e-06 2.6564041e-05 -6.949522e-07 1.4611785e-06 -2.5573805e-05
5.149505e-06 -2.2531729e-06 -1.12553325e-05 5.028717e-05 5.1035277e-06 -1.5754648e-07 -2.2772561e-05 1.4685004e-05
-1.0736398e-05 -9.6627655e-06 3.246521e-06 -2.2090644e-05 -6.3617426e-06 -4.6164832e-06 -7.887257e-06 -1.7798908e-05
-9.051236e-06 5.742829e-06 -1.5997082e-05 1.6183526e-06 4.172807e-06 1.0335684e-05 1.5381534e-06 -2.0613084e-06
4.9799796e-06 6.5496824e-06 -4.9524633e-06 1.1235546e-06 -1.0696805e-06 -6.465751e-06 -8.548027e-07 3.939712e-05
-1.6264485e-05 -3.8865564e-06 2.8132126e-06 3.0476796e-05 -3.2739892e-05 6.1498213e-06 6.572139e-06 2.8869583e-06
-1.50088235e-05 -8.486855e-07 4.2754677e-06 1.1008885e-06 1.0621977e-05 3.7143288e-06 4.1674266e-06 -1.1879034e-05
-6.2079243e-06 9.291097e-06 -1.6221042e-06 -4.0741466e-05 -4.815609e-05 4.823889e-06 3.4219568e-07 -4.7541416e-06
2.3996004e-06 -7.26705e-07 2.3877618e-08 -7.6542365e-06 -2.3349432e-06 -6.045646e-06 -1.8639776e-05 -5.890072e-06
-6.7647456e-06 -1.7660748e-06 6.229646e-06 -5.4547473e-07 -4.4861645e-07 8.082573e-06 2.9806424e-06 -2.3500381e-06
1.0382798e-06 -2.064722e-06 9.510103e-06 -9.835663e-05 -2.95769e-06 1.3539034e-06 -9.339915e-06 -4.228918e-06
4.206898e-06 3.180265e-05 7.809677e-06 -2.038523e-07 -9.821561e-06 4.5242527e-06 7.67262e-06 2.7997996e-06
-7.0142623e-06 -2.1419055e-07 -1.43592115e-05 2.522272e-06 7.551598e-06 5.3522854e-06 2.034526e-05 2.0002437e-05
-8.291798e-06 3.4285072e-06 -2.3144477e-07 -1.1058482e-05 1.6376217e-07 2.6690598e-06 -8.077345e-06 1.6572557e-06

network.1.weight f4 [256]
00000000: 9f66 7d3f 7dea 823f 5220 7a3f 7c87 783f
00000010: aef4 7d3f a259 803f a854 803f 9949 7e3f
00000020: 8d9e 7e3f 3519 7d3f 8000 7f3f 231f 813f
00000030: 5f54 763f 60ef 7d3f 184d 7e3f 5f0b 803f
00000040: f8b2 7b3f 472b 803f 82f8 7a3f 46c8 7a3f
00000050: a503 793f af67 7a3f cda1 823f cd68 833f
00000060: 4be4 793f d680 7b3f f1a3 7b3f 6704 7b3f
00000070: 85ad 783f 6176 823f 2fb8 7e3f 5ee4 7a3f
00000080: 05af 7d3f 2bbb 813f 8175 7a3f 54cc 7e3f
00000090: e2bf 7b3f 95b9 7e3f 61a4 813f 1551 7b3f
000000a0: cf77 7b3f 528b 843f 5bce 843f 7f32 7e3f
000000b0: 3ab2 803f 5319 7d3f cd14 803f 0282 793f
000000c0: 0469 823f eb49 833f 0716 7f3f 05a2 7a3f
000000d0: ea80 803f 1fd8 753f 5adc 7d3f 7496 7e3f
000000e0: 0fa6 793f 5b31 853f 8f17 7f3f edca 7a3f
000000f0: da84 813f 46c6 803f 2641 853f cc9e 803f
00000100: a16c 7a3f 19b5 7c3f 6e16 7b3f 2a84 813f
00000110: f120 773f 31e1 7f3f 80e7 7d3f f625 813f
00000120: 8e2c 7b3f 91f5 803f d86f 793f 2407 7b3f
00000130: 41ab 803f 2b96 7d3f 3d7c 813f 82aa 7f3f
00000140: 1c74 803f 0fa8 7d3f 2697 7c3f 856f 813f
00000150: 3424 773f 1a54 823f a180 783f d976 7e3f
00000160: 4598 7e3f 1130 7c3f df1a 7b3f 3748 7d3f
00000170: 7ad5 7e3f 3c76 783f a0fa 813f 2f9c 7b3f
00000180: 9910 803f 7091 813f 5ecb 793f adf3 823f
00000190: ad43 833f 064e 7a3f 99ac 793f e42e 763f
000001a0: b033 7b3f aec7 7e3f 24f3 7a3f cdc2 7e3f
000001b0: f463 813f a544 7b3f c93a 813f f347 833f
000001c0: d7d2 7d3f 2ab3 813f ef9d 803f 2b8b 793f
000001d0: e3d9 753f 3e00 823f 9286 7a3f 04a9 813f
000001e0: 295d 7d3f 698a 7b3f 501c 7d3f 78a7 7f3f
000001f0: 6532 803f eb94 7f3f 48e2 803f abce 853f
00000200: f7c5 813f 7b38 7b3f 146e 773f c577 7f3f
00000210: 36e5 743f b2df 823f 9d89 803f aa45 833f
00000220: db82 813f 4c4d 803f f576 803f b539 803f
00000230: c8b6 7d3f 81ab 7d3f 342c 823f 1508 7d3f
00000240: d55d 823f 87c1 7b3f 34a5 803f 5685 823f
00000250: 55f2 793f 0d70 7d3f 0bdf 763f 045d 833f
00000260: 2cda 7e3f 61c3 7b3f ea9e 7d3f 66af 7d3f
00000270: d258 7d3f 14b6 793f f517 7f3f a3ca 7d3f
00000280: 6d3d 813f 6fea 7f3f 3e59 7e3f 2135 863f
00000290: 5f3c 803f 5663 7b3f 3f07 833f 4463 803f
000002a0: 2ef7 7f3f 3b3f 843f de31 843f 6e3f 763f
000002b0: 7c78 7e3f 69bd 823f 2b15 7d3f 93c1 7a3f
000002c0: f502 7d3f 2d4f 803f f210 843f ee64 7b3f
000002d0: 70c2 833f 4ba5 823f 49b3 7b3f bbe7 813f
000002e0: cfee 7c3f 28dc 793f 4c7f 793f 3f8c 863f
000002f0: aa03 7b3f 8911 7f3f de4a 813f 9d6e 7e3f
00000300: 37d2 813f 953e 813f d5c1 803f a25c 7c3f
00000310: fba8 843f e24f 803f 673a 7d3f 1002 813f
00000320: 4977 7e3f 65f0 793f cd96 7a3f e11b 843f
00000330: 16f2 823f 25fb 823f ef1d 813f e4a0 803f
00000340: 13f6 7a3f e6a6 803f 9016 803f 0bf6 813f
00000350: 4fc2 813f ed52 803f 99fd 7f3f 715f 7a3f
00000360: 8a55 813f 8eb0 7c3f 3708 793f 7c26 813f
00000370: abb9 803f 74df 813f cbf8 7d3f 5e15 7d3f
00000380: 75a8 7d3f f727 803f 1974 7f3f c781 803f
00000390: 976e 803f 656c 823f ec5f 7d3f 2f3a 803f
000003a0: f467 803f c83a 803f 7e91 813f afc9 7b3f
000003b0: 38b6 7f3f e7f7 7e3f fac0 7b3f 8226 803f
000003c0: 1d65 7f3f b849 7d3f b87b 7f3f 15f1 7b3f
000003d0: 704c 7f3f a001 7b3f a85a 823f 5add 7c3f
000003e0: 9bb1 823f df86 7b3f 7c91 7e3f 9dbb 7b3f
000003f0: c67e 7a3f e457 803f cc1e 7d3f ae21 823f
0.9898471 1.022781 0.97705567 0.9708173 0.99201477 1.0027354 1.0025835 0.9933105
0.9946068 0.9886659 0.9961014 1.0087627 0.9622249 0.9919338 0.99336386 1.000347
0.9831996 1.0013207 0.9803544 0.97961843 0.97271186 0.9781446 1.0205628 1.0266358
0.9761397 0.98243463 0.9829703 0.9805359 0.9713977 1.0192376 0.9949979 0.9800471
0.99095184 1.0135244 0.97835547 0.9953053 0.98339665 0.99501926 1.012829 0.98170596
0.9822969 1.0355017 1.0375475 0.992958 1.005439 0.98866767 1.0006348 0.97464
1.0188298 1.0256933 0.99642986 0.9790347 1.0039341 0.960329 0.99164355 0.99448323
0.9751901 1.0405687 0.9964532 0.9796589 1.0118668 1.0060508 1.0410507 1.0048461
0.97822005 0.98713833 0.980811 1.0118458 0.9653464 0.9995299 0.99181366 1.008971
0.9811486 1.0074941 0.97436285 0.9805777 1.0052263 0.99057263 1.011604 0.9986955
1.0035434 0.9908456 0.98668134 1.0112158 0.96539617 1.0181916 0.9707127 0.994001
0.99451095 0.98510844 0.9808788 0.98938316 0.9954449 0.9705541 1.015461 0.9828519
1.0005065 1.0122509 0.9757594 1.0230614 1.0255028 0.97775304 0.9752899 0.961653
0.98125744 0.9952344 0.98027253 0.9951599 1.0108628 0.9815162 1.0096065 1.0256332
0.9914984 1.0132802 1.0048198 0.9747798 0.96035594 1.0156324 0.9786159 1.0129704
0.98970276 0.9825807 0.98871326 0.9986491 1.0015379 0.99836606 1.0069056 1.0453695
1.0138539 0.9813306 0.9665234 0.9979213 0.9566225 1.0224516 1.0041996 1.0255635
1.0118059 1.0023589 1.0036303 1.0017611 0.9910703 0.9908982 1.016974 0.9884046
1.0184885 0.98342174 1.0050416 1.0196941 0.97635394 0.989991 0.96434087 1.0262761
0.99551654 0.98345 0.9907061 0.9909576 0.98963654 0.97543454 0.9964593 0.99137324
1.0096871 0.9996709 0.9935492 1.0484964 1.0018424 0.9819845 1.0236586 1.0030293
0.9998654 1.0331796 1.0327718 0.96190536 0.99402595 1.0214053 0.98860425 0.9795162
0.9883264 1.0024163 1.0317671 0.9820088 1.0293713 1.0206693 0.9832044 1.0148844
0.98801893 0.97601557 0.97459865 1.051155 0.98052466 0.9963613 1.0100973 0.9938753
1.0142277 1.0097224 1.0059153 0.98578846 1.0364069 1.0024378 0.9891724 1.0078754
0.99400765 0.9763244 0.97886354 1.0321008 1.0230129 1.0232893 1.008726 1.00491
0.9803173 1.0050933 1.0006886 1.0153211 1.0137423 1.0025307 0.99996334 0.9780188
1.010423 0.987069 0.9727816 1.008987 1.0056661 1.0146317 0.9920775 0.9886073
0.9908517 1.0012196 0.99786526 1.0039605 1.0033749 1.0189329 0.9897449 1.0017756
1.0031724 1.0017939 1.0122526 0.9835462 0.9988742 0.9959702 0.98341334 1.0011752
0.9976366 0.9894061 0.99798155 0.98414737 0.9972601 0.98049355 1.0183916 0.98775256
1.0210451 0.9825267 0.9944074 0.9833315 0.9784969 1.0026822 0.9887512 1.0166528

network.1.bias f4 [256]
00000000: ba24 0bbd 1bd3 ad3b 3a81 96b8 e74c 00bd
00000010: 618c 89bc 5824 c239 50f0 4fbc 0909 a6bc
00000020: 6f5f 18bd 4388 953b 62ca 28bc c92a 683c
00000030: 83ae 0bbd be50 083b 66a2 75bb 6d51 b43a
00000040: 6d26 87bc f12b b6bc 736e 9fbc 20c1 4bbc
00000050: 902f b7bc cb9d 82bb 1be0 b7bc f36a 4a3d
00000060: 1f3a 1cbc 7494 c0bc fef4 2c3c df71 4abc
00000070: 49f1 1fbd a7d2 7e3b eee2 2bbc eec5 e7bc
00000080: eeb4 eab9 f908 01bd b74f b8bc 0214 8ebc
00000090: 3e8b 97bb 0659 a0bc cde5 b2bb 4cf6 acbb
000000a0: 54e1 7ebc 0a6d f1b9 bfa8 86bb 0692 a2bc
000000b0: 507e d5bc a04e 453b a41e 123b b3e3 5fbc
000000c0: 5869 52bc 081d 28bc 09ed 8b3b 0114 c5bc
000000d0: 9e26 62bb 086d 1cbd 4f4f 54bb 09f6 34bc
000000e0: 4604 84bc 0cd8 a13c 06e3 4abb 2450 0f3b
000000f0: 07e5 7abc 3d69 ff3b ab22 7bbb 56b7 0a3b
00000100: 81b0 99bc 5c8d 82bc 69f9 21bc 5644 313c
00000110: 9d7f f5bb 1755 7ebb 6158 03bc e0ac 41bc
00000120: d6d7 35bc 2044 5e3c 9b79 07bd fc6f a2bb
00000130: de10 bdba fb18 8ebc 1633 60bc 5e2e 873c
00000140: 6302 b83c 1816 58bc 3040 c2bc 196d 9d3c
00000150: b7ba 1cbd 038b 0d3d fed6 33bd af0f babc
00000160: 49f1 82ba 9728 07bd b87d 5dbc e2a8 d43c
00000170: 1ac7 6abb ab42 83bc bbdb 183c 61bc 43bc
00000180: a667 1b3c 166f c23c f0a4 a2bb 9e68 d13c
00000190: bb71 da3b f608 40bc 2fd0 88bc 9639 33bd
000001a0: 9352 86bb b898 7d3c faf5 5fbc 7dca 8cbb
000001b0: 0d5e 363c 6bcc 7dbc 6226 6cbb a2b1 9aba
000001c0: 67c2 ee3c d193 a83b b323 fbbb 50a6 813c
000001d0: 6e61 80bc f492 803c ee8e 88bc 35bb b13c
000001e0: 8e91 583c 56ea b7bc 3975 a239 b927 d23c
000001f0: 2781 1e3c c306 0d3b 3020 0fbd 7e64 6a3c
00000200: ee2e bdbc 678c 11bd 957c d5ba 6ae6 92ba
00000210: 1873 4cbd 01d4 b5bc fb83 2bbb 6170 8f3a
00000220: aff5 de3b 0aea 823b c949 bcbc ab3e 753c
00000230: d4c8 f2bc d38c ccbc a520 e2bb a1e1 3ebc
00000240: e16a 233c 6c9d 05bd 44cc 333c ae99 b03c
00000250: fa2b 90bc 25d2 e6bc 3d49 22bc 2523 983b
00000260: 2ce2 83ba d40c 2cbb 2e06 813b 2a8d fdbc
00000270: a4f4 c1bb 9a7c f1bc ff21 0d3c 1dbe ce3b
00000280: c1f0 9a3c 676b 433c 738d 2bbb 4d89 1b3d
00000290: d4f5 c8bb 944d 5abc 6ba5 6bbc e003 14bb
000002a0: e168 0cbd 2463 443c d4b2 2d3c 208c a4bc
000002b0: b1d9 203b 5807 013d 1b70 efbc 5f88 dabb
000002c0: bd88 5a3b 4f9c ca3b 7cb4 6c3c 8345 31bc
000002d0: ba44 a5bc 7fd8 f23c f2ec 21b9 5ee6 a63c
000002e0: 17d9 32bd 44e1 9bbb 23a4 adbc 2edb 3b3c
000002f0: 3b36 debc 3835 e9bb 9138 b3bc e0f3 4f3c
00000300: 8966 113b 7bc1 f7bb 576e 2a3c fe73 063b
00000310: 580d 4e3d fcb4 bcbb b9b8 fabc faa6 b2bb
00000320: 2774 8ebb 768d c03b e162 b9bc 3a0d 123d
00000330: 8ee3 a8bc df00 123d a047 7b3c 0c2e ad3c
00000340: 2eda 26bc d54a 3ebc 4fe3 243b c084 963c
00000350: 9684 f63a 12ba a43c b2b4 b3bc 0d8c 5ebc
00000360: d087 ce3b 4f41 90bc d925 e4ba cc23 66bc
00000370: ca8a 0bba d19d 9d3c d61b 29bc 8f25 c2bc
00000380: a3eb a5bc be26 dc3a c124 ad3b f3f5 c3bc
00000390: ac86 de3b fc42 f53b 5a41 a5bc b1bb 7cba
000003a0: 6e96 293b d1e7 7c3a 4644 aa3b 388e 19bc
000003b0: 2d75 ee3c 698b 63bc 79cc 3bbd dfd7 6cbc
000003c0: 9b92 5fbc 627a 09bc e6cd 07bc ed09 babc
000003d0: 9015 e73b c9eb 1c3c 7fdc d03c 1283 833c
000003e0: 85e1 e03b f81c b1bc 9e8e 34bc af89 7dbb
000003f0: 3440 8ebc d421 92ba 26e6 2b3b c0e7 19b6
-0.033970572 0.0053047067 -7.176628e-05 -0.03132334 -0.01679057 0.00037029642 -0.012691572 -0.02026798
-0.037200388 0.004563363 -0.010302158 0.014170357 -0.034101974 0.002080008 -0.003748083 0.0013757177
-0.016497815 -0.02223775 -0.019461846 -0.012436181 -0.022361547 -0.0039860955 -0.022445729 0.0494184
-0.0095353415 -0.023508288 0.010556458 -0.012356251 -0.039048467 0.0038882883 -0.010491116 -0.028292622
-0.0004476676 -0.031502698 -0.022498948 -0.017343525 -0.0046247533 -0.0195737 -0.0054595233 -0.0052783843
-0.015556652 -0.00046048342 -0.0041094716 -0.01984502 -0.026061207 0.0030106679 0.0022296095 -0.013665128
-0.012842499 -0.010260828 0.0042702 -0.02405739 -0.003450788 -0.038189918 -0.0032395904 -0.0110449875
-0.016115319 0.01975634 -0.003095807 0.0021867836 -0.015313393 0.007794528 -0.0038320224 0.0021166406
-0.018760921 -0.015936546 -0.009886124 0.010819515 -0.0074920193 -0.0038808042 -0.008016677 -0.011821002
-0.011098823 0.013566047 -0.033074956 -0.0049571972 -0.0014424582 -0.017345896 -0.013684055 0.016501602
0.022462076 -0.013188861 -0.023712248 0.01921706 -0.038264003 0.0345564 -0.043906204 -0.022712557
-0.0009990121 -0.032997694 -0.013518743 0.025959436 -0.003582424 -0.016023 0.009329732 -0.0119467685
0.009485161 0.02373461 -0.0049635097 0.02556258 0.0066663898 -0.011720886 -0.016700832 -0.04375609
-0.004099199 0.0154783055 -0.013669485 -0.0042965994 0.011130822 -0.015490632 -0.003603362 -0.0011802206
0.029145433 0.005144574 -0.007664168 0.015826374 -0.015671458 0.015695073 -0.016669717 0.021695713
0.013218297 -0.022450607 0.00030986386 0.025653707 0.009674347 0.0021518923 -0.034942806 0.014306186
-0.023093667 -0.03553429 -0.0016287739 -0.0011207585 -0.04991445 -0.022195818 -0.0026171196 0.0010943526
0.00680419 0.003995185 -0.022984402 0.0149685545 -0.029636778 -0.024969494 -0.006900864 -0.011650474
0.009974212 -0.032620832 0.010973994 0.021557655 -0.017599095 -0.028176377 -0.009905157 0.0046428614
-0.0010061911 -0.0026252763 0.0039375043 -0.030951101 -0.005919056 -0.02947836 0.008614062 0.0063092844
0.018913629 0.011927462 -0.002617684 0.037972737 -0.0061328206 -0.01332416 -0.0143827 -0.0022585317
-0.034279708 0.011986528 0.010601718 -0.020086348 0.0024543817 0.031501144 -0.02922826 -0.0066690887
0.0033345663 0.006183184 0.014447328 -0.010819796 -0.020174373 0.029644249 -0.00015442426 0.02037352
-0.043664064 -0.0047570784 -0.02119643 0.011465831 -0.027125468 -0.00711694 -0.021877559 0.012692422
0.002218636 -0.0075609065 0.010402284 0.0020515914 0.050305694 -0.0057588797 -0.03060566 -0.005452034
-0.0043473425 0.0058762385 -0.022630157 0.035657145 -0.020616319 0.035645362 0.015336901 0.02114012
-0.010183854 -0.011614521 0.00251599 0.018373847 0.0018807824 0.020108256 -0.021936748 -0.013583195
0.006302811 -0.017609267 -0.0017406299 -0.014046621 -0.00053231104 0.019240292 -0.010321578 -0.02369955
-0.020253962 0.0016796214 0.0052839224 -0.023920989 0.0067909565 0.007484792 -0.020172764 -0.00096410053
0.0025877017 0.00096475804 0.005196127 -0.0093722865 0.029108608 -0.013888218 -0.045849297 -0.014455765
-0.013645793 -0.008390995 -0.008288836 -0.022709811 0.007052131 0.0095777 0.025495766 0.01605371
0.0068628215 -0.021620259 -0.011020331 -0.0038686802 -0.017364599 -0.0011148998 0.0026229708 -2.2933673e-06

network.1.running_mean f4 [256]
00000000: 39e4 683b bc5a 093c 5d1b c33b 3ee0 613c
00000010: 0613 c4ba dbb7 d9bb b965 963b d271 5bbb
00000020: 50a5 683a 7b93 fe3b decb 93bb 3a42 6c3b
00000030: 2371 19bc a006 3c3b 0a2d 78bb fd1a 063c
00000040: c9a6 203c b186 36bc b37d 0ebc a0e3 b7bb
00000050: 4120 dbbb 5fa2 6e3a ae9f 513a 5d76 8dbc
00000060: 5a5e c7bb 984d 80b9 93c1 afba 66c9 b9ba
00000070: 5292 28bc af6d 9bba e747 8ebb 7d79 593c
00000080: fa60 c9bb 775d ffba 29ee 3d3b b27f 95bc
00000090: 3f65 d8ba 8a43 76ba d637 c0ba ca5b a73c
000000a0: a390 3f3b 6c4a 0a3c a166 9abb 926f 0f3b
000000b0: e866 aabb c765 aeba e98a cc3a e58a a6bb
000000c0: 887a e7bb 0e0d 08bc fe9d 9b3c de7b 82b9
000000d0: 3efd c039 d0e9 c63b 58e1 db3b cf3b 4fbb
000000e0: 3c45 d5bb 5507 6ebb 73fe 0abc e675 b73b
000000f0: 9dcb 0fb9 78ba ac3b 70e5 18bc ec64 f1bb
00000100: cde4 d4bc 6990 df39 e08b 05bc 4755 803b
00000110: a5aa 19ba a371 363b de1d dc3b 163b 983b
00000120: 09cc 0abb ba3d e43b 94d4 6e3b a85c 0cbb
00000130: a1a0 b13b f17b 72bb 1f06 ae3b 28eb 40bc
00000140: a346 873b 07a2 c13a 97f7 533c a65e 463a
00000150: c4eb 38bc c0f8 273b adad cbbb cf4b e9bb
00000160: 8e3e 00bc 3b73 eb39 76d6 143c 7f10 403b
00000170: 7675 663b 0caa 0abc ae63 0dbc a1e3 113b
00000180: 22cc 673c 334e 7fbc 1774 8abc aa2a 033c
00000190: 154d 61bb 1b23 b839 c160 9cbb 0810 27bc
000001a0: c951 47bb 4409 04bc 8a8b 613c 220a b9bb
000001b0: 4679 eebb 40ca 203c df05 b3ba 7596 2ebc
000001c0: 4952 fcbb ce23 ff3b 6adb 08bc 51b9 e4bb
000001d0: ca7f 503c 6367 d539 6540 4f3b 111c 9a3b
000001e0: 4f4e 4cbc 5b83 053b 7aa7 923b 0523 8b3c
000001f0: 3dff 333c 5e6d 143c 3242 97bb 5968 973b
00000200: 489a efbb 6db0 44b8 b41e 94bb d689 39bc
00000210: 4cf8 b03a 266a 0abc df1e 8b39 b281 27bc
00000220: 002c 093b b581 16bc 972b 0e3c 4a52 e8b9
00000230: afe4 58bc da84 1bbc 20ad 1c3c b557 203b
00000240: 9a38 b6bb a713 8eba 8d2b adbb 31bf 203b
00000250: 33f4 6dbb 8eca a93b c826 58bc 375d dabb
00000260: d2db 483b 74df 333a 6de9 893b dee2 233b
00000270: fda8 09bc 5e1a be38 fa85 463a 830e d3bb
00000280: 581a 73bc 390b e0ba 8550 8b3c 9bc8 093c
00000290: 468d 06bc e596 263b 93ed 0abb fdd0 fabb
000002a0: e385 f33b 5f55 763c 9315 11bc 4781 b3bb
000002b0: 70be 72bb 4e6a 38bb 30a4 34bb 3d02 8cbb
000002c0: f5a6 1e3b 473a bd3b 615e a33b 71d6 163b
000002d0: 1f2a 8bbc d827 e1ba ac74 e1bb 8fa8 64bc
000002e0: 7c74 66ba 6b23 2d3c bc8d 873c d3ca 52bb
000002f0: a232 ae3b 4aa1 d5bb 1ede d1bb c3e2 573c
00000300: e4aa 643c d9c1 27bc 76ed 42bc d66d 983b
00000310: 031d 81ba ddcc cf3a f192 c9bb 19d1 14bc
00000320: 9096 90bb 2d34 aa3b 5b05 e0bb 9467 f03a
00000330: ec75 cabb ef9a 1fbc 83c1 843b f6e4 313c
00000340: 1973 1cbb 9800 f8bb a6c8 713b f0db 16bc
00000350: 4075 5fb9 f107 a8bb cd10 fcb9 461b f63b
00000360: 16cc a0bb 541e 1cbb c173 173c d8a9 eb3b
00000370: c5ff 153c d099 40bc 3998 393b cbb2 a93b
00000380: d418 b1bb 2ada 35bc daf3 febb cffa 80bc
00000390: 7959 703a 993b f3b8 60cb 00bc 6eb8 f53b
000003a0: 1c67 15bc 30b2 ce3a 60ad 33bc 7a69 0abc
000003b0: 6997 8b3c a3dc 0bbc e545 e2ba c343 d4bb
000003c0: d13f 8037 afe6 34bc bd6a 8fbb 8f2c 0f3c
000003d0: 0e5a 2c3c 91ac c33a d669 7bbc c49a 40bb
000003e0: 18ad ba3b 4038 553a 7fa9 b2bb 5723 d03b
000003f0: ee44 0a3c 4e4e 7e3c e47d 53bc 8304 533b
0.0035536422 0.008383449 0.0059541897 0.013786374 -0.0014959283 -0.0066442317 0.004589763 -0.003348459
0.0008874731 0.007769046 -0.004510387 0.0036050216 -0.009365353 0.0028690472 -0.0037868642 0.008185145
0.00980539 -0.011140511 -0.008696961 -0.005611852 -0.0066871946 0.00091031747 0.00079965114 -0.017268354
-0.0060842456 -0.00024471874 -0.001340913 -0.0014174401 -0.010288792 -0.001185825 -0.0043420675 0.013273594
-0.0061455937 -0.0019482811 0.0028981066 -0.018249366 -0.0016509666 -0.00093942194 -0.0014665078 0.02042951
0.0029230497 0.008440595 -0.0047119414 0.002188657 -0.0052002557 -0.0013305478 0.0015605363 -0.0050824755
-0.0070641674 -0.008303894 0.018996235 -0.0002488782 0.00036809774 0.006070353 0.0067102127 -0.0031621342
-0.0065084975 -0.0036320288 -0.008483517 0.0055987714 -0.00013713395 0.0052712522 -0.009332046 -0.007366767
-0.025988007 0.00042641468 -0.008151025 0.003916416 -0.0005861915 0.002783873 0.0067174276 0.0046457155
-0.0021178743 0.006965366 0.0036442624 -0.0021417532 0.00542076 -0.0037000144 0.0053107883 -0.011774816
0.0041282936 0.0014773019 0.012937448 0.00075672043 -0.01128668 0.0025630444 -0.006215772 -0.007119633
-0.007827414 0.00044908546 0.009084335 0.0029306707 0.0035165227 -0.008463394 -0.0086297225 0.0022260922
0.01414779 -0.015582609 -0.01690106 0.008005777 -0.003437822 0.0003512137 -0.004772276 -0.010196693
-0.0030413738 -0.00805885 0.013766179 -0.00564696 -0.0072776405 0.009813845 -0.0013658366 -0.010655989
-0.007700239 0.0077862507 -0.008353094 -0.0069800992 0.01272578 0.00040703555 0.0031624075 0.004703053
-0.012469842 0.0020372483 0.004475531 0.016984472 0.0109861465 0.009059278 -0.0046160454 0.0046205935
-0.007312093 -4.689435e-05 -0.0045202617 -0.011324367 0.0013501733 -0.008448159 0.00026535147 -0.010223793
0.0020930767 -0.009186198 0.008677385 -0.00044311798 -0.013238116 -0.0094921235 0.009562761 0.002446634
-0.0055609467 -0.0010839597 -0.0052847327 0.0024528021 -0.0036308884 0.005181617 -0.01319284 -0.006663944
0.0030648601 0.0006861605 0.0042087347 0.002500705 -0.008402106 9.064817e-05 0.00075730646 -0.006440939
-0.014837824 -0.0017093188 0.017006168 0.0084096445 -0.008212393 0.002541953 -0.0021198734 -0.007654308
0.007431732 0.0150350025 -0.008855241 -0.0054780575 -0.003703978 -0.0028139534 -0.0027563684 -0.0042727278
0.00242084 0.0057747695 0.004985616 0.0023016 -0.016987858 -0.0017178012 -0.0068803634 -0.013956203
-0.0008791161 0.010567526 0.016547076 -0.003216435 0.0053160945 -0.0065194713 -0.0064046523 0.013176623
0.013956759 -0.010239088 -0.011897435 0.0046517653 -0.0009850565 0.0015853901 -0.00615155 -0.009083056
-0.0044124797 0.005194208 -0.006836576 0.0018341416 -0.006178608 -0.009741529 0.0040513887 0.010857811
-0.0023872314 -0.00756843 0.0036893277 -0.009207711 -0.00021310616 -0.0051279 -0.00048077703 0.0075105755
-0.0049071414 -0.0023821788 0.0092439065 0.007191878 0.0091552185 -0.011755422 0.0028319492 0.0051787845
-0.005404571 -0.011099378 -0.007780534 -0.015744595 0.0009168606 -0.00011598244 -0.007860988 0.0074987924
-0.0091188215 0.0015769657 -0.010966629 -0.008447999 0.017039971 -0.008536491 -0.0017263262 -0.0064778044
1.5288506e-05 -0.011041327 -0.004376738 0.008738651 0.010519518 0.0014928748 -0.0153450575 -0.0029389123
0.005696904 0.0008133687 -0.0054523344 0.006351869 0.008439286 0.015521599 -0.012908433 0.0032198734

network.1.running_var f4 [256]
00000000: 3fde 8b3e 9d93 963e 91d3 c13e f93c cf3e
00000010: 69f1 a63e 324d af3e 18f1 963e 6284 e33e
00000020: 12b4 a83e da94 9c3e 0cbd aa3e cff0 bf3e
00000030: 042e 053f 1e2d b33e 9bcd 9f3e 7186 0e3f
00000040: 4135 c03e 6d50 cf3e 5902 9b3e dd9a d73e
00000050: 1e15 ba3e 8f4d e23e f19c ce3e 08e1 be3e
00000060: 490e cb3e 81ca 8c3e 9c48 a33e 7887 b93e
00000070: eb4e f03e 2541 b63e 2505 d63e 3153 913e
00000080: a246 e33e 3ed2 ab3e 3fa4 b83e 5df3 9a3e
00000090: 2cca b53e cbbc e33e c4b3 c93e 8779 d93e
000000a0: 1592 e73e 9a49 c53e b384 cc3e 4824 ac3e
000000b0: 318d bd3e cc27 873e 8258 8b3e 5040 9e3e
000000c0: c120 9b3e 7e2b e33e 5e40 9e3e 87f6 da3e
000000d0: 43ac 023f 939d 9d3e 0dd8 9d3e 9dca a73e
000000e0: 4a72 a93e d2fb bf3e 1837 d13e ad55 f73e
000000f0: aa23 bf3e f848 953e fa1f 7b3e 8eda c03e
00000100: 3bc8 b93e 1c77 a63e a264 c73e ac34 983e
00000110: e339 a23e f8a5 a93e 9044 9f3e ebbc 913e
00000120: ce67 bd3e 6ce2 803e 2488 903e d1e4 bc3e
00000130: 6532 123f 7e0f b73e 43c0 a63e 483d 303f
00000140: 9064 b73e 9196 ab3e db31 cf3e c54a dd3e
00000150: 9638 b53e e485 b53e bb49 b93e 23ce 8f3e
00000160: 28d4 ab3e 41dc 723e 4800 c03e 8a7e b73e
00000170: a5be 913e d6aa e63e 0e14 703e 8f5a a03e
00000180: 8006 043f 482e a93e 9828 bf3e 6ee3 b83e
00000190: 46b4 b33e 585e e43e 7667 fd3e e7c6 c23e
000001a0: 918e e83e 6c45 8b3e d191 ab3e 78ce fa3e
000001b0: f8a5 c23e 77b2 a73e 397a a63e 1dc3 9e3e
000001c0: 48b3 173f 17ec eb3e b7d7 b63e 5783 af3e
000001d0: d2b3 e93e 11d4 ca3e 91e2 d33e 9fe1 9c3e
000001e0: 7312 b73e 0433 873e a3e9 cc3e 9012 a13e
000001f0: 2888 bd3e fb54 c33e 4f35 b73e e09a a83e
00000200: b12f ab3e 8bc4 bd3e 310b aa3e a47b 893e
00000210: 8822 bd3e 72b6 b03e a6fc 643e 2c62 993e
00000220: 3348 783e b057 b83e 8d30 d23e 74f8 933e
00000230: 0ad0 a63e 21b3 ad3e ee58 c73e 026c 8e3e
00000240: 32f8 ba3e bf38 cb3e f55c b13e 6d31 c63e
00000250: ffa2 8f3e 983c a83e e659 ca3e 47cb 8d3e
00000260: d1a7 d73e d882 b63e a4be ef3e f33a 9b3e
00000270: eca2 ab3e 7b38 9e3e 822f ea3e 59cd b33e
00000280: 4d63 a43e dd4a ae3e 0686 b03e 7260 b23e
00000290: bbdf a03e 24f6 cf3e 0174 953e a98b c03e
000002a0: b7af a93e c99a a23e 4111 6f3e fae1 af3e
000002b0: 288e 9a3e bfd3 8e3e 0e2e cb3e 778f 9c3e
000002c0: bb6a d13e f362 f13e 9fee 933e cffb c03e
000002d0: 73ad 993e c0fb 893e c075 e43e ae52 ad3e
000002e0: 270a a53e 823c 123f 13e9 ef3e 4efb a33e
000002f0: 73da bf3e b4ea 9e3e aee9 9f3e 6f38 e83e
00000300: 4c17 813e 72df bf3e 8089 863e 6a85 083f
00000310: 17a5 c33e 7b09 df3e 6470 853e 5346 c63e
00000320: dd0c c03e 637d 9c3e 5812 963e 98d5 bf3e
00000330: 6218 893e 1500 a03e 8648 c33e 3a31 9c3e
00000340: 1c40 e73e 8c79 b53e 0fe2 003f 063b b43e
00000350: 9105 9d3e 5ced 953e ea3f bc3e fd59 b13e
00000360: bc51 ac3e 9155 db3e 66fc cb3e fc13 7f3e
00000370: a227 bf3e 6945 8f3e d78c de3e cbe7 be3e
00000380: 7561 cc3e fa3d ac3e 707b ab3e 892b 973e
00000390: 9b5a a53e 1f1a 0a3f 30eb c43e fc70 a03e
000003a0: 3a8b a93e d7fe a43e 62a7 ab3e 40f5 b23e
000003b0: eba6 c33e 3974 e83e 7763 b73e 0fbd a93e
000003c0: babe b13e 2066 b43e 9335 9c3e 7ee6 983e
000003d0: 044e f43e df22 cf3e f451 b03e c285 fe3e
000003e0: 7af0 a23e 2aa4 a53e ce7a b13e 5d54 933e
000003f0: 3186 d33e 6fd4 033f 999d b63e 9012 c53e
0.27317998 0.29409495 0.37856725 0.40476206 0.32606056 0.34238583 0.29480815 0.44436938
0.32949883 0.30582315 0.33347356 0.3748841 0.5202334 0.3499536 0.31211552 0.5567389
0.3754063 0.40491048 0.3027523 0.4211034 0.36344236 0.44199798 0.40354112 0.3728106
0.39659336 0.27498248 0.31891334 0.36236167 0.4693521 0.35596576 0.418008 0.28383783
0.44389826 0.3355884 0.3606281 0.30263796 0.35505807 0.44479975 0.39394963 0.4247553
0.4522864 0.38532716 0.3994499 0.3362143 0.37021783 0.2639755 0.27215964 0.30908442
0.30298427 0.4436912 0.30908483 0.4276621 0.510441 0.30784282 0.30828896 0.3277177
0.33095008 0.3749681 0.40862346 0.48307553 0.37331897 0.29157233 0.24523917 0.37666744
0.36285576 0.32512748 0.38943964 0.29727685 0.3168479 0.33134437 0.31106997 0.28464445
0.3699326 0.25172746 0.28228867 0.36893323 0.57108146 0.35754007 0.3256856 0.6884351
0.3581891 0.3351331 0.40467724 0.43221107 0.35394734 0.35453713 0.36189064 0.28086957
0.335603 0.23716833 0.37500215 0.3583873 0.28465763 0.45052212 0.2344515 0.3131909
0.5157242 0.33043122 0.37335658 0.36111015 0.35098475 0.4460323 0.49492997 0.38042375
0.4542127 0.27201402 0.33509687 0.48985648 0.3801725 0.32753345 0.32515123 0.31008235
0.59257936 0.4607856 0.35711452 0.34279892 0.45645005 0.3961492 0.41383794 0.30640885
0.35756263 0.2640611 0.40022 0.31459475 0.3701794 0.38150772 0.3578286 0.3293066
0.33434823 0.37064013 0.33211663 0.26852143 0.36940408 0.34514195 0.22362003 0.29957712
0.24246292 0.360044 0.41052666 0.28900492 0.32580596 0.33925727 0.38935035 0.27816778
0.36517483 0.3969173 0.34641233 0.38709584 0.28054044 0.3285873 0.39521712 0.2769415
0.4212022 0.356467 0.46825135 0.30318412 0.33522737 0.30902466 0.4573937 0.35117605
0.3210701 0.3404149 0.34477252 0.34839207 0.31420693 0.40617478 0.29190066 0.37606552
0.33141872 0.31758717 0.23346426 0.34352094 0.30186582 0.27895924 0.39683574 0.30578205
0.4090174 0.47145805 0.2889299 0.37692115 0.30015144 0.26949883 0.44621086 0.33852142
0.32234308 0.5712358 0.4685751 0.32027668 0.3747135 0.3103844 0.3123297 0.45355555
0.25213087 0.37475163 0.2627678 0.53328574 0.3821189 0.4356192 0.2606231 0.38725528
0.37509814 0.30564412 0.2931087 0.37467647 0.26776415 0.31250063 0.38141268 0.30506307
0.451661 0.35444295 0.5034494 0.3520128 0.3066831 0.29282653 0.36767513 0.34638968
0.33656108 0.4283872 0.39841002 0.24909967 0.37334925 0.27982643 0.43466827 0.3728622
0.39918104 0.33641034 0.33492613 0.29525402 0.3229569 0.5394611 0.38460684 0.313362
0.33114034 0.32225677 0.3352614 0.34952736 0.38213286 0.4540117 0.35818073 0.33152053
0.34715825 0.35234165 0.30509624 0.29863352 0.4771577 0.40456292 0.34437525 0.49711424
0.31824094 0.3235181 0.34664005 0.28775302 0.41313317 0.5149602 0.35667112 0.38490725

network.4.weight f4 [128, 256]
00000000: adc0 513d 2835 63bd dab5 393d cd21 da3c
00000010: 6c78 34bc 2623 263d 71af 8cbd ccb9 db3c
00000020: d9b2 04bd edfb b63c 2f67 3c3d 3481 d73c
00000030: a7b8 62bd 72e5 b4bc 20f6 e0bc e946 f93b
00000040: 4166 5cbd 9867 79bc 3f94 03bb 39e1 83bc
00000050: 1bb3 2a3c b4bf 68bd 30a0 af3a 31d1 0f3c
00000060: 774a 68bb 4228 0f3d 8ce2 833d b619 a43a
00000070: f8d7 37bd 03a7 a33c 9d52 45bd 8e04 1dbb
00000080: 4048 3ebd 97cb 12bd a19e d33c a434 c63c
00000090: 829d d7ba 427a 2f3c c2ef 563b 4f99 07bd
000000a0: 4f5a 3e3d cc62 f83b 5e00 ae3c e412 6e3c
000000b0: 6038 b43d 0ed2 f8bc b951 46bc d85f 4bbd
000000c0: 9eec 5ebd b8f1 17bd 9fa0 0fbd 2d9b 11bd
000000d0: 1cae 9e3c 89c9 b1bc a097 8839 c42e da3c
000000e0: cd6c 093d c011 cf3c 2372 7bbd 1eb2 3dbd
000000f0: 2614 abbd 336d 55bd cb13 71bd ba61 853c
00000100: ff90 e3bc 27b3 49bd 97e3 23bd c8a4 243d
00000110: d68c a4bc 1b19 51bd 976c 91bd 3cd2 d43c
00000120: 8d7e c9bc a1fb 1e3d 64fb 773c 2e2a 853d
00000130: 1a83 1ebd 430a 5e3d 9471 273d b626 3f3d
00000140: 6208 713d a6f7 29bd 46e2 0bbd 2a09 053d
00000150: 20ce f63c 074b 1dbd 335d 383d 237a 693d
00000160: 6b49 62bd 2393 233d 55a6 9b3c a24a 1a3d
00000170: 667a 4f3d 5aca 2c3c 6484 4bbd 1092 623d
00000180: ce7c 673d d757 11bd 4eea a3bc ae07 bc3b
00000190: 4631 0c3b fd7b f93c 515b 7ebc 83aa 57bd
000001a0: bd57 b4bc 934b 8ebc a2b6 8ebc 2091 6abd
000001b0: ec3f afb9 8b2e 8bbc b8f2 453d ca0a 063c
000001c0: 4ad7 453d 023a 1fbd 1311 8bbc 9ccd 06bd
000001d0: a6cf 01bd 86e1 19bc 8978 35bd 0448 c53c
000001e0: 70ae e63c 8708 5cba 8cea e3bb fed4 06bc
000001f0: 0d6d 963c df40 613c d2b7 41bc 4cec 963c
00000200: ca87 9a3d 073e e7bc 86ba 87bb d70c aaba
00000210: 123d 1cbc ada6 273d 8b7e 5bbd c548 5f3b
00000220: 0b78 10bb 4dd0 013c ad46 333c 34d7 2d3d
00000230: 80e9 343d 7eca 9a3d 5c69 ca3b bc30 453d
00000240: 287b 65bd d0da 39bd e32a 043d 2c52 7dbc
00000250: f3a9 6e3d 4eb6 7d3d 8d8b 153d fa61 513d
00000260: f55f d4bc df11 e43c 7caa 76bd acc4 a4bb
00000270: cc5f 9cbc 534c 80bd 3aa2 51bd 89f4 733d
00000280: 8ee5 80bd abd4 f83c 6826 b9bb cb45 ae3c
00000290: 1c85 36bc 04a8 43bd a4a0 803b 6844 b63c
000002a0: bb78 993c aaed c0bc e637 e5bc 8675 ec3c
000002b0: d115 11bd 48ee ae3c 3fda 003d 252d 0b3d
000002c0: e060 4dbd e9ff ebbc a2bd a53c 949e e23c
000002d0: e712 963d 676c 75bc e7ec 3b3d 66b3 96bd
000002e0: 9ed1 dcbb 39a3 073c bb1d 9c3c ff7f 8a3d
000002f0: b515 8c3c 0841 8b3d cc68 73bc 7799 22bd
00000300: e6eb 643c 5e97 6b3c c4fb c13b be32 d2b9
00000310: d44b 063c 60d4 c2bb e959 e8bb 4bb2 d03b
00000320: 53dd 4ebd 211d 3e3d 1bff 9f3c c73d 94bd
00000330: 33b8 c1bb 6826 663b 4dc6 be3c 1981 653d
00000340: 2fbf 543c 6c01 0cbd 393f 23bd 5984 d03c
00000350: 816b 81bd 5858 e4bc cefd 3f3c cbc2 1dbc
00000360: 7c7b 99bd 18b0 753d 5916 2f3d a593 063c
00000370: 4ed4 a53c 9046 9fbc e388 74bd 161b a63c
00000380: dab6 303d 18b2 48bd cb72 7cbd afc6 19bd
00000390: 68e4 4abd 72b0 bbbc be76 683c 1f08 1dbc
000003a0: 5b1d 293d c7ff 443d e028 9d3c 9443 66bd
000003b0: 44ee 20bb fdbb 7fbd 3e3d 313d 19f1 50bd
000003c0: 586d 9d3d c33a 94bc ec5f b9bc 7b59 63bd
000003d0: e000 c0bc 926b 45bd bef3 2d3d 08a6 72bd
000003e0: 8594 cf3c ddfa 1c38 020a e53c 7ca1 8eba
000003f0: 582b 43bc 1def 7d3d d53f ac3c 51c3 bebb
0.05120914 -0.055470616 0.045339443 0.026627446 -0.011015039 0.040560864 -0.068694 0.026821993
-0.032397125 0.022336924 0.04599684 0.026306726 -0.05535188 -0.022082064 -0.027461112 0.00760733
-0.053808454 -0.015222453 -0.0020077375 -0.016098605 0.010418679 -0.056823447 0.001339918 0.008777902
-0.0035444775 0.034950502 0.06439695 0.001251987 -0.0448837 0.019977098 -0.04817449 -0.0023959014
-0.04645562 -0.03583869 0.025832476 0.024195023 -0.0016450139 0.010710301 0.0032796715 -0.03310519
0.046472844 0.007580137 0.02124041 0.014530871 0.08799815 -0.0303736 -0.012104445 -0.04965195
-0.054424874 -0.037095755 -0.03506529 -0.035548378 0.019370131 -0.021702545 0.0002605291 0.026633628
0.033551026 0.025277019 -0.061388146 -0.046312444 -0.083534524 -0.052106094 -0.058856767 0.016281951
-0.0277791 -0.04924312 -0.04001197 0.04019621 -0.020086687 -0.051049333 -0.0710079 0.025979154
-0.024596477 0.03881419 0.01513562 0.06502186 -0.038699247 0.054209005 0.0408798 0.046667777
0.058845885 -0.04149594 -0.034151338 0.032479443 0.030127585 -0.03840163 0.045010757 0.057001244
-0.055245798 0.039935242 0.019000212 0.03766883 0.050653838 0.010546291 -0.049686804 0.055315077
0.056515507 -0.03548416 -0.020009186 0.00573822 0.0021391674 0.03045463 -0.015524701 -0.052652847
-0.022014493 -0.017370021 -0.01742107 -0.05726731 -0.00033426227 -0.016989967 0.048327178 0.008181283
0.04830102 -0.03887368 -0.016975915 -0.032910928 -0.03169217 -0.009392148 -0.044304404 0.024082191
0.02815935 -0.00083936047 -0.0069554504 -0.008229492 0.018362546 0.013748377 -0.011823611 0.018423222
0.07545431 -0.02822782 -0.0041421084 -0.0012973797 -0.009536045 0.04093044 -0.053587478 0.0034070474
-0.0022044207 0.007923198 0.010942143 0.04244156 0.044167995 0.075581536 0.0061771106 0.04814218
-0.056025654 -0.04537469 0.032267462 -0.015461486 0.058267545 0.061941437 0.03651004 0.05111883
-0.025924662 0.027840553 -0.06022118 -0.005028328 -0.019088648 -0.06264558 -0.051180102 0.05955938
-0.06293784 0.030374845 -0.0056503303 0.021273514 -0.011140134 -0.047767654 0.0039254 0.022249416
0.018734327 -0.023550827 -0.027980756 0.028864633 -0.035421196 0.021353856 0.031458136 0.0339786
-0.050141215 -0.02880855 0.020232026 0.027663507 0.07327824 -0.014979458 0.045880225 -0.07358436
-0.0067388555 0.008278661 0.019057145 0.067626946 0.017100194 0.06799513 -0.0148565285 -0.039697137
0.013972258 0.0143793505 0.0059199054 -0.00040092127 0.00819679 -0.005945727 -0.0070907963 0.0063689104
-0.05050404 0.0464145 0.019530823 -0.072383456 -0.005911851 0.0035118107 0.023287917 0.05603132
0.012985035 -0.034181044 -0.039855216 0.025453733 -0.06319333 -0.027874157 0.011718227 -0.009628962
-0.07494256 0.05998239 0.04274592 0.008213912 0.020242836 -0.019442827 -0.059700858 0.020276587
0.04314313 -0.04899797 -0.061632913 -0.037542995 -0.04953423 -0.022911284 0.014188467 -0.009584456
0.04128776 0.04809549 0.01918453 -0.05621679 -0.002455608 -0.06243514 0.043271296 -0.05101118
0.07686871 -0.018094426 -0.022628747 -0.055505257 -0.023437917 -0.04819829 0.04246878 -0.05924037
0.025339374 3.7426933e-05 0.027958874 -0.0010881866 -0.011912189 0.061995614 0.021026531 -0.0058216234

network.4.bias f4 [128]
00000000: e861 bdb4 78fa db37 c3f9 95b6 d3f1 cb36
00000010: 6620 d1b6 91fe 60b6 2c19 9135 de4e ab36
00000020: c3e2 87b4 3dc0 57b6 97ad ec35 28ea 90b5
00000030: 76ef 5fb6 702a f1b6 091f abb6 1428 c7b5
00000040: 5f1e aeb5 ef8b ef35 a9a6 8ab5 9cba 93b7
00000050: 0c5a cab3 3f2f c135 52e1 86b3 ac58 9d34
00000060: a98e 89b6 f4a4 8eb6 199e 2637 2b71 7fb6
00000070: d012 a036 0406 6136 de0c 7db6 bf53 9337
00000080: 8c28 2836 c72b 4836 bb0f a3b7 c4d5 35b7
00000090: 0272 9f36 dc8b 02b7 d8d5 eab5 8e7f b9b5
000000a0: 5bab 8e36 6d5c 49b6 2e25 c4b5 6b06 7fb7
000000b0: 0f60 5936 969f b036 460e a4b6 8729 8b35
000000c0: 8c23 3336 e4df 2eb6 5508 5ab7 5217 4a36
000000d0: 8265 b736 6ee8 6336 31aa b035 a70d 66b7
000000e0: 3e64 eeb7 fbe3 2836 6610 1237 26a7 3ab6
000000f0: a8ae 0fb7 5b38 a5b7 ec17 2e36 7a3c c336
00000100: ed56 a436 2c79 24b7 565d 6836 c03b 33b5
00000110: 36a1 af36 eddf a4b6 3a9f 8fb4 21ec d2b5
00000120: f85b 5e35 49eb 21b7 1c29 72b6 4160 0337
00000130: 333f a6b6 0d8d 24b6 e067 0734 ceba 0037
00000140: c8de b2b6 edb0 49b6 d446 59b7 81a3 1f36
00000150: fda1 58b5 5b78 0eb7 4607 5bb6 1ae0 80b6
00000160: ed27 4fb6 c52d 6ab6 2379 5736 6f74 9ab5
00000170: d78e be36 88ea 62b6 64f7 8736 7f9a 8ab5
00000180: 9916 e7b6 d388 0db7 ebaf 09b7 0b5e 0a37
00000190: e52b 1437 444a 4836 57b1 88b6 6e99 0bb6
000001a0: af2c 4337 7846 24b7 b75f 9336 f1e1 40b7
000001b0: 9f7e ce36 e414 1636 c86f 5b34 3432 9336
000001c0: a88c cdb6 ac46 c737 d26a d7b6 12ad 8336
000001d0: 7ee8 0fb7 81ff 99b5 eb8a 00b7 2125 1537
000001e0: 2c3e ccb6 1bb1 1437 86f8 1e36 fe09 83b7
000001f0: d289 dfb5 576a 68b7 79dc 00b8 eab6 6e35
-3.527523e-07 2.6223468e-05 -4.469622e-06 6.0780235e-06 -6.232457e-06 -3.3526778e-06 1.0810668e-06 5.1053785e-06
-2.53107e-07 -3.2149394e-06 1.7633892e-06 -1.0796984e-06 -3.3368974e-06 -7.1873e-06 -5.09981e-06 -1.483832e-06
-1.2972849e-06 1.7847614e-06 -1.0330306e-06 -1.7610662e-05 -9.4227374e-08 1.4393371e-06 -6.280847e-08 2.9308046e-07
-4.099526e-06 -4.251133e-06 9.931181e-06 -3.8063833e-06 4.7705616e-06 3.3531114e-06 -3.7707428e-06 1.7562763e-05
2.5057552e-06 2.9827804e-06 -1.943844e-05 -1.0838212e-05 4.7518415e-06 -7.781167e-06 -1.7496595e-06 -1.3820697e-06
4.251878e-06 -3.0005133e-06 -1.4613959e-06 -1.5200679e-05 3.2391433e-06 5.263787e-06 -4.8892425e-06 1.0368393e-06
2.669377e-06 -2.6058342e-06 -1.29957525e-05 3.011392e-06 5.465642e-06 3.3960928e-06 1.3162554e-06 -1.3712247e-05
-2.841849e-05 2.5166653e-06 8.706096e-06 -2.7813453e-06 -8.5641295e-06 -1.9695775e-05 2.5941945e-06 5.8184933e-06
4.8977004e-06 -9.803374e-06 3.4625023e-06 -6.6769644e-07 5.234174e-06 -4.9136493e-06 -2.6751678e-07 -1.5714942e-06
8.2835277e-07 -9.651129e-06 -3.608474e-06 7.830619e-06 -4.954543e-06 -2.4520007e-06 1.2610644e-07 7.672888e-06
-5.3307485e-06 -3.0054318e-06 -1.2950699e-05 2.3788018e-06 -8.0701994e-07 -8.491882e-06 -3.2637777e-06 -3.840786e-06
-3.0868644e-06 -3.4895359e-06 3.2108007e-06 -1.1507781e-06 5.67907e-06 -3.381314e-06 4.0521136e-06 -1.0326766e-06
-6.886967e-06 -8.436112e-06 -8.206795e-06 8.247337e-06 8.831707e-06 2.984555e-06 -4.073761e-06 -2.0801922e-06
1.1633309e-05 -9.791569e-06 4.392084e-06 -1.1496698e-05 6.154019e-06 2.2363902e-06 2.043663e-07 4.386786e-06
-6.1258506e-06 2.3755558e-05 -6.419935e-06 3.9242523e-06 -8.5775955e-06 -1.147375e-06 -7.661739e-06 8.889737e-06
-6.0869115e-06 8.862723e-06 2.3688494e-06 -1.562107e-05 -1.6654906e-06 -1.3853037e-05 -3.072291e-05 8.8928084e-07
