log_reg/models/tree_root_failure_best.pth (torch, 389242 bytes, 25 tensors)

network.0.weight f4 [256, 179]
-0.064163834 -0.008744578 -0.02352655 0.052663166 0.06447216 -0.018910883 -0.028041089 0.004470434
-0.04381048 -0.057897724 0.035703592 -0.01027198 0.003397381 0.022738302 0.03698708 0.034672048
3.834295e-06 0.033470068 -0.044761483 2.1896369e-05 0.0011779063 -0.0040365523 3.2438435e-05 0.056733955
-0.0043767663 -0.009033371 0.0366654 0.03260503 2.1581982e-05 -0.0010036413 -0.07234802 -0.04039725
0.04976527 -0.04938594 0.023974827 0.07430596 0.045328047 0.076935865 0.0296591 0.017284324
0.01727905 0.008341819 0.029694421 0.048101876 -0.0018817447 0.016114105 -0.065740265 0.007010048
-0.00014702883 0.008403432 0.022499464 -0.034338687 0.08218574 -0.027390605 0.02273824 0.00039461922
-0.06632496 0.07838318 0.010091943 0.013244912 -0.06508785 -0.00015238755 0.008089843 -0.033053864
8.462076e-07 -0.04697852 0.03107754 0.051667478 0.0029330624 -0.01610258 -0.005417136 -0.036925416
-0.0324701 0.0038371722 -0.044024773 -0.03667382 0.04505639 -0.06119994 0.08288822 0.0028969657
-0.03336508 0.026365312 0.022730704 -0.08207665 0.050534587 0.0662574 0.0048402515 -0.027911624
-0.005813865 -0.03327601 0.013172341 -0.056645103 -0.023026524 -0.0043389187 -0.027930295 0.06973132
0.05712687 -0.05196423 -0.107568905 0.009558725 -0.0140191475 0.041139852 -0.051486563 0.02034489
0.069893315 0.06491402 -0.06418647 0.06705454 -0.048085723 -0.033582266 -0.030823912 0.035847016
-0.06424416 -0.014545705 -0.00097598764 -0.019478697 0.06670018 0.006690228 0.0034114225 0.041284796
-0.01890261 -0.06617297 -0.01747698 -0.022655925 -0.012238242 0.008598051 -0.0089713475 0.009339534
-0.020699378 0.029635042 0.05901277 -0.0061925217 -0.056944072 0.048762534 0.024469366 -1.0000476e-05
0.0035253705 3.6627578e-05 3.2755837e-05 0.028204836 0.052593358 -0.015256046 3.703396e-05 -0.03744029
-0.010113641 -0.018236306 0.051803898 0.067752294 -0.042080045 -0.027118279 0.0177397 -0.016608398
0.011757744 -0.0009898846 -0.013403762 0.010628194 0.03402448 -0.0009920835 0.055037808 0.025249643
0.04137444 0.028429652 0.0012546821 -0.048514977 0.00040431196 0.018455286 1.132944e-05 -0.028567582
-0.0471976 0.04912992 -0.042195998 0.05194917 -0.025443895 0.062931426 0.016331373 -0.04187066
-0.010642553 0.014694472 0.016147254 0.06783133 -0.02805316 0.043518852 -0.058921132 -0.03294122
-0.027737929 0.01386446 -0.0579646 0.03319628 -0.05240239 0.020289272 -0.013658155 0.0072501735
0.047737345 0.04247996 -0.040397078 3.07012e-07 0.017715072 0.014881061 -4.3024475e-06 0.002577309
-0.036697395 0.00025616004 -0.09062421 0.056370262 0.018101068 0.010256849 0.0076146224 -5.7825684e-05
-0.0092896735 0.047612205 -0.027795132 -0.015387873 0.077765144 0.046450153 0.07855908 0.009473075
-0.050607927 -0.0649041 0.007166219 0.060933083 0.03539239 0.023201536 0.037005566 0.02635231
-0.031474024 -0.06934742 0.049198594 -0.0016696523 0.06777524 -0.00048149962 -0.038645968 -0.035429038
-0.055681895 0.054017566 0.028357875 -4.9529117e-05 -0.026593056 -0.029740859 -0.040411033 0.013764153
7.766125e-05 -0.053719062 -0.039164767 3.9636237e-05 -0.057969507 0.041734442 -0.050229315 0.020686857
-0.026219163 0.018820435 0.030013869 0.06289882 -0.05217374 -0.035374146 -0.0070881974 0.043393377
00000000: 5468 83bd 6b45 0fbc c0ba c0bc 55b5 573d
00000010: fb09 843d ffea 9abc 6db6 e5bc b87c 923b
00000020: 9e72 33bd 2a26 6dbd ee3d 123d cf4b 28bc
00000030: 98a6 5e3b ad45 ba3c c47f 173d 4704 0e3d
00000040: 58a8 8036 e917 093d d157 37bd 18ae b737
00000050: fa63 9a3a 0e45 84bb 810e 0838 dd61 683d
00000060: fa6a 8fbb b400 14bc 752e 163d da8c 053d
00000070: f40a b537 9d8c 83ba 332b 94bd 9677 25bd
00000080: abd6 4b3d e948 4abd db66 c43c b92d 983d
00000090: e7a9 393d 8d90 9d3d a4f7 f23c db97 8d3c
000000a0: cb8c 8d3c 20ac 083c b741 f33c 7906 453d
000000b0: e0a4 f6ba ba01 843c d5a2 86bd 8bb4 e53b
000000c0: c02b 1ab9 8cae 093c cc50 b83c b9a6 0cbd
000000d0: ff50 a83d 4362 e0bc 8c45 ba3c e5e4 ce39
000000e0: 61d5 87bd 5c87 a03d ad58 253c 3001 593c
000000f0: c74c 85bd 39ca 1fb9 438b 043c 7d63 07bd
00000100: f226 6335 8c6c 40bd 5396 fe3c 47a1 533d
00000110: 9f38 403b 8fe9 83bc 3b82 b1bb 1b3f 17bd
00000120: 5eff 04bd 1179 7b3b 5253 34bd 4a37 16bd
00000130: 0d8d 383d caac 7abd 4dc1 a93d 05db 3d3b
00000140: d2a9 08bd 11fc d73c be35 ba3c cd17 a8bd
00000150: 5bfd 4e3d f6b1 873d f99a 9e3b eba6 e4bc
00000160: 3c82 bebb 6d4c 08bd cdd0 573c b204 68bd
00000170: 1fa2 bcbc 7d2d 8ebb 13ce e4bc 4bcf 8e3d
00000180: ddfd 693d 72d8 54bd 164d dcbd 339c 1c3c
00000190: 91b0 65bc 4382 283d 93e3 52bd 54aa a63c
000001a0: 3a24 8f3d a4f1 843d 3274 83bd e453 893d
000001b0: 89f5 44bd 8f8d 09bd 6e82 fcbc 52d4 123d
000001c0: 7192 83bd 1c51 6ebc 6cd9 7fba ca91 9fbc
000001d0: 1b9a 883d b339 db3b 2c92 5f3b 3f1a 293d
000001e0: a5d9 9abc b285 87bd e22b 8fbc eb98 b9bc
000001f0: e882 48bc d7de 0c3c 8ffc 12bc d804 193c
00000200: be91 a9bc 30c5 f23c 60b7 713d a3ea cabb
00000210: 303e 69bd 39bb 473d fb73 c83c b8c7 27b7
00000220: e709 673b 90a0 1938 5063 0938 d40d e73c
00000230: 226c 573d 7ff4 79bc e954 1b38 fd5a 19bd
00000240: afb3 25bc 4e64 95bc 5330 543d b7c1 8a3d
00000250: 205c 2cbd 2727 debc d952 913c 560e 88bc
00000260: 8da3 403c 04bf 81ba 749b 5bbc e021 2e3c
00000270: 415d 0b3d cc08 82ba 536f 613d 57d8 ce3c
00000280: 3f78 293d 4de5 e83c 2574 a43a a4b7 46bd
00000290: d5f9 d339 8a2f 973c 9313 3e37 9006 eabc
000002a0: 4552 41bd 743c 493d b6d5 2cbd a7c8 543d
000002b0: b76f d0bc 31e2 803d 5fc9 853c 9280 2bbd
000002c0: 1a5e 2ebc 15c1 703c 3f47 843c 27eb 8a3d
000002d0: becf e5bc d340 323d 4957 71bd 5fed 06bd
000002e0: a73a e3bc c327 633c 4a6c 6dbd d3f8 073d
000002f0: e3a3 56bd b035 a63c 74c6 5fbc dd92 ed3b
00000300: 3c88 433d 77ff 2d3d 6877 25bd 68d3 a434
00000310: 331f 913c b2cf 733c be5d 90b6 12e8 283b
00000320: 0250 16bd 384d 8639 3099 b9bd 81e4 663d
00000330: b148 943c 580c 283c 1584 f93b db89 72b8
00000340: b733 18bc 0405 433d 9eb2 e3bc 6b1d 7cbc
00000350: 5543 9f3d 8442 3e3d 95e3 a03d f534 1b3c
00000360: 424a 4fbd 71ec 84bd 9ad2 ea3b f894 793d
00000370: 9cf7 103d 2611 be3c 2693 173d cde0 d73c
00000380: e8ea 00bd 0506 8ebd 7784 493d 3cd8 daba
00000390: bfcd 8a3d c971 fcb9 3c4b 1ebd 0a1e 11bd
000003a0: b312 64bd 8641 5d3d c64e e83c 7cbd 4fb8
000003b0: aed9 d9bc 1aa3 f3bc 0a86 25bd 0b83 613c
000003c0: 11de a238 8508 5cbd 3c6b 20bd 163f 2638
000003d0: 6f71 6dbd bcf1 2a3d 41bd 4dbd 7c77 a93c
000003e0: 92c9 d6bc 502d 9a3c a5df f53c 19d1 803d
000003f0: 22b4 55bd 7be4 10bd 1c44 e8bb 41bd 313d

network.0.bias f4 [256]
-6.895393e-05 3.32447e-05 -3.6745972e-05 -4.040011e-05 -1.3915456e-05 0.00038677867 -1.9282948e-05 0.00015543138
-1.9639358e-05 -4.806776e-05 0.00013423443 6.4821375e-06 1.3676398e-05 5.0821636e-06 -1.3364292e-05 -0.00058060966
-6.547646e-06 0.0008250451 0.00015047885 5.398178e-05 -5.8484857e-05 -6.6621296e-06 -6.015306e-06 0.0003409537
1.9659722e-06 -3.6742687e-05 -0.00015102686 2.0356929e-05 1.9532497e-05 -2.2164e-05 2.5078327e-05 1.3682704e-05
1.3779189e-05 0.00016388047 2.73665e-05 -1.6759346e-05 0.00017749134 0.00013812135 3.7606998e-07 3.788628e-05
-3.3177697e-05 -0.0005322888 -2.1132379e-05 -5.6161352e-05 -2.7221558e-05 1.0117219e-05 -1.4036447e-05 -1.7456964e-06
-3.4721018e-06 5.9940867e-05 -2.7641083e-05 -3.299963e-05 3.7954847e-05 -1.8037174e-05 0.00020363416 1.24338085e-05
-1.0563885e-05 -6.0097605e-05 9.870508e-06 6.650512e-05 -7.0903254e-05 -4.927296e-06 -0.00016134906 7.231496e-06
1.6030335e-05 6.7350634e-06 -1.9430587e-05 -6.2176905e-06 2.769342e-05 -1.600112e-05 9.582065e-05 -2.1707037e-05
1.2560127e-05 -3.0124609e-06 5.5578195e-05 1.0350161e-05 -0.0014510603 4.8910924e-06 0.00015384736 -1.869279e-05
-2.5860656e-05 -0.00022641926 1.3241399e-05 0.00016237142 -4.0794952e-05 -1.5670941e-05 6.02608e-05 -4.826818e-06
6.3649546e-05 5.3157735e-05 -1.485696e-05 5.740127e-05 1.4486328e-05 3.234775e-05 -3.5815679e-06 -2.0388848e-05
-1.7879143e-05 0.00014202333 -5.973817e-05 0.0001302714 -0.00011517588 -1.8610479e-05 1.1519583e-05 6.3278516e-05
0.00014942653 2.0142968e-05 -1.5353475e-05 -0.000113965616 0.00085418776 -7.410117e-07 5.3048752e-05 2.6530524e-06
2.3187069e-05 1.8934126e-05 -3.402265e-05 6.8684545e-05 0.00013813816 -0.0010820128 0.0001529226 -4.51372e-05
3.750539e-05 -0.0010604403 1.9864152e-05 -3.4491516e-06 0.00059075095 -1.4807028e-06 -3.8306258e-05 -2.9237608e-05
-1.05498375e-05 -0.00015452292 1.1400734e-05 9.947819e-05 -0.00013041361 -0.00013845252 3.3248885e-05 -4.415788e-05
-4.6579262e-05 -0.00012400486 -0.00010208132 -8.559232e-08 -0.00013338786 3.302829e-05 0.0011628557 -0.00016563732
0.0008574086 -1.7666471e-06 -0.00054483145 -0.0006567187 4.422469e-06 -0.00070454855 7.2683404e-05 7.6924425e-07
5.267607e-06 -2.90434e-05 3.3898443e-05 1.8414703e-06 -3.4793127e-05 3.06549e-05 -2.8184324e-05 1.7863476e-07
-0.0001413423 1.3724994e-06 -0.00016896307 4.6244968e-05 0.0012738559 9.579353e-07 0.00031687142 -7.905088e-06
2.7366608e-05 -0.0015876648 -1.5817488e-05 -3.0380872e-05 -2.368892e-05 -3.77332e-05 2.5550502e-05 -2.2493388e-05
1.2760945e-05 -5.9698294e-05 -2.9551687e-05 4.1018902e-05 -1.1800887e-05 0.0016512093 0.00016418283 -0.00018999566
-0.00096773496 -1.1967649e-06 0.00014301516 0.001249812 0.00012330599 1.3771461e-05 2.2822955e-05 3.121374e-06
3.284042e-05 1.7894296e-05 2.3907458e-05 -0.00056703296 0.000102378304 4.731479e-05 -0.00010969529 4.8907896e-06
-1.2124311e-05 -0.0001647885 0.0009871777 1.0449446e-05 0.000119947945 3.5127537e-06 1.5574347e-05 -2.1169615e-05
2.1943575e-05 -7.617769e-05 9.01831e-06 -5.4977856e-05 -0.0006584207 2.5963378e-05 0.001830045 3.4411635e-06
-3.7673453e-06 -0.001266876 -1.1500217e-05 -0.0016390686 4.509295e-05 -6.558742e-05 -2.5355232e-06 -4.7094432e-05
2.1504744e-05 1.8338413e-05 1.2836243e-05 -1.1539286e-05 -1.5757374e-05 -1.4496976e-05 0.0016753331 2.5932946e-05
-9.5675305e-06 0.00011514369 0.00016475031 3.7093894e-05 -0.0016498452 0.00010192827 4.9513183e-05 0.0014431317
-0.00048094874 -1.3270171e-05 -0.0019383528 -0.0010768861 -0.00067191175 0.0007631649 1.1278962e-05 1.064772e-05
0.00012887664 3.246471e-05 6.8024914e-05 -0.00015686918 -1.6637887e-06 -3.2394564e-05 -2.0181029e-05 -2.8065126e-05
00000000: 5c9b 90b8 3a70 0b38 b01f 1ab8 4a73 29b8
00000010: 6e76 69b7 8ec8 ca39 d1c1 a1b7 4bfb 2239
00000020: 33bf a4b7 5d9c 49b8 48c1 0c39 2381 d936
00000030: af73 6537 7487 aa36 3237 60b7 0e34 18ba
00000040: dab3 dbb6 d747 583a dcc9 1d39 7f6a 6238
00000050: a34d 75b8 428b dfb6 16d7 c9b6 08c2 b239
00000060: 25ef 0336 291c 1ab8 f75c 1eb9 2cc4 aa37
00000070: b8d9 a337 d4ec b9b7 4c5f d237 c48e 6537
00000080: 2b2d 6737 54d7 2b39 1c91 e537 6c96 8cb7
00000090: f81c 3a39 abd4 1039 aae6 c934 15e8 1e38
000000a0: 4828 0bb8 4c89 0bba 7045 b1b7 cb8e 6bb8
000000b0: da59 e4b7 20bd 2937 157e 6bb7 ac4d eab5
000000c0: 4102 69b6 0469 7b38 c6de e7b7 1569 0ab8
000000d0: b531 1f38 894e 97b7 a186 5539 cd9a 5037
000000e0: 8a3b 31b7 5011 7cb8 8299 2537 aa78 8b38
000000f0: e5b1 94b8 2655 a5b6 cf2f 29b9 14a6 f236
00000100: e278 8637 c1fd e136 defe a2b7 8ea1 d0b6
00000110: 2b4f e837 253a 86b7 52f3 c838 8217 b6b7
00000120: 56b9 5237 af29 4ab6 a21c 6938 9aa5 2d37
00000130: 8131 beba 2a1e a436 1652 2139 76ce 9cb7
00000140: 56ef d8b7 f56a 6db9 6027 5e37 3f42 2a39
00000150: 3f1b 2bb8 1775 83b7 8bc0 7c38 0df6 a1b6
00000160: 977b 8538 aff5 5e38 2842 79b7 25c2 7038
00000170: 4e0a 7337 22ad 0738 de5a 70b6 b808 abb7
00000180: 2bfb 95b7 19ec 1439 5f8f 7ab8 7699 0839
00000190: 948a f1b8 b31d 9cb7 3b44 4137 65b4 8438
000001a0: 61af 1c39 b2f8 a837 56cb 80b7 d300 efb8
000001b0: 92eb 5f3a f0e9 46b5 aa80 5e38 180b 3236
000001c0: da81 c237 bad4 9e37 8bb3 0eb8 bc0a 9038
000001d0: 2ed9 1039 53d2 8dba d959 2039 b351 3db8
000001e0: 1b4f 1d38 79fe 8aba f1a1 a637 f977 67b6
000001f0: a0dc 1a3a 90bc c6b5 08ab 20b8 4943 f5b7
00000200: 35ff 30b7 6e07 22b9 c845 3f37 f29e d038
00000210: a3bf 08b9 912d 11b9 b874 0b38 2a36 39b8
00000220: 1a5e 43b8 4d07 02b9 7e14 d6b8 e0ce b7b3
00000230: 08de 0bb9 db87 0a38 f66a 983a eeae 2db9
00000240: b8c3 603a 881d edb5 05d3 0eba a527 2cba
00000250: b864 9436 74b1 38ba 9b6d 9838 107e 4e35
00000260: 66c0 b036 3aa2 f3b7 2d2e 0e38 7028 f735
00000270: d6ee 11b8 7393 0038 606d ecb7 c0ce 3f34
00000280: 4935 14b9 b836 b835 ae2b 31b9 28f7 4138
00000290: 83f7 a63a 6892 8035 c321 a639 18a0 04b7
000002a0: 5891 e537 3119 d0ba ccaf 84b7 6dda feb7
000002b0: 91b7 c6b7 b743 1eb8 4955 d637 2fb0 bcb7
000002c0: d717 5637 8e64 7ab8 c4e5 f7b7 b60b 2c38
000002d0: 6cfc 45b7 646d d83a 7e28 2c39 9239 47b9
000002e0: 98af 7dba 87a0 a0b5 57f6 1539 bbd0 a33a
000002f0: b34b 0139 fa0b 6737 ec73 bf37 cc78 5136
00000300: 22be 0938 b51b 9637 e08c c837 f0a4 14ba
00000310: efb3 d638 de73 4638 360c e6b8 901b a436
00000320: 8569 4bb7 13cb 2cb9 3064 813a 0750 2f37
00000330: 908c fb38 a6bc 6b36 a8a5 8237 6795 b1b7
00000340: 7813 b837 96c1 9fb8 594d 1737 0698 66b8
00000350: dd99 2cba eecb d937 1fde ef3a bdee 6636
00000360: 80d2 7cb6 4e0d a6ba 0ef1 40b7 04d6 d6ba
00000370: 3022 3d38 fa8b 89b8 f527 2ab6 4387 45b8
00000380: 1665 b437 71d5 9937 3e5b 5737 db98 41b7
00000390: b42e 84b7 0a38 73b7 da96 db3a 948a d937
000003a0: 3b84 20b7 4c79 f138 d3c0 2c39 4495 1b38
000003b0: 9e3f d8ba 53c2 d538 60ac 4f38 7727 bd3a
000003c0: d927 fcb9 f3a2 5eb7 5410 feba 4d26 8dba
000003d0: 3c23 30ba 210f 483a c63a 3d37 9ca3 3237
000003e0: 0f23 0739 b82a 0838 99a8 8e38 407d 24b9
000003f0: 584f dfb5 66df 07b8 6e4a a9b7 666d ebb7

network.1.weight f4 [256]
1.0081935 0.98566055 1.0051013 1.0058595 1.0155255 0.97629267 0.98950773 1.0383427
0.9986474 0.99520195 0.99637866 1.0369612 0.99356765 1.0036483 1.0316836 0.9946289
1.002754 1.0022295 1.010076 0.9936246 1.0187439 0.9695731 0.9984147 0.9835513
0.9795308 0.98245984 0.99609256 0.9915516 0.9955243 0.9890429 0.9861667 0.9865323
0.99248344 0.99789906 0.99750644 1.0193139 1.004553 1.003179 0.9972542 1.0005752
0.9943762 0.9828178 0.99459785 1.0024874 0.9768515 0.99159044 1.0092257 1.0101832
0.99543273 0.99492836 0.99981594 1.0120845 1.0073903 0.9811453 1.0035896 0.99383444
1.0072637 0.9932479 0.98523045 1.0167705 0.98854786 1.0025959 1.0024813 0.9915163
0.98504984 1.0247687 0.9869241 0.9668628 0.9937212 0.9961719 0.99757427 0.99597484
0.9752239 1.0028927 0.9966059 1.0017276 0.9977867 1.0155951 1.0228579 0.9868168
0.99386424 1.0064083 0.9727377 0.9845551 1.0046066 0.9718103 0.9777413 0.9845991
1.0028594 1.0036464 1.0265517 0.9988373 0.99395907 0.99967486 1.0102571 1.0047141
1.0090998 1.0248134 1.0001662 1.0193117 0.9972702 0.9949176 0.993128 0.98903245
0.99795514 0.99543345 0.9819664 1.0122238 0.97188485 1.0049816 1.0010043 0.9831193
1.0156313 0.96927196 0.9802766 1.0091476 1.0003946 0.9955287 0.98891824 1.0075446
1.016273 1.000021 0.98911273 1.0152327 1.0091349 0.982733 0.9864265 1.0144862
0.9865826 0.98243564 1.032991 1.0233667 0.98298985 0.99465233 0.98906827 0.9846927
1.0003419 0.98707485 0.992756 1.0031406 0.9807483 0.9835527 0.9933723 0.98164654
0.9963168 0.9895815 1.0145197 0.9831271 0.9650021 0.99650264 1.0199742 1.0220128
1.0037785 1.0118471 1.0392902 1.0224031 1.0023696 1.0048853 0.9997854 1.0356005
0.99525714 1.0106057 0.9999998 1.0152551 1.0110053 1.0033484 0.9669754 0.99786764
0.9982717 1.0002046 0.97872245 1.0276717 1.0087703 0.98499715 0.99583375 1.0106424
1.0048231 0.9762476 1.0179437 1.0071322 1.0139105 1.0094488 1.01247 0.98439497
0.9908941 0.9957526 0.98963577 1.0057721 1.0035269 1.0038372 1.0118601 0.9844031
0.99211365 1.0203682 0.9896706 0.9975823 0.99288285 0.9912284 1.0171729 1.0059237
0.9862141 0.98571783 1.0054667 0.9795548 0.99785775 1.0160466 0.9801202 1.0204123
0.9820248 1.0122066 1.0411308 0.9824727 0.9996918 0.9816732 1.0241064 0.9909961
0.9808765 0.9990905 1.0093029 0.9996102 1.0215775 1.0020564 0.98175544 0.98470294
1.0067508 0.96268064 0.9899772 0.9916994 0.9828945 0.9962202 0.9886945 1.0147161
1.019692 0.9851255 0.9818705 0.98719907 0.99745804 1.012273 0.9795813 0.9934212
0.9912519 1.00136 1.0082053 1.0196955 1.00273 0.9977791 0.9974687 0.983122
1.0169476 0.9806234 0.99655247 0.9998732 1.0037978 0.9836763 0.9895691 0.98739946
00000000: 7c0c 813f 4054 7c3f 29a7 803f 01c0 803f
00000010: bdfc 813f 51ee 793f 6150 7d3f 6ae8 843f
00000020: 5ba7 7f3f 8ec5 7e3f ac12 7f3f 25bb 843f
00000030: 735a 7e3f 8c77 803f 350e 843f 00a0 7e3f
00000040: 3e5a 803f 0e49 803f 2c4a 813f 2f5e 7e3f
00000050: 3366 823f f135 783f 1b98 7f3f 05ca 7b3f
00000060: 88c2 7a3f 7d82 7b3f ecff 7e3f 53d6 7d3f
00000070: aeda 7e3f ea31 7d3f 6c75 7c3f 618d 7c3f
00000080: 6513 7e3f 5076 7f3f 955c 7f3f e178 823f
00000090: 3195 803f 2b68 803f 0d4c 7f3f d912 803f
000000a0: 708f 7e3f f399 7b3f f79d 7e3f 8251 803f
000000b0: f112 7a3f dfd8 7d3f 4f2e 813f af4d 813f
000000c0: aed4 7e3f a0b3 7e3f f0f3 7f3f fc8b 813f
000000d0: 2af2 803f 572c 7b3f a075 803f ef6b 7e3f
000000e0: 04ee 803f 7f45 7e3f 1038 7c3f 8925 823f
000000f0: 7911 7d3f 1055 803f 4f51 803f 03d4 7d3f
00000100: 3a2c 7c3f 9f2b 833f 0fa7 7c3f 5284 773f
00000110: 8364 7e3f 1f05 7f3f 0761 7f3f 35f8 7e3f
00000120: 46a8 793f ca5e 803f 9021 7f3f 9c38 803f
00000130: f36e 7f3f 05ff 813f 02ed 823f 07a0 7c3f
00000140: e36d 7e3f fdd1 803f 5705 793f ce0b 7c3f
00000150: f396 803f 8fc8 783f 414d 7a3f b00e 7c3f
00000160: b25d 803f 7c77 803f 0c66 833f cdb3 7f3f
00000170: 1a74 7e3f b1ea 7f3f 1b50 813f 799a 803f
00000180: 2f2a 813f 162d 833f 7205 803f ce78 823f
00000190: 1a4d 7f3f ebb2 7e3f a33d 7e3f 3b31 7d3f
000001a0: fd79 7f3f bad4 7e3f 2662 7b3f 8d90 813f
000001b0: 72cd 783f 3da3 803f e920 803f b5ad 7b3f
000001c0: 3500 823f 3522 783f 68f3 7a3f c02b 813f
000001d0: ee0c 803f f8da 7e3f bf29 7d3f 39f7 803f
000001e0: 3c15 823f b000 803f 7e36 7d3f 25f3 813f
000001f0: 552b 813f 6494 7b3f 7286 7c3f afda 813f
00000200: ad90 7c3f e780 7b3f 0d39 843f aefd 823f
00000210: 39a5 7b3f 89a1 7e3f 9433 7d3f d214 7c3f
00000220: 340b 803f f0b0 7c3f 4225 7e3f e966 803f
00000230: 5212 7b3f 1cca 7b3f a64d 7e3f 304d 7b3f
00000240: 9e0e 7f3f 3755 7d3f c8db 813f 38ae 7b3f
00000250: 610a 773f cc1a 7f3f 848e 823f 51d1 823f
00000260: d07b 803f 3584 813f 7607 853f 1bde 823f
00000270: a64d 803f 15a0 803f f0f1 7f3f 8f8e 843f
00000280: 2cc9 7e3f 875b 813f fdff 7f3f e1f3 813f
00000290: 9f68 813f b86d 803f b38b 773f 4174 7f3f
000002a0: bc8e 7f3f b406 803f 8e8d 7a3f bf8a 833f
000002b0: 631f 813f c628 7c3f f6ee 7e3f bb5c 813f
000002c0: 0b9e 803f 5deb 793f fb4b 823f b5e9 803f
000002d0: d2c7 813f 9e35 813f 9e98 813f 4f01 7c3f
000002e0: 3cab 7d3f a4e9 7e3f c558 7d3f 24bd 803f
000002f0: 9273 803f bd7d 803f a284 813f d701 7c3f
00000300: 29fb 7d3f 6d9b 823f 0d5b 7d3f 8e61 7f3f
00000310: 922d 7e3f 25c1 7d3f b932 823f 1cc2 803f
00000320: 8778 7c3f 0158 7c3f 22b3 803f 1ac4 7a3f
00000330: 9b73 7f3f d10d 823f 28e9 7a3f df9c 823f
00000340: fa65 7b3f fc8f 813f c643 853f 5583 7b3f
00000350: cdeb 7f3f ef4e 7b3f eb15 833f ecb1 7d3f
00000360: b91a 7b3f 65c4 7f3f d630 813f 74e6 7f3f
00000370: 0dc3 823f 6243 803f 5354 7b3f 7e15 7c3f
00000380: 36dd 803f 3d72 763f 256f 7d3f 03e0 7d3f
00000390: f99e 7b3f 4908 7f3f 151b 7d3f 38e2 813f
000003a0: 4485 823f 2f31 7c3f dd5b 7b3f 14b9 7c3f
000003b0: 6959 7f3f 2992 813f d7c5 7a3f da50 7e3f
000003c0: afc2 7d3f 912c 803f df0c 813f 6285 823f
000003d0: 7559 803f 736e 7f3f 1c5a 7f3f e2ad 7b3f
000003e0: 572b 823f 230a 7b3f 101e 7f3f b1f7 7f3f
000003f0: 727c 803f 36d2 7b3f 6754 7d3f 36c6 7c3f

network.1.bias f4 [256]
0.007213412 -0.006903285 0.010896336 0.013574622 0.024902925 -0.004226329 -0.016471945 0.025933467
-0.011105688 -0.017306646 0.0019949619 0.030357607 0.00021433318 0.005002694 0.014438477 -0.0051300125
-0.006234677 0.0041707056 -0.0007482935 0.019167043 0.01969366 -0.03173002 -0.010289904 -0.017754836
-0.020786552 -0.025406567 0.00192316 0.00037529066 -0.016168958 -0.01658836 -0.014131321 -0.018542161
-0.026074033 -0.0028206145 0.014673127 -0.0020764812 -0.014745323 -0.0020663152 -0.0025864453 -0.022932103
-0.006256553 -0.00039522047 -0.012316566 0.022304354 -0.020606179 -0.015894921 -0.0041132546 0.0019408439
-0.0043180007 0.0005113296 -0.0027781918 0.014859726 0.012482811 0.0015720574 0.0062402855 -0.009071822
-0.002070393 -0.000331581 -0.017311215 -0.004194746 -0.00931835 0.01796013 0.01693096 -0.017110763
-0.002239728 0.002964901 -0.013671874 -0.023215985 -0.00452567 0.010895507 -0.0036021355 -0.014685897
-0.013510754 0.0034636399 -0.008292941 -0.0002267306 -0.008943316 0.02601587 0.0150019415 0.003994142
0.0052953465 0.0018989791 -0.014915124 -0.01936011 -0.0013208071 -0.008526355 -0.009149314 -0.026618117
0.013494036 0.013829624 0.03278244 0.012259201 -0.01734485 -0.019177135 0.006541972 0.008603307
0.006500153 0.02150358 0.0026402248 0.0020118016 0.003498831 0.004060435 -0.00071899995 -0.015134544
-0.0034569756 -0.0061214454 0.001492924 0.009789911 -0.015592688 0.0152941225 0.002041081 -0.015071175
0.0010050017 -0.02094981 -0.014993322 -0.012282171 -0.0066120815 -0.003381392 0.014605148 0.00047785108
0.018164465 -0.0007037531 -0.0031880438 -0.00084078417 0.0042740223 -0.012739102 -0.021165583 0.029591326
-0.0047228304 -0.009450095 0.016851988 -0.013985811 5.442861e-05 -0.016561065 -0.005374459 -0.023032688
0.009031768 -0.003078511 -0.010210423 0.013085017 -0.014030411 0.0025239568 0.010618863 -0.0044072117
-0.013355773 -0.023626119 0.012048906 -0.013623068 -0.038529724 -0.006034758 0.018821819 0.0055994517
-0.0058202753 0.014393933 0.02971568 0.017071286 -0.008209529 -0.0011098373 -0.020956706 0.0053166775
-0.008800628 -0.002447601 0.0021051308 0.0140413465 0.016689999 0.00039716967 -0.02278808 0.0039550755
-0.0046299235 -0.010661347 -0.0069238828 0.01983624 -0.00431016 -0.007863843 -0.013323484 0.017596694
0.001817316 -0.0207399 0.0068773837 -0.0029211491 0.014090222 0.009659951 0.00834345 -0.012341774
0.0015900412 -0.015616063 -0.016207257 -0.013233319 0.0010228411 0.013945815 -0.008883266 -0.02425409
0.0028943322 0.0015149346 -0.023622766 -0.0014987106 -0.023628792 -0.026313093 0.0127541395 -0.012455243
0.002987227 -0.003580099 -0.00020948087 -0.022055762 0.007526448 0.005665993 -0.016115353 0.028726462
-0.029096061 0.021323206 0.022885455 -0.018275438 0.001402129 -0.01729622 0.020411089 -0.00978346
-0.015584942 -0.014520671 -0.0016011766 0.018700799 0.024023408 0.002062226 -0.015278196 -0.0017810843
0.019307036 -0.024790827 -0.0031593386 0.00894015 -0.0076006856 0.004402778 -0.011215496 0.024456818
0.020543717 0.0051761046 -0.009636511 -0.0036718615 0.008786641 0.015387584 -0.010157829 0.007251586
-0.00811091 0.012539773 0.00067530497 0.016808605 0.027329817 0.013766182 -0.013249151 -0.0105123455
0.01775174 -0.0076986873 -0.0070108445 -0.013347155 0.023604885 -0.01480111 -0.014208466 -0.011002536
00000000: 7c5e ec3b f434 e2bb 8c86 323c 1768 5e3c
00000010: 3801 cc3c 047d 8abb 2cf0 86bc 6c72 d43c
00000020: a2f4 35bc abc6 8dbc e8bd 023b 84b0 f83c
00000030: a0be 6039 a4ed a33b 5d8f 6c3c aa19 a8bb
00000040: 434c ccbb 6aaa 883b 2029 44ba 3404 9d3c
00000050: 9954 a13c 56f7 01bd fc96 28bc 9772 91bc
00000060: 8f48 aabc 6f21 d0bc 8b12 fc3a a9c2 c439
00000070: c374 84bc 50e4 87bc 0e87 67bc bbe5 97bc
00000080: 3699 d5bc 0fda 38bb 8e67 703c 9315 08bb
00000090: 5e96 71bc 046b 07bb 5a81 29bb 1bdc bbbc
000000a0: c503 cdbb 9835 cfb9 6ccb 49bc 9fb7 b63c
000000b0: 4ace a8bc 1136 82bc 7bc8 86bb ea63 fe3a
000000c0: 047e 8dbb c00a 063a 5312 36bb 3576 733c
000000d0: b484 4c3c 7e0d ce3a 4f7b cc3b fba1 14bc
000000e0: 6eaf 07bb 0cd8 adb9 40d0 8dbc 1474 89bb
000000f0: feab 18bc 1f21 933c ccb2 8a3c df2b 8cbc
00000100: 67c8 12bb c94e 423b ffff 5fbc 732f bebc
00000110: 124c 94bb 1283 323c ce11 6cbb 1e9d 70bc
00000120: 365c 5dbc 3cfe 623b 1edf 07bc 88be 6db9
00000130: fc86 12bc 3c1f d53c b4ca 753c 4be1 823b
00000140: 9684 ad3b 2ae7 f83a 905e 74bc 1899 9ebc
00000150: ef1e adba 20b2 0bbc 01e7 15bc 3d0e dabc
00000160: 1716 5d3c a695 623c e146 063d d1da 483c
00000170: c916 8ebc 5e19 9dbc 0a5e d63b e3f4 0c3c
00000180: 3cff d43b 4728 b03c 9f07 2d3b 6ed8 033b
00000190: a54c 653b 660d 853b 457b 3cba e1f6 77bc
000001a0: 6d8e 62bb 6896 c8bb 38ae c33a dd65 203c
000001b0: 7978 7fbc 3394 7a3c a8c3 053b 17ed 76bc
000001c0: 43ba 833a f09e abbc 8da6 75bc 293b 49bc
000001d0: 29aa d8bb 589a 5dbb 6e4a 6f3c 1688 fa39
000001e0: a5cd 943c 127c 38ba 80ee 50bb 1268 5cba
000001f0: 190d 8c3b abb7 50bc 7263 adbc 8269 f23c
00000200: f9c1 9abb 92d4 1abc 2e0d 8a3c be24 65bc
00000210: 464a 6438 12ab 87bc 3b1c b0bb 0caf bcbc
00000220: fbf9 133c d8c0 49bb 9e49 27bc 8a62 563c
00000230: cfdf 65bc f868 253b bdfa 2d3c 5f6a 90bb
00000240: 2cd2 5abc 908b c1bc c668 453c 4a33 5fbc
00000250: 58d1 1dbd 38bf c5bb 3730 9a3c 9b7b b73b
00000260: 02b8 bebb 88d4 6b3c 4c6e f33c 15d9 8b3c
00000270: 4381 06bc f677 91ba 66ad abbc 8637 ae3b
00000280: 8230 10bc ee67 20bb 3cf6 093b ad0d 663c
00000290: 77b9 883c 363b d039 11ae babc 9499 813b
000002a0: 9db6 97bb eeac 2ebc bde1 e2bb 9c7f a23c
000002b0: 3e3c 8dbb 59d7 00bc be4a 5abc f126 903c
000002c0: 0233 ee3a b9e6 a9bc ad5b e13b c070 3fbb
000002d0: adda 663c c544 1e3c f7b2 083c 2735 4abc
000002e0: ee68 d03a 84da 7fbc 15c5 84bc 90d0 58bc
000002f0: da10 863a fd7c 643c 1e8b 11bc 83b0 c6bc
00000300: d6ae 3d3b c590 c63a 8884 c1bc 6270 c4ba
00000310: 2b91 c1bc 8e8e d7bc bdf6 503c 1311 4cbc
00000320: 5ac5 433b 18a0 6abb 18a8 5bb9 49ae b4bc
00000330: 6ca0 f63b cba9 b93b 5804 84bc c253 eb3c
00000340: dd5a eebc 01ae ae3c 477a bb3c 5fb6 95bc
00000350: a4c7 b73a cdb0 8dbc 2835 a73c ce4a 20bc
00000360: fc57 7fbc 1ce8 6dbc 92de d1ba 6b32 993c
00000370: bdcc c43c 6926 073b 6651 7abc 4673 e9ba
00000380: ca29 9e3c 2216 cbbc e80c 4fbb b579 123c
00000390: 2c0f f9bb 2e45 903b 33c1 37bc aa59 c83c
000003a0: 4c4b a83c 509c a93b 75e2 1dbc 9da3 70bb
000003b0: d8f5 0f3c 351c 7c3c 066d 26bc b69e ed3b
000003c0: 9fe3 04bc 9f73 4d3c f306 313a 33b2 893c
000003d0: c8e2 df3c 8d8b 613c f812 59bc f93b 2cbc
000003e0: 196c 913c 4545 fcbb 3abb e5bb 07ae 5abc
000003f0: 085f c13c 5b80 72bc a0ca 68bc fb43 34bc

network.1.running_mean f4 [256]
0.0013067526 -0.017026594 0.00035507447 0.004162857 -0.00096408074 0.010369134 6.176314e-05 -0.0020150181
0.0014100323 0.0077385716 -0.004533867 -0.0066579184 0.0122951735 0.01420385 0.0025609536 -0.007631358
0.0070690215 -0.017153453 0.012935252 0.004527787 0.0075825294 -0.0039597997 0.00071806135 -0.013828984
0.0081138415 0.004248113 -0.009139308 -0.0011480801 0.0010294695 -0.0020675687 -0.0075401813 0.014249051
0.00013335033 -0.0019790668 0.0057619475 -0.010319211 0.009456786 0.006171271 -0.010643856 0.0010572495
0.007239096 0.0015183935 0.008224891 -0.0023642525 0.0008986624 -0.0011212222 -0.00058402336 -0.0009581993
0.0024303345 -0.00036665716 0.0003226994 -0.0045750644 0.004999439 0.013274533 0.0001034998 0.0028329005
0.0010324916 -0.004718549 -0.0021482927 0.0016346634 0.005985533 -0.0010903672 -0.0020893086 -0.004241171
0.0036206206 0.0030721673 0.0017489523 0.010388914 0.0009512974 0.00028375015 0.003584345 0.00047906456
0.004616022 -0.005141723 -0.004392796 0.0003659271 0.00021895603 0.0066637127 0.011143913 0.00021273587
0.0031212987 0.00817203 0.0110064745 -0.0011825387 0.0069292947 0.014627 0.006403703 -0.008465644
-0.0050387867 0.0004946054 0.008770173 -0.008948288 -0.0047118366 -0.0078013674 -0.0011362651 0.0056614415
-0.0033218106 -0.00060682086 -0.009089671 -0.009462717 0.015167398 0.015477605 0.0062561873 -0.011857998
0.008190834 -0.0011769559 0.0073203025 0.00066563825 0.007389918 0.0019011708 -0.006711369 -0.003311068
-0.011842373 -0.0015843594 0.012185387 -0.0058879615 -0.006614552 -0.0053600813 0.002937653 -0.005738416
-0.0040774364 -0.013359784 -0.0047328523 0.0025199463 0.0037634745 0.006931729 -0.001747529 0.00012845722
-0.0112646455 -0.006078466 -0.0015688193 0.002799681 0.00094381854 0.016261399 -0.011224465 0.0010107114
0.0077861324 -0.0016110225 -0.0013610256 0.0031082693 -0.0041888054 0.0034378166 -0.0011380601 0.009882036
0.0016083921 0.007319001 -0.008187108 0.006910791 0.009608933 0.008754849 0.012092677 0.0014347556
0.0014731331 -0.008751465 0.0014996106 -0.0043173293 0.006616123 -0.0018588254 0.021625841 0.007822637
0.0026976948 -0.006282935 -0.0046115657 0.0016653561 -0.0062610894 -0.00983708 0.004299045 -0.011698626
-0.0015784657 -0.011165761 -0.009807576 0.0028942109 -0.005774595 0.0029316868 0.0017244234 -0.008497881
-0.000119971846 0.012170183 0.0028643953 -0.0051460094 0.010538904 0.0141363675 -0.0008973444 0.008622533
-0.0041776276 0.0025650333 -0.0017015936 0.005824491 0.0016934488 -0.0075836633 0.00095825316 -0.010945764
-0.0047748955 0.0034696967 0.0076835696 0.0017448517 0.0064838524 0.0020123753 0.002684472 0.0012724015
-0.009322159 0.0015989012 0.009336719 -0.0003402549 0.005997134 -0.0009402641 0.005752929 -0.002250441
-0.004447659 0.009720462 0.010237129 0.005333922 0.0009859663 -0.012390239 -0.007544553 -0.010396095
0.007874819 0.0027118868 -0.0010401227 0.007325823 0.008494356 0.008770831 -0.0008405889 -0.017295524
0.007518491 -0.00669307 0.0021389597 0.009810846 0.016848363 0.008058877 0.011967691 0.0013181187
-0.00020414739 -0.0012777649 0.011197551 -0.00470247 0.013020897 -0.0035426065 -0.010886794 -0.013382658
-0.013484318 0.0071233856 0.0044288835 -0.0060708085 0.0052674795 0.004092458 -0.0017586668 -0.00015922374
-0.0071253823 0.003775637 -0.002252577 -0.0013387052 -0.005726913 -0.0045660515 0.008497262 0.0017482426
00000000: 5747 ab3a 5b7b 8bbc 4a29 ba39 9368 883b
00000010: 5dba 7cba 4de3 293c d586 8138 650e 04bb
00000020: d5d0 b83a d893 fd3b d590 94bb ab2a dabb
00000030: b271 493c 44b7 683c acd5 273b 7910 fabb
00000040: 40a3 e73b 6685 8cbc 61ee 533c d55d 943b
00000050: de76 f83b 35c1 81bb 483c 3c3a f792 62bc
00000060: ebef 043c c133 8b3b 09bd 15bc 2d7b 96ba
00000070: 44ef 863a 0c80 07bb a013 f7bb da74 693c
00000080: f5d3 0b39 3bb3 01bb b8ce bc3b e811 29bc
00000090: a3f0 1a3c 6038 ca3b 9163 2ebc 6893 8a3a
000000a0: f035 ed3b d504 c73a b1c1 063c 93f1 1abb
000000b0: 3694 6b3a f9f5 92ba 2519 19ba ab2f 7bba
000000c0: 3f46 1f3b e43b c0b9 fb2f a939 6cea 95bb
000000d0: 56d2 a33b 6d7d 593c 080e d938 2fa8 393b
000000e0: ab54 873a 0f9e 9abb 5fca 0cbb 3442 d63a
000000f0: 4a22 c43b a7ea 8eba c8ec 08bb 85f9 8abb
00000100: ef47 6d3b 6a56 493b 1a3d e53a 4336 2a3c
00000110: 7d60 793a 4dc4 9439 55e7 6a3b f52a fb39
00000120: 0042 973b e67b a8bb 72f1 8fbb e7d9 bf39
00000130: 9097 6539 465b da3b f594 363c da11 5f39
00000140: b48e 4c3b fae3 053c 8054 343c 6aff 9aba
00000150: 230f e33b 16a6 6f3c 27d6 d13b 7cb3 0abc
00000160: 681c a5bb 68a8 013a c6b0 0f3c d79b 12bc
00000170: c065 9abb 9da2 ffbb bbee 94ba 9d83 b93b
00000180: bcb2 59bb 0f13 1fba d8ec 14bc 8309 1bbc
00000190: ae80 783c c895 7d3c b400 cd3b 0c48 42bc
000001a0: d932 063c 1644 9aba 26df ef3b 3a7e 2e3a
000001b0: 2027 f23b b530 f93a 0beb dbbb 81fe 58bb
000001c0: 8306 42bc 48aa cfba 38a5 473c cdef c0bb
000001d0: e2be d8bb 9fa3 afbb a485 403b 5309 bcbb
000001e0: 049c 85bb ffe2 5abc 0b16 9bbb af25 253b
000001f0: a0a4 763b 8f23 e33b 580d e5ba 79b2 0639
00000200: 598f 38bc de2d c7bb d7a0 cdba da7a 373b
00000210: 976a 773a a036 853c d2e6 37bc d979 843a
00000220: d022 ff3b f228 d3ba 7164 b2ba 1bb4 4b3b
00000230: 3f42 89bb fe4c 613b f62a 95ba 43e8 213c
00000240: afd0 d23a 3bd4 ef3b 3823 06bc eb73 e23b
00000250: c96e 1d3c 8070 0f3c 5d20 463c 690e bc3a
00000260: 2516 c13a 4e62 0fbc 958e c43a 6278 8dbb
00000270: 10cc d83b d5a3 f3ba ad28 b13c 852a 003c
00000280: cfcb 303b 14e1 cdbb 9e1c 97bb 1448 da3a
00000290: d329 cdbb b42b 21bc 01df 8c3b 98ab 3fbc
000002a0: 85e4 ceba 99f0 36bc f5af 20bc cdac 3d3b
000002b0: d038 bdbb 8b21 403b 0c06 e23a b23a 0bbc
000002c0: 6599 fbb8 7265 473c 94b8 3b3b db9f a8bb
000002d0: 5eab 2c3c 399c 673c c33b 6bba 8645 0d3c
000002e0: 7be4 88bb 1e1a 283b 0208 dfba 5fdb be3b
000002f0: b6f6 dd3a 6180 f8bb 4833 7b3a dd55 33bc
00000300: ba76 9cbb da63 633b 74c6 fb3b 82b3 e43a
00000310: 7f76 d43b 0ee2 033b f7ed 2f3b b6c6 a63a
00000320: f8bb 18bc 3992 d13a 0af9 183c 3d64 b2b9
00000330: 9b83 c43b 0e7c 76ba 1183 bc3b 227c 13bb
00000340: abbd 91bb 9342 1f3c a2b9 273c 2ec8 ae3b
00000350: 8a3b 813a 6e00 4bbc 4c38 f7bb 6254 2abc
00000360: 6305 013c e9b9 313b ba54 88ba 750d f03b
00000370: e92b 0b3c 88b3 0f3c f75a 5cba 58af 8dbc
00000380: ac5d f63b 8a51 dbbb ca2d 0c3b acbd 203c
00000390: 9405 8a3c 6109 043c 2214 443c b9c4 ac3a
000003a0: 6610 56b9 ad7a a7ba ef75 373c 2d17 9abb
000003b0: 9a55 553c 132b 68bb 865e 32bc f042 5bbc
000003c0: 54ed 5cbc 4a6b e93b 2b20 913b a2ed c6bb
000003d0: d29a ac3b 071a 863b 1183 e6ba 4cf5 26b9
000003e0: 0a7c e9bb ad70 773b f99f 13bb 7e77 afba
000003f0: d4a8 bbbb d19e 95bb 1a38 0b3c 4a25 e53a

network.1.running_var f4 [256]
0.27523163 0.3750077 0.25317997 0.40328354 0.38209748 0.3455122 0.2518208 0.3617117
0.3468576 0.47043103 0.31970683 0.26141965 0.36761388 0.3678477 0.23353529 0.33095443
0.2599881 0.30904424 0.3768438 0.3556545 0.27043852 0.33298796 0.29052988 0.2837032
0.31600508 0.36075515 0.31035447 0.3617909 0.23322992 0.32593828 0.26238304 0.35001397
0.351203 0.42299083 0.33758777 0.30630186 0.34350488 0.26616135 0.39897984 0.50738776
0.3423423 0.336106 0.30388212 0.36770317 0.35926342 0.294766 0.29993102 0.25961146
0.32758087 0.27738324 0.32210636 0.37255856 0.45829514 0.33028543 0.3278879 0.388136
0.238071 0.34073 0.28405803 0.35939556 0.34143254 0.3505434 0.3708578 0.27275872
0.319933 0.27177274 0.25733933 0.31910703 0.36201614 0.3121359 0.4170463 0.41596985
0.32179546 0.2643514 0.23394647 0.29958394 0.25259677 0.2846148 0.38645035 0.35871994
0.45288724 0.30695048 0.37722903 0.33934224 0.28157395 0.44119066 0.34505054 0.36968884
0.26140743 0.33850178 0.3166608 0.44693264 0.39958763 0.3285281 0.39771152 0.30584487
0.33985594 0.4513238 0.4076651 0.38700554 0.356709 0.33436373 0.25440612 0.44512293
0.2909928 0.27483857 0.3571724 0.28444704 0.29324144 0.34569538 0.2839476 0.34436736
0.36827406 0.3998444 0.326044 0.2931083 0.33078048 0.39860904 0.53639865 0.29115972
0.4161946 0.26976064 0.27045172 0.33307385 0.29406348 0.3900739 0.32480693 0.288534
0.44124177 0.40969238 0.25325 0.26881322 0.32929605 0.25684795 0.37531835 0.35197958
0.32310545 0.338071 0.2763881 0.4141226 0.29145136 0.31878245 0.3378751 0.3462859
0.37495783 0.29160336 0.3404366 0.33613202 0.41028002 0.34353185 0.3256909 0.25936764
0.30897668 0.41085318 0.35577968 0.26214254 0.44477895 0.2961249 0.27590722 0.24547125
0.34261167 0.33288184 0.35384148 0.28540674 0.3065191 0.28083795 0.26226664 0.30390713
0.338808 0.3778018 0.37458247 0.43453634 0.2929883 0.36848903 0.28464723 0.34314153
0.35666454 0.37286666 0.375742 0.3231134 0.32380706 0.2666477 0.37626114 0.32526594
0.3226901 0.33128917 0.2714157 0.47050357 0.24046889 0.34406635 0.31371006 0.47343537
0.35585618 0.31018123 0.3395296 0.49243665 0.3276571 0.33613336 0.2706512 0.34803653
0.2778319 0.26904982 0.2922439 0.52617526 0.2602093 0.30376926 0.36557946 0.4708548
0.35487634 0.30150208 0.31827357 0.27259436 0.364135 0.411502 0.28272837 0.28266835
0.32198104 0.30752116 0.3066659 0.394334 0.4375706 0.27278143 0.34489685 0.3141877
0.31786576 0.34349424 0.3208565 0.32487932 0.41186556 0.33633277 0.32582152 0.28208303
0.38865936 0.29464275 0.33730465 0.34985805 0.43422028 0.36235765 0.40924945 0.4564568
0.3653926 0.26154414 0.33168644 0.29558897 0.3837138 0.335552 0.274016 0.34390056
0.32244697 0.3472678 0.2261969 0.20312837 0.3041549 0.36990488 0.4476899 0.41167137
00000000: 29eb 8c3e 0201 c03e cea0 813e 2e7b ce3e
00000010: 48a2 c33e fae6 b03e a8ee 803e 4732 b93e
00000020: 5297 b13e 56dc f03e 9db0 a33e ccd8 853e
00000030: e337 bc3e 8956 bc3e e023 6f3e dc72 a93e
00000040: 291d 853e 0c3b 9e3e acf1 c03e 5918 b63e
00000050: eb76 8a3e 667d aa3e 55c0 943e 8c41 913e
00000060: 6bcb a13e e6b4 b83e c8e6 9e3e a83c b93e
00000070: d3d3 6e3e 62e1 a63e 1257 863e 0835 b33e
00000080: e1d0 b33e 4192 d83e 4ed8 ac3e 99d3 9c3e
00000090: dfdf af3e 4d46 883e 1647 cc3e 2ae4 013f
000000a0: 7d47 af3e 1616 ac3e 7096 9b3e 9743 bc3e
000000b0: 60f1 b73e 92eb 963e 8f90 993e cbeb 843e
000000c0: aeb8 a73e 2d05 8e3e 20eb a43e ffbf be3e
000000d0: a9a5 ea3e 2c1b a93e ece0 a73e c3b9 c63e
000000e0: e2c8 733e 2a74 ae3e 0e70 913e b202 b83e
000000f0: 3fd0 ae3e 6d7a b33e 13e1 bd3e 08a7 8b3e
00000100: 42ce a33e cc25 8b3e fbc1 833e ff61 a33e
00000110: 2e5a b93e 47d0 9f3e 1887 d53e 00fa d43e
00000120: 60c2 a43e 1159 873e aa8f 6f3e 1163 993e
00000130: 5d54 813e 08b9 913e d2dc c53e 24aa b73e
00000140: d6e0 e73e 9d28 9d3e 2a24 c13e 44be ad3e
00000150: 762a 903e bee3 e13e 77aa b03e db47 bd3e
00000160: 32d7 853e 1b50 ad3e 5d21 a23e 5bd4 e43e
00000170: c096 cc3e d634 a83e d8a0 cb3e b397 9c3e
00000180: 9901 ae3e ea13 e73e 7bb9 d03e 9725 c63e
00000190: 90a2 b63e b931 ab3e 8541 823e 27e7 e33e
000001a0: 02fd 943e a4b7 8c3e 4ddf b63e 0ba3 913e
000001b0: be23 963e fcfe b03e 9461 913e eb50 b03e
000001c0: 6b8e bc3e 68b8 cc3e 3def a63e 4b12 963e
000001d0: 0f5c a93e 7c16 cc3e 6c51 093f e312 953e
000001e0: 7517 d53e 111e 8a3e a678 8a3e a888 aa3e
000001f0: 7d8f 963e c4b7 c73e 184d a63e baba 933e
00000200: 71ea e13e 33c3 d13e fca9 813e e3a1 893e
00000210: 7e99 a83e 9381 833e ba29 c03e ab36 b43e
00000220: 146e a53e a417 ad3e be82 8d3e e107 d43e
00000230: 1d39 953e 7437 a33e f7fd ac3e 634c b13e
00000240: 79fa bf3e 094d 953e b54d ae3e 7f19 ac3e
00000250: 3910 d23e 68e3 af3e f5c0 a63e d6cb 843e
00000260: 3132 9e3e 595b d23e c128 b63e 8c37 863e
00000270: 11ba e33e af9d 973e b643 8d3e d15c 7b3e
00000280: cc6a af3e 7d6f aa3e b62a b53e d520 923e
00000290: 12f0 9c3e fec9 8f3e d047 863e b799 9b3e
000002a0: 3e78 ad3e 3d6f c13e 46c9 bf3e 8c7b de3e
000002b0: 9002 963e 98aa bc3e 48bd 913e 3fb0 af3e
000002c0: bc9c b63e 61e8 be3e 4161 c03e 1f6f a53e
000002d0: 0aca a53e 0c86 883e 4da5 c03e 4289 a63e
000002e0: a337 a53e bc9e a93e 00f7 8a3e d8e5 f03e
000002f0: 7a3d 763e 7729 b03e 9b9e a03e 1f66 f23e
00000300: c832 b63e 13d0 9e3e d3d6 ad3e a820 fc3e
00000310: acc2 a73e ac19 ac3e cb92 8a3e d831 b23e
00000320: fc3f 8e3e e6c0 893e fea0 953e 6cb3 063f
00000330: 273a 853e a587 9b3e 3b2d bb3e e113 f13e
00000340: 5ab2 b53e 7b5e 9a3e c1f4 a23e 7d91 8b3e
00000350: e76f ba3e 64b0 d23e c6c1 903e e8b9 903e
00000360: b3da a43e 6a73 9d3e 5003 9d3e 25e6 c93e
00000370: 4109 e03e 02aa 8b3e 5296 b03e 36dd a03e
00000380: 4dbf a23e 7ade af3e 4e47 a43e 9556 a63e
00000390: 0be0 d23e cf33 ac3e 14d2 a63e 306d 903e
000003a0: 5cfe c63e 6adb 963e 32b3 ac3e 9820 b33e
000003b0: 1f52 de3e f186 b93e 2589 d13e b5b4 e93e
000003c0: bd14 bb3e 1de9 853e ced2 a93e 7057 973e
000003d0: 2376 c43e 79cd ab3e d34b 8c3e bc13 b03e
000003e0: c517 a53e 16cd b13e 29a0 673e e200 503e
000003f0: 31ba 9b3e 2c64 bd3e 9c37 e53e 97c6 d23e

network.4.weight f4 [128, 256]
0.032614242 -0.03340414 0.025489587 0.02689891 0.043260515 0.020977141 -0.07914971 -0.05267311
0.02839321 -0.034575555 0.013578757 0.001841753 0.038284436 0.008665427 0.017936803 0.019545188
-0.064245805 0.014444435 -0.047614813 -0.0061773094 0.03469839 0.04883569 -0.022404123 0.045261145
0.03248032 -0.053584334 0.04061022 0.0026680208 -0.010923674 -0.017232368 0.050287124 0.03577733
-0.0011430657 -0.04934061 0.0149547765 0.060489006 0.04416207 -0.0068092346 -0.013185645 0.04206174
-0.04094924 -0.017268794 -0.00561518 -0.052474484 0.06624658 0.040663585 0.030749865 -0.036091927
-0.03349369 -0.0035965268 0.050613888 0.033350673 -0.06452529 0.04674254 -0.037826408 -0.051709842
-0.022605365 0.011628726 -0.018991811 -0.030898524 -0.039349742 -0.0658335 0.017537257 -0.0249213
0.013875848 -0.06100894 -0.037252497 0.04512363 0.056966405 -0.043244183 0.022796974 -0.044714127
-0.074231416 0.05774478 0.044666238 0.0028737711 -0.012392369 0.043269955 0.016323777 0.047785226
-0.015082272 -0.031071158 0.011053962 0.0027662192 0.012585612 0.021261638 0.019143859 -0.05111844
-0.060283292 -0.055840306 0.04278475 0.013049488 -0.022961473 0.02706813 -0.06836858 0.006084295
0.055420954 0.07565431 0.055895235 -0.006603921 -0.012185032 0.059236426 -0.019734433 0.054010134
0.0009442215 0.004336464 -0.030047696 -0.012424408 -0.05909074 0.00036200078 -0.07068601 0.01988129
-0.030372964 0.023695545 -0.08658778 -0.039275333 0.05053674 0.060446396 -0.011595576 0.004464778
-0.019286633 0.027667288 0.019146502 0.0026979407 0.0020740605 -0.049463954 -0.0014872203 0.048529297
0.049486406 0.053307068 -0.030480174 0.034912158 -0.012884593 -0.080342 -0.015152456 0.037267618
-0.01597403 -0.0028098787 -0.005124721 -0.038714092 -0.0332166 -0.053334877 0.034746107 -0.048129283
0.02304979 -0.051725082 0.042308718 -0.013530783 -0.045284938 0.006567896 0.0012567223 -0.049180023
-0.03771771 -0.03766317 0.05254989 0.04122176 -0.0018964836 0.009080337 -0.060331628 0.055620547
-0.010970883 -0.031073933 0.01635632 -0.019799838 -0.05552403 -0.010729391 -0.018559389 0.042450663
-0.070768714 0.018758688 0.012066164 -0.034981046 0.005248651 0.057472676 0.055204395 -0.06136152
0.026082402 -0.046654996 0.02251744 0.021113882 -0.009482093 0.0412313 0.024224902 0.0016095018
0.013256111 -0.07142201 -0.055530578 -0.018960185 -0.060384613 -0.031980805 -0.032824714 0.049873132
-0.055921704 -0.05436679 -0.021743009 -0.02377168 -0.0037381398 0.047320634 0.015673589 -0.01685841
-0.038309608 -0.06210909 0.005618587 0.054003492 0.0008464836 -0.02541792 -0.027684994 -0.0006517154
-0.039639276 -0.024709553 -0.025778623 0.012166665 -0.056046072 -0.062082678 0.022014499 -0.056521468
0.034946438 0.058580425 0.022404278 -0.029359726 0.057967298 0.04213196 0.024399748 0.0078111435
-0.048284188 -0.027969332 -0.010507316 -0.010127056 -0.03577721 0.03174549 -0.0029208288 -0.024901474
0.010194802 -0.040797405 0.0013327928 0.03988001 0.027022844 0.036371518 -0.011529575 -0.017325832
0.0036714156 0.0013171798 0.028623093 -0.054635063 0.026723104 0.018924968 -0.05635016 -0.0509084
0.024903243 -0.054877505 0.05250317 -0.06958234 0.030747723 0.030013045 0.057006046 0.042529315
00000000: 8396 053d c8d2 08bd 8acf d03c 1a5b dc3c
00000010: f031 313d 41d8 ab3c 3e19 a2bd c2bf 57bd
00000020: e198 e83c 199f 0dbd 6f79 5e3c fa66 f13a
00000030: 24d0 1c3d 6ff9 0d3c 34f0 923c 3b1d a03c
00000040: 4e93 83bd 5aa8 6c3c c007 43bd 076b cabb
00000050: e61f 0e3d ef07 483d da88 b7bc c063 393d
00000060: 160a 053d 3f7b 5bbd e756 263d f6d9 2e3b
00000070: 36f9 32bc e52a 8dbc dff9 4d3d 408b 123d
00000080: ecd2 95ba 6119 4abd e104 753c 52c3 773d
00000090: 49e3 343d 0020 dfbb 9b08 58bc ee48 2c3d
000000a0: 64ba 27bd 4977 8dbc 8bff b7bb 7cef 56bd
000000b0: 49ac 873d dc8e 263d 24e7 fb3c 21d5 13bd
000000c0: ae30 09bd b5b3 6bbb 8250 4f3d b79a 083d
000000d0: d625 84bd 1b75 3f3d ddef 1abd b3cd 53bd
000000e0: e32e b9bc 6986 3e3c b794 9bbc e71e fdbc
000000f0: 322d 21bd b7d3 86bd 4baa 8f3c c127 ccbc
00000100: 8657 633c 83e4 79bd 1396 18bd 8ed3 383d
00000110: 9b55 693d d020 31bd b8c0 ba3c 2926 37bd
00000120: a406 98bd ca85 6c3d f2f3 363d e155 3c3b
00000130: 5d09 4bbc d63b 313d 71b9 853c 71ba 433d
00000140: a21b 77bc f188 febc ad1b 353c 7549 353b
00000150: e233 4e3c e32c ae3c 95d3 9c3c 9261 51bd
00000160: 9deb 76bd ceb8 64bd 103f 2f3d 85cd 553c
00000170: b319 bcbc fcbd dd3c d304 8cbd c45e c73b
00000180: 1501 633d a6f0 9a3d 67f2 643d b465 d8bb
00000190: baa3 47bc e5a1 723d 1baa a1bc bb39 5d3d
000001a0: a285 773a e618 8e3b 9626 f6bc bf8f 4bbc
000001b0: 2209 72bd ecca bd39 d4c3 90bd 16de a23c
000001c0: b9d0 f8bc 291d c23c ef54 b1bd 2cdf 20bd
000001d0: 9dff 4e3d a496 773d 5ffb 3dbc 464d 923b
000001e0: 00ff 9dbc 82a6 e23c 20d9 9c3c efcf 303b
000001f0: f6ec 073b b79a 4abd d5ee c2ba a8c6 463d
00000200: 42b2 4a3d 8358 5a3d 8fb1 f9bc 0d00 0f3d
00000210: e619 53bc 598a a4bd 0242 78bc eea5 183d
00000220: f8db 82bc f125 38bb 47ed a7bb ab92 1ebd
00000230: 210e 08bd ac75 5abd ef51 0e3d 3623 45bd
00000240: ead2 bc3c aedd 53bd e84b 2d3d 38b0 5dbc
00000250: b37c 39bd 8137 d73b 9ab8 a43a fe70 49bd
00000260: e37d 1abd b244 1abd 8e3e 573d 26d8 283d
00000270: 6e93 f8ba b2c5 143c 4c1e 77bd 5fd2 633d
00000280: 38bf 33bc c38e febc b0fd 853c 4533 a2bc
00000290: 2a6d 63bd 54ca 2fbc dc09 98bc bfe0 2d3d
000002a0: 30ef 90bd d2ab 993c 29b1 453c 4948 0fbd
000002b0: e0fc ab3b 7868 6b3d 011e 623d 3856 7bbd
000002c0: c3aa d53c 4f19 3fbd 7f76 b83c 05f7 ac3c
000002d0: c85a 1bbc 27e2 283d 4d73 c63c ebf5 d23a
000002e0: 2930 593c b445 92bd 0874 63bd 6452 9bbc
000002f0: db55 77bd 4efe 02bd 3573 06bd c547 4c3d
00000300: 280e 65bd b6af 5ebd 651e b2bc d4bc c2bc
00000310: 94fb 74bb 48d3 413d e665 803c a61a 8abc
00000320: 89ea 1cbd 1a66 7ebd 201c b83b c432 5d3d
00000330: 8ee6 5d3a 3e39 d0bc a4cb e2bc e1d7 2aba
00000340: cb5c 22bd b06b cabc b12d d3bc b156 473c
00000350: 9190 65bd 684a 7ebd c057 b43c 0e83 67bd
00000360: ff23 0f3d 07f2 6f3d 2d89 b73c cf83 f0bc
00000370: 1e6f 6d3d 9092 2c3d fbe1 c73c 9ff4 ff3b
00000380: a4c5 45bd f11f e5bc e126 2cbc f4eb 25bc
00000390: 208b 12bd 8f07 023d 606b 3fbb 2dfe cbbc
000003a0: 1908 273c 2e1b 27bd 1bb1 ae3a 3959 233d
000003b0: 035f dd3c 4dfa 143d 8be6 3cbc e7ee 8dbc
000003c0: 229c 703b 38a5 ac3a fa7a ea3c 04c9 5fbd
000003d0: 69ea da3c 8908 9b3c 6dcf 66bd 5485 50bd
000003e0: e301 cc3c 3cc7 60bd 900d 573d 3081 8ebd
000003f0: a6e2 fb3c ebdd f53c 2c7f 693d 3833 2e3d

network.4.bias f4 [128]
3.6921276e-06 -5.6537938e-05 -3.436117e-07 1.2260567e-05 -0.0001759234 -1.9017394e-05 2.367988e-05 -4.3817054e-06
5.1536676e-06 9.463283e-06 -1.3069119e-05 -0.00016540817 -3.9031045e-05 2.384033e-05 -1.7737219e-05 -3.2137632e-05
-4.5932393e-06 -0.00015787708 -3.9889655e-05 -4.4893743e-05 3.3094653e-05 -1.03553575e-05 -6.0558188e-05 5.877223e-05
-8.401475e-05 -0.00015859609 -0.00016317036 3.9370745e-05 0.00012949802 -4.6099158e-05 -1.2498347e-05 -4.7698428e-05
3.218416e-05 3.1718305e-06 2.3007285e-06 -6.193459e-06 -0.0001470891 -1.5792244e-05 -7.477983e-05 1.7336995e-06
6.085336e-05 -4.9420078e-06 3.2594853e-06 -4.5813213e-05 -4.975867e-05 -8.049074e-06 0.00013178764 -3.03742e-05
-5.1142462e-05 1.354033e-05 -6.277615e-05 -4.0479817e-06 -3.0472871e-05 -5.030522e-05 8.432644e-05 5.2167934e-07
3.757487e-05 -2.7484053e-05 6.9451708e-06 7.097118e-06 -2.4620835e-05 -5.1173192e-06 -0.00016169628 -2.7726712e-05
2.063792e-05 8.222952e-05 3.1662203e-05 0.00013955247 1.1448139e-05 -3.656114e-05 -4.9530205e-05 1.7022087e-07
-1.4459268e-05 -2.3247862e-06 1.1142028e-05 -2.4149535e-05 -4.230368e-06 -2.1465012e-06 1.639318e-05 8.05878e-05
2.0065072e-05 8.385413e-06 0.000108417225 0.0001594969 -6.885625e-05 -4.3446835e-05 1.286635e-05 4.311686e-05
-3.5214568e-06 5.536755e-05 4.333027e-05 -3.3293327e-06 -2.1760665e-05 3.0781907e-06 -2.2559905e-05 -5.6004013e-05
6.615587e-05 3.8682552e-05 4.902699e-05 7.758711e-05 -3.3405333e-05 4.336449e-05 -4.6109322e-05 -9.823157e-06
-0.00011762478 -2.1357866e-05 -6.855496e-06 -0.0001643408 4.5246867e-05 -8.6882155e-06 -0.00017234667 5.886175e-05
-1.0473523e-05 1.8684474e-05 -1.3802093e-05 0.00013787705 -0.00016702354 -4.2585718e-05 0.00012600402 5.9924505e-06
5.1391216e-06 -3.0568335e-05 -0.0001554462 5.3415348e-05 2.186619e-06 -0.00017380533 -8.7566405e-05 -5.9138158e-05
00000000: 45c6 7736 2623 6db8 a279 b8b4 bcb2 4d37
00000010: 1478 38b9 8b87 9fb7 28a4 c637 9006 93b6
00000020: abed ac36 7ec4 1e37 7043 5bb7 6b71 2db9
00000030: 44b5 23b8 b8fc c737 63ca 94b7 85cb 06b8
00000040: a01f 9ab6 ce8b 25b9 314f 27b8 4a4c 3cb8
00000050: 1dcf 0a38 ecbb 2db7 dcff 7db8 3482 7638
00000060: 1331 b0b8 d04c 26b9 b618 2bb9 0422 2538
00000070: dcc9 0739 985a 41b8 feaf 51b7 cc0f 48b8
00000080: 7bfd 0638 a2db 5436 3766 1a36 68d1 cfb6
00000090: ee3b 1ab9 9679 84b7 1ed3 9cb8 76b1 e835
000000a0: cc3c 7f38 86d3 a5b6 88bd 5a36 9027 40b8
000000b0: f7b3 50b8 820a 07b7 7a30 0a39 19cc feb7
000000c0: cd81 56b8 462b 6337 b0a6 83b8 e6d3 87b6
000000d0: fe9f ffb7 d2fe 52b8 6ad8 b038 8809 0c35
000000e0: b699 1d38 8e8d e6b7 900a e936 c823 ee36
000000f0: d788 ceb7 70b5 abb6 048d 29b9 a996 e8b7
00000100: 991f ad37 a372 ac38 08cd 0438 d554 1239
00000110: 6211 4037 3a59 19b8 a7be 4fb8 f5c5 3634
00000120: 1596 72b7 8603 1cb6 a5ee 3a37 bb94 cab7
00000130: 96f2 8db6 9c0c 10b6 1684 8937 3f01 a938
00000140: 6a51 a837 13af 0c37 0e5e e338 a03e 2739
00000150: eb66 90b8 af3a 36b8 8ddc 5737 60d8 3438
00000160: 2b52 6cb6 743a 6838 86bd 3538 806d 5fb6
00000170: ac8a b6b7 ea92 4e36 073f bdb7 dae5 6ab8
00000180: 2abd 8a38 133f 2238 54a2 4d38 43b6 a238
00000190: b41c 0cb8 44e2 3538 8265 41b8 23ce 24b7
000001a0: 53ad f6b8 ab29 b3b7 4308 e6b6 e652 2cb9
000001b0: 74c7 3d38 9ac3 11b7 f5b7 34b9 53e2 7638
000001c0: 70b7 2fb7 9abc 9c37 8a8f 67b7 1793 1039
000001d0: 0a23 2fb9 119e 32b8 f21f 0439 c212 c936
000001e0: b870 ac36 8036 00b8 46ff 22b9 4b0a 6038
000001f0: d4bd 1236 833f 36b9 dba3 b7b8 1d0b 78b8
