log_reg/models/tree_stem_failure_best.pth (torch, 389050 bytes, 25 tensors)

network.0.weight f4 [256, 179]
000000 cf 09 45 bd 3a 6c 77 3c 34 6f 83 3d ef 16 c5 bb
       -0.048105057 0.015101487 0.06417695 -0.006014697
000010 36 3e 22 3d 19 78 8c bd 09 ff be 38 a6 42 82 bc
       0.03961011 -0.06858844 9.10741e-05 -0.015900921
000020 f0 ba 41 bd da e9 99 3a bc fd 8a 3d 9c b4 6e 3d
       -0.047297418 0.0011742667 0.06786677 0.05827771
000030 7d 8e 64 3d f9 38 a9 3c a8 71 e0 3c 80 19 64 3d
       0.05579995 0.02065705 0.027397946 0.05568838
000040 0e 25 3e bd 0d 3c e7 bc 80 a3 85 3c f1 13 6c 3d
       -0.046422057 -0.028226877 0.016313314 0.057636205
000050 f0 ec 8a 3c e2 68 4c 3d 5d 56 26 3d 39 e1 c8 3a
       0.016958684 0.04990471 0.040609706 0.0015325911
000060 00 53 d4 bc be 17 81 3d 3c 21 65 bd e2 f4 c9 3c
       -0.025918484 0.063033566 -0.055939898 0.024652902
000070 0d 2f 32 3d 9c eb 8b bc 2d 9d a1 bd d2 f8 55 bd
       0.043501902 -0.01708012 -0.07891307 -0.052239247
000080 72 0a 4f 3d 54 f0 7f 3d c6 62 86 bd 41 22 72 bc
       0.05054707 0.062485054 -0.06561808 -0.014778675
000090 b8 39 8f 3b e6 0f 31 bc b6 94 0b 3d ab 2b 44 bd
       0.0043708943 -0.010807013 0.03407737 -0.047893208
0000a0 15 b4 a7 39 35 78 1c bd c2 d7 df bb 1b 09 23 bd
       0.00031986894 -0.038200576 -0.0068311403 -0.039803606
0000b0 bb ed 5c 3d f5 a8 36 ba 71 73 04 bd c2 3c 8d bd
       0.053937655 -0.00069679256 -0.032336656 -0.06896354
0000c0 27 25 6d bd 36 89 4c bd 99 e6 f1 3c 8c 9f 8e 3d
       -0.05789676 -0.049935542 0.029528903 0.06964025
0000d0 69 5a 6f 3d 7c 32 3c bd a0 2d bb 3c cb 85 11 bc
       0.05843583 -0.045946583 0.022848904 -0.008881996
0000e0 f5 12 22 3d 4a bb 04 bd f0 3b 82 bd 0f 03 88 3c
       0.03956886 -0.032405175 -0.063590884 0.016603021
0000f0 78 6e c2 3c ba 6b 24 bc 42 f1 77 bd c7 df 65 bc
       0.023734316 -0.01003545 -0.060532816 -0.014030403
000100 95 e9 c3 3b 65 b0 c9 b9 6d 70 8d 3d 18 ba 64 bc
       0.005978773 -0.00038469132 0.06906209 -0.013960384
000110 4e 0b 79 3c 6d 6a 2c bd 73 0c bf 3c 9b df 30 bd
       0.015200449 -0.042093683 0.023321366 -0.043181997
000120 de f7 03 3d 84 1f 30 bd 9c d9 4f 3c 43 9f 17 3d
       0.032218806 -0.042998806 0.012686159 0.03701712
000130 63 8b d2 bb 62 06 67 3d 80 0c 0e 3d 31 63 7a 3c
       -0.0064253076 0.05640257 0.03467989 0.015282438
000140 72 71 24 bd cf fe 80 bd 6e e4 3e bd 02 ae 5d bc
       -0.040147252 -0.06298601 -0.046604566 -0.013530256
000150 cb c5 21 3d 00 ec 26 3d a4 82 94 3b 94 e9 8c bd
       0.03949527 0.04075241 0.004532175 -0.06880489
000160 2f 63 5b bd ce ee 3f 3d 9e ba 93 bc e1 3d c0 3b
       -0.053561386 0.0468586 -0.018033322 0.0058667515
000170 b6 0b 8f 3d 9f d8 45 bd 68 0c 7d bd bb 7f c5 3b
       0.069846556 -0.04830229 -0.06177941 0.0060271895
000180 f5 11 9d 3d a7 e4 aa 3d f0 ba 8c bc eb 04 cf bb
       0.07669441 0.08344393 -0.017178982 -0.006317725
000190 c2 02 07 3b 0b 47 2b bd 11 81 eb bc 61 94 4a bd
       0.002060101 -0.0418158 -0.028748067 -0.04945791
0001a0 16 21 76 bd fd 34 33 3c b8 5b 82 bd f6 69 25 bd
       -0.060090147 0.010937926 -0.0636515 -0.040384255
0001b0 c8 e1 24 3d b8 50 eb 3c de 7c 85 b9 b5 83 2e bd
       0.040254384 0.028725013 -0.0002546077 -0.042606074
0001c0 4e f2 f9 bc 4b 98 42 bd db 8e 87 bd ba d3 19 bd
       -0.030511048 -0.04750852 -0.066190444 -0.037555434
0001d0 b1 a4 0e bd 33 c9 79 bd 42 44 f2 ba 7e c2 40 3d
       -0.03482503 -0.060982894 -0.0018483477 0.047060482
0001e0 28 85 96 bd ae db 65 3d 1d b5 eb 3c 8d 8d f8 bb
       -0.07349616 0.056117706 0.028772885 -0.0075852335
0001f0 8d cc 83 3b 64 30 07 bb 7d 07 9b 3b db d2 2d 3d
       0.004022187 -0.0020628208 0.0047311173 0.042437416
000200 99 23 3a bd 9a 2d 89 bd 25 e9 72 bd 13 d3 13 bc
       -0.045444105 -0.06698151 -0.059304375 -0.009022492
000210 a2 ed 5f bd 30 80 c2 3c 2e a5 a3 bc bd 15 90 3d
       -0.054669984 0.023742765 -0.019976225 0.07035396
000220 9d 8a 7b 3d 87 f2 e4 bc d0 34 89 bc 06 17 5c bc
       0.06141149 -0.027947677 -0.016748816 -0.013433224
000230 67 8f 02 bc 76 53 4a 3c d9 cb 79 bd 99 11 ec 39
       -0.00796876 0.012349 -0.06098542 0.0004502654
000240 b4 17 2a 3d 5a 24 c4 3c 59 33 81 bd 2c 89 70 ba
       0.04152651 0.023943115 -0.06308622 -0.00091757136
000250 5e c9 d0 3c c5 f6 12 3b 23 20 21 bd cb 46 b7 3c
       0.025486644 0.0022424918 -0.03933729 0.022372624
000260 0a 50 63 bd ad 50 0c 3d b7 65 17 3d 57 65 9a 3d
       -0.055496253 0.034256626 0.036962237 0.0753886
000270 7d 93 83 bc fa 5a 9b 3a 55 c8 95 bd 1b 78 1d 3d
       -0.016061539 0.0011852675 -0.07313601 0.03844462
000280 49 36 26 3d 39 a8 63 bd ec b7 84 3d a8 e9 d4 3c
       0.040579114 -0.05558035 0.06480393 0.025990322
000290 58 d0 01 bd 01 67 39 bc 58 22 7b 3d 68 a9 0a bd
       -0.031692833 -0.011316062 0.06131205 -0.033852965
0002a0 cb 7f 29 3c 75 a3 3e 3a 5c 2b 86 3c 49 f4 47 bd
       0.01034541 0.0007272282 0.016378097 -0.048816953
0002b0 22 63 8d bd 1b b5 29 bd 87 4b 7a 3b 49 e5 56 3d
       -0.06903674 -0.04143248 0.003819199 0.052464757
0002c0 a1 20 25 3b ad 91 54 3d 98 31 45 ba 12 c6 8e bc
       0.002519645 0.05189674 -0.00075223437 -0.017428432
0002d0 00 4c 95 bd 89 aa 8b 3d 5d 86 f1 bc ce e8 88 bd
       -0.072898865 0.068196364 -0.029483015 -0.06685029
0002e0 f5 83 6d 3d e2 ab 95 3d a0 cc 9b bd 94 b6 d3 3b
       0.057987172 0.07308175 -0.076073885 0.006460974
0002f0 af ba 64 39 79 24 b9 3c be 6a 37 bd e8 4c 58 3d
       0.0002181332 0.0226004 -0.04477953 0.05280772
000300 a4 86 f0 bb 03 bd 44 bd eb 56 de 3c 0f 47 d4 3c
       -0.007340269 -0.048031818 0.027141055 0.02591279
000310 28 55 07 bc eb 37 10 3d 41 30 44 3d fa 53 99 bd
       -0.008260049 0.035209578 0.04789758 -0.074867204
000320 0f 0b e7 3c 3a 1e 3e 3a 7e af 97 bd 98 af 97 3d
       0.028203515 0.0007252429 -0.07406519 0.07406539
000330 08 6a 04 3c b7 a0 8c ba 7c d3 a5 bd 8c 50 bc 3b
       0.00808192 -0.0010729049 -0.08096978 0.0057469066
000340 e5 17 b5 bb 45 10 b4 3b 20 db eb bb 82 02 c0 bc
       -0.00552653 0.0054951035 -0.0071977526 -0.023438696
000350 e7 4f 15 bd b2 b7 d0 3b 06 53 4b bd 8d 3b 82 bc
       -0.036453154 0.0063695544 -0.049639724 -0.015897537
000360 a8 f8 74 38 5d 5e 7a bd 45 38 80 3c 76 06 94 ba
       5.8405712e-05 -0.061125148 0.015651831 -0.0011293429
000370 40 9b ff bc 94 53 18 3d 67 04 81 bd b3 df 4e 3d
       -0.031201959 0.03718908 -0.06299668 0.050506305
000380 1c fd a2 ba 87 df 21 3d f8 c7 4f 3d cd 55 08 bd
       -0.0012435052 0.039519813 0.050727814 -0.03328495
000390 5e 92 17 bd 8b 43 46 3d fd f9 73 bd 6b 59 ab 3c
       -0.03700482 0.048404258 -0.05956458 0.020916661
0003a0 af d0 88 3d 8a e2 0e bd 77 4b 6f 3d 38 4e 0e 3d
       0.06680428 -0.034884013 0.05842158 0.034742564
0003b0 78 38 03 3c f5 45 3d 3d 18 c7 ba bc 66 4d 2e bd
       0.008009069 0.046209294 -0.022800013 -0.04255428
0003c0 ca cd 70 bd c8 3c 37 3d bb be 93 bc 4a fd 6a 3d
       -0.058790006 0.0447357 -0.018035283 0.05737046
0003d0 27 31 ab bb 60 42 39 bd f3 6a 45 bd c0 e0 74 b8
       -0.0052243653 -0.045229316 -0.048197698 -5.8383448e-05
0003e0 1b 23 cc 3c 18 b0 b7 3c 5b 4c 4b bd 7f 6a 7d 3c
       0.024919083 0.022422835 -0.049633365 0.015467285
0003f0 bd dd 94 bc 80 f1 20 3d 34 1f 3f bd 32 ee b9 bb
       -0.01817214 0.039292812 -0.046660617 -0.005674147

network.0.bias f4 [256]
000000 18 41 8c 3a e4 c0 2d bb a7 08 92 3c 48 be a0 39
       0.0010700552 -0.0026512677 0.017826391 0.0003065935
000010 53 d9 9f 3a 97 80 f8 b9 b6 c0 74 3a fc 44 8d 3b
       0.0012195505 -0.00047398053 0.00093365775 0.004311202
000020 ea ca 4c 3c 52 ab 83 3a ca d7 52 3a 46 8c 18 3a
       0.01249955 0.0010045564 0.00080430193 0.0005819242
000030 bf b4 a4 b8 89 9e 86 39 c0 14 96 37 a9 01 e2 39
       -7.853796e-05 0.0002567659 1.7891056e-05 0.00043107316
000040 25 f7 97 37 49 82 77 b9 07 79 2d 38 1e b7 6a bc
       1.8115688e-05 -0.0002360429 4.135913e-05 -0.014325885
000050 91 32 2e bc 98 58 fd b8 1a 36 74 39 6c dc 9d 39
       -0.010632173 -0.00012080482 0.00023289808 0.000301096
000060 05 b8 c3 b7 9d 10 52 3c df 95 99 3a df 8d 09 3a
       -2.3331502e-05 0.012821344 0.0011717639 0.00052472757
000070 65 57 c5 bb 0f 18 1d 3c 80 02 b7 b7 30 b2 92 3b
       -0.006022381 0.009588256 -2.1816464e-05 0.004476808
000080 2f ce 15 b9 b5 61 9b ba b0 3f ae 36 ea c1 2b 3c
       -0.00014286557 -0.001185468 5.1930183e-06 0.010483244
000090 0a b6 7f bb 2c da 7e ba 04 e7 9b ba 6e 8e 98 bc
       -0.0039018416 -0.0009721841 -0.001189441 -0.018622603
0000a0 e2 c9 5d bc 44 69 e2 ba d0 26 fe 3b 2c fe 9a 38
       -0.013536902 -0.0017273803 0.0077560917 7.3906354e-05
0000b0 32 16 50 ba d8 ec 75 3c 7f 53 46 b8 30 a7 ab b7
       -0.00079378777 0.015010081 -4.728464e-05 -2.0462641e-05
0000c0 89 e7 59 3c 00 2f 93 b8 9f bc 9e 3a e7 0a 1c b9
       0.013299831 -7.018261e-05 0.0012110657 -0.00014881381
0000d0 f7 3a e0 b9 f6 18 06 38 77 e3 25 39 9f ba 83 ba
       -0.00042768542 3.1971336e-05 0.00015820363 -0.0010050124
0000e0 fe d6 95 bc 78 59 fd 39 74 df 9f ba 84 30 33 b9
       -0.018290993 0.0004832258 -0.0012197332 -0.00017088844
0000f0 66 9f 97 bc 14 6b 9a b9 ae 32 22 3a b8 28 be 39
       -0.018508624 -0.00029452948 0.00061873614 0.00036269962
000100 55 e3 29 ba 25 26 04 ba dc fa a4 3c 33 83 86 3c
       -0.00064807135 -0.00050410844 0.02013915 0.016419983
000110 7e 8f d0 bb 28 b5 fa 39 0c 97 52 38 e8 9d 69 bc
       -0.006364762 0.00047818688 5.0208575e-05 -0.014258839
000120 d0 a4 10 b8 39 ba 42 b9 42 78 ec 3b 7f b2 e9 3b
       -3.448577e-05 -0.00018570655 0.0072164843 0.007131874
000130 d3 22 8c bb ae 31 a1 3b 85 47 69 b9 0c cd 20 3b
       -0.0042766123 0.0049192524 -0.00022247255 0.002453628
000140 1e 5a 8e 39 22 c3 5f b9 a7 e4 a2 3a 7e 97 7e b8
       0.00027151493 -0.0002133963 0.0012427763 -6.0699407e-05
000150 24 3f 84 3c 01 9e 9c 3a 08 6e 8f 39 fa ef bf ba
       0.016143389 0.0011948944 0.00027357065 -0.0014643662
000160 b0 f4 03 ba 25 ae 95 ba 32 28 86 bc 2e 1e 12 39
       -0.00050337147 -0.0011419697 -0.016376588 0.00013934888
000170 fc 7f 67 39 e6 c2 fb bb f1 08 b9 3b 1c 7f 27 b9
       0.00022077555 -0.007683146 0.005646818 -0.00015973713
000180 e4 4d 05 bc 66 34 04 ba bc 82 45 39 8f b1 05 ba
       -0.008136246 -0.00050432084 0.00018836086 -0.00051000057
000190 2c a2 8c 3c c2 6b 70 3a 85 cf c7 b9 6c 54 46 3c
       0.017167173 0.00091713306 -0.00038110852 0.012105089
0001a0 07 6e 8a b9 ee 9c fd 38 8a 83 e1 b9 fe ac 15 39
       -0.00026403388 0.000120932105 -0.00043013348 0.00014274192
0001b0 de 73 87 bc 8b 14 77 3c b8 4b a3 ba 6a 28 84 38
       -0.016534742 0.015080581 -0.0012458479 6.301778e-05
0001c0 57 bb 89 3c 20 73 e0 b9 54 1c 1a 38 3b 79 90 39
       0.016812963 -0.00042810384 3.6742844e-05 0.00027556144
0001d0 ae 3d 35 b9 60 b0 d5 37 de d8 04 bb ba c2 3c 39
       -0.00017284483 2.547371e-05 -0.0020270864 0.00018001618
0001e0 4d 78 a1 bb e5 c1 a8 3a 09 b2 58 3a 22 bb 0f 3c
       -0.004927671 0.0012875168 0.00082662754 0.008772643
0001f0 a7 3e f0 b8 d4 26 8f 37 7f e0 a7 38 b9 43 a6 3c
       -0.00011455762 1.706501e-05 8.004996e-05 0.020295965
000200 92 23 b1 39 68 af 3e bc 84 ce 0b 39 e6 6c ab 39
       0.00033786573 -0.0116385 0.00013333006 0.00032696797
000210 7f 1b a9 38 28 91 05 ba af a2 8a 3c f6 89 70 bb
       8.0636695e-05 -0.00050951773 0.016923277 -0.0036703325
000220 a2 22 c7 b9 e4 dc 45 3c b2 5c a3 b7 60 53 7d 37
       -0.0003798204 0.01207659 -1.9474279e-05 1.5099387e-05
000230 bf 84 2d bb 6e 98 3f b8 fe f2 f4 39 31 de f7 3a
       -0.0026476828 -4.567991e-05 0.0004672035 0.0018910823
000240 7b 3b e8 39 6e 3e 4e 3c 98 3d a1 ba 30 42 d4 39
       0.00044294805 0.012588127 -0.0012301682 0.00040485105
000250 30 f7 a2 38 da 0e a1 3a 5d 10 06 b9 f6 f9 9b 3c
       7.770804e-05 0.0012287751 -0.00012785332 0.01904009
000260 b0 bc 56 39 02 f7 f3 b9 be 4e d7 b6 34 95 0c ba
       0.00020478922 -0.00046532607 -6.416666e-06 -0.0005362809
000270 63 9c c4 38 96 66 78 39 a9 38 b0 39 68 47 82 b9
       9.3751376e-05 0.0002368934 0.0003361155 -0.00024848734
000280 fa 1d 1c 3b dc 67 81 bc 72 e2 9d 3b 95 de 15 b8
       0.0023821578 -0.015796594 0.004818254 -3.5731664e-05
000290 8a 51 07 3a 6c 01 a1 ba 4e da 99 3b a2 64 e3 b7
       0.00051619916 -0.0012283749 0.0046952134 -2.710737e-05
0002a0 f5 5c 9a 3a 41 ce 98 ba fe 2b 79 3c 26 4f b8 3b
       0.0011776971 -0.0011658148 0.015208242 0.0056246696
0002b0 46 41 8b 39 d0 d4 26 b8 91 82 85 ba 98 af 45 3c
       0.00026560778 -3.977568e-05 -0.0010186007 0.012065791
0002c0 ed d9 84 b8 06 9a 80 bc 74 03 08 38 8d 9f 6f bc
       -6.334842e-05 -0.015698444 3.2428143e-05 -0.014625442
0002d0 ea 8b 17 3b e8 66 02 3a 1d 16 a6 ba 7c bb a7 b8
       0.0023124167 0.00049744407 -0.0012671385 -7.998102e-05
0002e0 d7 f4 34 39 a1 ce a0 38 9c 14 9c bc 76 ea 5d 3c
       0.00017257348 7.667882e-05 -0.019052796 0.013544669
0002f0 98 21 be 39 e8 87 39 3c 96 17 a4 ba c0 d7 9d 3a
       0.00036264653 0.0113239065 -0.0012519236 0.0012042448
000300 e9 a2 58 bc c3 41 f4 38 07 e9 99 3a e8 af 64 39
       -0.013222435 0.00011647076 0.0011742421 0.00021809305
000310 4c e2 62 3a 60 b7 a1 3a 6c 6f ff b7 30 27 9e bc
       0.00086549367 0.0012337975 -3.0450254e-05 -0.019305795
000320 64 29 a9 bb 6f 53 aa 39 b8 68 dd b5 23 ec 12 3a
       -0.005162405 0.0003248709 -1.649626e-06 0.0005604645
000330 ac 88 74 bc 0b 33 5c 3b 77 b0 5b bc 0a 48 4b 3c
       -0.014925163 0.003359976 -0.013408772 0.012407312
000340 72 16 32 3b c6 f5 34 38 30 dc 4c 3c 64 4d 21 3a
       0.0027174023 4.314424e-05 0.012503669 0.00061531947
000350 05 09 1c b8 c3 54 a8 3c c5 7d 77 3c aa 40 93 bc
       -3.72017e-05 0.02054823 0.015105669 -0.01797517
000360 98 f9 ef bb cc 10 de b8 27 69 97 3c 2d a2 9d 3a
       -0.007323455 -0.000105889136 0.018482758 0.0012026482
000370 48 d8 64 ba d0 30 83 b9 24 3a 6c b9 27 17 3f 3a
       -0.0008729738 -0.00025022635 -0.00022528373 0.0007289522
000380 a9 2d ff 39 a5 aa 80 3c c9 95 a6 3a a6 12 6a 37
       0.0004867141 0.01570637 0.0012709434 1.3951829e-05
000390 ed c5 85 3a 63 8c 4c bc 19 1a 9f 38 80 7d 48 ba
       0.0010206081 -0.012484643 7.586572e-05 -0.00076480955
0003a0 03 63 d5 bb 81 6f 06 3a bf d6 4c 3c 6e 21 b4 39
       -0.0065120473 0.000512831 0.012502371 0.00034357182
0003b0 ce da 8d bb f0 4d 94 bb 74 7f a8 ba 80 37 9c b7
       -0.004329062 -0.0045258924 -0.0012855367 -1.8622493e-05
0003c0 0c 31 8e 3c 2f 7f 3e bb 55 d9 e0 3b 26 bb 7c 39
       0.017357372 -0.0029067507 0.0068618455 0.00024102311
0003d0 e7 e5 1e bb 0e c8 a1 3a 71 79 ee 39 3d b8 00 b9
       -0.002424592 0.0012342946 0.00045485378 -0.00012275665
0003e0 4e f5 91 3c 64 58 f0 bb c8 3a 1e 37 fb d4 bb b8
       0.017817166 -0.0073347557 9.43122e-06 -8.9565256e-05
0003f0 2b 77 c5 b9 dc 00 61 b9 22 a2 a2 ba f7 60 99 ba
       -0.00037663555 -0.00021457992 -0.0012407938 -0.0011701871

network.1.weight f4 [256]
000000 4f 1d 7b 3f 94 fc 7f 3f 60 2c 82 3f be 34 7d 3f
       0.98091596 0.9999478 1.0169792 0.98908603
000010 8b c9 7e 3f 46 e8 7e 3f 38 f1 7e 3f ec 5e 7f 3f
       0.9952628 0.9957317 0.9958682 0.99754214
000020 9e af 80 3f 35 d3 7e 3f 9e 8e 80 3f 6e fb 7e 3f
       1.0053594 0.99541026 1.0043523 0.996024
000030 b2 7a 7c 3f a9 80 7f 3f 8d ea 7f 3f da f9 7e 3f
       0.9862472 0.99805695 0.9996727 0.99599993
000040 f1 46 7e 3f b8 1c 7c 3f 36 27 80 3f a2 43 7f 3f
       0.99327 0.9848132 1.0011966 0.99712574
000050 3e 4b 7d 3f a9 19 83 3f 6c c1 80 3f c3 f7 7a 3f
       0.98942935 1.0242206 1.0059028 0.98034304
000060 5a cf 7f 3f 61 c6 80 3f 5c 7d 80 3f 58 a1 80 3f
       0.9992577 1.006054 1.0038257 1.0049238
000070 50 b6 83 3f 29 2b 7f 3f f7 34 80 3f bc 46 7e 3f
       1.0290012 0.9967523 1.0016164 0.9932668
000080 ca 7a 7c 3f 14 c5 7b 3f a9 50 80 3f be 7e 7f 3f
       0.9862486 0.9834759 1.0024616 0.9980277
000090 50 f4 7e 3f d8 d9 7e 3f 16 03 80 3f 21 fe 7f 3f
       0.9959154 0.99551153 1.0000942 0.99997145
0000a0 41 08 80 3f b9 f6 82 3f 2f f1 80 3f b0 64 7d 3f
       1.0002519 1.0231544 1.0073603 0.9898176
0000b0 1f a7 7a 3f be e9 7e 3f 88 fe 80 3f 32 bc 81 3f
       0.97911257 0.9957541 1.0077677 1.0135558
0000c0 5a a6 80 3f 89 b6 81 3f 0d 3f 7f 3f b1 5c 81 3f
       1.0050766 1.013383 0.9970558 1.0106412
0000d0 ef 48 7b 3f 1b 65 7d 3f 2f 21 80 3f 20 02 80 3f
       0.9815816 0.989824 1.0010127 1.0000648
0000e0 72 24 7e 3f 42 f2 7f 3f 5b 5d 7f 3f ec a2 80 3f
       0.9927436 0.9997903 0.99751824 1.004972
0000f0 76 d3 81 3f 4b 46 7f 3f 1b 30 81 3f 91 31 7d 3f
       1.0142658 0.99716634 1.0092806 0.9890376
000100 71 bc 7e 3f 77 4d 81 3f 80 73 7d 3f 71 24 81 3f
       0.9950629 1.0101765 0.99004364 1.0089246
000110 df a8 7d 3f 43 6e 7d 3f 31 ae 81 3f 80 ef 7d 3f
       0.990858 0.9899637 1.0131284 0.99193573
000120 f2 42 7f 3f 85 5c 81 3f ea 3a 81 3f 64 0f 7d 3f
       0.99711525 1.010636 1.0096104 0.9885161
000130 5c eb 7d 3f a3 7c 82 3f d1 8d 7e 3f 08 58 82 3f
       0.99187255 1.0194286 0.99435145 1.0183115
000140 ae f3 7c 3f e8 b9 80 3f 5a 28 81 3f 48 0f 80 3f
       0.98809326 1.0056734 1.0090439 1.0004663
000150 25 a3 7f 3f ee 15 81 3f 59 ef 79 3f a1 86 7e 3f
       0.99858314 1.0084817 0.9763084 0.9942418
000160 6c 08 81 3f a9 5a 81 3f 12 6c 80 3f ad 64 80 3f
       1.0080695 1.0105792 1.003298 1.0030724
000170 03 76 81 3f 1f 27 81 3f 72 28 7d 3f 8f c3 80 3f
       1.0114139 1.0090064 0.9888984 1.005968
000180 65 8d 80 3f 4d b3 7f 3f 73 6d 80 3f b9 3e 81 3f
       1.004315 0.99882966 1.0033401 1.0097266
000190 80 23 82 3f 54 19 7e 3f 42 1b 81 3f 62 f9 7d 3f
       1.0167084 0.992574 1.0086443 0.9920865
0001a0 3a 1e 7e 3f d8 09 80 3f e6 44 7d 3f d7 c7 7b 3f
       0.9926487 1.0003004 0.98933256 0.98351806
0001b0 f2 2d 7d 3f aa 40 82 3f dc d7 81 3f ca b6 80 3f
       0.9889823 1.0175984 1.0144 1.0055783
0001c0 89 b0 80 3f bd ab 7c 3f 57 82 7f 3f 43 fd 7e 3f
       1.0053874 0.9869955 0.9980826 0.99605197
0001d0 72 da 7c 3f 20 4d 80 3f 8c 40 7b 3f f7 cc 80 3f
       0.9877082 1.0023537 0.98145366 1.006255
0001e0 4a 90 7e 3f c1 e0 7b 3f 3a 63 7a 3f 47 ac 7e 3f
       0.9943892 0.9838982 0.9780766 0.99481624
0001f0 5c 92 80 3f d4 1b 7d 3f 0d af 7e 3f 4d 75 81 3f
       1.0044665 0.9887059 0.99485856 1.0113922
000200 55 8b 80 3f 65 38 7c 3f ce 6c 7e 3f 5d 1d 80 3f
       1.0042521 0.9852355 0.9938477 1.0008961
000210 ef 28 7b 3f 4d 12 7f 3f 93 e2 7e 3f 87 18 7d 3f
       0.98109335 0.996373 0.99564475 0.9886555
000220 be fb 7b 3f a3 16 7d 3f e5 f8 7f 3f ea 3f 82 3f
       0.98431003 0.98862666 0.9998916 1.0175755
000230 b7 b7 80 3f be 08 7c 3f 7b 9e 81 3f 3a 5d 7f 3f
       1.0056065 0.9845084 1.0126489 0.9975163
000240 e2 ad 7c 3f e6 4d 80 3f 9e 0a 7f 3f 47 6d 7b 3f
       0.98702824 1.0023773 0.99625576 0.9821362
000250 5c 57 81 3f 80 3f 81 3f 34 2d 7f 3f 15 3b 7f 3f
       1.0104785 1.0097504 0.9967835 0.9969953
000260 5f 94 7c 3f 68 8a 7e 3f c3 d3 7d 3f 80 c6 7d 3f
       0.98663896 0.9942994 0.9915125 0.9913101
000270 72 2a 7f 3f 30 8d 7c 3f 4f c6 80 3f 0a c6 7b 3f
       0.9967414 0.98652935 1.0060519 0.9834906
000280 35 34 7f 3f 98 4b 7e 3f 9f 3d 81 3f d1 8e 7e 3f
       0.99689037 0.99334097 1.009693 0.9943667
000290 49 05 81 3f 14 08 80 3f ff b5 7e 3f 0b e6 7f 3f
       1.0079738 1.0002465 0.99496454 0.9996039
0002a0 33 b0 80 3f d2 6c 83 3f 10 b0 7e 3f f7 9f 7e 3f
       1.0053772 1.0267584 0.994874 0.99462837
0002b0 ac 5c 80 3f cf d8 83 3f e3 9d 81 3f f3 58 7b 3f
       1.0028281 1.030054 1.0126308 0.981826
0002c0 4f 90 82 3f 61 a2 7c 3f ba a0 7f 3f d3 3a 80 3f
       1.020029 0.9868527 0.99854624 1.0017952
0002d0 c6 ab 7e 3f 1a 9b 80 3f a8 f7 80 3f b2 38 82 3f
       0.99480855 1.0047333 1.0075579 1.0173552
0002e0 29 c6 80 3f d0 75 82 3f 43 53 7f 3f 82 ed 7d 3f
       1.0060474 1.0192204 0.9973642 0.99190533
0002f0 51 bd 7e 3f f8 03 80 3f 48 89 81 3f 8c b8 7f 3f
       0.99507624 1.0001211 1.012002 0.9989097
000300 99 56 80 3f 99 1a 7c 3f a4 b1 81 3f 09 d0 80 3f
       1.0026428 0.98478085 1.0132337 1.0063487
000310 f4 15 7e 3f 2a 4d 7c 3f 9d 93 7b 3f 81 80 7f 3f
       0.9925225 0.98555243 0.98272115 0.99805456
000320 a4 47 7d 3f 47 f8 7f 3f 06 da 7e 3f 49 21 7d 3f
       0.9893744 0.99988216 0.9955143 0.98878914
000330 7c 26 81 3f bd f5 7e 3f 79 41 81 3f 6d be 7e 3f
       1.008987 0.99593717 1.0098106 0.99509317
000340 93 f8 7c 3f dd c6 7d 3f 9a 75 7f 3f 2f 0f 80 3f
       0.98816794 0.99131566 0.9978882 1.0004634
000350 e7 df 82 3f 40 35 80 3f 1d 43 81 3f df 71 80 3f
       1.022458 1.0016251 1.0098606 1.0034751
000360 ca 31 7f 3f 50 de 7d 3f 5d a5 80 3f 60 39 80 3f
       0.9968535 0.99167347 1.0050465 1.001751
000370 1d b5 81 3f b9 f4 80 3f e2 c3 80 3f e0 ae 81 3f
       1.0133396 1.0074683 1.0059779 1.0131493
000380 11 58 80 3f a8 4a 7e 3f fa 20 81 3f 4a a0 7f 3f
       1.0026876 0.99332666 1.0088189 0.99853957
000390 d3 1c 7d 3f 4c 97 7f 3f ef fb 80 3f 65 ad 80 3f
       0.9887211 0.99840236 1.0076884 1.0052916
0003a0 23 9e 7f 3f 82 7f 7f 3f d0 8d 7f 3f 14 4e 81 3f
       0.9985067 0.99803936 0.99825764 1.0101953
0003b0 7b b9 80 3f 9e 3e 80 3f 7b 74 7b 3f 15 2e 7b 3f
       1.0056604 1.0019109 0.9822461 0.9811719
0003c0 2d 5d 7e 3f 92 8a 81 3f d0 3a 80 3f aa a9 7d 3f
       0.99360925 1.0120413 1.0017948 0.9908701
0003d0 74 dc 80 3f 38 4e 7c 3f d6 ca 80 3f c1 a1 81 3f
       1.0067277 0.9855685 1.0061901 1.0127488
0003e0 bc 24 7f 3f e3 d2 7d 3f a5 ad 80 3f 09 8c 7a 3f
       0.9966543 0.9914991 1.0052992 0.97869927
0003f0 5a d4 7f 3f fa 32 7c 3f 62 d2 7f 3f 3b 73 80 3f
       0.999334 0.98515284 0.99930394 1.0035166

network.1.bias f4 [256]
000000 74 c8 85 bc d6 de c5 3a 12 36 c9 3c 96 cb c5 bb
       -0.016330935 0.0015096318 0.024561916 -0.006036232
000010 80 f9 bf ba c8 3f f8 bb a0 cc 42 bb 6f bb cb 38
       -0.00146465 -0.0075759627 -0.0029724017 9.7147065e-05
000020 99 3c 7b 3c 85 81 0c bc 2c 20 49 3c 31 c3 98 bb
       0.015334272 -0.008575802 0.012275737 -0.0046619405
000030 4e 4f 76 39 cd 04 0d bc 52 f3 51 3b cc bd 81 3a
       0.00023489931 -0.008607102 0.00320359 0.0009898483
000040 c0 3e 0f 3c df f6 5c 3b 8f 82 b9 3a 98 32 0c 3c
       0.008742988 0.0033716483 0.0014153289 0.008556984
000050 2e 03 16 bc b1 a0 a4 3c d6 4c 8e 3c 86 e1 6a bc
       -0.0091560315 0.020096155 0.017370623 -0.014335996
000060 6a a1 c5 bb b0 20 42 3b a2 77 3f 3c b0 74 22 3c
       -0.006031205 0.0029621534 0.0116862375 0.009915516
000070 19 b8 8a 3c 37 dc 6f bb 51 53 26 3b 13 be 2f bc
       0.016933488 -0.0036599764 0.002537925 -0.01072647
000080 c8 9a 4e bc 60 64 3d bc fe ad f1 39 a3 6d 19 3c
       -0.012610145 -0.011559576 0.00046096736 0.009364518
000090 ab 54 d1 bb 9f eb ce 3a 66 02 82 ba 3f 30 af 3b
       -0.006388267 0.0015786773 -0.0009918928 0.0053463276
0000a0 66 95 a7 ba 75 72 92 3c f2 dd 83 3b e9 4d 87 bc
       -0.0012785613 0.017876843 0.0040242607 -0.016516643
0000b0 96 a9 2d bc 32 6c 03 3c e2 7b 92 3c 9a c2 29 3c
       -0.0105995145 0.008021401 0.017881338 0.010361338
0000c0 42 21 1b bb 01 b8 96 3b c4 a6 9d 3b 41 a6 27 3c
       -0.0023670946 0.0045995717 0.00481114 0.010232509
0000d0 31 6b 3c bc d8 40 81 bb e0 e3 6d ba 28 47 e9 b9
       -0.011500166 -0.0039444976 -0.00090747885 -0.0004449424
0000e0 ab da 5e bc 7f 99 42 3b 26 e5 ae 3a 74 38 49 bc
       -0.013601939 0.0029693542 0.0013343438 -0.012281526
0000f0 59 ad 87 3c 98 8a 3d 39 04 10 4b 3c 59 40 97 bb
       0.01656215 0.00018076075 0.012393955 -0.004615825
000100 b3 22 ef bb 04 a8 69 3c da 95 3a bc 8a de 8c 3b
       -0.0072978376 0.014261249 -0.011388266 0.0042989897
000110 4b 54 9d 3b 2d a9 31 bc d5 7b 39 3c 4f 29 12 3b
       0.0048013083 -0.010843557 0.011321028 0.0022302454
000120 54 47 2a 3c 8f 72 61 3b 30 37 00 bc a5 12 13 bc
       0.0103929825 0.0034400558 -0.007825658 -0.008976613
000130 7e 9f 96 bb a3 ac 8c 3c a0 f3 33 3b fc e0 a9 3c
       -0.0045966497 0.017172163 0.0027458444 0.020737164
000140 a0 b6 27 3c 9d ab 0b bc 8f 68 a3 bb 65 1c af 3b
       0.010236412 -0.0085248025 -0.0049868296 0.005343961
000150 b3 a0 5a bb 86 ab 82 bc 4a 27 83 bc 2e b8 82 3b
       -0.0033359944 -0.01595093 -0.016009945 0.003989241
000160 20 de 84 3a c0 22 b1 37 41 31 5a bb c6 17 53 39
       0.0010136999 2.1116226e-05 -0.0033293518 0.00020131384
000170 be d9 fb 3b e1 a8 ac 3b b0 29 75 bb b9 cb b4 3b
       0.007685869 0.0052691554 -0.003740888 0.0055174497
000180 1d b1 99 3a b5 f9 b1 ba de ed 50 3c 40 1a c4 37
       0.0011725758 -0.0013578447 0.012752024 2.3377244e-05
000190 78 15 0c 3c 45 df b2 bb d1 f2 b7 3c 54 24 e0 bb
       0.00855004 -0.0054587447 0.022454651 -0.006840268
0001a0 b6 b3 43 bb de 58 98 bb 5c d4 f4 bb a1 fb 88 bc
       -0.0029861755 -0.0046492657 -0.0074716043 -0.016721549
0001b0 6f 85 a5 bb 77 92 88 3b 1a c0 87 3c 92 7f 3e 3c
       -0.005051307 0.0041678506 0.016571093 0.011627095
0001c0 43 c2 1f 3b 07 fc b0 bc 8e 5d 38 ba f8 47 db ba
       0.0024377264 -0.021604551 -0.00070329837 -0.0016729822
0001d0 39 93 e8 bb 58 cf 91 3b 94 d2 bb bb d3 8a dc 3b
       -0.0070976284 0.004449766 -0.00573189 0.0067304163
0001e0 89 a3 0b 3b 57 83 8e bc 0f 99 93 bc bb d2 bc 3b
       0.0021307191 -0.017396612 -0.01801732 0.0057624257
0001f0 82 d0 9a 3b d0 fa ae ba 07 1a bd bc d3 40 79 3c
       0.004724563 -0.0013349894 -0.0230837 0.015213209
000200 7c b6 c9 3b 1c c5 00 3b 8e 0a 2c 3b 3b b0 13 bc
       0.006155787 0.0019648736 0.0026251408 -0.009014185
000210 1f 84 2a bc ea d6 07 bc 25 66 c7 ba b4 c1 c4 3b
       -0.010407477 -0.008290986 -0.0015212937 0.0060045365
000220 88 d7 a6 bc 86 67 2f bb 63 6a 27 bc 88 32 9e 3c
       -0.020366445 -0.0026764586 -0.010218236 0.019311205
000230 5a 74 29 3c ee 4e 8e b8 7e 49 37 3c 76 9a 58 bc
       0.010342682 -6.7857894e-05 0.0111869555 -0.01322042
000240 4b 3b 09 bc c6 cf 80 3b 52 48 b9 38 f7 08 7d bc
       -0.008375953 0.0039310185 8.834958e-05 -0.015444032
000250 7b d7 27 3c 25 20 95 3c 57 2c 33 bb ad 34 7d ba
       0.010244246 0.018203804 -0.002733966 -0.00096590334
000260 66 2c 81 bc 84 53 01 3b 0b 9a c4 bb a1 d1 09 bc
       -0.015768241 0.0019733617 -0.0059998087 -0.008411796
000270 f0 72 d3 38 15 d8 21 bc 7f 32 f5 3b d3 74 f2 bb
       0.00010082673 -0.009878178 0.0074828262 -0.0073991804
000280 66 ca 44 3c 54 3b c8 bb c1 0a 41 3c 66 26 d5 bb
       0.012011146 -0.006110588 0.011782349 -0.0065048216
000290 3f 20 90 3c d1 2d 8b bb ff 6d 39 3b 2f b6 3f bc
       0.017593501 -0.004247405 0.0028294323 -0.011701151
0002a0 19 50 26 3c f6 a8 bb 3c 92 85 4f bc 38 0b 8f bb
       0.010150933 0.022907715 -0.012666123 -0.004365351
0002b0 8c 00 10 3c 45 51 fa 3c 6a c7 2c 3c 56 91 4e bc
       0.008789193 0.03055633 0.010545591 -0.012607893
0002c0 ca e1 24 3c be 24 24 bb 6f eb 0f b9 5c 8e 8d 3b
       0.010063598 -0.0025046314 -0.00013725249 0.004319949
0002d0 d3 a0 00 bc 40 08 1b b8 db f0 07 3c c4 a8 3b 3c
       -0.0078508435 -3.6962563e-05 0.0082971705 0.011453811
0002e0 8c 17 b2 3b 29 79 42 3c 2b 2b 83 ba 23 9a 14 bc
       0.005434936 0.011869707 -0.0010007372 -0.009069952
0002f0 4a de 03 bc f2 09 95 3b 0f 72 4e 3c 6a 36 bf ba
       -0.008048603 0.0045483047 0.012600436 -0.001458836
000300 28 d0 98 bb 86 89 4f bc ff 45 67 3b e1 3d a6 3b
       -0.004663486 -0.0126670655 0.0035289524 0.0050732945
000310 06 c0 63 bc 48 fe 25 3c 77 6e 80 bc 5e e3 01 bb
       -0.013900762 0.010131426 -0.015677674 -0.001981936
000320 a9 3c 21 bc da 4c 37 3b 83 f1 58 3b d8 50 39 bc
       -0.009841123 0.002796939 0.0033102937 -0.011310779
000330 b9 07 db 3b 43 50 08 3a a4 c0 2e 3c 42 95 03 bb
       0.00668427 0.0005199948 0.010666046 -0.0020077978
000340 f7 e5 2b bc a9 38 15 bc 0b 4a 34 bb 1a 3a 7b 3b
       -0.01049184 -0.009107747 -0.0027509953 0.0038334192
000350 11 c2 73 3c a3 61 26 3c 0b bc fc 3b 93 a3 4e 3b
       0.014877812 0.010155114 0.007712846 0.0031530603
000360 9d 32 4a bc bb 40 4a 3c d9 6c 85 3b 97 c0 47 3c
       -0.012341169 0.0123445345 0.0040718135 0.012191913
000370 86 0f a3 b9 80 57 36 3c 12 cd 03 bb 4f ba 68 3c
       -0.0003110135 0.01112926 -0.0020111245 0.014204576
000380 35 83 3e 3a 0a b2 17 3b 71 a6 03 3c a0 77 3e 3c
       0.0007267476 0.002314689 0.008035288 0.0116252005
000390 fd e2 ca bb 0b 45 b3 3b 39 bb 7d 3a bf 1c c1 bb
       -0.00619161 0.005470877 0.00096790824 -0.0058933194
0003a0 fe 6e 3d 3c ca ed 1e 39 a9 e3 68 3a d1 c9 67 3b
       0.011562107 0.00015156638 0.00088840217 0.0035368095
0003b0 40 39 1c 3c 7d 4f 3a 3b 6f 9d 81 bc 88 e4 f4 bc
       0.009535134 0.0028428726 -0.01582214 -0.029894128
0003c0 d4 02 77 3b 39 38 96 3b 77 bc 19 bb 67 40 10 bc
       0.0037690895 0.004584339 -0.002345828 -0.008804417
0003d0 f8 1e ba 3b 1e 32 d5 b9 d5 9b 1a 3c b6 7b 0c 3d
       0.0056799613 -0.00040663866 0.009436567 0.034297667
0003e0 a1 12 6e bc d8 23 d6 bb 1f be 06 3c 5f e1 86 bc
       -0.014530809 -0.0065350346 0.008224039 -0.016464887
0003f0 db 8c 93 3a 7b c7 0e bc 00 c7 f8 3b a5 88 84 3a
       0.0011257188 -0.008714552 0.007592082 0.0010111524

network.1.running_mean f4 [256]
000000 a6 40 22 3c 52 da db bc a9 b1 17 3d df b4 1f bc
       0.009903109 -0.026837502 0.037034664 -0.009747713
000010 f9 0a e0 3b 5a 33 c8 3b c8 ed 5d bb 2b 13 db 3b
       0.0068372455 0.006109637 -0.0033863652 0.0066856346
000020 3e a2 a1 3c d0 fb 8e 3a 28 48 1c bc 70 9d 63 3b
       0.019730683 0.0010908786 -0.009538688 0.0034731291
000030 78 b8 35 bb 5b d2 dc 3b 42 e3 0a 3c 40 fe d2 39
       -0.002772836 0.0067389435 0.008477034 0.00040243752
000040 28 c5 a0 bb ce 3d 3e bb 98 e0 ae 39 d3 da ae bc
       -0.0049063154 -0.0029028538 0.00033355202 -0.021344578
000050 dd b3 13 bc ea 6f 01 3c a0 ac 02 bc 70 23 91 bb
       -0.009015051 0.007900218 -0.007975727 -0.0044292733
000060 5b 92 0b bc 66 8a a1 3c b4 21 19 3c cd df 05 3b
       -0.008518781 0.019719314 0.009346414 0.0020427585
000070 ca c1 81 bc 45 af 59 3c c3 9d fe ba 90 db 91 3c
       -0.015839476 0.013286416 -0.0019425679 0.01780489
000080 68 aa 06 3c 4c 7c ad 3a c8 04 2c 3c ee 19 98 3c
       0.008219339 0.0013235896 0.010499187 0.018567052
000090 72 8a bd bb a0 d5 cb 3b 9d 23 a0 bb f4 fc 01 bd
       -0.0057843262 0.0062205344 -0.004887058 -0.031735376
0000a0 7a 18 f6 bc 77 30 7f bc 0a 65 da 3b 18 dc ec bb
       -0.030040968 -0.01557552 0.006664877 -0.0072283857
0000b0 88 96 75 ba 44 41 a8 3c c0 31 01 3b 5a 82 07 3b
       -0.0009368439 0.020538934 0.0019713491 0.002067706
0000c0 04 ed b0 3b a2 6b 3d 3b d3 55 70 3b ef 44 08 bc
       0.005399348 0.0028903265 0.003667225 -0.008317216
0000d0 fc ee 9e bb 28 16 e4 3a 08 4e a5 3a 48 a8 d4 3b
       -0.0048502665 0.0017401623 0.0012611756 0.0064897873
0000e0 70 45 c9 bc 72 f0 c0 bb fd 01 27 bc 3d 8a ff 3b
       -0.024569243 -0.0058880383 -0.010193345 0.0077984617
0000f0 c5 14 8f bc c8 ba 94 3b 1e 8a 92 ba c6 12 81 3b
       -0.017465958 0.0045388676 -0.0011180078 0.0039390055
000100 f6 92 17 3b 48 5b 07 3c bc 56 f6 3c 4e a5 c2 3c
       0.0023128367 0.008261509 0.030070655 0.023760464
000110 ed cd a3 bc f8 96 8f 3c eb a5 19 bc 50 83 86 bc
       -0.019995654 0.017528042 -0.009377937 -0.016420037
000120 19 eb 16 3c 39 22 5e 3b 60 2e 25 3c b0 b6 3c 3c
       0.009211325 0.003389491 0.010081857 0.0115181655
000130 1d b8 15 bc 2e b1 99 3c cf ec 17 bc 4d 92 1d 3c
       -0.009138134 0.018761244 -0.009272768 0.0096174
000140 94 25 be 3b 05 18 56 bc 6f ae 11 3c 45 a3 43 3c
       0.0058028195 -0.01306725 0.008891686 0.011940782
000150 4c f3 cd 3c 90 5f 56 b9 ec 5e 45 3b 68 53 3f bc
       0.025140427 -0.0002044423 0.0030116392 -0.0116776
000160 8e e7 91 3b 5f c8 18 3c 8c c3 a1 bc 34 3e 6d bb
       0.0044526523 0.009325116 -0.019746564 -0.0036200406
000170 36 7d 69 3c 96 96 ac bc d6 7a bd 3c b0 d7 9b ba
       0.014251044 -0.021067899 0.023129862 -0.0011889841
000180 0e 20 1a bc 54 72 92 bb 6e 34 2f 3c 6a f8 9d 3b
       -0.0094070565 -0.0044691954 0.010693653 0.004820873
000190 69 3f 95 3c 57 f3 cd 3b 18 f4 10 3b 6f c4 36 3c
       0.018218713 0.006285112 0.0022118147 0.011155232
0001a0 15 cb 0e 3c d4 ae 14 bc d8 43 fe 3b 09 6b e1 3b
       0.008715411 -0.009074885 0.0077595524 0.0068792147
0001b0 cc 5b ff bc cb ab 31 3d 30 ea c7 ba 32 9d 41 3b
       -0.031171702 0.043376725 -0.0015252288 0.0029543159
0001c0 fb cf 20 3d f6 b8 3e bb 92 ec 37 bb cb bb 13 ba
       0.039260846 -0.0029101945 -0.002806459 -0.00056355883
0001d0 eb 62 00 3c be 45 da 3b b7 a7 bf bb 54 b7 63 3c
       0.007836084 0.006661146 -0.0058488506 0.013898689
0001e0 a0 3a cd ba 95 c5 fa ba 70 cf 0c 3a fd bc cf 3b
       -0.001565773 -0.001913237 0.0005371487 0.006339668
0001f0 b2 b9 9d 3b 27 c9 66 bc 46 06 87 3a d4 55 fb 3c
       0.0048133964 -0.014086044 0.0010301552 0.030680574
000200 ec c0 29 3c b7 11 79 bc 36 09 ed 3b e1 0a 95 3b
       0.010360938 -0.015201977 0.007233764 0.004548416
000210 f2 cd 9a bc 98 97 38 bb 49 6a 95 3c 38 e1 a2 bb
       -0.01889703 -0.0028166529 0.018239157 -0.004970696
000220 f4 26 35 bc e8 39 90 3c 92 bc 38 3c be cf ae 3b
       -0.01105665 0.017605737 0.011275427 0.0053348234
000230 4f 8f b3 bb 74 8f 8a ba 30 2d ff ba e4 fc f6 bb
       -0.00547973 -0.0010571317 -0.0019468423 -0.007537471
000240 24 22 e3 3b 5a 94 ad 3c b8 e9 70 3b 4a 66 52 3c
       0.00693156 0.021188904 0.00367604 0.01284177
000250 fe b8 c8 3b 5c 25 d8 ba fc ed 75 3b ce 3c f4 3c
       0.0061255684 -0.0016490626 0.0037525883 0.02981415
000260 df a9 30 bc 9c 12 85 3b 80 1b cc bb 0c 23 9a bb
       -0.010782688 0.0040610563 -0.006228864 -0.004703885
000270 f4 66 50 b9 c0 cf 63 3a ce 44 36 bc 5d a9 7e 3b
       -0.00019874779 0.000869032 -0.011124803 0.0038858273
000280 50 a5 ec 3a 76 70 a8 bc e8 26 35 3c a0 49 64 3b
       0.0018054638 -0.020561438 0.011056639 0.0034833923
000290 7e 50 ed 3b 00 7c fd bb f4 45 2d 3c 6f 4e 4d bc
       0.0072422614 -0.007735729 0.01057576 -0.012530907
0002a0 4a 3a de 3b e4 52 eb 3b 30 3b e2 3c 83 81 a8 3b
       0.006781851 0.007181512 0.027616113 0.005142392
0002b0 8c 74 f9 bb a0 fc 5f 3b e6 26 16 3c 24 8d ba 3c
       -0.0076127704 0.0034177676 0.009164548 0.02277238
0002c0 17 5c 79 bc 3d 34 80 bc 00 10 fb 37 ae 70 d2 bc
       -0.01521971 -0.01564991 2.9928982e-05 -0.025688495
0002d0 0d 11 81 3c de 09 38 bc 9c eb bd 3b 84 68 3c 3b
       0.0157552 -0.011232821 0.005795909 0.002874882
0002e0 17 75 9f 3b a6 04 9b bb 73 ef d3 bc 0b ec b5 3c
       0.004866253 -0.0047307787 -0.025871014 0.02220728
0002f0 9d c9 c2 3b 20 22 9d 3c 80 ab 90 b9 88 87 7a b9
       0.0059444443 0.019181311 -0.00027593598 -0.00023892347
000300 1f 3f 4b bc f5 88 5c 3b 87 aa d7 bb b4 6c 05 3c
       -0.012405186 0.0033650969 -0.0065816077 0.008143593
000310 7f 0b 73 3c 1c e5 b5 bb 99 98 37 bc d1 80 f6 bc
       0.014834284 -0.0055509936 -0.011205816 -0.030090721
000320 06 37 74 bc 60 38 ab bb 17 a8 97 3b ab 25 83 3b
       -0.014905697 -0.0052252263 0.004628192 0.004002293
000330 d2 4f 80 bc 2b f6 dd 3b bb 5d ba bc 33 f7 d4 3c
       -0.015663061 0.0067737303 -0.022749772 0.02599678
000340 58 26 a0 3b 80 7b 8a ba 90 dc 94 3c e8 7b 88 3c
       0.0048873834 -0.001056537 0.018171579 0.016660646
000350 33 30 9c bc 54 92 c3 3c aa 41 b4 3c 16 7b ac bc
       -0.019065952 0.023873486 0.022003967 -0.021054786
000360 44 19 04 bc 0c b8 b7 3b c6 de ba 3c 94 f5 03 3c
       -0.008062664 0.005606657 0.022811305 0.008054156
000370 b4 a6 80 bb 48 40 6c 3b b8 70 da 3b 1b 31 5a bc
       -0.0039261226 0.0036049057 0.006666269 -0.013317372
000380 04 f3 17 bb e2 6f 07 3d a0 45 97 3b 80 89 e7 38
       -0.002318562 0.033065684 0.0046164542 0.0001104055
000390 17 60 88 bb 61 61 61 bc 30 32 7b 3a a4 59 15 bc
       -0.0041618454 -0.013756127 0.00095823687 -0.00911561
0003a0 0b 36 55 bc 20 c0 a8 ba d6 8d 0f 3c 30 db ec 3b
       -0.013013373 -0.001287464 0.008761844 0.0072282776
0003b0 78 a7 b3 ba c0 15 48 bc 9d 28 34 bc 28 27 8d 3b
       -0.0013706526 -0.012212217 -0.010996011 0.0043076463
0003c0 a2 e5 ec 3c 61 ac 49 bc f4 97 1f 3c 71 cd ed 3b
       0.028918091 -0.012309165 0.009740818 0.0072571565
0003d0 e4 6a ee ba 40 39 93 3b bd 6e 1c 3b 3a f0 38 bc
       -0.0018189815 0.0044929087 0.0023869716 -0.011287743
0003e0 6f 67 c5 3c 86 68 77 bc 40 fc 33 38 b0 fa f2 bb
       0.024097173 -0.015100604 4.291185e-05 -0.007415138
0003f0 3e 66 e0 3b b6 58 41 ba a6 ac 18 bb 48 71 e1 bb
       0.0068481257 -0.00073755847 -0.0023296266 -0.0068799593

network.1.running_var f4 [256]
000000 ea 53 b9 3e de 5f 80 3e 11 02 96 3e d8 6f b4 3e
       0.36196834 0.2507314 0.29298452 0.3524158
000010 03 bc 93 3e b3 2a 73 3e 74 8d 7d 3e 18 93 b7 3e
       0.2885438 0.23746757 0.24760991 0.3585441
000020 5b 6a 92 3e 49 d6 a3 3e 03 77 9c 3e 4a 89 a2 3e
       0.28596768 0.31999424 0.3055955 0.31745368
000030 ae c8 86 3e 67 a0 98 3e cf d2 9b 3e 62 2b 95 3e
       0.2632498 0.29809877 0.30434272 0.2913466
000040 e8 2b b0 3e 6f b1 b7 3e aa b7 a5 3e e6 ba 91 3e
       0.34408498 0.3587756 0.32366687 0.28462905
000050 ad 87 90 3e 48 4d 98 3e 4f 53 98 3e 62 1a 80 3e
       0.28228512 0.2974646 0.2975106 0.25020128
000060 c2 4e a0 3e 96 bb 91 3e c2 a0 7a 3e e8 1e 9f 3e
       0.31310087 0.2846343 0.24475387 0.31078267
000070 1d 11 82 3e 0b ef 84 3e 47 3b 92 3e 5f fb c5 3e
       0.2540368 0.25963625 0.2856085 0.38668343
000080 0d 21 ad 3e 89 07 88 3e 73 6e a8 3e 9c ff a2 3e
       0.33814278 0.2656825 0.32896766 0.3183564
000090 40 9a a4 3e 6d 8a 81 3e a8 11 a9 3e a8 a5 8f 3e
       0.32148933 0.25300923 0.33021283 0.28056073
0000a0 94 f5 9e 3e 82 d6 bc 3e 28 79 a5 3e 08 d0 94 3e
       0.31046736 0.36882406 0.32318997 0.29064965
0000b0 75 9f b5 3e c3 0e b0 3e 52 09 7c 3e 17 9e a7 3e
       0.3547322 0.34386262 0.2461293 0.327378
0000c0 8f c7 b6 3e 09 12 c8 3e 07 4f b1 3e bb 59 87 3e
       0.35699126 0.3907626 0.34630606 0.26435646
0000d0 e7 17 86 3e 5a c6 99 3e 48 13 89 3e e9 14 9c 3e
       0.2619011 0.30034143 0.26772523 0.30484703
0000e0 c1 a2 c7 3e a7 41 aa 3e 07 a7 79 3e 91 7e 76 3e
       0.3899136 0.33253214 0.24380122 0.24071719
0000f0 45 99 bc 3e 05 1f 96 3e 40 6e 85 3e 03 ed 9c 3e
       0.36835685 0.2932054 0.26060677 0.30649576
000100 59 f4 b7 3e a5 9a ac 3e 0b 3c 90 3e f5 2d 7e 3e
       0.3592861 0.33711734 0.2817081 0.24822219
000110 95 23 ad 3e 05 60 99 3e fd 35 a3 3e 56 81 dc 3e
       0.3381621 0.2995607 0.31877127 0.43067425
000120 87 49 a9 3e 18 97 b3 3e fa cb 73 3e 20 52 9c 3e
       0.3306391 0.35076213 0.2380828 0.30531406
000130 b2 46 af 3e 73 33 91 3e 4f 26 99 3e d9 cb 8f 3e
       0.34233624 0.28359565 0.2991204 0.2808521
000140 2d 05 08 3f 24 17 e9 3e f6 53 94 3e 91 c9 af 3e
       0.531329 0.45525467 0.28970307 0.3433347
000150 97 d2 8e 3e f1 e2 84 3e 54 3f b0 3e fc d0 cc 3e
       0.27895042 0.25954393 0.34423316 0.40003192
000160 79 7d cf 3e f1 2b 9c 3e 1b 74 4f 3e 91 72 c0 3e
       0.40525416 0.30502275 0.20259134 0.37587407
000170 ae 77 8f 3e 92 dd 9a 3e cc 7e 9a 3e cc 05 c1 3e
       0.28020996 0.3024717 0.30174863 0.37699735
000180 29 3e 93 3e 68 06 b6 3e 9b d0 e2 3e 62 a8 83 3e
       0.28758362 0.35551763 0.44299778 0.25714403
000190 d9 75 bf 3e df 1c d4 3e 16 e9 9b 3e 31 a3 a6 3e
       0.37394598 0.41428277 0.30451268 0.3254638
0001a0 5f ff c9 3e 12 aa aa 3e 24 8b 9a 3e 52 91 a6 3e
       0.39452645 0.33332878 0.3018428 0.32532746
0001b0 4c 68 b5 3e 80 2f e6 3e 4b 34 b0 3e 1b 20 9b 3e
       0.35431135 0.44958115 0.34414896 0.30297932
0001c0 0c e3 a1 3e 5f 8f 8f 3e 2c 41 9a 3e c5 f8 ce 3e
       0.31618536 0.2803907 0.30127847 0.4042417
0001d0 21 a9 bc 3e df a5 9d 3e 23 23 9b 3e dc a7 c3 3e
       0.36847785 0.30790612 0.30300245 0.38214004
0001e0 b0 22 a8 3e 1b 05 e5 3e 62 af 9f 3e 01 b3 ca 3e
       0.32838964 0.44730458 0.31188494 0.39589694
0001f0 8d 39 a7 3e d6 13 96 3e 10 aa b6 3e 78 ec bc 3e
       0.32661095 0.2931201 0.35676622 0.3689916
000200 91 6a 84 3e 4b 4b 70 3e b7 09 d4 3e 99 80 7b 3e
       0.25862554 0.23466222 0.41413662 0.24560775
000210 be 25 9b 3e 78 0f 8f 3e 88 e6 a7 3e 4d f5 ad 3e
       0.30302233 0.2794149 0.3279307 0.33976212
000220 28 2d 92 3e be 5a 99 3e 50 88 dd 3e 80 da b4 3e
       0.28550076 0.29952043 0.4326806 0.35322952
000230 db ea 84 3e 78 7b 91 3e 15 5c b9 3e be 7e a3 3e
       0.2596043 0.28414512 0.36203066 0.31932634
000240 1a 72 9f 3e 8c 43 95 3e 7e cf bb 3e bd 4d e0 3e
       0.3114174 0.29153097 0.3668174 0.4380931
000250 35 60 a1 3e fc 68 97 3e 10 21 9a 3e 7b 49 86 3e
       0.31518713 0.29572284 0.3010335 0.26227936
000260 7d d4 99 3e 72 f4 9d 3e ae 39 95 3e bb b0 a2 3e
       0.30044928 0.3085056 0.2914557 0.3177546
000270 2b 0b 91 3e cb 53 8f 3e 15 59 a5 3e 14 82 b3 3e
       0.28328833 0.27993616 0.32294527 0.3506018
000280 20 e3 90 3e 36 b0 93 3e fb 25 89 3e 57 3a 9a 3e
       0.28298283 0.28845376 0.2678679 0.30122635
000290 e5 5d b0 3e 3f 8d aa 3e 78 07 b1 3e f5 d7 91 3e
       0.34446636 0.33310887 0.3457601 0.28485075
0002a0 fa 34 7a 3e cd 30 9f 3e 9c 1b c3 3e 92 ed a2 3e
       0.24434271 0.3109192 0.38107002 0.31821877
0002b0 9c 4e 63 3e 7a 98 92 3e 40 a4 83 3e c2 c6 a7 3e
       0.22197956 0.28631955 0.2571125 0.32768828
0002c0 40 d1 7c 3e 20 a0 88 3e 3b d8 80 3e 3d f1 b8 3e
       0.24689198 0.26684666 0.2516497 0.3612155
0002d0 d5 7c 9a 3e 19 c7 db 3e 46 c1 b6 3e 10 ee 9e 3e
       0.30173364 0.42925337 0.3569433 0.31041002
0002e0 34 51 a3 3e 2c 4b 96 3e a0 1a 9b 3e 34 ca 91 3e
       0.3189789 0.29354227 0.3029375 0.2847458
0002f0 f4 9f bb 3e 24 3d a1 3e 07 53 78 3e f6 50 ac 3e
       0.36645472 0.3149196 0.24250422 0.33655518
000300 80 22 89 3e 8a 2d 98 3e b4 bc a1 3e 26 8e e2 3e
       0.26784134 0.29722244 0.31589282 0.44249076
000310 22 ee c8 3e bc 0c a2 3e 77 77 ae 3e b2 33 a7 3e
       0.3924418 0.3165034 0.3407552 0.32656628
000320 cf 73 9c 3e 22 9f ad 3e 42 3b b8 3e f3 5b b5 3e
       0.30557105 0.3391047 0.3598271 0.35421714
000330 14 c7 88 3e 23 90 97 3e 71 e7 bc 3e 72 5d a8 3e
       0.26714385 0.29602155 0.36895326 0.32883793
000340 cb a4 e9 3e 3a 8b ba 3e 3a 39 98 3e a1 3e a3 3e
       0.4563354 0.36434346 0.2973116 0.3188372
000350 fe 3f 86 3e 25 43 98 3e 2c d9 9c 3e 61 b9 a6 3e
       0.26220697 0.29738727 0.3063444 0.32563308
000360 3d 27 81 3e 23 65 96 3e 1e 5c 8a 3e 7b 03 88 3e
       0.2522525 0.29374036 0.27023405 0.26565155
000370 e2 12 8a 3e 7c 36 a2 3e 5b 9a e2 3e 3e ea fb 3e
       0.2696753 0.31682193 0.4425839 0.4920215
000380 65 59 c7 3e 00 82 b3 3e e0 7f 99 3e 6d 82 d8 3e
       0.3893539 0.3506012 0.29980373 0.42287007
000390 68 32 aa 3e b1 5f 8a 3e d2 5d 99 3e 44 56 91 3e
       0.33241582 0.27026132 0.29954392 0.28386128
0003a0 4e 07 cf 3e 69 d2 a3 3e 5d 73 93 3e 8f cd ce 3e
       0.4043526 0.31996468 0.28798953 0.40391204
0003b0 26 a2 ba 3e 5a dc a0 3e 5c 1d 87 3e c3 4c 8b 3e
       0.36451834 0.31418115 0.26389587 0.27207002
0003c0 56 49 9f 3e 4f ff a5 3e a3 97 bd 3e 78 87 5b 3e
       0.31110638 0.32421347 0.37029752 0.21438396
0003d0 25 d2 b3 3e dc 72 92 3e 94 85 8b 3e 92 fc ac 3e
       0.35121265 0.28603256 0.2725035 0.33786446
0003e0 ce e3 b6 3e ac 9b c1 3e 4e b4 78 3e da 35 ad 3e
       0.35720676 0.3781408 0.24287531 0.33830148
0003f0 3c 2e 9c 3e b5 8e 9e 3e 6c 06 69 3e 81 a8 9f 3e
       0.30504024 0.30968252 0.22756356 0.31183246

network.4.weight f4 [128, 256]
000000 fa bb 5f bd 52 a5 06 3d 37 37 83 bc b7 c3 f2 b9
       -0.054622628 0.032872505 -0.01601754 -0.00046303656
000010 3b c3 09 bd c0 22 5f bd 18 6a 38 3d 1e 3b 31 bd
       -0.033633452 -0.0544765 0.045023054 -0.04326927
000020 ee f8 4f bd af 21 28 bd fa 43 2c bc 10 41 2f bd
       -0.050774507 -0.04104775 -0.010514254 -0.042786658
000030 3d 36 3c bc 40 a4 2b 3d 47 0d 38 3d 12 e2 9a bc
       -0.011487541 0.041904688 0.044934537 -0.018906627
000040 44 79 94 bd 74 1a 46 bd 44 4a 33 3d ae 48 68 3c
       -0.07249692 -0.04836507 0.043771997 0.014177484
000050 c0 9b c4 ba be 8c 04 3d ad eb 9b bc 8c e8 4d 3b
       -0.001500003 0.032360785 -0.019033277 0.0031419126
000060 b6 74 81 bc bb fc 33 3d 25 25 1a 3d b1 73 f2 bc
       -0.015802722 0.043942194 0.03763308 -0.029596182
000070 54 93 81 bd 02 12 b2 3c 01 d0 17 bd 84 a6 5b bd
       -0.06326929 0.021737102 -0.037063602 -0.0536256
000080 69 20 4e 3d 78 b9 11 3d a3 70 3e 3c 98 64 c6 bb
       0.050323877 0.035577267 0.011623534 -0.006054472
000090 08 78 a5 3b 48 c3 47 3d f9 08 35 3d 42 42 94 bc
       0.005049709 0.04877022 0.04419801 -0.018098
0000a0 2c 12 3b 3d 38 a7 a7 3c df 78 17 bd bb 4e e8 3b
       0.045671627 0.020465478 -0.036980506 0.0070894635
0000b0 1e fa 75 bd 84 a9 c6 3c 90 d4 4d 3d 69 ba 3c 3d
       -0.060052983 0.024250753 0.050251544 0.046076212
0000c0 4a d9 da b9 b9 ae 27 bd 23 4e 38 3d 06 d9 ef 3c
       -0.00041742093 -0.040938113 0.044996392 0.02927829
0000d0 44 ef 80 3b e3 eb 43 3c f7 c1 1b 3d fc b6 ce 3c
       0.0039347727 0.011958095 0.038026776 0.025233738
0000e0 56 84 93 3c d7 72 49 3d d1 fd 14 3d bf 7f 3c 3d
       0.018007439 0.049181785 0.03637487 0.046020266
0000f0 5d ee 80 3d 26 39 9e 3c cb d2 62 3d 9f 82 f9 3b
       0.06295464 0.01931436 0.05537681 0.007614448
000100 0c bc 81 bd 44 ad 68 bc fa 33 eb 3c 33 94 cd bb
       -0.06334695 -0.014201466 0.028711308 -0.0062737702
000110 d0 4e 54 3d 13 2a 30 bd 90 db ee bb 41 c6 14 bc
       0.051832974 -0.043008875 -0.0072893575 -0.009080471
000120 d8 a0 81 bd c0 92 ce 36 10 89 21 3d 87 59 15 3c
       -0.06329507 6.1563624e-06 0.039437354 0.009115583
000130 e1 74 5d 3d 5e cd bd bc 7f 06 97 3c a7 75 a6 bd
       0.054066543 -0.023169216 0.018435715 -0.08127909
000140 1c aa 83 bc 8a 6e c6 3b 54 24 bc bc e8 9f f3 3c
       -0.016072325 0.0060556578 -0.022966541 0.029739335
000150 d0 2a 59 3d 2f 31 c7 3c 24 d0 33 bb a7 c3 86 bc
       0.053019345 0.024315445 -0.0027437294 -0.016450716
000160 65 f9 f1 bc bb 09 5a 3d d9 25 6e bd 9a e3 38 bc
       -0.029537866 0.053231936 -0.058141563 -0.011284733
000170 fd 51 d8 3c e2 ff 73 bd 66 6e a5 3c be b8 80 3d
       0.026406283 -0.0595702 0.020194244 0.06285237
000180 22 7e 75 3c 44 a9 2f bd 2c e3 cc bc a9 48 cb 3c
       0.014983686 -0.042886034 -0.025010668 0.02481492
000190 e8 e7 55 3c d7 a1 93 bb d5 cf e1 3c 58 b1 12 bc
       0.013055779 -0.004505377 0.027564922 -0.008953415
0001a0 4b 60 9a bc 0b bd 8b bc aa 76 2a 3b d5 9c f8 3c
       -0.018844744 -0.017057916 0.002601067 0.03034822
0001b0 f2 1f 12 bd 61 99 8d bc 38 ce a9 bc 8c 87 07 3d
       -0.035674997 -0.01728505 -0.020728216 0.033088252
0001c0 36 00 12 3a 1b 97 56 bd 8e ca ed 3c b8 89 af 3c
       0.00055694894 -0.0523902 0.02902725 0.021427974
0001d0 a4 54 10 bc 29 63 1b bd 06 08 aa 3c 0d 27 cc bc
       -0.008809242 -0.037936363 0.020755779 -0.024920965
0001e0 ee 41 fe bc 76 95 74 bc 49 72 23 3d d7 7e 6d bd
       -0.031037297 -0.014928212 0.039903913 -0.057982292
0001f0 c2 a2 8e 3b 1e d6 14 bd d2 1e 25 bd 4a 67 4f bd
       0.0043528983 -0.03633701 -0.040312596 -0.050635614
000200 06 3e 8a 3d d0 a2 bf 3a cb 03 da 3c 2f a5 02 3d
       0.06750111 0.0014620665 0.026613137 0.031895813
000210 82 c0 85 bd 6e db 56 3d 41 8f 8e bd fb f3 64 bd
       -0.065308586 0.05245536 -0.06960917 -0.05589674
000220 d6 f6 d3 3c 27 3b 5e 3c e5 48 ad 3c 2f 67 bb 3b
       0.025874536 0.013563908 0.021152923 0.0057190876
000230 c7 42 88 bc 40 9e 89 bd 70 97 1e 3c d6 77 2c 3d
       -0.016633404 -0.06719637 0.00967966 0.042106472
000240 d8 a9 85 bd 68 32 48 3d 24 3a 62 3d 71 7b 92 bd
       -0.06526536 0.048876196 0.05523123 -0.07152451
000250 5d fd 48 3b f9 55 03 3d 74 33 ed b9 bb 51 2b 3d
       0.0030668594 0.03206441 -0.00045242498 0.04182599
000260 64 28 4d 3d cc a3 ca 3c 41 55 c6 3b 72 d2 a0 bd
       0.050087348 0.024736308 0.0060526435 -0.07852639
000270 91 74 bc bc 1e 14 85 bb d3 06 f4 ba 73 dc 29 3d
       -0.023004802 -0.004061236 -0.0018617756 0.041470002
000280 14 de 44 3d 92 1e 07 bd 25 b4 9c 3c da d4 4c 3c
       0.048063353 -0.03298814 0.019128868 0.01250192
000290 20 d9 2b bd 37 a8 0a bd 44 40 75 3c c4 c5 3b 3d
       -0.041955113 -0.03385183 0.014968935 0.0458429
0002a0 bc 6e 83 3b 8e 0f 3e 3d 33 0e a1 3c 2c e5 4d 3d
       0.0040110033 0.046401553 0.019660091 0.050267383
0002b0 b2 4a 30 bd a5 7a 82 bd ad f0 4c 3c bc ab 0a bd
       -0.043039985 -0.06371049 0.012508553 -0.033855185
0002c0 ec 48 f5 bc 73 98 3c 3c f4 5e 6c bd 53 1a af 3b
       -0.029941998 0.011510956 -0.05770774 0.0053437143
0002d0 1c 8a 29 3b 67 d6 3d bd b5 68 a9 3b a4 87 08 bd
       0.0025869673 -0.046347048 0.0051699528 -0.033332482
0002e0 7e 32 47 3d a8 71 9a bc ae 20 30 bd b5 c0 64 3c
       0.048632137 -0.018853024 -0.042999916 0.013961961
0002f0 c9 8c c1 bc b3 11 fb bb eb 82 77 3d 58 d6 45 3d
       -0.023626702 -0.007662022 0.060427587 0.048300117
000300 41 9b 1a 3c 2c 46 0b 3d 13 00 68 bd 2d 3d 64 bc
       0.0094364295 0.034002468 -0.056640696 -0.013930601
000310 0b c4 d7 3c ad cb 89 3d ed e3 d0 3c 34 79 9e 3b
       0.026338598 0.06728301 0.025499308 0.004836226
000320 89 28 81 bb 5a 2e 42 3d e3 90 93 bd 02 eb 1b bd
       -0.0039415997 0.047407486 -0.07205369 -0.038065918
000330 46 6b 27 3d ae 3d 03 3d 66 96 4c bd d5 82 d8 3c
       0.04087379 0.032041244 -0.04994812 0.026429573
000340 e9 dd 3f bd 9d 5c ca bc 68 8c 94 39 13 26 e1 bc
       -0.04684249 -0.024702365 0.0002833337 -0.027483976
000350 21 7d 19 3d f2 f5 68 bd ae 7d 47 bd eb 70 21 bd
       0.037472848 -0.056875177 -0.048703842 -0.039414328
000360 51 8f 6a 3d f4 8a a7 bc 2f 23 15 bd 83 08 2b bd
       0.057265583 -0.020452 -0.036410507 -0.041756164
000370 75 f2 c5 bc 95 ef f9 3b b0 0c 32 bb 3d 0f 85 bd
       -0.024163464 0.0076274374 -0.0027168207 -0.06497047
000380 61 cb 94 bd aa cb 8f 3c e9 99 8a bd 88 5c e7 3c
       -0.07265354 0.01755317 -0.06767637 0.028242365
000390 34 ea 8b 3b 88 59 21 bd 13 be d4 3c b1 1a 0c bd
       0.0042698625 -0.039392024 0.02596954 -0.034205142
0003a0 64 b5 6d 3d 1c d5 aa bd 06 99 ab bc 53 05 80 bd
       0.058034316 -0.08341429 -0.02094699 -0.062510155
0003b0 02 03 9f bc de 89 41 3d f3 1d 5f bd e4 47 5b bc
       -0.019410614 0.04725062 -0.05447192 -0.013383839
0003c0 87 0f 6c bc 9f 1d 25 bd 7e 15 e4 3c 1e 71 5a 3d
       -0.014407999 -0.040311452 0.02784228 0.053330533
0003d0 66 34 84 3d b6 57 5f 3d 2c 96 bd bb 7d d5 54 bc
       0.06455307 0.054527007 -0.005785724 -0.012990353
0003e0 f4 e3 85 bd a0 f3 9f bc e1 fd 09 3b b7 a9 2b bd
       -0.06537619 -0.01952535 0.0021055865 -0.0419099
0003f0 f8 00 55 bc 55 bd dd bc 17 6f 8e bc 17 22 ec 3c
       -0.013000719 -0.02706782 -0.017386956 0.028824849
