log_reg/models/tree_branch_failure_best.pth (torch, 385854 bytes, 25 tensors)

network.0.weight f4 [256, 176]
0	0xbd9b9ddf	-0.07598471
1	0xbda1d482	-0.07901861
2	0x3cbe7d14	0.023253001
3	0xbc61cdda	-0.013781989
4	0xbbb3b268	-0.005483914
5	0xbcf40374	-0.029786803
6	0x3d228b5f	0.039683696
7	0xbd816068	-0.06317216
8	0xbd8df023	-0.06930568
9	0xbc47e2a7	-0.012200034
10	0xbcef57a1	-0.02921659
11	0x3d899244	0.06717351
12	0x3d32967b	0.04360054
13	0xbcafd376	-0.021463137
14	0x3d6ed748	0.058310777
15	0x3d96c36e	0.07361494
16	0xbb9b24e0	-0.0047346205
17	0xbcac698e	-0.021046426
18	0x3c9000d8	0.017578527
19	0xbceb0712	-0.028689895
20	0x3cc6dd74	0.024275519
21	0x3d9ffd98	0.07812041
22	0xbd88fd95	-0.06688992
23	0x3d3e93c3	0.046527635
24	0x3d7488d6	0.05970081
25	0x3c909e64	0.017653652
26	0x3c099b24	0.008398805
27	0xbd888969	-0.06666834
28	0x3cc78351	0.024354609
29	0xb974df67	-0.00023352877
30	0x3d465b0e	0.04842668
31	0xbd0cc319	-0.034365747
32	0x3cb57159	0.022148775
33	0xbd1dbef8	-0.0385122
34	0x3d0807f6	0.033210717
35	0x3cd50a17	0.026005788
36	0xbb4b032f	-0.003097724
37	0x3c83d28a	0.016091604
38	0xbd0b3e30	-0.033994853
39	0xba031af1	-0.0005001268
40	0xb7017257	-7.715621e-06
41	0x3d5c2a1b	0.053751092
42	0xbc342483	-0.010995033
43	0x3d1440d6	0.036194645
44	0x3d9092b0	0.070592284
45	0x3bb4e617	0.005520593
46	0xbd3bbb10	-0.045832694
47	0x3c679858	0.014135443
48	0x3d0a0bc1	0.033702616
49	0x3d621854	0.055198982
50	0x3d924ae6	0.07143192
51	0xbc65c862	-0.014024826
52	0x3ca8ac27	0.020589901
53	0xba8fb9b7	-0.0010965382
54	0xbcef03f7	-0.029176695
55	0x3bee2984	0.0072681326
56	0xbd375f3b	-0.044768553
57	0xbd3c49fe	-0.045969002
58	0x3d5c6912	0.05381114
59	0xbd096538	-0.033543795
60	0xbd0b0512	-0.033940382
61	0xbd637453	-0.055530857
62	0x3c439822	0.011938127
63	0xbc3f23c4	-0.011666242
64	0x3d4cf693	0.05003984
65	0x3d82684c	0.06367549
66	0xbd3ac254	-0.045595482
67	0x3c9b223e	0.018937226
68	0xb9961d1d	-0.0002863192
69	0x3d205b40	0.039149523
70	0x3cf3346c	0.029688083
71	0xbc991823	-0.018688267
72	0x3c81514d	0.015785838
73	0x3d7f557d	0.062337387
74	0x3d1084fe	0.03528308
75	0x3bde2a7b	0.0067799664
76	0xbc9bbea9	-0.019011812
77	0xbc7cc88f	-0.015428676
78	0x3d9fd4cd	0.078042604
79	0xbd21ad2d	-0.039471794
80	0xbb1aa2fa	-0.0023595677
81	0xbd966b87	-0.07344728
82	0x3d7bf488	0.0615125
83	0xbc30550b	-0.010762463
84	0x3c34ccc7	0.011035151
85	0xbd902c94	-0.070397526
86	0xbb18c19b	-0.0023308757
87	0x3c654527	0.013993538
88	0x3a87dbb0	0.0010365155
89	0x3d8b8513	0.06812491
90	0x3d840d47	0.06447845
91	0x3d38a734	0.045081332
92	0xbd3c0c0d	-0.04590993
93	0xbd8e9216	-0.069614574
94	0x3d659145	0.056046743
95	0xbd1fa226	-0.038972996
96	0x3ce58847	0.028019084
97	0xbd585b6d	-0.052821565
98	0x3cda658c	0.02665975
99	0x3ca531bd	0.020165319
100	0x3a3a7855	0.0007113268
101	0x3daec9ff	0.085346214
102	0x3d84187f	0.06449985
103	0x3d57147e	0.052509777
104	0x3c93d4d2	0.018045817
105	0xbd086ff3	-0.033309888
106	0x3cf13532	0.02944431
107	0xbafd3932	-0.0019319414
108	0xbd3a5ed3	-0.045500588
109	0xbd80bcd1	-0.06286014
110	0xb96b19d8	-0.00022420974
111	0xbbaca80f	-0.0052690576
112	0x3cd44690	0.025912553
113	0xbd10d977	-0.03536364
114	0x3cc602f3	0.024171328
115	0xbd87963a	-0.0662045
116	0x3d3a91f1	0.045549337
117	0xbd83ad65	-0.06429557
118	0x3d5b9d25	0.05361666
119	0xbd873635	-0.06602136
120	0x3d7f2091	0.062286917
121	0x3d87084c	0.065933794
122	0xbd71d9a2	-0.05904544
123	0x3c166cc7	0.009181208
124	0xbd9bfc1b	-0.07616445
125	0x3d3ce630	0.04611796
126	0xbc86bd35	-0.016447643
127	0x3c5a2bb5	0.013316085
128	0xbc755da4	-0.014975939
129	0x3d255d09	0.04037193
130	0x3cdefd50	0.027220398
131	0xbd41c859	-0.047310207
132	0xbd3d62f8	-0.046236962
133	0xbd0b1228	-0.033952862
134	0x3d698e21	0.05702031
135	0xbce9d57e	-0.028544184
136	0x3b16d258	0.0023013558
137	0x3d4b70aa	0.04966799
138	0xbd856989	-0.0651427
139	0x3c78c21c	0.015182998
140	0x3d8dc4ec	0.069223255
141	0xba839187	-0.0010037877
142	0x3d0c2e36	0.034223758
143	0x3d000089	0.03125051
144	0xbd6f4597	-0.058415975
145	0xbc81da4b	-0.01585116
146	0x3ce5200d	0.027969385
147	0xbd8caab6	-0.06868498
148	0xbb86137c	-0.004091678
149	0xbda2b586	-0.07944779
150	0xbbabb29e	-0.0052397987
151	0x3cf5c6b6	0.03000198
152	0xbb9e6ce9	-0.0048347604
153	0xbb8a0eea	-0.0042132037
154	0xbc39c2eb	-0.011337976
155	0x3c3a01e3	0.011352989
156	0xbd901872	-0.070359126
157	0x3d29a4fa	0.0414171
158	0x3c99ed41	0.01878989
159	0x3cb2bd76	0.021818858
160	0x3d06873a	0.032843806
161	0x3cbc2a57	0.022969408
162	0x3d686af5	0.056742627
163	0xbc4c778e	-0.012479676
164	0x3cfd6b5c	0.030934982
165	0x3d8cc669	0.06873781
166	0x39d21135	0.00040067142
167	0xbc891de9	-0.016737895
168	0xbbcd08bb	-0.0062571443
169	0xbc2aec39	-0.010432296
170	0x3c969435	0.018381217
171	0x3c437e15	0.011931916
172	0xbd9681c8	-0.073489726
173	0xbcef4885	-0.029209385
174	0xbbc2edd5	-0.005948762
175	0x3d81ca51	0.06337417
176	0xbcd0a831	-0.025470825
177	0xbc1ab48b	-0.009442459
178	0xbda18787	-0.07887178
179	0x3c51eba8	0.0128125325
180	0xbd5e8fb8	-0.05433628
181	0xbbebff5e	-0.007202073
182	0x3c2f0a67	0.010683632
183	0x3d3680af	0.044556316
184	0xbd9b8177	-0.07593053
185	0x3c62a55f	0.013833373
186	0xbc96a487	-0.018389
187	0x3d49a3ea	0.049228586
188	0x3d7c9465	0.061664958
189	0xbcf7fac1	-0.030270936
190	0x3c2f35d5	0.010693987
191	0x3d211678	0.03932807
192	0x3d3a4231	0.04547328
193	0x3c9f7655	0.019465605
194	0x3d32f915	0.043694574
195	0x3d93012f	0.0717796
196	0x3c8676bc	0.016414039
197	0x3d709fad	0.05874603
198	0xbd917c50	-0.07103789
199	0xbd56a337	-0.052401748
200	0x3d394428	0.045231014
201	0x3d353be1	0.044246558
202	0xbd67ca06	-0.05658915
203	0x3bdd4c02	0.0067534456
204	0x3b9187e3	0.004441248
205	0xb5bf57ff	-1.4256219e-06
206	0xbd935f04	-0.07195857
207	0xbd0dcc6f	-0.03461879
208	0x3cc06b94	0.023488797
209	0x3cdb7955	0.026791254
210	0x3cd3764c	0.025813244
211	0x3d32b83a	0.043632723
212	0xbb9a6758	-0.0047120266
213	0x3c38a72a	0.011270324
214	0xbc82a4cd	-0.015947724
215	0xbcb0fc92	-0.02160481
216	0x3894fdcf	7.1044655e-05
217	0xbd7c42fe	-0.061587326
218	0x3cc10ac5	0.023564706
219	0xbd372a42	-0.044718035
220	0x3c79a530	0.015237138
221	0x3995d092	0.00028574892
222	0x3d0ec4c8	0.034855634
223	0xbd26ce8b	-0.04072432
224	0x3b19121d	0.0023356744
225	0xbd60f866	-0.05492439
226	0xbd193dd0	-0.037412465
227	0x3c8e4812	0.01736835
228	0x3d211e32	0.039335437
229	0xbd63e52c	-0.055638477
230	0x3c6d259f	0.014474302
231	0xbd95c358	-0.073126495
232	0x3cd14135	0.025543788
233	0x3b0ce0cc	0.0021496294
234	0xbc8cce08	-0.017188087
235	0xbd8a2632	-0.067455664
236	0xbd2000ce	-0.039063267
237	0x3c3bb5fc	0.011456963
238	0x3bedb1c1	0.007253856
239	0xbd530cc0	-0.05152583
240	0xbd2209c1	-0.039560083
241	0xbd08962b	-0.033346336
242	0xbcb7e095	-0.022445956
243	0xbd36f48c	-0.04466681
244	0x3a3830d5	0.00070263195
245	0xbd7ad77d	-0.061240662
246	0x3a38dc19	0.000705184
247	0x3d8018d5	0.06254736
248	0xbc5fac4b	-0.013651918
249	0xbd42c109	-0.047547374
250	0x3bb44a2b	0.0055020056
251	0x3d4d56c5	0.050131578
252	0xb86e42f5	-5.680598e-05
253	0xbd8eb035	-0.069672026
254	0xbd33c7f8	-0.043891877
255	0xbd7502f3	-0.059817266

network.0.bias f4 [256]
0	0x3a5f5b2a	0.00085203594
1	0xb99f1d5a	-0.00030348712
2	0x3a0b23fb	0.00053077907
3	0xbc8061a8	-0.015671566
4	0xba58707d	-0.0008256508
5	0xbc1e0671	-0.00964509
6	0xbbad546e	-0.005289606
7	0xba8e2cf7	-0.0010847141
8	0xbaa31634	-0.001244253
9	0xbc554236	-0.013016274
10	0xb7e2535c	-2.6980117e-05
11	0xba978a67	-0.0011561633
12	0x3a8dc5d4	0.0010816404
13	0x3c9f1721	0.019420208
14	0x38ccd912	9.7679105e-05
15	0xb88fdbc0	-6.859703e-05
16	0x3a9cd911	0.0011966546
17	0x3a9972d1	0.0011707192
18	0xbc06ca7f	-0.00822699
19	0xba5f938f	-0.0008528763
20	0xb9fcf03d	-0.00048244177
21	0x3a64e345	0.00087313756
22	0x3addda0a	0.0016925943
23	0x3a9dadeb	0.0012029981
24	0x3a66e996	0.0008808611
25	0xb83d865a	-4.5186236e-05
26	0x35ab7980	1.2775854e-06
27	0xb9f04e10	-0.00045834528
28	0x3c3e40de	0.011612145
29	0x3870925e	5.7356774e-05
30	0x3c832760	0.016009986
31	0xb88c2a93	-6.68365e-05
32	0x3a0dba32	0.00054064684
33	0xb976874f	-0.00023510795
34	0x398eee90	0.00027262093
35	0xba828a28	-0.0009959387
36	0xbc9c2fb9	-0.019065725
37	0xba3cd1bb	-0.0007202883
38	0x359ea3d0	1.1819593e-06
39	0x3a855628	0.0010172771
40	0xbaf8b23d	-0.0018974018
41	0x3cac0bb8	0.021001682
42	0xba1450b3	-0.0005657777
43	0x3c357afa	0.011076683
44	0xba4f065c	-0.0007897371
45	0x3b21120c	0.0024577407
46	0xbc5c259a	-0.013436699
47	0xba019a33	-0.0004943937
48	0xbb8d790e	-0.0043174094
49	0x3b9c0af5	0.0047620484
50	0x3c7d4acb	0.015459727
51	0x390d3231	0.00013465506
52	0xb91bc830	-0.00014856528
53	0x3ca67a03	0.020321852
54	0xba3d2e37	-0.00072166644
55	0x3b359aad	0.0027710602
56	0xb9ae3d08	-0.00033233338
57	0xbbd6c927	-0.006554741
58	0x39a3cf6e	0.0003124433
59	0x3993e42c	0.00028208026
60	0xba06c42c	-0.0005140926
61	0x39f78d7c	0.00047216925
62	0xbbf9bc60	-0.007621333
63	0x37b2c6b0	2.1311775e-05
64	0xb97da1b5	-0.00024188201
65	0xb9cd7a18	-0.00039191614
66	0xba9d69d1	-0.0012009685
67	0x3ca89dcb	0.020583054
68	0x3b2ec3f4	0.002666709
69	0x3a29f63d	0.0006483531
70	0xba9436af	-0.0011307801
71	0xbc037349	-0.008023092
72	0x391a9017	0.00014740262
73	0xba97eec0	-0.0011591539
74	0xbc1aeceb	-0.0094559
75	0x3c36f060	0.011165708
76	0xbc23dd70	-0.010001525
77	0x3c184fcf	0.009296372
78	0xb93461dd	-0.00017202595
79	0xb7f76abc	-2.9494397e-05
80	0x3b19efde	0.002348892
81	0x3ba979dd	0.005171998
82	0xbb5ff235	-0.0034171466
83	0x38fab3b9	0.00011954405
84	0x3c2a9957	0.010412536
85	0x39ec213c	0.0004503819
86	0x386e406c	5.680362e-05
87	0x3c8ce458	0.017198727
88	0xbc61e199	-0.013786697
89	0x3a6884a4	0.00088698626
90	0x3979ba54	0.00023815903
91	0xba3088c8	-0.0006734249
92	0xbc54d9fa	-0.012991423
93	0xb9868d86	-0.00025663915
94	0xba0b6b77	-0.00053184427
95	0x3aa44be6	0.0012534827
96	0x39e17188	0.00042999932
97	0xbca63d0a	-0.020292778
98	0xb8c7d1c4	-9.528131e-05
99	0x3a335cff	0.00068421656
100	0x39ae41e5	0.00033236961
101	0x382c92b0	4.114461e-05
102	0x3b01e2d0	0.0019819029
103	0xbc937b03	-0.018002992
104	0xba8e2d6d	-0.0010847278
105	0x3c1e94bb	0.009679015
106	0xb93d444f	-0.00018049892
107	0x3b695ace	0.0035607102
108	0xb9e675e0	-0.00043956842
109	0xba9cba22	-0.0011957327
110	0x38c09b0c	9.184153e-05
111	0x380d8f0a	3.3750235e-05
112	0xb79cca02	-1.8690716e-05
113	0x3a08b96a	0.0005215617
114	0xbc3fe552	-0.011712389
115	0xb8c09420	-9.182864e-05
116	0xbc0a8000	-0.008453369
117	0x391c8303	0.00014926125
118	0x3ad1260d	0.0015956775
119	0x3bb25478	0.0054421984
120	0xba9f5213	-0.0012155197
121	0x3a0772b5	0.0005166934
122	0xbc96c330	-0.01840362
123	0x3980092e	0.00024420902
124	0xb9540a89	-0.0002022182
125	0xb9602d96	-0.00021379287
126	0xbaf45404	-0.0018640761
127	0x39c1cf8f	0.00036966472
128	0x3c430db2	0.011905121
129	0x3814762c	3.5396006e-05
130	0x3c8ee651	0.017443808
131	0x3c7e1728	0.015508451
132	0xbb2932b1	-0.0025817568
133	0x3a897968	0.0010488452
134	0x39a56a40	0.00031550415
135	0x38161862	3.5785495e-05
136	0x3c80d686	0.015727293
137	0xbc8ef3e0	-0.017450273
138	0x3c41aba3	0.011820707
139	0x3bb499ad	0.0055114836
140	0x39454e14	0.0001881647
141	0x3bb74c86	0.005593839
142	0x3a97f09f	0.0011592096
143	0xbc4e7784	-0.012601737
144	0xbc82a653	-0.01594845
145	0x397d5104	0.00024158141
146	0x3892e13d	7.0037764e-05
147	0xba66bd58	-0.0008802018
148	0x39d9cfb6	0.00041544222
149	0xbc47bd47	-0.012191123
150	0xba67ebd3	-0.0008847091
151	0x375e7e50	1.3261641e-05
152	0x386b3432	5.6076977e-05
153	0xb89ebae0	-7.568835e-05
154	0xb8e2a841	-0.000108078595
155	0x343cec00	1.759472e-07
156	0x396a0afb	0.0002232007
157	0x3c4ba015	0.012428303
158	0xb916985f	-0.00014361877
159	0x38ef9f86	0.00011426122
160	0x38beddf4	9.101248e-05
161	0xb98e5727	-0.00027149284
162	0x3a0ad9db	0.0005296745
163	0x3c61ca1c	0.013781097
164	0x3c8b36eb	0.01699396
165	0xb9eeaec8	-0.0004552512
166	0x3a62ad2a	0.0008647019
167	0xb71bef43	-9.294427e-06
168	0x3bfdbf8a	0.0077437805
169	0x3844fba6	4.6964407e-05
170	0x380dd240	3.381283e-05
171	0x3c771649	0.015080997
172	0xbc12012c	-0.008911412
173	0x3a8c82f7	0.0010720183
174	0x3aa234ae	0.0012375319
175	0x3747973e	1.1896538e-05
176	0x3997e8cc	0.00028974412
177	0x37e07292	2.6756232e-05
178	0xba819c73	-0.0009888544
179	0x3a8ef73a	0.001090742
180	0xb8dc99c8	-0.000105190615
181	0x3b99b716	0.004691015
182	0xbc980717	-0.018558068
183	0xbc498fe6	-0.0123023745
184	0xbc715039	-0.014728599
185	0x3a883063	0.0010390397
186	0x3aa0c5eb	0.0012266015
187	0x3a828cf3	0.0009960219
188	0xbc7c49a4	-0.015398417
189	0x3a9ee28d	0.0012121961
190	0x3c01737f	0.007901072
191	0xbc8b4150	-0.016998917
192	0xbc480814	-0.012208957
193	0xbc89459d	-0.016756827
194	0xb8471b0c	-4.7470487e-05
195	0x3c979bba	0.018506873
196	0xbc840c16	-0.016119044
197	0x3889f871	6.578945e-05
198	0xb950638b	-0.00019873508
199	0x38b06e95	8.4129315e-05
200	0xb9df9128	-0.00042642024
201	0x3c4e571e	0.012594013
202	0xba8a8c20	-0.0010570325
203	0xbc05b8dd	-0.008161751
204	0xbbb4eada	-0.0055211606
205	0x3cab49bc	0.020909183
206	0xb895be4c	-7.140319e-05
207	0xb9cfd4e9	-0.00039640747
208	0x3a6f53e5	0.0009129628
209	0x3a6ad574	0.00089581986
210	0x388429c0	6.302027e-05
211	0xbbc5204e	-0.006015814
212	0x3c798451	0.015229301
213	0x3c4a1c5e	0.012335865
214	0xb8a1daca	-7.717831e-05
215	0xb973029c	-0.00023175258
216	0xbc2b9623	-0.010472807
217	0x3cacd6b4	0.021098472
218	0xbba45249	-0.005014692
219	0x39fb818a	0.00047970965
220	0xbca4a5e5	-0.020098636
221	0xb9f96b7c	-0.00047573063
222	0xbb004718	-0.0019573625
223	0xbc817e6e	-0.015807357
224	0xbc5882c2	-0.013214769
225	0x382eb008	4.1648775e-05
226	0xba9e67c9	-0.0012085374
227	0xb9f4384d	-0.00046581254
228	0xba253056	-0.0006301453
229	0x3a4f4770	0.00079070684
230	0x39952400	0.00028446317
231	0xbbeb7a64	-0.007186221
232	0x3beb81b2	0.0071870917
233	0x3a991f22	0.0011682252
234	0xb731a570	-1.0588541e-05
235	0xbc8c2219	-0.017106103
236	0xbc88c6b4	-0.016696312
237	0x3aa270a6	0.0012393191
238	0xbc8b75b0	-0.017023891
239	0xba84e954	-0.0010140338
240	0x39980320	0.00028994028
241	0x39e5b876	0.00043815718
242	0xbb6d4a20	-0.0036207512
243	0xbbbc0f8a	-0.005739157
244	0xb927ec11	-0.00016014303
245	0x3b77838a	0.0037767612
246	0x3819cb02	3.666711e-05
247	0xbc903961	-0.017605485
248	0xbc089749	-0.00833685
249	0xb87f7f32	-6.0915198e-05
250	0x3b86c034	0.004112268
251	0x399c8c27	0.0002985906
252	0x3770dde0	1.4356774e-05
253	0xbc73c613	-0.014878768
254	0x3c8a09fe	0.016850468
255	0xba58e198	-0.0008273362

network.1.weight f4 [256]
0	0x3f7de30b	0.99174565
1	0x3f7d3a38	0.9891696
2	0x3f7f2ada	0.9967476
3	0x3f802726	1.0011947
4	0x3f803a78	1.0017843
5	0x3f80398b	1.0017561
6	0x3f79f07c	0.97632575
7	0x3f7fa295	0.99857455
8	0x3f7cafe3	0.9870588
9	0x3f82ae60	1.0209465
10	0x3f80d2e4	1.0064359
11	0x3f819517	1.0123624
12	0x3f7c3e18	0.9853225
13	0x3f7f3dae	0.9970349
14	0x3f7cd243	0.98758334
15	0x3f7fd9a1	0.9994145
16	0x3f809396	1.004504
17	0x3f7f28e9	0.996718
18	0x3f801248	1.0005579
19	0x3f80495c	1.0022388
20	0x3f80bd29	1.0057727
21	0x3f815b14	1.010592
22	0x3f7e8f81	0.9943772
23	0x3f809518	1.00455
24	0x3f7db528	0.9910455
25	0x3f80744b	1.003549
26	0x3f7fc141	0.9990426
27	0x3f7f7656	0.9978994
28	0x3f817cad	1.0116173
29	0x3f8054c1	1.0025865
30	0x3f803a14	1.0017724
31	0x3f81743e	1.0113599
32	0x3f812896	1.0090511
33	0x3f7cc17c	0.98732734
34	0x3f7b6ccf	0.98212904
35	0x3f7c8a51	0.98648554
36	0x3f80a158	1.0049238
37	0x3f806319	1.0030242
38	0x3f7e3f90	0.9931574
39	0x3f7c3865	0.9852355
40	0x3f801bc9	1.0008479
41	0x3f7d1628	0.9886193
42	0x3f7db8e2	0.99110234
43	0x3f821cd2	1.0165045
44	0x3f7e15fa	0.99252284
45	0x3f80e847	1.0070885
46	0x3f7b91b8	0.98269224
47	0x3f803bc3	1.0018238
48	0x3f81d5bc	1.0143352
49	0x3f8192f6	1.0122974
50	0x3f8071df	1.0034751
51	0x3f7d4806	0.98938024
52	0x3f7e3e12	0.9931346
53	0x3f7e3b8a	0.993096
54	0x3f7e8c6b	0.9943301
55	0x3f7e6c42	0.9938394
56	0x3f804625	1.0021406
57	0x3f7cbfb0	0.9872999
58	0x3f8064dd	1.0030781
59	0x3f7cd402	0.98761
60	0x3f7ee1fb	0.9956357
61	0x3f8220c3	1.0166248
62	0x3f7d415a	0.98927844
63	0x3f8184c4	1.0118642
64	0x3f81db39	1.0145026
65	0x3f7df46d	0.9920109
66	0x3f822151	1.0166417
67	0x3f7e2ca2	0.99286854
68	0x3f7e629e	0.9936923
69	0x3f84b23c	1.0366893
70	0x3f7e35a8	0.9930062
71	0x3f8086ad	1.00411
72	0x3f8225f2	1.016783
73	0x3f8063e7	1.0030488
74	0x3f802db6	1.001395
75	0x3f80acae	1.0052698
76	0x3f80735f	1.0035208
77	0x3f7faea6	0.9987587
78	0x3f7d602b	0.98974866
79	0x3f7f26dc	0.9966867
80	0x3f802452	1.0011084
81	0x3f7b1668	0.98081064
82	0x3f812d09	1.0091869
83	0x3f7cb1c7	0.98708767
84	0x3f831a01	1.0242311
85	0x3f7c674e	0.9859513
86	0x3f80210a	1.0010083
87	0x3f7d1853	0.9886524
88	0x3f8198f6	1.0124805
89	0x3f7d9409	0.9905401
90	0x3f7c9ac9	0.98673683
91	0x3f811b50	1.008646
92	0x3f7fa7f8	0.99865675
93	0x3f80056f	1.0001658
94	0x3f80c0f8	1.0058889
95	0x3f7b862c	0.98251605
96	0x3f7f487e	0.9971999
97	0x3f7fe8af	0.9996442
98	0x3f7dc116	0.9912275
99	0x3f810901	1.0080873
100	0x3f81ed60	1.0150566
101	0x3f8077d4	1.0036569
102	0x3f807f25	1.0038801
103	0x3f8328a9	1.0246783
104	0x3f7e38f0	0.9930563
105	0x3f7b2624	0.9810507
106	0x3f7b8235	0.98245555
107	0x3f7ebc18	0.9950576
108	0x3f7ef5fa	0.9959408
109	0x3f7db57a	0.99105036
110	0x3f7c66c7	0.98594326
111	0x3f81c4e7	1.0138215
112	0x3f7e3862	0.99304783
113	0x3f816f7b	1.0112146
114	0x3f7d5519	0.98957974
115	0x3f80471c	1.0021701
116	0x3f7ddbc1	0.9916344
117	0x3f7f7045	0.99780685
118	0x3f7bdf52	0.98387635
119	0x3f7e81de	0.9941691
120	0x3f818945	1.0120016
121	0x3f7b548c	0.98175883
122	0x3f804c84	1.0023351
123	0x3f7e300a	0.9929205
124	0x3f7f1607	0.99642986
125	0x3f823334	1.0171876
126	0x3f8125d6	1.0089672
127	0x3f7d54a5	0.9895728
128	0x3f7f02de	0.9961375
129	0x3f800c58	1.0003767
130	0x3f7e4a19	0.99331814
131	0x3f7cc0e2	0.98731816
132	0x3f7ef3b2	0.995906
133	0x3f7df7df	0.99206346
134	0x3f8116a1	1.0085031
135	0x3f7b147f	0.9807815
136	0x3f7e56a4	0.99350953
137	0x3f80791c	1.003696
138	0x3f809d53	1.0048012
139	0x3f7f2b6d	0.9967564
140	0x3f80cfd4	1.0063424
141	0x3f826fd7	1.0190381
142	0x3f7bbe40	0.98337173
143	0x3f7e6694	0.9937527
144	0x3f7ee20f	0.9956369
145	0x3f7fb80a	0.99890196
146	0x3f7f282d	0.9967068
147	0x3f80a701	1.0050966
148	0x3f7db188	0.99099016
149	0x3f7b5e70	0.98190975
150	0x3f819d7f	1.0126189
151	0x3f80f1f1	1.0073835
152	0x3f7d443c	0.9893224
153	0x3f7b0275	0.98050624
154	0x3f809f7b	1.004867
155	0x3f7e1f35	0.9926637
156	0x3f805348	1.0025415
157	0x3f813b4a	1.0096219
158	0x3f7e068d	0.99228746
159	0x3f7fc0d6	0.9990362
160	0x3f807223	1.0034832
161	0x3f830c79	1.0238181
162	0x3f7ee881	0.9957352
163	0x3f7e6f1f	0.9938831
164	0x3f7f5ca3	0.9975073
165	0x3f823829	1.0173389
166	0x3f807490	1.0035572
167	0x3f8071b7	1.0034703
168	0x3f7c6ae6	0.98600614
169	0x3f82942f	1.0201472
170	0x3f7deab2	0.9918624
171	0x3f7c8b75	0.98650295
172	0x3f7b20db	0.9809701
173	0x3f7bf375	0.9841836
174	0x3f80c26f	1.0059336
175	0x3f82bcbe	1.021385
176	0x3f81286a	1.0090458
177	0x3f7ccbc5	0.9874843
178	0x3f7c2bc3	0.98504275
179	0x3f8416ae	1.0319421
180	0x3f7d16fb	0.9886319
181	0x3f7fd3a8	0.99932337
182	0x3f7db98d	0.99111253
183	0x3f806607	1.0031136
184	0x3f7f7da6	0.998011
185	0x3f7ebb80	0.9950485
186	0x3f7f7dc5	0.99801284
187	0x3f81bdad	1.013601
188	0x3f7eb55e	0.99495494
189	0x3f7f80d2	0.9980594
190	0x3f7d06de	0.98838603
191	0x3f8170d4	1.0112557
192	0x3f8139d6	1.0095775
193	0x3f7e3890	0.9930506
194	0x3f7eda56	0.99551904
195	0x3f7fb929	0.99891907
196	0x3f7f4425	0.99713355
197	0x3f80f5cc	1.0075011
198	0x3f823511	1.0172445
199	0x3f7f4a2d	0.9972256
200	0x3f7d21e4	0.9887984
201	0x3f7e88a6	0.9942726
202	0x3f7bcf9d	0.9836367
203	0x3f828fe2	1.020016
204	0x3f7ef8c8	0.9959836
205	0x3f7c65a9	0.9859262
206	0x3f807ac7	1.0037469
207	0x3f804088	1.0019693
208	0x3f7b0d92	0.9806758
209	0x3f7d131c	0.98857284
210	0x3f820884	1.0158849
211	0x3f807e51	1.0038549
212	0x3f7ef3c3	0.995907
213	0x3f805918	1.0027189
214	0x3f7d8e28	0.9904504
215	0x3f7d8742	0.9903451
216	0x3f80ee61	1.0072747
217	0x3f81326b	1.0093511
218	0x3f7e8c5f	0.9943294
219	0x3f7f5c4b	0.997502
220	0x3f7f1405	0.9963992
221	0x3f7974ea	0.9744402
222	0x3f7d221c	0.9888017
223	0x3f8009b9	1.0002967
224	0x3f807722	1.0036356
225	0x3f7bc4fd	0.98347455
226	0x3f7e2595	0.99276096
227	0x3f7fceda	0.99925005
228	0x3f829bd8	1.020381
229	0x3f80744c	1.0035491
230	0x3f7c7378	0.9861369
231	0x3f7f278b	0.9966971
232	0x3f7d7c0a	0.99017394
233	0x3f7bf873	0.9842598
234	0x3f7d09eb	0.9884326
235	0x3f819338	1.0123053
236	0x3f7cf11a	0.9880539
237	0x3f7e1778	0.9925456
238	0x3f7fc220	0.99905586
239	0x3f813099	1.0092956
240	0x3f7b23c2	0.9810144
241	0x3f7c1caf	0.9848127
242	0x3f807a2f	1.0037287
243	0x3f80c473	1.0059952
244	0x3f80ea01	1.0071412
245	0x3f7e3964	0.9930632
246	0x3f7e5e28	0.9936242
247	0x3f8025a7	1.001149
248	0x3f7c78cb	0.98621815
249	0x3f80307c	1.0014796
250	0x3f80b6fb	1.0055841
251	0x3f7e1c59	0.99262005
252	0x3f81a4ea	1.0128453
253	0x3f805aef	1.0027751
254	0x3f818c95	1.0121027
255	0x3f7df82c	0.99206805

network.1.bias f4 [256]
0	0x3c6e281e	0.014535932
1	0xbba6aaa0	-0.005086258
2	0xba4ad36d	-0.00077371934
3	0xbc0e4f20	-0.008685857
4	0xbac2ae96	-0.0014853056
5	0x3b72b6de	0.0037035267
6	0xbc44f2b7	-0.012020758
7	0xbc1a65e7	-0.0094237095
8	0xbc4b3122	-0.012401851
9	0x3c63b0fd	0.013897178
10	0x3c1b3b8f	0.009474649
11	0x3c98b9a3	0.018643206
12	0xbc6bf528	-0.0144017115
13	0x3b87afb7	0.00414082
14	0xbc83178c	-0.016002439
15	0x3ba9db78	0.0051836334
16	0x3c56b952	0.013105707
17	0xbbe55d59	-0.0069996533
18	0x3c201b5f	0.009772151
19	0x3bed9b7d	0.0072512017
20	0x3bcea7f7	0.006306644
21	0x3c737e23	0.014861616
22	0x3b0d5d0a	0.0021570348
23	0x3c8cb524	0.017176218
24	0x3b4343cc	0.0029795049
25	0x3b1a3292	0.0023528677
26	0x3b96308d	0.0045834244
27	0xbbc6962e	-0.0060603833
28	0x3c623152	0.013805704
29	0xbc31ddd2	-0.010856109
30	0xbc58a23f	-0.013222276
31	0x3c4ee449	0.01262767
32	0x3c41f82f	0.011838957
33	0x3bcacaaf	0.0061887125
34	0xbc91c606	-0.01779462
35	0xbbcd9030	-0.006273292
36	0xbb316af6	-0.002707181
37	0x3c3de111	0.011589305
38	0xbb29812b	-0.0025864344
39	0xbcb848e2	-0.02249569
40	0x3c0d5a3d	0.0086274715
41	0xbc5bb955	-0.013410886
42	0xbb0b5a07	-0.0021263377
43	0x3ca6b17f	0.020348309
44	0xbb52adb7	-0.0032147
45	0x3cf58f2c	0.029975496
46	0xbc0b9aed	-0.008520824
47	0xbc415e72	-0.011802303
48	0x3bcb2ed1	0.0062006493
49	0x3cbb623d	0.022873992
50	0xbbea0dd5	-0.007142762
51	0xbab5ab0a	-0.0013860178
52	0xbb87efd2	-0.004148462
53	0x3acd02f6	0.0015641141
54	0x39514958	0.00019959116
55	0xbb5e8b4a	-0.0033957534
56	0x3ae55149	0.0017495538
57	0x3a8eae48	0.001088568
58	0x3d0a5ff3	0.03378291
59	0xbb807b5b	-0.003920955
60	0xbbe0f565	-0.006865191
61	0x3c4c4122	0.012466701
62	0xbbe0b91e	-0.006858005
63	0x3b0ba484	0.0021307776
64	0x3c7768e8	0.015100695
65	0xbadfc4ae	-0.0017072165
66	0x3c8d502c	0.017250143
67	0x3bdf14bd	0.006807892
68	0xbc30f3cb	-0.010800312
69	0x3cf21561	0.02955121
70	0xbb0a3f74	-0.002109495
71	0x3bfd5f3c	0.0077323
72	0x3c174f46	0.009235209
73	0x3b26ce0f	0.002545241
74	0x3c4b8d97	0.012423894
75	0x3c050f74	0.00812136
76	0xbb172f7d	-0.0023069077
77	0x3c1a3cef	0.009413942
78	0xba126b71	-0.0005585468
79	0xb99f3ecf	-0.0003037364
80	0xbb0bd0ac	-0.0021334095
81	0xbbbe8c45	-0.0058150613
82	0x3cafffeb	0.021484336
83	0xbbb2b494	-0.0054536555
84	0x3ca39457	0.019968195
85	0xbc62245e	-0.013802616
86	0xbbe3aa41	-0.006947786
87	0x3bdc12ce	0.006716109
88	0x3c96388e	0.018337514
89	0x3b39f470	0.0028374456
90	0xbcb64c94	-0.022253312
91	0x3c686ef5	0.0141866105
92	0xbb6ea188	-0.0036412198
93	0xb9401f14	-0.00018322124
94	0x3a51e6d2	0.0008007112
95	0xbbbd529e	-0.005777671
96	0xbb111f88	-0.0022144038
97	0x3c37ccf8	0.011218302
98	0xbc0379ca	-0.008024642
99	0x3c413573	0.011792528
100	0x3a9843de	0.0011616906
101	0xbc0ff4d0	-0.008786395
102	0x3c009d52	0.007850008
103	0x3ca49a5c	0.020093136
104	0xb9c75817	-0.0003802187
105	0xbcbadd41	-0.02281058
106	0xbc53ea46	-0.012934273
107	0xbbfc4161	-0.0076982235
108	0xbc092ec3	-0.008372965
109	0xbc381fa9	-0.011238017
110	0xbc3b7953	-0.0114425
111	0x3ca2ca0f	0.01987174
112	0xbc23c21e	-0.009995012
113	0x3c9bc70c	0.019015811
114	0x3b2f3d09	0.002673926
115	0x3b978ede	0.0046251854
116	0xb9cd63b4	-0.00039174932
117	0xbb300470	-0.0026858114
118	0xbb186a4b	-0.0023256715
119	0x3be0b6f3	0.0068577467
120	0xb9e81d0b	-0.00044272127
121	0xbc8538b9	-0.016262399
122	0xbb216bed	-0.002463098
123	0x3a8b75ee	0.0010640004
124	0xbc8787ff	-0.01654434
125	0x3cb28ee6	0.021796655
126	0x3c04ab05	0.008097415
127	0xbc8e169a	-0.017344762
128	0xbb9f6080	-0.0048637986
129	0xbb97a404	-0.0046277065
130	0xbb044b6b	-0.0020186554
131	0xbbe1813b	-0.0068818606
132	0x3b06479c	0.002048946
133	0xbc58949c	-0.013219025
134	0x3b8c4566	0.004280734
135	0xbb5811fe	-0.0032969709
136	0xbb46e145	-0.0030346673
137	0xbb5d705b	-0.0033788893
138	0x3c0b05ed	0.0084853
139	0xbc9e4aa9	-0.01932271
140	0x3bf5b4c4	0.0074983556
141	0x3bdda034	0.0067634825
142	0xbc3a0f09	-0.011356124
143	0x3b45bede	0.003017358
144	0x3b2ef433	0.0026695847
145	0xbb6092a9	-0.0034267104
146	0xbbadd3b6	-0.005304779
147	0x3c4149ec	0.0117974095
148	0xbbd47bcc	-0.0064844843
149	0xbc1d3ef9	-0.009597533
150	0x3c0801e8	0.008301236
151	0x3c0d9c0b	0.008643161
152	0xbb587854	-0.0033030706
153	0xbc94a528	-0.018145159
154	0xbb09e18a	-0.0021038973
155	0x39dd89e1	0.00042255133
156	0xbbae4ccc	-0.0053192135
157	0x3b89295b	0.004185838
158	0xbc8369e0	-0.016041696
159	0xbc7827a2	-0.015146168
160	0x3bed1f4a	0.007236396
161	0x3ca2d271	0.019875737
162	0xbc1f18cc	-0.009710502
163	0xbc09c569	-0.008408883
164	0xbac41573	-0.0014960006
165	0xbb81bc46	-0.0039592115
166	0x3aef0c80	0.0018237978
167	0x39c06ab0	0.00036700582
168	0xbc1a43dc	-0.009415593
169	0x3d135ce1	0.035977248
170	0xbb612693	-0.0034355267
171	0xbbd69119	-0.0065480587
172	0xbb0bd47a	-0.0021336363
173	0xbc7c17b8	-0.015386514
174	0x3c65aa0d	0.014017594
175	0x3c625c52	0.013815956
176	0xbaa75ecf	-0.0012769344
177	0xbc85006a	-0.016235549
178	0xbc4eff18	-0.012634061
179	0x3c6267b8	0.013818674
180	0xbbacf503	-0.005278231
181	0xbd024391	-0.031802718
182	0xbbf6f762	-0.0075368145
183	0x3ca5590c	0.020184062
184	0x3b88bf09	0.004173164
185	0xbba19429	-0.004930992
186	0x3c73e974	0.0148872025
187	0x3ccdabdb	0.025106361
188	0x369c8050	4.6641e-06
189	0x3b117ce5	0.0022199687
190	0xbbca827a	-0.006180105
191	0x3b2e3cb6	0.002658648
192	0x3c1497a0	0.009069353
193	0xbc807039	-0.015678512
194	0xbc111db7	-0.008857182
195	0x3bf4aa83	0.0074666156
196	0xbbb5f954	-0.005553404
197	0x3c9a64be	0.018846866
198	0x3c30f9c1	0.0108017335
199	0x3a324d00	0.0006801635
200	0xbbf99c2d	-0.0076174946
201	0x3b4d5703	0.003133238
202	0x3a090c2d	0.00052279496
203	0x3d075310	0.0330382
204	0x3cabb589	0.020960586
205	0xbb65d60b	-0.0035070207
206	0xbc712bd8	-0.014719926
207	0x3c069e89	0.008216509
208	0xbc6dd566	-0.01451621
209	0x3c0380af	0.008026286
210	0x3bb6a703	0.0055741086
211	0xbbe82e3c	-0.0070855897
212	0x3c709f7c	0.014686462
213	0x3a6e3d09	0.00090880744
214	0x3a139efa	0.00056312943
215	0xbbaaa6aa	-0.005207856
216	0x3b8668f0	0.004101865
217	0xbc1682e4	-0.00918648
218	0xbb58bfcf	-0.0033073311
219	0xbc494a66	-0.012285804
220	0xbc52e501	-0.012871982
221	0xbca24460	-0.019807994
222	0xbc403ee4	-0.011733744
223	0xbb0abe84	-0.0021170685
224	0x3c28c3cf	0.010300591
225	0xbc80c127	-0.015717102
226	0xbc65d9ae	-0.01402895
227	0x3a43df98	0.0007471978
228	0x3c077c1a	0.008269334
229	0x3ba40c41	0.0050063436
230	0xbc074bcc	-0.0082578175
231	0xba8cbbb1	-0.0010737089
232	0x3b16b90c	0.002299848
233	0xbc5cf0b3	-0.013485122
234	0xbca1b69f	-0.0197404
235	0x3b834564	0.0040060747
236	0xbb8febd0	-0.0043921247
237	0xbb03e0ca	-0.0020122998
238	0x3ad2f5c8	0.0016094977
239	0x3b0eb0d6	0.0021772883
240	0xbbcf6ea5	-0.0063303285
241	0xbc9c9eb2	-0.01911864
242	0x39ee07b8	0.00045400648
243	0x3c0b5dc9	0.008506247
244	0x3c6fcec9	0.014636704
245	0x3ae03a3f	0.0017107202
246	0xbbf5ddcb	-0.0075032464
247	0x3b3a40a8	0.0028419886
248	0xbc3dff64	-0.011596534
249	0xba8009e1	-0.0009768569
250	0x3b298858	0.002586862
251	0xbbd79f1a	-0.0065802457
252	0xbbdc865c	-0.006729884
253	0xbb311bba	-0.0027024583
254	0x3c4322a3	0.0119101135
255	0xbc392e77	-0.011302582

network.1.running_mean f4 [256]
0	0x3ba42754	0.005009571
1	0x39aecd4c	0.00033340824
2	0xba3ef0d0	-0.00072838087
3	0xbcb386b4	-0.021914817
4	0xbc142cf1	-0.009043918
5	0xbc45c9b6	-0.012072017
6	0xbc1cc729	-0.009568968
7	0xbb9357f6	-0.0044965697
8	0xbb51acad	-0.0031993792
9	0xbca8397b	-0.020535221
10	0x3c290856	0.010316929
11	0x3c2d4689	0.010575899
12	0xbb2a3d1c	-0.0025976365
13	0x3d0c3c7c	0.03423737
14	0x3ba5b314	0.005056748
15	0x3c0e4dce	0.008685542
16	0x3aea5780	0.001787886
17	0xbc10fb66	-0.008849001
18	0xbc880616	-0.016604465
19	0xbb8816f7	-0.0041531282
20	0x3b90a1c4	0.004413815
21	0x3b8300f8	0.003997918
22	0x3b8adfb8	0.004238095
23	0xbb3cb610	-0.002879504
24	0xbc2e511f	-0.010639458
25	0xba3a1310	-0.00070981774
26	0xbc3755a5	-0.011189853
27	0xbc089b40	-0.008337796
28	0x3c82c9c8	0.015965357
29	0xbbbaf792	-0.005705782
30	0x3cabab0a	0.020955581
31	0xbb7a56ed	-0.0038198784
32	0x3b163148	0.0022917558
33	0x3b8032a6	0.0039122878
34	0x3b12de04	0.0022410164
35	0xbbbb9172	-0.0057241255
36	0xbce9f980	-0.028561354
37	0xbc8582e0	-0.016297758
38	0xbba7629a	-0.00510819
39	0x3bfe11bb	0.0077535785
40	0xba509bc8	-0.00079577835
41	0x3d086271	0.033297006
42	0xbba31f81	-0.004978121
43	0x3c3133fe	0.010815619
44	0xbc05767a	-0.008145923
45	0x3c59b758	0.013288341
46	0xbcbf7059	-0.023369001
47	0xbbb54356	-0.0055317087
48	0xbc3cb4fe	-0.011517761
49	0x3c1bf974	0.0095199235
50	0x3d14409e	0.036194436
51	0xbb9119b5	-0.0044281133
52	0xbc38c558	-0.011277519
53	0x3d159053	0.03651459
54	0xba5738e0	-0.0008210074
55	0x3c93075b	0.017947843
56	0xbbf107d0	-0.0073556677
57	0xbc8c9958	-0.017162964
58	0xbc18aa24	-0.009317908
59	0x3a6abdf0	0.00089546945
60	0x3b92d35a	0.0044807615
61	0xbc068a29	-0.008211651
62	0xbba15a06	-0.0049240617
63	0x3b1c76e8	0.0023874585
64	0xbb63be40	-0.003475085
65	0xbba725b2	-0.005100929
66	0x3baee351	0.005337157
67	0x3d191cc7	0.03738096
68	0x3bd9451a	0.006630552
69	0xba96f0c0	-0.0011515841
70	0xbb56ccf6	-0.0032775975
71	0xbc6b89f3	-0.014376151
72	0xba6e4f60	-0.0009090807
73	0x3bf7b8f8	0.007559892
74	0xbc35647e	-0.0110713225
75	0x3bfa2936	0.0076343073
76	0xbc5fde7a	-0.013663882
77	0x3cb1ac4b	0.021688601
78	0xbbb17517	-0.0054155695
79	0x3b92a8c4	0.004475685
80	0x3bc73b75	0.006080086
81	0x3beabed0	0.00716386
82	0x3ad078b0	0.0015905108
83	0x3b4bb26e	0.0031081694
84	0x3bec95bb	0.0072199977
85	0x3c8e350a	0.017359275
86	0x3c1d8074	0.009613145
87	0x3cd893f8	0.026437744
88	0xbcdcd216	-0.026955646
89	0xbc0851cc	-0.008320283
90	0x3be47b8d	0.006972736
91	0xbbf7ba71	-0.0075600673
92	0xbc541f32	-0.012946891
93	0x3c3ab8c9	0.011396595
94	0xbad47935	-0.0016210439
95	0xb9b1ec60	-0.00033936184
96	0x3b2de14c	0.0026531992
97	0xbcd41b9c	-0.025892071
98	0x3c50c5fd	0.012742517
99	0x3c0df3fa	0.008664126
100	0xbba273b1	-0.004957639
101	0xbb3cbc90	-0.0028798915
102	0x3c4419d2	0.011969047
103	0xbca773b8	-0.020440921
104	0xbc212653	-0.009835797
105	0x3ba3d284	0.0049994607
106	0xbbcdbb94	-0.0062784646
107	0xbbb20b09	-0.0054334444
108	0x3bcdecf0	0.0062843487
109	0xbb50794e	-0.0031810584
110	0xbb6a14a0	-0.003571786
111	0x3c28c043	0.010299745
112	0xb9397aa0	-0.00017688656
113	0xbb2c271a	-0.0026268424
114	0xbc977ee0	-0.018493116
115	0xbc278b66	-0.010226106
116	0xbb87ddba	-0.004146305
117	0xbbb2a2c2	-0.005451531
118	0x3c453d58	0.012038551
119	0x3c25465b	0.010087575
120	0x3bfa05e1	0.0076300954
121	0x3b4abbca	0.0030934685
122	0xbc97d1e6	-0.018532705
123	0xbba5f4a0	-0.005064562
124	0x3a8ed8b8	0.0010898327
125	0x3b89f638	0.0042102598
126	0xba2b5f8c	-0.000653737
127	0x3c37ac03	0.011210444
128	0x3c78e170	0.015190467
129	0xbba0c176	-0.004905875
130	0x3cce69d8	0.025196955
131	0x3c987be2	0.01861376
132	0xbc71537a	-0.014729375
133	0x3c3181ee	0.0108342
134	0x3b21585c	0.0024619317
135	0xbb1d3854	-0.0023989873
136	0x3cf98166	0.03045721
137	0xbc878ad0	-0.016545683
138	0x3c8d7d28	0.017271593
139	0x3bfb8136	0.0076753153
140	0xbc5b0c21	-0.013369591
141	0x3bd289fe	0.0064251414
142	0xbacc3018	-0.0015578298
143	0xbca1a519	-0.019732045
144	0xbccc93d1	-0.024972828
145	0x3b37d6f4	0.0028051706
146	0x3b618698	0.00344125
147	0xbb90f7ce	-0.004424072
148	0xbbedde8a	-0.0072591947
149	0xbc83307a	-0.016014326
150	0xbc37fb97	-0.011229417
151	0xbba320f6	-0.0049782945
152	0xbbf1f1c8	-0.007383559
153	0xba6e5b60	-0.00090925954
154	0xbb43c2a4	-0.0029870654
155	0xba73b070	-0.00092960056
156	0xbc26e087	-0.010185367
157	0x3cc25ed2	0.023726854
158	0x3b80dfc8	0.003932927
159	0x3c15c8dd	0.009142128
160	0xbadd8e4b	-0.0016903369
161	0xbc0fc423	-0.00877479
162	0xbbb05988	-0.0053817667
163	0x3c9ce536	0.019152265
164	0x3c2e8888	0.010652669
165	0x3c274e30	0.010211512
166	0xbbdbcf3d	-0.0067080543
167	0xbaf2d578	-0.0018526753
168	0x3c3dc284	0.011582021
169	0x3c344633	0.011003065
170	0xbc88247a	-0.016618956
171	0x3cc53827	0.024074627
172	0xbc801838	-0.015636548
173	0xbbbe2c85	-0.005803647
174	0xb9737380	-0.00023217313
175	0x3c485faa	0.012229839
176	0x3c0767ce	0.008264495
177	0x3b80ff1e	0.0039366623
178	0xbbe3f33e	-0.006956487
179	0x3c287a18	0.010283016
180	0xbb9e0498	-0.004822325
181	0x3af3bac8	0.0018595094
182	0xbcb8340e	-0.02248576
183	0xbc904432	-0.017610643
184	0xbc6893d7	-0.014195404
185	0x3c98bfff	0.018646238
186	0xbadbcfcc	-0.0016770302
187	0x3a374b50	0.00069921184
188	0xbc958b3f	-0.018254874
189	0x3b9e31d2	0.0048277164
190	0x3cba1778	0.022716269
191	0xbc7e3d76	-0.015517583
192	0xbc5c8594	-0.013459582
193	0xbcd8b5a9	-0.02645381
194	0xbb0bea85	-0.0021349501
195	0x3cbeead6	0.023305338
196	0xbc440ba8	-0.01196567
197	0x3ba74e76	0.005105789
198	0x3c039670	0.008031473
199	0x3b9966ec	0.0046814587
200	0xbbd1b401	-0.006399632
201	0x3cb35ebc	0.021895759
202	0x3b618cea	0.0034416267
203	0xbbc8be11	-0.0061261733
204	0xbc1dfa3a	-0.009642178
205	0x3ce40425	0.027834008
206	0x3b7cbf08	0.0038566012
207	0x3bb1de6c	0.005428126
208	0x3b7f0ff0	0.0038919412
209	0x3c65346f	0.013989552
210	0x3bb97991	0.005660244
211	0xbbc92cc6	-0.0061393706
212	0x3cfff8a6	0.031246495
213	0x3c8dabf7	0.017293913
214	0x3b87af94	0.0041408036
215	0x3b7fd7a3	0.0039038442
216	0xbca940ce	-0.020660784
217	0x3ce5910a	0.028023262
218	0xb93a0840	-0.00017741416
219	0xba5657c0	-0.0008176528
220	0xbcf0f321	-0.029412808
221	0x3b8348b7	0.004006471
222	0xbc53fc6f	-0.012938603
223	0xbce71e16	-0.028212588
224	0xbca9f1d2	-0.020745192
225	0x3ba77230	0.0051100478
226	0x3affde5e	0.0019521227
227	0x3b9886af	0.0046547274
228	0x3c09f62f	0.008420511
229	0x3b4622b7	0.0030233094
230	0x3be28103	0.006912352
231	0xbc3bb054	-0.011455614
232	0x3bfbaa4a	0.007680212
233	0x3c5f35ed	0.013623697
234	0x3b8169b7	0.00394937
235	0xbce75868	-0.028240398
236	0xbca74211	-0.020417245
237	0xbb81b7b5	-0.003958667
238	0xbcc29a57	-0.023755236
239	0x3b7dab34	0.0038706781
240	0xbaee2596	-0.001816916
241	0xbbab608e	-0.005230016
242	0x3a527b20	0.00080292113
243	0xbbc5b1a8	-0.006033141
244	0x3b9ae0b3	0.0047264933
245	0x3c0f5413	0.008748072
246	0xbb8e2055	-0.0043373504
247	0xbcaa8563	-0.020815557
248	0x3aa8aac5	0.0012868276
249	0x3be1f3bd	0.006895511
250	0x3c2fdb6e	0.010733468
251	0xbc540ae7	-0.012942052
252	0x3b98cd3c	0.0046631377
253	0xbd098494	-0.033573702
254	0x3cf8dbec	0.030378304
255	0xbba47e2a	-0.0050199227

network.1.running_var f4 [256]
0	0x3ea54019	0.32275465
1	0x3e9dacd6	0.30795926
2	0x3e6cd9c9	0.23129953
3	0x3ea9a780	0.33135605
4	0x3e6f9e35	0.23400195
5	0x3e9f810e	0.31153148
6	0x3e9b9c54	0.30392706
7	0x3ec34d9e	0.38145155
8	0x3eb0f07e	0.3455848
9	0x3e82453d	0.2544345
10	0x3e70e0dc	0.23523277
11	0x3e9aae2e	0.30211014
12	0x3e8960e1	0.26831725
13	0x3eb7536f	0.35805842
14	0x3e5fd26b	0.21857612
15	0x3ea70cbd	0.32626906
16	0x3ea0fa87	0.31441137
17	0x3e98cc85	0.29843536
18	0x3eb59bb5	0.35470358
19	0x3ebf128b	0.37318835
20	0x3ea4cd59	0.32187918
21	0x3ea5900d	0.32336465
22	0x3e89a5d1	0.2688432
23	0x3e90d4fb	0.2828749
24	0x3ed7573a	0.42058736
25	0x3ea19a40	0.31562996
26	0x3e8223a2	0.2541781
27	0x3e8d0e78	0.275501
28	0x3ed5a710	0.4172902
29	0x3e96fb90	0.29488802
30	0x3eb35993	0.35029277
31	0x3e900d15	0.2813498
32	0x3e8e9f24	0.2785579
33	0x3ebcb624	0.36857712
34	0x3e806cf8	0.25083137
35	0x3e840648	0.25786042
36	0x3ee7bb50	0.45260096
37	0x3e82f4f2	0.25577503
38	0x3e7612a7	0.24030553
39	0x3e97155b	0.2950848
40	0x3e9e6bf7	0.30941746
41	0x3e730018	0.23730505
42	0x3e9610d7	0.29309723
43	0x3e86edae	0.2635321
44	0x3e959003	0.29211435
45	0x3eb968a8	0.3621266
46	0x3e80b4b4	0.25137866
47	0x3e82b448	0.2552817
48	0x3eb7b897	0.35883018
49	0x3eab82ac	0.33498132
50	0x3e864de5	0.26231304
51	0x3e8e659c	0.27811897
52	0x3ea86504	0.3288957
53	0x3e839b4a	0.25704414
54	0x3e739bd7	0.23789917
55	0x3e9ef2a0	0.31044483
56	0x3e742731	0.23843075
57	0x3e835741	0.25652507
58	0x3edb4794	0.42828047
59	0x3ea74c5f	0.32675454
60	0x3e80a0f4	0.25122797
61	0x3ea19dcf	0.3156571
62	0x3eb2031f	0.34768006
63	0x3ea23f5a	0.31688958
64	0x3e5f3254	0.21796542
65	0x3ea879ec	0.3290552
66	0x3e947ece	0.29002994
67	0x3e87543c	0.26431453
68	0x3e95c49d	0.29251567
69	0x3ea2c947	0.31794187
70	0x3e805495	0.2506453
71	0x3eb4acc5	0.35288063
72	0x3ed447de	0.4146108
73	0x3e9d2c5c	0.30697906
74	0x3eac0925	0.33600727
75	0x3e96f83e	0.2948627
76	0x3ec28515	0.3799216
77	0x3ed1420c	0.40870702
78	0x3ebe8518	0.37210917
79	0x3e991760	0.29900646
80	0x3e9496e6	0.29021376
81	0x3eb5a284	0.35475552
82	0x3ebcb6f5	0.36858335
83	0x3e9aae4b	0.302111
84	0x3eb5620d	0.3542637
85	0x3e8cf373	0.27529487
86	0x3e6450b5	0.22296412
87	0x3ed745d9	0.42045477
88	0x3e99381d	0.29925624
89	0x3e9b3195	0.30311266
90	0x3e8874a7	0.266515
91	0x3e93371b	0.2875298
92	0x3e9a95f7	0.3019254
93	0x3e8cb1f3	0.27479514
94	0x3e84a597	0.25907585
95	0x3e8958a2	0.26825434
96	0x3ec3819c	0.38184822
97	0x3eb312f3	0.34975395
98	0x3eb2ae06	0.34898394
99	0x3e9967af	0.29961917
100	0x3e6104ad	0.2197444
101	0x3e99249c	0.29910743
102	0x3ea361ac	0.31910455
103	0x3e9280de	0.28613943
104	0x3ea43697	0.320729
105	0x3e984828	0.2974255
106	0x3ea7cabf	0.3277187
107	0x3e87d4a6	0.26529425
108	0x3ec13708	0.37737298
109	0x3e9a9c47	0.30197355
110	0x3eb48770	0.3525958
111	0x3eb41990	0.35175753
112	0x3e6bf008	0.23040783
113	0x3e9e23b8	0.30886626
114	0x3e9723cf	0.29519507
115	0x3eac75c1	0.3368359
116	0x3e91ae1f	0.28453156
117	0x3e9135a6	0.28361243
118	0x3ea496c8	0.32146287
119	0x3e89785a	0.26849633
120	0x3e7a9899	0.24472274
121	0x3e94048a	0.28909713
122	0x3e973fe2	0.29540926
123	0x3e8eb38c	0.27871358
124	0x3e848e59	0.25889853
125	0x3e8e8ef1	0.2784343
126	0x3e875a5e	0.26436132
127	0x3ea8a2d4	0.32936728
128	0x3e71eb5f	0.23624943
129	0x3e96f23d	0.29481688
130	0x3eafdb60	0.34347057
131	0x3e6961ba	0.22791186
132	0x3ea4527e	0.32094187
133	0x3ea42598	0.32059932
134	0x3eb74477	0.35794422
135	0x3eb3a947	0.35090086
136	0x3eacca52	0.33748108
137	0x3e854b71	0.2603412
138	0x3ea64d08	0.32480645
139	0x3e96af88	0.29430795
140	0x3e74f893	0.23922949
141	0x3e92f929	0.2870572
142	0x3eb9ab4e	0.36263508
143	0x3ec0a153	0.3762308
144	0x3e9a1bc4	0.30099308
145	0x3e781ee4	0.24230534
146	0x3eaf46b9	0.34233645
147	0x3eb314d5	0.3497683
148	0x3eacd39c	0.33755195
149	0x3ea1df6d	0.31615773
150	0x3eb76ff7	0.3582761
151	0x3e8e5fe0	0.27807522
152	0x3e5a1dda	0.2130045
153	0x3ecc81d7	0.3994281
154	0x3e7e3b87	0.24827395
155	0x3eae0ccf	0.33994147
156	0x3e89c365	0.26906887
157	0x3e992a52	0.299151
158	0x3e865607	0.2623751
159	0x3ea96019	0.3308113
160	0x3e879ba7	0.2648594
161	0x3e9b5df0	0.30345106
162	0x3e8a5220	0.2701578
163	0x3e9c9331	0.30581048
164	0x3e8b2f0a	0.27184325
165	0x3e9d9d79	0.30784205
166	0x3ea607c9	0.32427815
167	0x3ebbcd35	0.36679998
168	0x3e979fd0	0.29614115
169	0x3e9f0c62	0.31064135
170	0x3ebc8522	0.36820322
171	0x3ead4cde	0.33847708
172	0x3eb8cfe7	0.36096117
173	0x3eb4d046	0.3531515
174	0x3ea9e5b0	0.3318305
175	0x3e9c640b	0.30545077
176	0x3e6c3230	0.2306602
177	0x3ebb3456	0.36563367
178	0x3e7bfcf4	0.24608213
179	0x3ea1f0bd	0.3162898
180	0x3e89aba3	0.2688876
181	0x3e88653f	0.26639745
182	0x3e697a92	0.22800663
183	0x3e931fc3	0.2873517
184	0x3ea761cd	0.32691804
185	0x3e9d755c	0.307536
186	0x3eaeb434	0.3412186
187	0x3e84f417	0.25967476
188	0x3e8abd4c	0.27097547
189	0x3eb6b5fc	0.35685718
190	0x3e8ce88b	0.27521166
191	0x3e8c5ebe	0.27416033
192	0x3e90eafc	0.2830428
193	0x3eaaea45	0.33381858
194	0x3e9b9a6d	0.30391255
195	0x3e68d252	0.22736481
196	0x3ea7af67	0.3275101
197	0x3ea5704a	0.32312232
198	0x3e9fe3b5	0.31228414
199	0x3e8079ce	0.2509293
200	0x3e877beb	0.2646173
201	0x3e9cab0b	0.30599245
202	0x3e923f54	0.2856394
203	0x3ec21a3c	0.3791064
204	0x3ebc0802	0.3672486
205	0x3e9f2be9	0.31088188
206	0x3e9e4fb6	0.3092019
207	0x3e97b822	0.2963267
208	0x3ea173e3	0.31533727
209	0x3ebb874b	0.36626658
210	0x3ea56098	0.32300258
211	0x3ea96229	0.33082703
212	0x3ead9967	0.339061
213	0x3e8af29f	0.2713823
214	0x3e8468d8	0.2586124
215	0x3eab2fbc	0.33434856
216	0x3e855e44	0.2604848
217	0x3e83387d	0.25629035
218	0x3e883f9c	0.2661103
219	0x3e562113	0.20911054
220	0x3ec6e2cd	0.3884491
221	0x3e9ab9c2	0.30219847
222	0x3e8551e6	0.26039046
223	0x3e80ff9c	0.25195014
224	0x3ed63d60	0.418437
225	0x3ea6dc56	0.32589978
226	0x3e812ef8	0.25231147
227	0x3e6df90b	0.23239534
228	0x3e8cfc0b	0.27536044
229	0x3e94d729	0.29070404
230	0x3e941871	0.28924897
231	0x3ea16e36	0.31529397
232	0x3e8ec436	0.27884072
233	0x3ea13395	0.31484666
234	0x3eb076b8	0.34465575
235	0x3e6dc22b	0.232186
236	0x3e9dd40d	0.30825844
237	0x3eaff6aa	0.34367877
238	0x3eb29f1c	0.34887016
239	0x3eab28c8	0.3342955
240	0x3ec3542b	0.38150153
241	0x3e9f449b	0.3110703
242	0x3eb77bd0	0.3583665
243	0x3e8e939e	0.27846998
244	0x3e8f6151	0.28003934
245	0x3ec40334	0.38283694
246	0x3e9b4837	0.30328533
247	0x3e95edde	0.2928304
248	0x3eaa6a4b	0.3328422
249	0x3e4617a4	0.19344956
250	0x3e8016be	0.2501735
251	0x3e9a5809	0.3014529
252	0x3e9c10fd	0.3048171
253	0x3eb2eca0	0.34946156
254	0x3e849020	0.2589121
255	0x3ea290a7	0.31750986

network.4.weight f4 [128, 256]
0	0x3b5c5252	0.0033618403
1	0xbd0798c8	-0.033104688
2	0x3bf44525	0.0074545317
3	0x3c62500a	0.013813028
4	0x3cd39e70	0.025832385
5	0xbca33a92	-0.01992539
6	0xbacd8836	-0.0015680853
7	0xbcee0a89	-0.029057758
8	0x3d2720f0	0.040802896
9	0x3d90b5dc	0.07065937
10	0xbc4b9447	-0.012425489
11	0xbceeec66	-0.029165458
12	0x3a8d4c19	0.0010780125
13	0xbc8cb65c	-0.0171768
14	0x39159470	0.00014265045
15	0xbd491213	-0.049089503
16	0x3d58da41	0.05294252
17	0x3c2b35a2	0.010449799
18	0xbd431801	-0.047630314
19	0xbc0ca005	-0.0085830735
20	0xbd0f91e5	-0.035051245
21	0x3a994eff	0.0011696516
22	0x3d1b144d	0.037861157
23	0xbd275673	-0.04085393
24	0x3c5a5eb8	0.013328247
25	0xbb41e074	-0.0029583247
26	0xbd47414b	-0.048646253
27	0x3cc2fbde	0.02380174
28	0x3cd4cc6e	0.025976386
29	0x3d867b5e	0.06566499
30	0xbd8418e0	-0.06450057
31	0xbca1dbd5	-0.019758144
32	0xbaf62fbb	-0.0018782535
33	0xbc768d1c	-0.0150482915
34	0xbcb3a08c	-0.02192714
35	0xbd4b1ff6	-0.049591027
36	0xbd3cb1e4	-0.046068087
37	0xbd5948c1	-0.0530479
38	0xbc9da8aa	-0.019245464
39	0x3d5e66e7	0.054297354
40	0xbce20d50	-0.027594239
41	0x3cd9371a	0.026515532
42	0xbd657eff	-0.056029316
43	0x3cdd18dc	0.026989393
44	0xbc8aabcc	-0.016927622
45	0xbd6367c1	-0.05551887
46	0xbaf73ae6	-0.0018862158
47	0x3d38131f	0.04494011
48	0x3cd0b2d1	0.025475891
49	0x3d0d1a3d	0.03444885
50	0x3d460bf4	0.048351243
51	0x3b9697d2	0.004595735
52	0xbce0e0e9	-0.027450996
53	0x3d82eb41	0.06392527
54	0x3d892a08	0.0669747
55	0x3d07159a	0.032979585
56	0xbcaed7c2	-0.021343116
57	0x3af90e42	0.0019001442
58	0xbc95b89a	-0.018276501
59	0x3cd2808d	0.025696063
60	0xbd415a36	-0.047205172
61	0x3d3ebeee	0.046568803
62	0x38f21416	0.000115432005
63	0x3d0f24e8	0.034947306
64	0xbd1e563e	-0.038656466
65	0xbd014d3c	-0.031567797
66	0x3d7b0203	0.061281215
67	0xbc34c90c	-0.011034261
68	0x3cd47498	0.025934502
69	0x3c0468c0	0.008081615
70	0xbcba9482	-0.022775892
71	0x3d7e7403	0.062122356
72	0x3c525ce3	0.012839529
73	0x3d0f57a8	0.034995705
74	0x3d2afbd8	0.041744083
75	0x3c7ba179	0.015358322
76	0x3d2171c1	0.039415125
77	0xbd518284	-0.05114986
78	0xbcbc72ed	-0.02300402
79	0xbc563b69	-0.013075688
80	0x3c2d4d06	0.010577446
81	0xbca86305	-0.020555029
82	0xbc9f438e	-0.019441392
83	0x3c4ebd53	0.012618381
84	0xbd15bde1	-0.036558036
85	0x3c070b0c	0.00824238
86	0xba01d2b3	-0.0004952356
87	0xbd64304f	-0.055710133
88	0x3d8c6f7b	0.06857201
89	0xbd3df9ec	-0.046380922
90	0xbbb2876f	-0.005448274
91	0x3c8fb118	0.0175405
92	0xbb6cd70d	-0.0036138922
93	0xbc44d00a	-0.012012491
94	0x3d224dd5	0.039625008
95	0xbc2d3b43	-0.010573211
96	0x3d8b353e	0.067972645
97	0x3d2d24e6	0.042271517
98	0xbb9bfe41	-0.004760534
99	0x3d3f7f3e	0.046752207
100	0x3c4cd42b	0.012501757
101	0xbbcb7f88	-0.0062102713
102	0x3b6b9bc5	0.0035951
103	0x3d796391	0.06088597
104	0xbcc69ade	-0.024243768
105	0x3cda6e0c	0.026663803
106	0xb8256d6d	-3.9440976e-05
107	0x3d2a73fd	0.04161452
108	0x3d0ee0f1	0.03488249
109	0x3d49ca21	0.04926503
110	0xbd37ffb9	-0.04492161
111	0x3cce82f4	0.025208928
112	0x3c87074e	0.016482975
113	0x3d1b1d55	0.03786977
114	0x3c50ae26	0.012736833
115	0xbd8292c3	-0.06375649
116	0xbd17e9d9	-0.03708825
117	0xbc3fffca	-0.0117187
118	0x3cae8e34	0.021308042
119	0xbd5e8f7d	-0.05433606
120	0x3d97df0a	0.07415588
121	0x3ad22023	0.0016031306
122	0x3cedac4d	0.029012823
123	0xbd34739d	-0.04405557
124	0x3d24c63e	0.04022812
125	0xbd014955	-0.031564075
126	0x3d8abc33	0.067741774
127	0xbbeea709	-0.0072830957
128	0xbc067e60	-0.008208841
129	0x3ca9102f	0.0206376
130	0x3d60c3b9	0.054874156
131	0x3d833ba6	0.064078614
132	0x3c4de72f	0.0125673255
133	0x3cf2f9dd	0.02966016
134	0x3c15d022	0.009143861
135	0xbd4b4277	-0.049623933
136	0xbcaf0d04	-0.021368511
137	0xbd6a402f	-0.057190116
138	0xbc2f27db	-0.010690655
139	0xbd3feff6	-0.046859704
140	0x3b84a766	0.0040482758
141	0x3cd2fde6	0.025755834
142	0x3cfb672a	0.03068884
143	0x3ced7eab	0.028991064
144	0xbd547fd1	-0.051879708
145	0xbd1a0078	-0.037598103
146	0x3bb11280	0.0054038167
147	0x3d506bec	0.050884172
148	0xb6d55d38	-6.3587468e-06
149	0xbd6d5a33	-0.05794735
150	0x3d10afe4	0.035323992
151	0xbd1dcdd4	-0.03852637
152	0xbd159f0e	-0.03652864
153	0x3d45bf03	0.048277866
154	0x3d5c5e04	0.053800598
155	0xbcef6f84	-0.02922798
156	0x3a91b8f0	0.0011117738
157	0xbcaf5bae	-0.021406021
158	0x3bb77e05	0.0055997395
159	0xbc6a3f75	-0.014297356
160	0xbd1cdce8	-0.03829661
161	0x3d701dc3	0.058622133
162	0xbbcb6191	-0.006206699
163	0x3c65654f	0.014001205
164	0xbd32c1ba	-0.043641783
165	0x3ca7bd95	0.020476142
166	0xbd6243e3	-0.055240523
167	0x3c9d1195	0.019173423
168	0x3b814e87	0.0039461288
169	0x3d33dd8b	0.04391245
170	0xbc7e62cd	-0.015526486
171	0x3c5278ef	0.012846216
172	0xbceff3d7	-0.029291077
173	0x3bc431da	0.005987388
174	0xbc21c68f	-0.009874
175	0x3c44bcb9	0.012007886
176	0xbc576485	-0.013146524
177	0xbd0ce94c	-0.034402177
178	0x3d438757	0.047736492
179	0xbd732ca6	-0.059368752
180	0x3af282fe	0.0018502173
181	0x3d47625a	0.04867778
182	0x3d11b4e5	0.035572905
183	0x3d96bd53	0.073603295
184	0xbc132954	-0.008982021
185	0x3d225175	0.039628465
186	0xbd84fb68	-0.064932644
187	0xbcf19f89	-0.029495018
188	0x3d2e0c71	0.042492334
189	0xbd84359a	-0.06455536
190	0xbd0fe252	-0.035127945
191	0xbceb19c4	-0.02869881
192	0xbc24ab29	-0.010050573
193	0xbd0fcf68	-0.035109907
194	0xbd3dc608	-0.046331435
195	0x3d45b9ad	0.048272777
196	0xbd115fbd	-0.035491694
197	0xbd4516ca	-0.048117436
198	0xbd0a6ed4	-0.0337971
199	0xbc9ee184	-0.019394644
200	0xbd51146a	-0.05104486
201	0xbd7de330	-0.06198424
202	0xbd4b1d4b	-0.049588483
203	0x3d49a3d4	0.049228504
204	0x3cf371dc	0.029717378
205	0xbcb2e80a	-0.02183916
206	0xbc4f34b7	-0.012646846
207	0x3c29c6cf	0.010362341
208	0x3d8438a9	0.064561196
209	0xbcb81140	-0.022469163
210	0xbcf0f14e	-0.029411938
211	0xbce6f47d	-0.028192753
212	0x3d164c15	0.03669365
213	0xbd4c33ef	-0.049854215
214	0x3d56350d	0.052296687
215	0x3c5163d3	0.012780148
216	0x3d1ced57	0.038312282
217	0xbcfaf26b	-0.030633172
218	0xbc84428d	-0.016145015
219	0x3c94a7f0	0.018146485
220	0x3b2e0b97	0.00265572
221	0xbd08c0e2	-0.033387072
222	0xbc93542a	-0.017984468
223	0xbd0bb0f7	-0.034104314
224	0xbc2d3282	-0.010571124
225	0xbd3cd39c	-0.046100244
226	0x3d2d86d9	0.04236493
227	0xbd5d801f	-0.054077264
228	0x3cf06942	0.029347066
229	0x3c93fa0b	0.018063566
230	0xbd6ba8cb	-0.05753402
231	0x3c98e123	0.018662041
232	0x3d17c66e	0.03705447
233	0xbd013572	-0.03154511
234	0xbc94fb9f	-0.018186389
235	0x3d67ea9d	0.05662023
236	0x3c5ecf23	0.01359919
237	0xbccad184	-0.024758108
238	0x3cc1aa82	0.023640875
239	0x3d0bf689	0.03417066
240	0xbd4d8b7f	-0.050181862
241	0x3d200387	0.039065864
242	0xbc74cfc9	-0.014942118
243	0xbae4df8e	-0.0017461644
244	0xbd9662e4	-0.07343081
245	0x3c644890	0.013933316
246	0xbd10ebae	-0.03538101
247	0x3d9643e7	0.0733717
248	0xbd48c3e2	-0.049014933
249	0x3c70e181	0.014702202
250	0x3bc661fe	0.006054162
251	0xba324fac	-0.0006802033
252	0xbd23cd09	-0.03999046
253	0x3d0ef2e7	0.03489962
254	0xbd705ce0	-0.058682323
255	0xbcb4d70f	-0.022075204
