log_reg/models/tree_stem_failure_simple_best.pth (torch, 396510 bytes, 13 tensors)

network.0.weight f4 [64, 176]
0	0xbd60ef9a	-0.054916
1	0xbb14799e	-0.0022655497
2	0x3d387c71	0.04504055
3	0xbc8cdef4	-0.017196156
4	0xbd734034	-0.0593874
5	0x3c175efd	0.009238956
6	0x38efe251	0.00011438563
7	0xbcc1aca1	-0.023641886
8	0x3d1139c2	0.035455473
9	0xbb9d2c80	-0.0047965646
10	0xbda2ed5d	-0.0795543
11	0xbd420b03	-0.047373783
12	0xbd10e733	-0.03537674
13	0xbc7a0acb	-0.015261362
14	0xbd9a5987	-0.07536607
15	0x3d15150a	0.036397018
16	0xbc482d60	-0.0122178495
17	0xbd689a0e	-0.056787543
18	0xbcc4975f	-0.02399796
19	0xbbc4d740	-0.006007105
20	0xbcef3775	-0.029201249
21	0x3c5e491b	0.013567234
22	0xbd00d00b	-0.031448405
23	0x3b30aa72	0.0026957062
24	0xbd60c8f9	-0.054879162
25	0xbd60e2ad	-0.054903675
26	0xbce5a741	-0.028033854
27	0xb7184d5e	-9.0779195e-06
28	0x3a770bba	0.00094240496
29	0xbcc2105e	-0.023689445
30	0x3d85d37b	0.06534477
31	0x3c900a1e	0.01758295
32	0xbd33ec04	-0.043926254
33	0xbda0eb9d	-0.0785744
34	0x3c98a995	0.01863555
35	0xbc0607cd	-0.008180571
36	0xbd51a544	-0.051183
37	0x3c12911e	0.008945731
38	0x3d46d558	0.048543304
39	0x3d7f27da	0.062293865
40	0xbd36ff75	-0.044677217
41	0xbc41c59b	-0.011826898
42	0x3cdc9756	0.026927631
43	0x3bebaca9	0.0071922136
44	0xbd380797	-0.044929113
45	0x3d78fd53	0.060788464
46	0xb63a9b8b	-2.7806698e-06
47	0xb6ce98ae	-6.1570527e-06
48	0x3d965f3e	0.07342385
49	0x3beb4861	0.007180259
50	0xbb151e31	-0.0022753591
51	0xb8ecff5f	-0.000113009235
52	0x3c80febe	0.01574647
53	0xbc59f74a	-0.013303587
54	0xbdabbd24	-0.08385685
55	0x3c13d4bb	0.009022887
56	0xbd99c777	-0.07508748
57	0xbced99ca	-0.029003996
58	0xbcc36c17	-0.023855252
59	0xbda5c4d0	-0.0809418
60	0xbd01e213	-0.03170974
61	0xbc0bfe91	-0.00854458
62	0x3d143f2d	0.03619306
63	0xbce9dd1d	-0.028547818
64	0x3cda0f70	0.02661869
65	0x3d085495	0.03328379
66	0xbc43481d	-0.011919049
67	0xbca4e4e6	-0.020128679
68	0x3601c67a	1.9338027e-06
69	0xbb7fa638	-0.0039008986
70	0xbc646842	-0.013940873
71	0xbd51f56b	-0.05125944
72	0xbd9d5305	-0.0768185
73	0x3aba611b	0.0014219614
74	0x3c7dfd27	0.015502251
75	0x3d072f2c	0.03300397
76	0xb8fab977	-0.000119554745
77	0xbd7fe6c3	-0.06247593
78	0x3c822330	0.01588592
79	0xbd0d5bfe	-0.03451156
80	0xbcd99284	-0.026559122
81	0xbd2b28dd	-0.041787017
82	0xbd9d9bee	-0.07695757
83	0xbca450b0	-0.020058006
84	0x3c8c6cf8	0.017141804
85	0xbcd2bf8d	-0.025726104
86	0x3d621c0d	0.055202533
87	0xbad980e0	-0.0016594194
88	0xbd5b4b49	-0.053538594
89	0x3d2a20ac	0.041535065
90	0x3c82bd50	0.015959412
91	0xbc887c7a	-0.016660918
92	0x3d268065	0.04064979
93	0xbce8dfc1	-0.028427007
94	0xbbe12866	-0.006871271
95	0xbcfa545c	-0.030557804
96	0xbd744fec	-0.059646532
97	0x3d4e3232	0.05034084
98	0xbd27d827	-0.040977623
99	0xbd3e03a3	-0.046390187
100	0xbc49864b	-0.012300084
101	0xbd800070	-0.062500834
102	0x3d170f67	0.036879923
103	0xbd189b25	-0.037257332
104	0xbc00ba5c	-0.007856932
105	0xbccc8f4e	-0.024970677
106	0xbcdaeaf3	-0.02672336
107	0xbdcb2451	-0.09919036
108	0xbbbae7f9	-0.005703923
109	0xb51192c2	-5.423027e-07
110	0xbd11cfdc	-0.03559862
111	0xbcd01679	-0.02540134
112	0xbd3b1e20	-0.045683026
113	0xbb2c29a9	-0.0026269949
114	0xbd69d067	-0.057083514
115	0x3d9eb927	0.07750159
116	0x3d341141	0.043961767
117	0xbc1d8c0a	-0.009615907
118	0xbd5e8651	-0.054327313
119	0x3d9d5eee	0.07684122
120	0x3ce7cc6e	0.028295722
121	0xbd0b0766	-0.033942603
122	0x3d1d8d10	0.038464606
123	0x3cae2d2f	0.02126178
124	0xbd2ab070	-0.04167217
125	0x3ce70a43	0.028203135
126	0x3c697304	0.014248613
127	0xbd24a9b9	-0.040200923
128	0x3d5534fc	0.052052483
129	0x3d680c12	0.056652136
130	0xbcbdf923	-0.023190087
131	0xb88837f8	-6.49541e-05
132	0xbd933f0a	-0.07189758
133	0x3d435939	0.04769251
134	0x3b53aab3	0.003229779
135	0xbdd7d36e	-0.10538374
136	0xbd21b256	-0.039476715
137	0x3773b05a	1.4524989e-05
138	0x3d87656e	0.06611143
139	0x3b7ee416	0.0038893274
140	0xbd1fc62b	-0.039007347
141	0xbc1c3b5c	-0.009535637
142	0x3c9f3f5b	0.01943939
143	0x3d800f3f	0.06252908
144	0xbd64310b	-0.055710834
145	0xbc5ed471	-0.013600455
146	0xbd327ad2	-0.04357416
147	0xba24edb7	-0.0006291526
148	0x3d22536a	0.03963033
149	0xb803caf7	-3.142186e-05
150	0x3d45903b	0.048233252
151	0xbd4f5165	-0.050614733
152	0xbc92eb8a	-0.01793458
153	0xbce24edb	-0.027625492
154	0xbd33111b	-0.043717485
155	0x3d0fda71	0.03512043
156	0x3d343abc	0.044001326
157	0xbc9a0d1e	-0.018805083
158	0x3c82420a	0.01590063
159	0x3d0f3134	0.034959033
160	0x3d518143	0.051148664
161	0xbc70a19d	-0.014686969
162	0x3c0ace82	0.008472087
163	0x3cb62acd	0.022237206
164	0x3d54a9fd	0.051919926
165	0xbd2e6bb8	-0.042583197
166	0x32ab00d0	1.990739e-08
167	0xbd49bcf6	-0.049252473
168	0x3c0f1849	0.008733817
169	0xbc0a67b5	-0.008447577
170	0x3c2ea28a	0.0106588695
171	0x3d19abf8	0.037517518
172	0x3d242977	0.040078606
173	0x3bcd9386	0.0062736897
174	0xbda9ee96	-0.0829746
175	0xbcbee5f6	-0.023303013
176	0xbd3fcacb	-0.046824258
177	0xbd63129a	-0.05543766
178	0x3d75e4eb	0.060032766
179	0x3d8b300d	0.06796274
180	0xbd3667c9	-0.04453257
181	0x3d7264c3	0.059178125
182	0xb68f8ef8	-4.278376e-06
183	0xbd0ba431	-0.034092132
184	0x3d07c2f6	0.033144914
185	0x3bc0c221	0.005882517
186	0xbda05c96	-0.07830159
187	0x3d88d489	0.06681163
188	0xbbdcd661	-0.006739423
189	0xbd12633b	-0.035739165
190	0x3be4c378	0.0069813095
191	0x3c0a60f0	0.008445963
192	0x3d29e45a	0.04147754
193	0x3bd94d6b	0.0066315434
194	0xbc9a69e3	-0.018849319
195	0x3d9bf68e	0.07615386
196	0x3cbb25f9	0.022845255
197	0x3d768856	0.060188614
198	0xbc8d0c95	-0.017217914
199	0x3d5884b9	0.05286095
200	0x3d51e3fe	0.05124282
201	0xbd8ebf54	-0.06970087
202	0xbd9f7db8	-0.07787651
203	0x387ab008	5.9768587e-05
204	0xbc41508b	-0.011798988
205	0xbd6dd204	-0.058061615
206	0x3cf05242	0.029336099
207	0x3cb66c39	0.022268401
208	0xbdb88fbb	-0.090117894
209	0x3cce6ff5	0.02519987
210	0x3cdd9da1	0.027052702
211	0x3c8382ec	0.01605364
212	0x3d3691c2	0.0445726
213	0xbd4b4855	-0.049629528
214	0xbc06fb6b	-0.008238654
215	0x3d0ad2a4	0.03389229
216	0x3bc5678f	0.006024308
217	0xbd5337e2	-0.051566966
218	0xbbd65603	-0.006541015
219	0x3c0f32bb	0.008740122
220	0xbd94c29e	-0.07263683
221	0xbdad0d09	-0.08449752
222	0xb8068bd8	-3.207833e-05
223	0xb7e48234	-2.7240349e-05
224	0x3d6d25f8	0.057897538
225	0x3d04e7d1	0.03244764
226	0xbc659d4b	-0.014014552
227	0xb752f0af	-1.2573014e-05
228	0x3d11de83	0.035612594
229	0xbcb26659	-0.021777319
230	0x3d7ad2dd	0.06123625
231	0x3d11bfd7	0.035583343
232	0x3b465c3f	0.0030267385
233	0xbd097df2	-0.033567376
234	0x3cbebd26	0.023283552
235	0x3bce5cfa	0.0062977048
236	0x3c31f914	0.0108626075
237	0x3d1017d3	0.03517897
238	0x3cbfda34	0.023419477
239	0xbd47c71e	-0.048773877
240	0x3d25169b	0.04030476
241	0x3c9e987b	0.019359818
242	0xbce4e60e	-0.02794173
243	0x3d547ac2	0.051874883
244	0xb6383899	-2.745108e-06
245	0x3d3929e1	0.045205954
246	0x3cac1ae8	0.021008924
247	0x3a90088d	0.0010988876
248	0xbd595b3f	-0.053065535
249	0x3d387fea	0.045043863
250	0x37d6a15c	2.5585927e-05
251	0xbd6c0be0	-0.057628512
252	0x36e3fadd	6.7943315e-06
253	0xbd0b183d	-0.033958662
254	0x3d28fafb	0.04125498
255	0x3d3e8390	0.046512187

network.0.bias f4 [64]
0	0x366b2ef8	3.5045068e-06
1	0x37446955	1.1707035e-05
2	0xb7c5fb4e	-2.3601253e-05
3	0xb798cc35	-1.8214903e-05
4	0xb71eacdb	-9.45778e-06
5	0x38bd600c	9.0301124e-05
6	0x3814489f	3.5353583e-05
7	0xb8098e22	-3.2795717e-05
8	0xb7895a0e	-1.6373608e-05
9	0xb90c7655	-0.00013395523
10	0x388e9f3c	6.800747e-05
11	0xb5cab58c	-1.510301e-06
12	0x38d36f8d	0.00010082042
13	0x3725ee6a	9.8902765e-06
14	0xb7e94336	-2.7807062e-05
15	0x37a60e25	1.9795329e-05
16	0x37659114	1.3683242e-05
17	0x376d401c	1.4141227e-05
18	0xb9b7ae02	-0.00035034126
19	0xb835a918	-4.3311244e-05
20	0x392e2171	0.00016606391
21	0x3800c67e	3.070244e-05
22	0xb7fa0693	-2.9805384e-05
23	0x37a9e89a	2.0254683e-05
24	0x3819881e	3.660481e-05
25	0xb8295b0e	-4.037754e-05
26	0x364eace4	3.0797028e-06
27	0xba290124	-0.00064470083
28	0x36b4ba62	5.386116e-06
29	0xb8f6dfd6	-0.00011771887
30	0xb714cae8	-8.86873e-06
31	0xb6a47d6f	-4.9021833e-06
32	0x37bfed69	2.2879527e-05
33	0x394096d6	0.00018366738
34	0xb9202376	-0.00015272
35	0xb8288fbf	-4.0188195e-05
36	0x346dde00	2.2153108e-07
37	0x3606fa80	2.0113366e-06
38	0x38313dad	4.225753e-05
39	0xb88ae517	-6.623024e-05
40	0xb91c0def	-0.0001488251
41	0x381e851e	3.779411e-05
42	0xb4e5e140	-4.2818465e-07
43	0x39bc340b	0.0003589693
44	0x37f93b88	2.9710834e-05
45	0x38c6e763	9.484475e-05
46	0x3a3d924f	0.00072315795
47	0x383da088	4.5210618e-05
48	0x376383b0	1.3560915e-05
49	0x3887525a	6.452641e-05
50	0x3848d5b6	4.788275e-05
51	0x375e9922	1.3267885e-05
52	0xb87fe0e0	-6.100617e-05
53	0x383db0e9	4.5225872e-05
54	0xb8b7affa	-8.758898e-05
55	0x37783782	1.4794876e-05
56	0x386b1e91	5.6056833e-05
57	0x35d5fa50	1.5942587e-06
58	0xb8621012	-5.3897566e-05
59	0x3445efa0	1.843423e-07
60	0xb73ac4cf	-1.1132287e-05
61	0xb7b21669	-2.1229689e-05
62	0x37cb32fb	2.4223225e-05
63	0xb79056c1	-1.7206536e-05

network.1.weight f4 [64]
0	0x3f838e84	1.0277867
1	0x3f778f10	0.9670267
2	0x3f77a3d3	0.9673435
3	0x3f7654c9	0.9622312
4	0x3f7cd411	0.9876109
5	0x3f85f50a	1.0465405
6	0x3f880129	1.0625354
7	0x3f76873a	0.9630009
8	0x3f7695c6	0.96322286
9	0x3f8369c5	1.0266653
10	0x3f7e2a29	0.9928308
11	0x3f7f7f11	0.9980326
12	0x3f7f18ad	0.9964703
13	0x3f7f8790	0.99816227
14	0x3f82808b	1.0195478
15	0x3f7e1350	0.9924822
16	0x3f7b09d0	0.9806185
17	0x3f7a8cae	0.9787091
18	0x3f7c3280	0.98514557
19	0x3f8021cb	1.0010313
20	0x3f80682c	1.0031791
21	0x3f79cb48	0.9757581
22	0x3f78ca73	0.97183913
23	0x3f7c46c7	0.985455
24	0x3f7de075	0.9917062
25	0x3f816497	1.0108823
26	0x3f796c21	0.97430617
27	0x3f7ab9fc	0.9794004
28	0x3f7898bc	0.97108054
29	0x3f78e6f7	0.97227424
30	0x3f75c908	0.96009874
31	0x3f7b0db8	0.9806781
32	0x3f7a2446	0.977116
33	0x3f81a07f	1.0127105
34	0x3f85d908	1.0456858
35	0x3f8785b6	1.058768
36	0x3f8651d8	1.0493727
37	0x3f7aa83e	0.9791297
38	0x3f852db5	1.0404574
39	0x3f7e269f	0.9927768
40	0x3f7d7a58	0.99014807
41	0x3f7d0026	0.9882835
42	0x3f76f6ee	0.96470535
43	0x3f77cd6d	0.9679783
44	0x3f847a32	1.0349791
45	0x3f7a61e1	0.978056
46	0x3f7751d3	0.9660923
47	0x3f7dfca6	0.99213636
48	0x3f7f83a5	0.9981025
49	0x3f7fafcc	0.9987762
50	0x3f81f077	1.0151509
51	0x3f805e58	1.0028791
52	0x3f806732	1.0031493
53	0x3f85953d	1.0436169
54	0x3f83c0ea	1.0293248
55	0x3f75ce76	0.9601816
56	0x3f7932bc	0.9734304
57	0x3f83afc5	1.0288016
58	0x3f815186	1.0103004
59	0x3f7c4789	0.98546654
60	0x3f7db23c	0.9910009
61	0x3f854af8	1.0413504
62	0x3f8277d7	1.0192822
63	0x3f7ea3f4	0.9946892

network.1.bias f4 [64]
0	0x3d092a5e	0.03348767
1	0xbc8bd48e	-0.017069127
2	0xbd16570e	-0.036704116
3	0xbcada802	-0.021198276
4	0x3a2ddb60	0.00066321157
5	0x3cfc9216	0.030831378
6	0x3d549f24	0.05190958
7	0xbcefb5b1	-0.029261442
8	0xbcbdc43d	-0.023164863
9	0x3ca5462d	0.020175064
10	0xbc3a531b	-0.011372353
11	0x3c19db2d	0.0093906345
12	0xbc46dd13	-0.012137669
13	0xbc3193cd	-0.010838461
14	0x3cdb8f14	0.026801623
15	0x3c00a57e	0.007851956
16	0xbcd759d8	-0.026287958
17	0xbb0abbf4	-0.0021169158
18	0xbcbeaf50	-0.023276955
19	0x3bb6d92d	0.0055800886
20	0x3b90869b	0.0044105775
21	0xbcb9ff00	-0.022704601
22	0xbbb4032c	-0.005493542
23	0xbcfd1752	-0.030894909
24	0x3bf459c8	0.007456992
25	0xbc0ae79b	-0.008478071
26	0xbc82bfc2	-0.015960578
27	0xbd0404b6	-0.032231055
28	0xbb763d4a	-0.0037573152
29	0xbc8674c4	-0.0164131
30	0xbcf35b89	-0.029706733
31	0xbcbe732e	-0.023248281
32	0xbc813466	-0.015772056
33	0x3cb95de9	0.022627788
34	0x3d1220f3	0.035675954
35	0x3cecff11	0.028930219
36	0x3ced77cf	0.028987793
37	0xbcb4003b	-0.021972766
38	0x3c99e39e	0.018785294
39	0xbb7a5676	-0.0038198507
40	0xbc30c944	-0.010790173
41	0xbb1821f3	-0.0023213595
42	0xbcc1f89d	-0.023678118
43	0xbc968f6d	-0.018378938
44	0x3c6d6d64	0.014491413
45	0xbc9e03a4	-0.019288845
46	0xbcd47c7e	-0.025938269
47	0xbc37d72b	-0.011220734
48	0xbba87738	-0.005141165
49	0xbadce61b	-0.0016853245
50	0xbcb765fc	-0.022387497
51	0x3bdef882	0.006804527
52	0xbc4a2cc3	-0.012339774
53	0x3cd3a591	0.025835784
54	0xbbba5376	-0.005686219
55	0xbce08e42	-0.027411584
56	0xbcb0740a	-0.021539707
57	0x3cdf7c64	0.027280994
58	0x3d4372a1	0.04771674
59	0xbc2fcfae	-0.010730667
60	0xbc75e993	-0.015009302
61	0x3d0137b8	0.03154728
62	0x3c831638	0.016001806
63	0x3c4e30aa	0.012584845

network.1.running_mean f4 [64]
0	0x3bd0857d	0.0063635693
1	0x3c028742	0.007966818
2	0xba2dfc4c	-0.00066370214
3	0x3c3cd871	0.011526213
4	0x3c0eb28b	0.00870956
5	0xbb27acdc	-0.002558521
6	0xbb8e7d99	-0.0043484685
7	0x3bf193e2	0.0073723653
8	0xbbeb1c39	-0.0071749953
9	0xbb2d5ba4	-0.0026452327
10	0x3c27485e	0.010210125
11	0x3b05f630	0.0020440929
12	0xbbf9adde	-0.0076196035
13	0xbbc3d9cd	-0.0059768916
14	0x3a79771d	0.00095163455
15	0xbba2d2ae	-0.0049689626
16	0x3bce812e	0.0063020205
17	0xbc0aefb2	-0.008479999
18	0x3bc484c5	0.0059972727
19	0x3a6d5168	0.0009052963
20	0x3b9f0e75	0.0048540183
21	0x3c7b9cf9	0.015357249
22	0xbb95fdbd	-0.004577367
23	0xbb2eeedc	-0.0026692664
24	0x3bb09761	0.0053891395
25	0xbc02d8a7	-0.007986224
26	0xbc19cc4d	-0.009387088
27	0x3b4d9595	0.0031369675
28	0x3c929aa4	0.017896004
29	0xbac04a4b	-0.0014670579
30	0xbbe78482	-0.0070653567
31	0x3c4305e9	0.011903265
32	0x3aa236cd	0.0012375951
33	0xbc06a1d3	-0.008217293
34	0xbbadc6f7	-0.0053032595
35	0x3b9377e3	0.0045003756
36	0xbbd1ec12	-0.0064063156
37	0x3b237b61	0.0024945366
38	0xbb552f18	-0.003252929
39	0xbc7d7667	-0.015470124
40	0xbc45fd7b	-0.01208436
41	0x3b95af1b	0.0045679933
42	0x3c0c7bfb	0.008574481
43	0xbc1490a7	-0.009067691
44	0x3c1c0bb0	0.009524271
45	0x3c7fbd7e	0.015609143
46	0x3bee56aa	0.0072735148
47	0xbb3c8abb	-0.0028769213
48	0xbb82099f	-0.003968432
49	0x3b441465	0.0029919383
50	0x3c731e17	0.014838717
51	0x3bbe1e27	0.0058019343
52	0xb92d816e	-0.00016546782
53	0x3bb70db7	0.0055863517
54	0xb9df796f	-0.0004262435
55	0xbbdf14b0	-0.006807886
56	0xb9a0fdb3	-0.000307066
57	0xbbb84b3f	-0.0056242044
58	0xbbd03067	-0.0063534263
59	0x3b5cda44	0.0033699432
60	0x3c065f9a	0.008201504
61	0x3bd02ace	0.006352759
62	0x3bd9882d	0.006638548
63	0x3bdd6d68	0.006757427

network.1.running_var f4 [64]
0	0x3e9b0c55	0.30282846
1	0x3ea6c7dd	0.3257436
2	0x3e9a7f20	0.30175114
3	0x3ed6026e	0.4179873
4	0x3ebdad7b	0.37046418
5	0x3ec09b2a	0.3761838
6	0x3e88f848	0.26751924
7	0x3ead7ce9	0.3388436
8	0x3ebaed4d	0.3650917
9	0x3ebedf9d	0.37279978
10	0x3ea4d19d	0.32191172
11	0x3eacfdf6	0.33787507
12	0x3ea4db37	0.32198498
13	0x3eabd5c5	0.3356153
14	0x3eee2387	0.4651148
15	0x3e9f8a79	0.31160334
16	0x3ec183f0	0.37795973
17	0x3ec457f2	0.38348347
18	0x3eaeebbc	0.34164226
19	0x3ea71153	0.32630405
20	0x3eca067d	0.39458075
21	0x3e97f6dd	0.2968053
22	0x3eaa1ba9	0.33224228
23	0x3ee062f5	0.43825498
24	0x3ef60781	0.480526
25	0x3e94afa6	0.2904026
26	0x3eaa4d23	0.33261976
27	0x3eb8a3ac	0.36062372
28	0x3edc8519	0.43070295
29	0x3e965a4f	0.29365775
30	0x3ebabf3b	0.36474022
31	0x3ebbbdd9	0.3666828
32	0x3eaab3d6	0.3334033
33	0x3eb35ccd	0.3503174
34	0x3e80df9f	0.2517061
35	0x3e79caa2	0.24393705
36	0x3e93c8f5	0.28864256
37	0x3eaa3789	0.33245495
38	0x3ebf44bf	0.37357137
39	0x3ec0793c	0.37592494
40	0x3e9f0e02	0.31065375
41	0x3e73d41b	0.2381138
42	0x3ed82415	0.42215028
43	0x3ebd6979	0.36994532
44	0x3ebcd6ca	0.3688262
45	0x3eae2f91	0.34020665
46	0x3ea15117	0.3150718
47	0x3e992b17	0.29915687
48	0x3ea3f029	0.32019165
49	0x3ebfb3a1	0.37441733
50	0x3e8f0d4a	0.27939826
51	0x3ed77d37	0.4208772
52	0x3e98f419	0.29873732
53	0x3e9be6d3	0.30449542
54	0x3ee42edb	0.44566998
55	0x3e8c2c07	0.2737734
56	0x3eaa0a46	0.33210963
57	0x3eb9810b	0.36231264
58	0x3eb38a52	0.35066468
59	0x3ea6be40	0.32567024
60	0x3eb7e6e6	0.3591835
61	0x3edf5861	0.43622115
62	0x3ebaed94	0.36509383
63	0x3eb1d4b4	0.34732592

network.4.weight f4 [32, 64]
0	0x3d911006	0.07083134
1	0x3dbb0fc0	0.091338634
2	0xbdf10c07	-0.11769872
3	0xbd67c7a0	-0.05658686
4	0x3d829000	0.06375122
5	0xbe091cc7	-0.13389884
6	0x3e064ebf	0.13115977
7	0xbe0463f9	-0.12928762
8	0x3dbe969f	0.093060724
9	0x3d829c34	0.0637745
10	0x3ba8c171	0.005150013
11	0xbc748cfe	-0.014926193
12	0xbd8c12c0	-0.06839514
13	0xbd7c9b0c	-0.0616713
14	0xbc69d0ca	-0.014270971
15	0x3cfee8c1	0.031116845
16	0xbdc9beff	-0.09850883
17	0x3d208aae	0.039194755
18	0x3e227c67	0.15867768
19	0x3d1f4331	0.038882438
20	0xbd88311d	-0.066499926
21	0x3d97bb58	0.0740878
22	0xbd34188e	-0.04396873
23	0x3df239c0	0.11827421
24	0x3df5a34d	0.11994038
25	0xbb1e4a96	-0.0024153343
26	0x3d7e85a8	0.062139183
27	0x3d5ef1cb	0.05442981
28	0x3b2cf776	0.0026392615
29	0x3c0b3e81	0.008498789
30	0x3da56ac4	0.080770046
31	0x3c9ddbc4	0.019269831
32	0xbdc7bda1	-0.09752966
33	0x3d97e47e	0.07416628
34	0xbd5391c4	-0.051652685
35	0xbcd169ad	-0.025563085
36	0x3e13059a	0.14357606
37	0xbdfe55aa	-0.12418683
38	0xbd14c9b0	-0.036325157
39	0x3c395e05	0.01131392
40	0xbc77d87a	-0.015127296
41	0x3db59d6e	0.08867918
42	0xbd5cad2f	-0.0538761
43	0xbc82fa39	-0.015988456
44	0xbd23cbad	-0.039989162
45	0xbdb03033	-0.08602943
46	0x3d4ee1b8	0.05050823
47	0xbd5bcb1f	-0.05366051
48	0x3d59c98c	0.053170726
49	0xbd763c79	-0.060116265
50	0x3d7d350d	0.06181817
51	0x3e10cdd2	0.14141014
52	0xbd8e0623	-0.06934764
53	0xbd9628ce	-0.073320016
54	0x394ef150	0.00019735587
55	0xbdfc7e11	-0.12328733
56	0xbd2f6c4e	-0.042827897
57	0xbd63242f	-0.05545443
58	0xbd01872f	-0.03162306
59	0x3dc16d85	0.09444717
60	0xbd18089e	-0.037117593
61	0xbcf48864	-0.029850192
62	0x3d4902e3	0.04907502
63	0xbd777968	-0.060418516
64	0xbca9788f	-0.02068737
65	0x3d874ea7	0.066067986
66	0xbd1c08ab	-0.038094204
67	0x3daa1a28	0.0830577
68	0x3db7d262	0.08975674
69	0x3dd3945a	0.1033103
70	0xbdfef938	-0.124498785
71	0x3db45f21	0.08807207
72	0x3d601c90	0.05471474
73	0xbdab77d9	-0.083724685
74	0xbdcf634f	-0.101263635
75	0x3cb14d69	0.021643357
76	0x383d80f8	4.5181223e-05
77	0xbe0fd786	-0.1404706
78	0xbd026c42	-0.031841524
79	0xbdce0646	-0.1005979
80	0x3cc47b15	0.023984471
81	0xbcc6c163	-0.024262136
82	0x3d55c3d0	0.052188694
83	0xbdcb2532	-0.09919204
84	0x3ce73c91	0.028227123
85	0x3d85e59f	0.065379374
86	0xbd1001aa	-0.035157837
87	0xbdcd0aba	-0.100118116
88	0x3d420ad4	0.047373608
89	0xbd992f55	-0.07479731
90	0xbabb7edf	-0.0014304778
91	0xbdd4ab20	-0.10384202
92	0x3b8ae578	0.0042387806
93	0x3cba2d41	0.022726657
94	0xbcf0448c	-0.02932956
95	0x3d0e0f29	0.034682427
96	0xbdd45a7c	-0.10368821
97	0xbdf615a1	-0.12015844
98	0xbbef71bf	-0.0073072608
99	0x3dca48fd	0.09877203
100	0xbd8e9078	-0.06961149
101	0x3de953cb	0.11392935
102	0x3e18af3a	0.14910594
103	0x3d58bfb2	0.05291719
104	0x3d3aff4c	0.045653626
105	0xbe0696b8	-0.13143432
106	0xbdb532c9	-0.08847577
107	0xbd176dab	-0.036969822
108	0x3d974c7a	0.073876336
109	0xbd76a2fa	-0.06021402
110	0x3ca12b25	0.019673893
111	0xbd67c073	-0.05658002
112	0xbd91c7bb	-0.07118174
113	0x3d100f33	0.035170745
114	0xbcedb1a6	-0.029015373
115	0xbd2ef0ef	-0.04271024
116	0x3dd1a7b3	0.10237064
117	0x3df222e7	0.11823063
118	0x3d8eb97d	0.06968973
119	0x3adde015	0.0016927744
120	0x3cd6fea4	0.026244469
121	0xbe001de5	-0.12511404
122	0xbd350113	-0.044190478
123	0xbdec4168	-0.11535913
124	0x3dc058c5	0.093919314
125	0xbd729973	-0.05922837
126	0xbdd592e1	-0.104284056
127	0xbd99a016	-0.07501237
128	0xbd70c827	-0.05878463
129	0xbe08c77f	-0.13357352
130	0xbd0daa50	-0.03458625
131	0x3d9a4019	0.07531757
132	0xbdd07739	-0.1017899
133	0x3da05f3b	0.07830664
134	0x3d78fc5d	0.060787547
135	0x3dbac67a	0.09119888
136	0xbd427bf2	-0.047481485
137	0xbcb579a2	-0.022152726
138	0x3d218995	0.03943785
139	0x3d342213	0.04397781
140	0x3d4334f8	0.047657937
141	0xbd830406	-0.06397252
142	0x3d862025	0.065491
143	0x3e0132bf	0.12617014
144	0x3b935ea5	0.0044973665
145	0x3dae4339	0.085089155
146	0x3de1b269	0.11020357
147	0xbcb7cbfe	-0.022436138
148	0xbbe86528	-0.007092137
149	0x3bd6326f	0.006536774
150	0xbdb96588	-0.09052569
151	0xbd71dc17	-0.059047785
152	0x3dd1fc77	0.10253232
153	0x3e026272	0.12732866
154	0xbdd6c1a9	-0.104861565
155	0xbd1f78ea	-0.038933672
156	0xbcd5c3f4	-0.026094414
157	0x3dc920b0	0.09820688
158	0x3d6eaef6	0.058272325
159	0xbcf66330	-0.030076593
160	0xbd357030	-0.044296443
161	0x3d7242e4	0.059145823
162	0x3d684f3f	0.0567162
163	0xbe02ac14	-0.12760955
164	0x3d91a33d	0.07111213
165	0x3daa267e	0.08308123
166	0xbdd968c5	-0.10615686
167	0xbd23f5c1	-0.04002929
168	0x3df94d39	0.12172932
169	0xbc4c665f	-0.012475579
170	0xbdcc0ce1	-0.09963394
171	0xbd3afc8a	-0.045650996
172	0xbd7a5d56	-0.06112417
173	0x3d4d05f5	0.05005451
174	0x3ca920b4	0.020645477
175	0xbd277f5d	-0.040892947
176	0xbb3edaee	-0.0029122191
177	0x3d003a16	0.031305395
178	0x3d3fa752	0.04679043
179	0xbd43785d	-0.04772221
180	0xbca40ab3	-0.020024633
181	0xbe200ab6	-0.15629086
182	0x3e0dc500	0.13844681
183	0xbc12aa0a	-0.008951673
184	0x3c93fdf2	0.018065426
185	0x3d834ee8	0.064115345
186	0x3e067a55	0.13132603
187	0x3d565709	0.052329097
188	0x3bded98a	0.006800835
189	0xbddb5d5d	-0.10711167
190	0xbd3285b3	-0.043584537
191	0x3dbc247d	0.09186647
192	0xbd0f4658	-0.034979194
193	0xbb967740	-0.0045918524
194	0xbc4735db	-0.012158836
195	0xbac505e9	-0.0015031669
196	0x3b81be8c	0.0039594825
197	0x3d56ccde	0.05244147
198	0x3cdcba1a	0.026944209
199	0x3de4563e	0.11149262
200	0xbe078f2d	-0.13238211
201	0xbe11d491	-0.14241244
202	0xbcdd0d58	-0.026983902
203	0xbe10aae4	-0.1412769
204	0xbdb64878	-0.08900541
205	0xbdc018e9	-0.09379751
206	0x3db2b0b5	0.087251104
207	0x3d5a6da4	0.053327218
208	0x3c82581a	0.01591115
209	0x3dd070df	0.101777785
210	0xbd00d03f	-0.0314486
211	0xbd82e2f2	-0.06390943
212	0xbc04f24e	-0.008114411
213	0xbd2b8ea3	-0.041884076
214	0x3d1bd538	0.038045138
215	0xbd314231	-0.043276016
216	0xbd6457d9	-0.05574784
217	0x3d286e26	0.04112067
218	0x3c116ff7	0.008876792
219	0xbd1334f8	-0.035939187
220	0x3cfd7de5	0.03094382
221	0xbcc8a64b	-0.024493357
222	0x3c191824	0.0093441345
223	0x3dbf272e	0.09333645
224	0xbd17fcd0	-0.037106335
225	0x3d217b2d	0.03942411
226	0xbc294e68	-0.010333635
227	0x3e0817fd	0.13290401
228	0xbd719a30	-0.058984935
229	0x3ddcde8a	0.107846335
230	0xba5b940c	-0.0008376248
231	0x3dac996d	0.08427701
232	0xbdcc4b37	-0.099752836
233	0xbe1cdb04	-0.15317923
234	0xbdb27c47	-0.0871511
235	0x3da1ad19	0.07894344
236	0xbc2b0f1f	-0.010440617
237	0x3dea230b	0.11432465
238	0xbcad1402	-0.021127705
239	0xbcb34f54	-0.021888413
240	0x3cdc9390	0.026925832
241	0xbd68aff6	-0.056808434
242	0x3d9261ad	0.071475364
243	0xbd4b6af9	-0.049662564
244	0x3e0f0ed7	0.13970505
245	0xbdb615db	-0.08890887
246	0xbe03cee1	-0.12871887
247	0x3cc73795	0.024318496
248	0x3db317ee	0.087447986
249	0xbe04403b	-0.12915127
250	0xbd6be42d	-0.057590652
251	0xbc83a9c3	-0.01607216
252	0x3df0922c	0.1174663
253	0x3dbd0a4c	0.092304796
254	0xbda8abbf	-0.08235883
255	0x3d7006c4	0.058600202

network.4.bias f4 [32]
0	0xbb4c2cb3	-0.0031154572
1	0xbb0d49ba	-0.0021558837
2	0xb79aec8d	-1.8468383e-05
3	0x35ab8d04	1.2781534e-06
4	0x3c00e8c1	0.007867993
5	0xbc8330e3	-0.016014522
6	0xbc7e7356	-0.015530428
7	0xb91b6f07	-0.00014823313
8	0xbc6533dc	-0.013989415
9	0x3925250c	0.00015749427
10	0x3a069475	0.0005133816
11	0x381628d7	3.5800822e-05
12	0xb6f974f2	-7.4343925e-06
13	0x39ae54a7	0.00033250937
14	0xb84e7c7c	-4.9230162e-05
15	0xb8909795	-6.8946894e-05
16	0x39003fcf	0.00012230802
17	0xbade1f68	-0.0016946616
18	0xbbf2f620	-0.0074145943
19	0x3c8b884b	0.017032763
20	0x3726dbbf	9.945535e-06
21	0xb70df731	-8.461809e-06
22	0x3689c476	4.1057892e-06
23	0x3baaf436	0.0052171005
24	0xb6560899	-3.189349e-06
25	0xbc44f9fa	-0.01202249
26	0xbadba1d3	-0.0016756601
27	0x3caad425	0.020853112
28	0x3ab7b71d	0.0014016364
29	0xb883e30a	-6.288856e-05
30	0x38973bee	7.211404e-05
31	0xb57ed3c4	-9.4930533e-07

network.5.weight f4 [32]
0	0x3f906587	1.1280984
1	0x3f888842	1.0666583
2	0x3f88d162	1.0688899
3	0x3f8249c1	1.0178758
4	0x3f8badf5	1.0912462
5	0x3f8f2f6b	1.1186346
6	0x3f858fff	1.0434569
7	0x3f8bb09b	1.0913271
8	0x3f89f224	1.077702
9	0x3f893409	1.0719005
10	0x3f8ffa8b	1.1248335
11	0x3f8b5265	1.088452
12	0x3f8affe5	1.0859343
13	0x3f866169	1.0498477
14	0x3f88af26	1.0678451
15	0x3f86e10c	1.0537429
16	0x3f8be960	1.0930595
17	0x3f874851	1.0568944
18	0x3f88f6fe	1.0700376
19	0x3f83029e	1.0235174
20	0x3f85b481	1.044571
21	0x3f85ddb7	1.0458287
22	0x3f88ae79	1.0678245
23	0x3f8af53a	1.0856087
24	0x3f8a17b7	1.0788487
25	0x3f8928fc	1.0715632
26	0x3f8c950e	1.0982988
27	0x3f80fb68	1.0076723
28	0x3f8b4018	1.0878935
29	0x3f836dec	1.026792
30	0x3f89cb95	1.0765253
31	0x3f891c7c	1.0711818

network.5.bias f4 [32]
0	0x3de28a23	0.11061504
1	0x3ca948bd	0.020664567
2	0x3d6de034	0.058075145
3	0xbae3f002	-0.0017390253
4	0x3d08b1a7	0.033372547
5	0x3dd4a35c	0.10382721
6	0x3bbd6f4f	0.0057810913
7	0x3d9f4111	0.07776082
8	0x3cd6953d	0.02619421
9	0x3da1cc15	0.07900254
10	0x3ddbb3c5	0.10727648
11	0x3da6fb98	0.081534564
12	0x3d9094af	0.07059609
13	0x3c99f93d	0.018795604
14	0x3d9266bb	0.071485005
15	0x3d314ab3	0.04328413
16	0x3db31328	0.08743888
17	0x3c8350d4	0.016029753
18	0x3c75c599	0.015000724
19	0x3ca8f2fa	0.020623673
20	0x3c3e0d15	0.011599799
21	0x3c1b66e1	0.009484977
22	0x3d4e0db7	0.05030605
23	0x3d98c618	0.074596584
24	0x3d7181ee	0.0589618
25	0x3cfb1882	0.030651335
26	0x3dc99ca9	0.09844334
27	0x3d02c6cd	0.031927872
28	0x3daa6afb	0.08321186
29	0xbc41c286	-0.011826163
30	0x3dbc12c1	0.091832645
31	0x3d8730bf	0.066010945

network.5.running_mean f4 [32]
0	0x3d7e0759	0.062018726
1	0xbe809e7b	-0.2512091
2	0x3e0d966b	0.13826911
3	0xbdb7f874	-0.089829355
4	0x3e6cb5b8	0.23116195
5	0xbdadc227	-0.08484297
6	0x3e970556	0.29496258
7	0xbe854eb0	-0.26036596
8	0xbe28d887	-0.16488849
9	0xbc141220	-0.009037524
10	0xbc14e21b	-0.009087111
11	0xbe30b0cf	-0.17254947
12	0xbdb019d7	-0.085986786
13	0xbd946291	-0.072453626
14	0xbde0a1c7	-0.109683566
15	0xbdd69681	-0.10477925
16	0xbd2a1d37	-0.041531768
17	0x3d3ecd99	0.046582792
18	0xbe662421	-0.2247472
19	0x3cd0b9f7	0.0254793
20	0x3cbb0a7b	0.022832146
21	0xbe7d3894	-0.24728614
22	0xbdd84784	-0.105605155
23	0xbdbac2d9	-0.091191955
24	0x3d799847	0.06093624
25	0x3e12c537	0.14333044
26	0xbd8ce9a1	-0.06880499
27	0x3e4dbd63	0.20091777
28	0x3de06183	0.10956099
29	0xbe099f01	-0.13439561
30	0x3da67d42	0.0812936
31	0x3b594c25	0.0033156958

network.5.running_var f4 [32]
0	0x3eeacd03	0.45859537
1	0x3f2c96ed	0.67417794
2	0x3eef6f64	0.46764672
3	0x3ef0a311	0.4699941
4	0x3f592301	0.84819037
5	0x3f24affe	0.6433104
6	0x3ee68136	0.45020455
7	0x3f0029ef	0.50063986
8	0x3f5cefd1	0.8630343
9	0x3f14fad3	0.5819523
10	0x3efe786f	0.4970126
11	0x3f1d1a80	0.6136856
12	0x3ecbc318	0.39797282
13	0x3f13aead	0.5768841
14	0x3f0bb372	0.54570687
15	0x3eec4502	0.461464
16	0x3f194ab1	0.59879595
17	0x3f22b3af	0.63555425
18	0x3f13cca3	0.57734126
19	0x3ebe686d	0.37189046
20	0x3f29ef5f	0.66380876
21	0x3f0f60ec	0.56007266
22	0x3f03f404	0.51544213
23	0x3f009e54	0.5024159
24	0x3f0e0404	0.5547488
25	0x3f54fc03	0.8319704
26	0x3f1c7be0	0.6112652
27	0x3e980db9	0.2969797
28	0x3f0d3596	0.5515989
29	0x3f04598b	0.5169913
30	0x3eeaf3ed	0.45889226
31	0x3ef1dbbb	0.47237954

network.8.weight f4 [1, 32]
0	0xbdb137df	-0.08653235
1	0x3e5c0973	0.2148798
2	0xbe4877f8	-0.19577014
3	0x3d80a55a	0.06281538
4	0x3e27b944	0.16379267
5	0xbdc4bc49	-0.09606225
6	0x3e0ed372	0.13947847
7	0xbe7fe9fe	-0.24991605
8	0x3e33cb1e	0.17557952
9	0xbe02b174	-0.12763005
10	0xbdccf385	-0.10007385
11	0xbe815a3e	-0.25264162
12	0xbe29ff5b	-0.16601317
13	0x3e1056e6	0.14095649
14	0xbe721d09	-0.23643889
15	0xbe3284a7	-0.17433415
16	0xbd6b21b4	-0.05740519
17	0x3e4b05a1	0.19826366
18	0x3e2ab4da	0.16670552
19	0xbd13a159	-0.036042545
20	0x3e5cf353	0.21577196
21	0x3dc9a31a	0.09845562
22	0xbd4c788e	-0.049919657
23	0xbe73146e	-0.23738262
24	0xbe37c175	-0.17944892
25	0x3e1f703e	0.15570161
26	0xbe79ffc2	-0.2441397
27	0xbdcd2265	-0.10016326
28	0xbe3ba2c3	-0.18323807
29	0x3e0264b6	0.1273373
30	0xbe66b8ac	-0.22531384
31	0xbe27cca8	-0.16386664
